<?xml version="1.0"?>
<net name="torch_jit" version="11">
	<layers>
		<layer id="0" name="image" type="Parameter" version="opset1">
			<data shape="1,3,640,640" element_type="f32" />
			<output>
				<port id="0" precision="FP32" names="image">
					<dim>1</dim>
					<dim>3</dim>
					<dim>640</dim>
					<dim>640</dim>
				</port>
			</output>
		</layer>
		<layer id="1" name="Constant_9493" type="Const" version="opset1">
			<data element_type="f32" shape="" offset="0" size="4" />
			<output>
				<port id="0" precision="FP32" />
			</output>
		</layer>
		<layer id="2" name="/nncf_module/Constant_152" type="Const" version="opset1">
			<data element_type="i64" shape="" offset="4" size="8" />
			<output>
				<port id="0" precision="I64" names="/nncf_module/Constant_152_output_0" />
			</output>
		</layer>
		<layer id="3" name="/nncf_module/Flatten_2" type="Const" version="opset1">
			<data element_type="f32" shape="76800, 4" offset="12" size="1228800" />
			<output>
				<port id="0" precision="FP32" names="/nncf_module/Flatten_2_output_0">
					<dim>76800</dim>
					<dim>4</dim>
				</port>
			</output>
		</layer>
		<layer id="4" name="Constant_10485" type="Const" version="opset1">
			<data element_type="f32" shape="1, 3, 1, 1" offset="1228812" size="12" />
			<output>
				<port id="0" precision="FP32">
					<dim>1</dim>
					<dim>3</dim>
					<dim>1</dim>
					<dim>1</dim>
				</port>
			</output>
		</layer>
		<layer id="5" name="Subtract_10486" type="Subtract" version="opset1">
			<data auto_broadcast="numpy" />
			<rt_info>
				<attribute name="preprocessing" version="0" />
			</rt_info>
			<input>
				<port id="0" precision="FP32">
					<dim>1</dim>
					<dim>3</dim>
					<dim>640</dim>
					<dim>640</dim>
				</port>
				<port id="1" precision="FP32">
					<dim>1</dim>
					<dim>3</dim>
					<dim>1</dim>
					<dim>1</dim>
				</port>
			</input>
			<output>
				<port id="2" precision="FP32">
					<dim>1</dim>
					<dim>3</dim>
					<dim>640</dim>
					<dim>640</dim>
				</port>
			</output>
		</layer>
		<layer id="6" name="Constant_90665" type="Const" version="opset1">
			<data element_type="f32" shape="1, 3, 1, 1" offset="1228824" size="12" />
			<rt_info>
				<attribute name="preprocessing" version="0" />
			</rt_info>
			<output>
				<port id="0" precision="FP32">
					<dim>1</dim>
					<dim>3</dim>
					<dim>1</dim>
					<dim>1</dim>
				</port>
			</output>
		</layer>
		<layer id="7" name="Constant_90693" type="Const" version="opset1">
			<data element_type="f32" shape="1, 3, 1, 1" offset="1228836" size="12" />
			<rt_info>
				<attribute name="preprocessing" version="0" />
			</rt_info>
			<output>
				<port id="0" precision="FP32">
					<dim>1</dim>
					<dim>3</dim>
					<dim>1</dim>
					<dim>1</dim>
				</port>
			</output>
		</layer>
		<layer id="8" name="Constant_91095" type="Const" version="opset1">
			<data element_type="f32" shape="1, 1, 1, 1" offset="1228848" size="4" />
			<output>
				<port id="0" precision="FP32">
					<dim>1</dim>
					<dim>1</dim>
					<dim>1</dim>
					<dim>1</dim>
				</port>
			</output>
		</layer>
		<layer id="9" name="Constant_91096" type="Const" version="opset1">
			<data element_type="f32" shape="1, 1, 1, 1" offset="1228852" size="4" />
			<output>
				<port id="0" precision="FP32">
					<dim>1</dim>
					<dim>1</dim>
					<dim>1</dim>
					<dim>1</dim>
				</port>
			</output>
		</layer>
		<layer id="10" name="//nncf_model_input_0|OUTPUT/FakeQuantize" type="FakeQuantize" version="opset1">
			<data levels="256" auto_broadcast="numpy" />
			<rt_info>
				<attribute name="preprocessing" version="0" />
			</rt_info>
			<input>
				<port id="0" precision="FP32">
					<dim>1</dim>
					<dim>3</dim>
					<dim>640</dim>
					<dim>640</dim>
				</port>
				<port id="1" precision="FP32">
					<dim>1</dim>
					<dim>3</dim>
					<dim>1</dim>
					<dim>1</dim>
				</port>
				<port id="2" precision="FP32">
					<dim>1</dim>
					<dim>3</dim>
					<dim>1</dim>
					<dim>1</dim>
				</port>
				<port id="3" precision="FP32">
					<dim>1</dim>
					<dim>1</dim>
					<dim>1</dim>
					<dim>1</dim>
				</port>
				<port id="4" precision="FP32">
					<dim>1</dim>
					<dim>1</dim>
					<dim>1</dim>
					<dim>1</dim>
				</port>
			</input>
			<output>
				<port id="5" precision="FP32" names="//nncf_model_input_0|OUTPUT/FakeQuantize_output_0">
					<dim>1</dim>
					<dim>3</dim>
					<dim>640</dim>
					<dim>640</dim>
				</port>
			</output>
		</layer>
		<layer id="11" name="/nncf_module/backbone/conv1/pre_ops.0/op/Constant" type="Const" version="opset1">
			<data element_type="i8" shape="64, 3, 7, 7" offset="1228856" size="9408" />
			<output>
				<port id="0" precision="I8">
					<dim>64</dim>
					<dim>3</dim>
					<dim>7</dim>
					<dim>7</dim>
				</port>
			</output>
		</layer>
		<layer id="12" name="Convert_95452" type="Convert" version="opset1">
			<data destination_type="f32" />
			<input>
				<port id="0" precision="I8">
					<dim>64</dim>
					<dim>3</dim>
					<dim>7</dim>
					<dim>7</dim>
				</port>
			</input>
			<output>
				<port id="1" precision="FP32">
					<dim>64</dim>
					<dim>3</dim>
					<dim>7</dim>
					<dim>7</dim>
				</port>
			</output>
		</layer>
		<layer id="13" name="Constant_95389" type="Const" version="opset1">
			<data element_type="f32" shape="64, 1, 1, 1" offset="1238264" size="256" />
			<output>
				<port id="0" precision="FP32">
					<dim>64</dim>
					<dim>1</dim>
					<dim>1</dim>
					<dim>1</dim>
				</port>
			</output>
		</layer>
		<layer id="14" name="Multiply_87618" type="Multiply" version="opset1">
			<data auto_broadcast="numpy" />
			<input>
				<port id="0" precision="FP32">
					<dim>64</dim>
					<dim>3</dim>
					<dim>7</dim>
					<dim>7</dim>
				</port>
				<port id="1" precision="FP32">
					<dim>64</dim>
					<dim>1</dim>
					<dim>1</dim>
					<dim>1</dim>
				</port>
			</input>
			<output>
				<port id="2" precision="FP32">
					<dim>64</dim>
					<dim>3</dim>
					<dim>7</dim>
					<dim>7</dim>
				</port>
			</output>
		</layer>
		<layer id="15" name="Multiply_87240" type="Convolution" version="opset1">
			<data strides="2, 2" dilations="1, 1" pads_begin="3, 3" pads_end="3, 3" auto_pad="explicit" />
			<input>
				<port id="0" precision="FP32">
					<dim>1</dim>
					<dim>3</dim>
					<dim>640</dim>
					<dim>640</dim>
				</port>
				<port id="1" precision="FP32">
					<dim>64</dim>
					<dim>3</dim>
					<dim>7</dim>
					<dim>7</dim>
				</port>
			</input>
			<output>
				<port id="2" precision="FP32">
					<dim>1</dim>
					<dim>64</dim>
					<dim>320</dim>
					<dim>320</dim>
				</port>
			</output>
		</layer>
		<layer id="16" name="Constant_87245" type="Const" version="opset1">
			<data element_type="f32" shape="1, 64, 1, 1" offset="1238520" size="256" />
			<output>
				<port id="0" precision="FP32">
					<dim>1</dim>
					<dim>64</dim>
					<dim>1</dim>
					<dim>1</dim>
				</port>
			</output>
		</layer>
		<layer id="17" name="/nncf_module/backbone/bn1/BatchNormalization" type="Add" version="opset1">
			<data auto_broadcast="numpy" />
			<input>
				<port id="0" precision="FP32">
					<dim>1</dim>
					<dim>64</dim>
					<dim>320</dim>
					<dim>320</dim>
				</port>
				<port id="1" precision="FP32">
					<dim>1</dim>
					<dim>64</dim>
					<dim>1</dim>
					<dim>1</dim>
				</port>
			</input>
			<output>
				<port id="2" precision="FP32" names="/nncf_module/backbone/bn1/BatchNormalization_output_0">
					<dim>1</dim>
					<dim>64</dim>
					<dim>320</dim>
					<dim>320</dim>
				</port>
			</output>
		</layer>
		<layer id="18" name="Constant_91097" type="Const" version="opset1">
			<data element_type="f32" shape="1, 1, 1, 1" offset="0" size="4" />
			<output>
				<port id="0" precision="FP32">
					<dim>1</dim>
					<dim>1</dim>
					<dim>1</dim>
					<dim>1</dim>
				</port>
			</output>
		</layer>
		<layer id="19" name="Constant_91098" type="Const" version="opset1">
			<data element_type="f32" shape="1, 1, 1, 1" offset="1238776" size="4" />
			<output>
				<port id="0" precision="FP32">
					<dim>1</dim>
					<dim>1</dim>
					<dim>1</dim>
					<dim>1</dim>
				</port>
			</output>
		</layer>
		<layer id="20" name="Constant_91099" type="Const" version="opset1">
			<data element_type="f32" shape="1, 1, 1, 1" offset="0" size="4" />
			<output>
				<port id="0" precision="FP32">
					<dim>1</dim>
					<dim>1</dim>
					<dim>1</dim>
					<dim>1</dim>
				</port>
			</output>
		</layer>
		<layer id="21" name="Constant_91100" type="Const" version="opset1">
			<data element_type="f32" shape="1, 1, 1, 1" offset="1238776" size="4" />
			<output>
				<port id="0" precision="FP32">
					<dim>1</dim>
					<dim>1</dim>
					<dim>1</dim>
					<dim>1</dim>
				</port>
			</output>
		</layer>
		<layer id="22" name="/nncf_module/backbone/relu/CustomMaskRCNN/ResNet[backbone]/ReLU[relu]/relu__0|OUTPUT/FakeQuantize" type="FakeQuantize" version="opset1">
			<data levels="256" auto_broadcast="numpy" />
			<input>
				<port id="0" precision="FP32">
					<dim>1</dim>
					<dim>64</dim>
					<dim>320</dim>
					<dim>320</dim>
				</port>
				<port id="1" precision="FP32">
					<dim>1</dim>
					<dim>1</dim>
					<dim>1</dim>
					<dim>1</dim>
				</port>
				<port id="2" precision="FP32">
					<dim>1</dim>
					<dim>1</dim>
					<dim>1</dim>
					<dim>1</dim>
				</port>
				<port id="3" precision="FP32">
					<dim>1</dim>
					<dim>1</dim>
					<dim>1</dim>
					<dim>1</dim>
				</port>
				<port id="4" precision="FP32">
					<dim>1</dim>
					<dim>1</dim>
					<dim>1</dim>
					<dim>1</dim>
				</port>
			</input>
			<output>
				<port id="5" precision="FP32" names="/nncf_module/backbone/relu/CustomMaskRCNN/ResNet[backbone]/ReLU[relu]/relu__0|OUTPUT/FakeQuantize_output_0">
					<dim>1</dim>
					<dim>64</dim>
					<dim>320</dim>
					<dim>320</dim>
				</port>
			</output>
		</layer>
		<layer id="23" name="/nncf_module/backbone/maxpool/MaxPool" type="MaxPool" version="opset8">
			<data strides="2, 2" dilations="1, 1" pads_begin="1, 1" pads_end="1, 1" kernel="3, 3" rounding_type="floor" auto_pad="explicit" index_element_type="i64" axis="0" />
			<input>
				<port id="0" precision="FP32">
					<dim>1</dim>
					<dim>64</dim>
					<dim>320</dim>
					<dim>320</dim>
				</port>
			</input>
			<output>
				<port id="1" precision="FP32" names="/nncf_module/backbone/maxpool/MaxPool_output_0">
					<dim>1</dim>
					<dim>64</dim>
					<dim>160</dim>
					<dim>160</dim>
				</port>
				<port id="2" precision="I64">
					<dim>1</dim>
					<dim>64</dim>
					<dim>160</dim>
					<dim>160</dim>
				</port>
			</output>
		</layer>
		<layer id="24" name="/nncf_module/backbone/layer1/layer1.0/conv1/pre_ops.0/op/Constant" type="Const" version="opset1">
			<data element_type="i8" shape="64, 64, 1, 1" offset="1238780" size="4096" />
			<output>
				<port id="0" precision="I8">
					<dim>64</dim>
					<dim>64</dim>
					<dim>1</dim>
					<dim>1</dim>
				</port>
			</output>
		</layer>
		<layer id="25" name="Convert_95573" type="Convert" version="opset1">
			<data destination_type="f32" />
			<input>
				<port id="0" precision="I8">
					<dim>64</dim>
					<dim>64</dim>
					<dim>1</dim>
					<dim>1</dim>
				</port>
			</input>
			<output>
				<port id="1" precision="FP32">
					<dim>64</dim>
					<dim>64</dim>
					<dim>1</dim>
					<dim>1</dim>
				</port>
			</output>
		</layer>
		<layer id="26" name="Constant_95510" type="Const" version="opset1">
			<data element_type="f32" shape="64, 1, 1, 1" offset="1242876" size="256" />
			<output>
				<port id="0" precision="FP32">
					<dim>64</dim>
					<dim>1</dim>
					<dim>1</dim>
					<dim>1</dim>
				</port>
			</output>
		</layer>
		<layer id="27" name="Multiply_87627" type="Multiply" version="opset1">
			<data auto_broadcast="numpy" />
			<input>
				<port id="0" precision="FP32">
					<dim>64</dim>
					<dim>64</dim>
					<dim>1</dim>
					<dim>1</dim>
				</port>
				<port id="1" precision="FP32">
					<dim>64</dim>
					<dim>1</dim>
					<dim>1</dim>
					<dim>1</dim>
				</port>
			</input>
			<output>
				<port id="2" precision="FP32">
					<dim>64</dim>
					<dim>64</dim>
					<dim>1</dim>
					<dim>1</dim>
				</port>
			</output>
		</layer>
		<layer id="28" name="Multiply_87247" type="Convolution" version="opset1">
			<data strides="1, 1" dilations="1, 1" pads_begin="0, 0" pads_end="0, 0" auto_pad="explicit" />
			<input>
				<port id="0" precision="FP32">
					<dim>1</dim>
					<dim>64</dim>
					<dim>160</dim>
					<dim>160</dim>
				</port>
				<port id="1" precision="FP32">
					<dim>64</dim>
					<dim>64</dim>
					<dim>1</dim>
					<dim>1</dim>
				</port>
			</input>
			<output>
				<port id="2" precision="FP32">
					<dim>1</dim>
					<dim>64</dim>
					<dim>160</dim>
					<dim>160</dim>
				</port>
			</output>
		</layer>
		<layer id="29" name="Constant_87252" type="Const" version="opset1">
			<data element_type="f32" shape="1, 64, 1, 1" offset="1243132" size="256" />
			<output>
				<port id="0" precision="FP32">
					<dim>1</dim>
					<dim>64</dim>
					<dim>1</dim>
					<dim>1</dim>
				</port>
			</output>
		</layer>
		<layer id="30" name="/nncf_module/backbone/layer1/layer1.0/bn1/BatchNormalization" type="Add" version="opset1">
			<data auto_broadcast="numpy" />
			<input>
				<port id="0" precision="FP32">
					<dim>1</dim>
					<dim>64</dim>
					<dim>160</dim>
					<dim>160</dim>
				</port>
				<port id="1" precision="FP32">
					<dim>1</dim>
					<dim>64</dim>
					<dim>1</dim>
					<dim>1</dim>
				</port>
			</input>
			<output>
				<port id="2" precision="FP32" names="/nncf_module/backbone/layer1/layer1.0/bn1/BatchNormalization_output_0">
					<dim>1</dim>
					<dim>64</dim>
					<dim>160</dim>
					<dim>160</dim>
				</port>
			</output>
		</layer>
		<layer id="31" name="Constant_91101" type="Const" version="opset1">
			<data element_type="f32" shape="1, 1, 1, 1" offset="0" size="4" />
			<output>
				<port id="0" precision="FP32">
					<dim>1</dim>
					<dim>1</dim>
					<dim>1</dim>
					<dim>1</dim>
				</port>
			</output>
		</layer>
		<layer id="32" name="Constant_91102" type="Const" version="opset1">
			<data element_type="f32" shape="1, 1, 1, 1" offset="1243388" size="4" />
			<output>
				<port id="0" precision="FP32">
					<dim>1</dim>
					<dim>1</dim>
					<dim>1</dim>
					<dim>1</dim>
				</port>
			</output>
		</layer>
		<layer id="33" name="Constant_91103" type="Const" version="opset1">
			<data element_type="f32" shape="1, 1, 1, 1" offset="0" size="4" />
			<output>
				<port id="0" precision="FP32">
					<dim>1</dim>
					<dim>1</dim>
					<dim>1</dim>
					<dim>1</dim>
				</port>
			</output>
		</layer>
		<layer id="34" name="Constant_91104" type="Const" version="opset1">
			<data element_type="f32" shape="1, 1, 1, 1" offset="1243388" size="4" />
			<output>
				<port id="0" precision="FP32">
					<dim>1</dim>
					<dim>1</dim>
					<dim>1</dim>
					<dim>1</dim>
				</port>
			</output>
		</layer>
		<layer id="35" name="/nncf_module/backbone/layer1/layer1.0/relu/CustomMaskRCNN/ResNet[backbone]/ResLayer[layer1]/Bottleneck[0]/ReLU[relu]/relu__0|OUTPUT/FakeQuantize" type="FakeQuantize" version="opset1">
			<data levels="256" auto_broadcast="numpy" />
			<input>
				<port id="0" precision="FP32">
					<dim>1</dim>
					<dim>64</dim>
					<dim>160</dim>
					<dim>160</dim>
				</port>
				<port id="1" precision="FP32">
					<dim>1</dim>
					<dim>1</dim>
					<dim>1</dim>
					<dim>1</dim>
				</port>
				<port id="2" precision="FP32">
					<dim>1</dim>
					<dim>1</dim>
					<dim>1</dim>
					<dim>1</dim>
				</port>
				<port id="3" precision="FP32">
					<dim>1</dim>
					<dim>1</dim>
					<dim>1</dim>
					<dim>1</dim>
				</port>
				<port id="4" precision="FP32">
					<dim>1</dim>
					<dim>1</dim>
					<dim>1</dim>
					<dim>1</dim>
				</port>
			</input>
			<output>
				<port id="5" precision="FP32" names="/nncf_module/backbone/layer1/layer1.0/relu/CustomMaskRCNN/ResNet[backbone]/ResLayer[layer1]/Bottleneck[0]/ReLU[relu]/relu__0|OUTPUT/FakeQuantize_output_0">
					<dim>1</dim>
					<dim>64</dim>
					<dim>160</dim>
					<dim>160</dim>
				</port>
			</output>
		</layer>
		<layer id="36" name="/nncf_module/backbone/layer1/layer1.0/conv2/pre_ops.0/op/Constant" type="Const" version="opset1">
			<data element_type="i8" shape="64, 64, 3, 3" offset="1243392" size="36864" />
			<output>
				<port id="0" precision="I8">
					<dim>64</dim>
					<dim>64</dim>
					<dim>3</dim>
					<dim>3</dim>
				</port>
			</output>
		</layer>
		<layer id="37" name="Convert_95694" type="Convert" version="opset1">
			<data destination_type="f32" />
			<input>
				<port id="0" precision="I8">
					<dim>64</dim>
					<dim>64</dim>
					<dim>3</dim>
					<dim>3</dim>
				</port>
			</input>
			<output>
				<port id="1" precision="FP32">
					<dim>64</dim>
					<dim>64</dim>
					<dim>3</dim>
					<dim>3</dim>
				</port>
			</output>
		</layer>
		<layer id="38" name="Constant_95631" type="Const" version="opset1">
			<data element_type="f32" shape="64, 1, 1, 1" offset="1280256" size="256" />
			<output>
				<port id="0" precision="FP32">
					<dim>64</dim>
					<dim>1</dim>
					<dim>1</dim>
					<dim>1</dim>
				</port>
			</output>
		</layer>
		<layer id="39" name="Multiply_87636" type="Multiply" version="opset1">
			<data auto_broadcast="numpy" />
			<input>
				<port id="0" precision="FP32">
					<dim>64</dim>
					<dim>64</dim>
					<dim>3</dim>
					<dim>3</dim>
				</port>
				<port id="1" precision="FP32">
					<dim>64</dim>
					<dim>1</dim>
					<dim>1</dim>
					<dim>1</dim>
				</port>
			</input>
			<output>
				<port id="2" precision="FP32">
					<dim>64</dim>
					<dim>64</dim>
					<dim>3</dim>
					<dim>3</dim>
				</port>
			</output>
		</layer>
		<layer id="40" name="Multiply_87254" type="Convolution" version="opset1">
			<data strides="1, 1" dilations="1, 1" pads_begin="1, 1" pads_end="1, 1" auto_pad="explicit" />
			<input>
				<port id="0" precision="FP32">
					<dim>1</dim>
					<dim>64</dim>
					<dim>160</dim>
					<dim>160</dim>
				</port>
				<port id="1" precision="FP32">
					<dim>64</dim>
					<dim>64</dim>
					<dim>3</dim>
					<dim>3</dim>
				</port>
			</input>
			<output>
				<port id="2" precision="FP32">
					<dim>1</dim>
					<dim>64</dim>
					<dim>160</dim>
					<dim>160</dim>
				</port>
			</output>
		</layer>
		<layer id="41" name="Constant_87259" type="Const" version="opset1">
			<data element_type="f32" shape="1, 64, 1, 1" offset="1280512" size="256" />
			<output>
				<port id="0" precision="FP32">
					<dim>1</dim>
					<dim>64</dim>
					<dim>1</dim>
					<dim>1</dim>
				</port>
			</output>
		</layer>
		<layer id="42" name="/nncf_module/backbone/layer1/layer1.0/bn2/BatchNormalization" type="Add" version="opset1">
			<data auto_broadcast="numpy" />
			<input>
				<port id="0" precision="FP32">
					<dim>1</dim>
					<dim>64</dim>
					<dim>160</dim>
					<dim>160</dim>
				</port>
				<port id="1" precision="FP32">
					<dim>1</dim>
					<dim>64</dim>
					<dim>1</dim>
					<dim>1</dim>
				</port>
			</input>
			<output>
				<port id="2" precision="FP32" names="/nncf_module/backbone/layer1/layer1.0/bn2/BatchNormalization_output_0">
					<dim>1</dim>
					<dim>64</dim>
					<dim>160</dim>
					<dim>160</dim>
				</port>
			</output>
		</layer>
		<layer id="43" name="Constant_91105" type="Const" version="opset1">
			<data element_type="f32" shape="1, 1, 1, 1" offset="0" size="4" />
			<output>
				<port id="0" precision="FP32">
					<dim>1</dim>
					<dim>1</dim>
					<dim>1</dim>
					<dim>1</dim>
				</port>
			</output>
		</layer>
		<layer id="44" name="Constant_91106" type="Const" version="opset1">
			<data element_type="f32" shape="1, 1, 1, 1" offset="1280768" size="4" />
			<output>
				<port id="0" precision="FP32">
					<dim>1</dim>
					<dim>1</dim>
					<dim>1</dim>
					<dim>1</dim>
				</port>
			</output>
		</layer>
		<layer id="45" name="Constant_91107" type="Const" version="opset1">
			<data element_type="f32" shape="1, 1, 1, 1" offset="0" size="4" />
			<output>
				<port id="0" precision="FP32">
					<dim>1</dim>
					<dim>1</dim>
					<dim>1</dim>
					<dim>1</dim>
				</port>
			</output>
		</layer>
		<layer id="46" name="Constant_91108" type="Const" version="opset1">
			<data element_type="f32" shape="1, 1, 1, 1" offset="1280768" size="4" />
			<output>
				<port id="0" precision="FP32">
					<dim>1</dim>
					<dim>1</dim>
					<dim>1</dim>
					<dim>1</dim>
				</port>
			</output>
		</layer>
		<layer id="47" name="/nncf_module/backbone/layer1/layer1.0/relu/CustomMaskRCNN/ResNet[backbone]/ResLayer[layer1]/Bottleneck[0]/ReLU[relu]/relu__1|OUTPUT/FakeQuantize" type="FakeQuantize" version="opset1">
			<data levels="256" auto_broadcast="numpy" />
			<input>
				<port id="0" precision="FP32">
					<dim>1</dim>
					<dim>64</dim>
					<dim>160</dim>
					<dim>160</dim>
				</port>
				<port id="1" precision="FP32">
					<dim>1</dim>
					<dim>1</dim>
					<dim>1</dim>
					<dim>1</dim>
				</port>
				<port id="2" precision="FP32">
					<dim>1</dim>
					<dim>1</dim>
					<dim>1</dim>
					<dim>1</dim>
				</port>
				<port id="3" precision="FP32">
					<dim>1</dim>
					<dim>1</dim>
					<dim>1</dim>
					<dim>1</dim>
				</port>
				<port id="4" precision="FP32">
					<dim>1</dim>
					<dim>1</dim>
					<dim>1</dim>
					<dim>1</dim>
				</port>
			</input>
			<output>
				<port id="5" precision="FP32" names="/nncf_module/backbone/layer1/layer1.0/relu/CustomMaskRCNN/ResNet[backbone]/ResLayer[layer1]/Bottleneck[0]/ReLU[relu]/relu__1|OUTPUT/FakeQuantize_output_0">
					<dim>1</dim>
					<dim>64</dim>
					<dim>160</dim>
					<dim>160</dim>
				</port>
			</output>
		</layer>
		<layer id="48" name="/nncf_module/backbone/layer1/layer1.0/conv3/pre_ops.0/op/Constant" type="Const" version="opset1">
			<data element_type="i8" shape="256, 64, 1, 1" offset="1280772" size="16384" />
			<output>
				<port id="0" precision="I8">
					<dim>256</dim>
					<dim>64</dim>
					<dim>1</dim>
					<dim>1</dim>
				</port>
			</output>
		</layer>
		<layer id="49" name="Convert_95815" type="Convert" version="opset1">
			<data destination_type="f32" />
			<input>
				<port id="0" precision="I8">
					<dim>256</dim>
					<dim>64</dim>
					<dim>1</dim>
					<dim>1</dim>
				</port>
			</input>
			<output>
				<port id="1" precision="FP32">
					<dim>256</dim>
					<dim>64</dim>
					<dim>1</dim>
					<dim>1</dim>
				</port>
			</output>
		</layer>
		<layer id="50" name="Constant_95752" type="Const" version="opset1">
			<data element_type="f32" shape="256, 1, 1, 1" offset="1297156" size="1024" />
			<output>
				<port id="0" precision="FP32">
					<dim>256</dim>
					<dim>1</dim>
					<dim>1</dim>
					<dim>1</dim>
				</port>
			</output>
		</layer>
		<layer id="51" name="Multiply_87645" type="Multiply" version="opset1">
			<data auto_broadcast="numpy" />
			<input>
				<port id="0" precision="FP32">
					<dim>256</dim>
					<dim>64</dim>
					<dim>1</dim>
					<dim>1</dim>
				</port>
				<port id="1" precision="FP32">
					<dim>256</dim>
					<dim>1</dim>
					<dim>1</dim>
					<dim>1</dim>
				</port>
			</input>
			<output>
				<port id="2" precision="FP32">
					<dim>256</dim>
					<dim>64</dim>
					<dim>1</dim>
					<dim>1</dim>
				</port>
			</output>
		</layer>
		<layer id="52" name="Multiply_87261" type="Convolution" version="opset1">
			<data strides="1, 1" dilations="1, 1" pads_begin="0, 0" pads_end="0, 0" auto_pad="explicit" />
			<input>
				<port id="0" precision="FP32">
					<dim>1</dim>
					<dim>64</dim>
					<dim>160</dim>
					<dim>160</dim>
				</port>
				<port id="1" precision="FP32">
					<dim>256</dim>
					<dim>64</dim>
					<dim>1</dim>
					<dim>1</dim>
				</port>
			</input>
			<output>
				<port id="2" precision="FP32">
					<dim>1</dim>
					<dim>256</dim>
					<dim>160</dim>
					<dim>160</dim>
				</port>
			</output>
		</layer>
		<layer id="53" name="Constant_87266" type="Const" version="opset1">
			<data element_type="f32" shape="1, 256, 1, 1" offset="1298180" size="1024" />
			<output>
				<port id="0" precision="FP32">
					<dim>1</dim>
					<dim>256</dim>
					<dim>1</dim>
					<dim>1</dim>
				</port>
			</output>
		</layer>
		<layer id="54" name="/nncf_module/backbone/layer1/layer1.0/bn3/BatchNormalization" type="Add" version="opset1">
			<data auto_broadcast="numpy" />
			<input>
				<port id="0" precision="FP32">
					<dim>1</dim>
					<dim>256</dim>
					<dim>160</dim>
					<dim>160</dim>
				</port>
				<port id="1" precision="FP32">
					<dim>1</dim>
					<dim>256</dim>
					<dim>1</dim>
					<dim>1</dim>
				</port>
			</input>
			<output>
				<port id="2" precision="FP32" names="/nncf_module/backbone/layer1/layer1.0/bn3/BatchNormalization_output_0">
					<dim>1</dim>
					<dim>256</dim>
					<dim>160</dim>
					<dim>160</dim>
				</port>
			</output>
		</layer>
		<layer id="55" name="Constant_91109" type="Const" version="opset1">
			<data element_type="f32" shape="1, 1, 1, 1" offset="1299204" size="4" />
			<output>
				<port id="0" precision="FP32">
					<dim>1</dim>
					<dim>1</dim>
					<dim>1</dim>
					<dim>1</dim>
				</port>
			</output>
		</layer>
		<layer id="56" name="Constant_91110" type="Const" version="opset1">
			<data element_type="f32" shape="1, 1, 1, 1" offset="1299208" size="4" />
			<output>
				<port id="0" precision="FP32">
					<dim>1</dim>
					<dim>1</dim>
					<dim>1</dim>
					<dim>1</dim>
				</port>
			</output>
		</layer>
		<layer id="57" name="Constant_91111" type="Const" version="opset1">
			<data element_type="f32" shape="1, 1, 1, 1" offset="1299204" size="4" />
			<output>
				<port id="0" precision="FP32">
					<dim>1</dim>
					<dim>1</dim>
					<dim>1</dim>
					<dim>1</dim>
				</port>
			</output>
		</layer>
		<layer id="58" name="Constant_91112" type="Const" version="opset1">
			<data element_type="f32" shape="1, 1, 1, 1" offset="1299208" size="4" />
			<output>
				<port id="0" precision="FP32">
					<dim>1</dim>
					<dim>1</dim>
					<dim>1</dim>
					<dim>1</dim>
				</port>
			</output>
		</layer>
		<layer id="59" name="/nncf_module/backbone/layer1/layer1.0/bn3/CustomMaskRCNN/ResNet[backbone]/ResLayer[layer1]/Bottleneck[0]/NNCFBatchNorm2d[bn3]/batch_norm_0|OUTPUT/FakeQuantize" type="FakeQuantize" version="opset1">
			<data levels="256" auto_broadcast="numpy" />
			<input>
				<port id="0" precision="FP32">
					<dim>1</dim>
					<dim>256</dim>
					<dim>160</dim>
					<dim>160</dim>
				</port>
				<port id="1" precision="FP32">
					<dim>1</dim>
					<dim>1</dim>
					<dim>1</dim>
					<dim>1</dim>
				</port>
				<port id="2" precision="FP32">
					<dim>1</dim>
					<dim>1</dim>
					<dim>1</dim>
					<dim>1</dim>
				</port>
				<port id="3" precision="FP32">
					<dim>1</dim>
					<dim>1</dim>
					<dim>1</dim>
					<dim>1</dim>
				</port>
				<port id="4" precision="FP32">
					<dim>1</dim>
					<dim>1</dim>
					<dim>1</dim>
					<dim>1</dim>
				</port>
			</input>
			<output>
				<port id="5" precision="FP32" names="/nncf_module/backbone/layer1/layer1.0/bn3/CustomMaskRCNN/ResNet[backbone]/ResLayer[layer1]/Bottleneck[0]/NNCFBatchNorm2d[bn3]/batch_norm_0|OUTPUT/FakeQuantize_output_0">
					<dim>1</dim>
					<dim>256</dim>
					<dim>160</dim>
					<dim>160</dim>
				</port>
			</output>
		</layer>
		<layer id="60" name="/nncf_module/backbone/layer1/layer1.0/downsample/downsample.0/pre_ops.0/op/Constant" type="Const" version="opset1">
			<data element_type="i8" shape="256, 64, 1, 1" offset="1299212" size="16384" />
			<output>
				<port id="0" precision="I8">
					<dim>256</dim>
					<dim>64</dim>
					<dim>1</dim>
					<dim>1</dim>
				</port>
			</output>
		</layer>
		<layer id="61" name="Convert_95936" type="Convert" version="opset1">
			<data destination_type="f32" />
			<input>
				<port id="0" precision="I8">
					<dim>256</dim>
					<dim>64</dim>
					<dim>1</dim>
					<dim>1</dim>
				</port>
			</input>
			<output>
				<port id="1" precision="FP32">
					<dim>256</dim>
					<dim>64</dim>
					<dim>1</dim>
					<dim>1</dim>
				</port>
			</output>
		</layer>
		<layer id="62" name="Constant_95873" type="Const" version="opset1">
			<data element_type="f32" shape="256, 1, 1, 1" offset="1315596" size="1024" />
			<output>
				<port id="0" precision="FP32">
					<dim>256</dim>
					<dim>1</dim>
					<dim>1</dim>
					<dim>1</dim>
				</port>
			</output>
		</layer>
		<layer id="63" name="Multiply_87654" type="Multiply" version="opset1">
			<data auto_broadcast="numpy" />
			<input>
				<port id="0" precision="FP32">
					<dim>256</dim>
					<dim>64</dim>
					<dim>1</dim>
					<dim>1</dim>
				</port>
				<port id="1" precision="FP32">
					<dim>256</dim>
					<dim>1</dim>
					<dim>1</dim>
					<dim>1</dim>
				</port>
			</input>
			<output>
				<port id="2" precision="FP32">
					<dim>256</dim>
					<dim>64</dim>
					<dim>1</dim>
					<dim>1</dim>
				</port>
			</output>
		</layer>
		<layer id="64" name="Multiply_87268" type="Convolution" version="opset1">
			<data strides="1, 1" dilations="1, 1" pads_begin="0, 0" pads_end="0, 0" auto_pad="explicit" />
			<input>
				<port id="0" precision="FP32">
					<dim>1</dim>
					<dim>64</dim>
					<dim>160</dim>
					<dim>160</dim>
				</port>
				<port id="1" precision="FP32">
					<dim>256</dim>
					<dim>64</dim>
					<dim>1</dim>
					<dim>1</dim>
				</port>
			</input>
			<output>
				<port id="2" precision="FP32">
					<dim>1</dim>
					<dim>256</dim>
					<dim>160</dim>
					<dim>160</dim>
				</port>
			</output>
		</layer>
		<layer id="65" name="Constant_87273" type="Const" version="opset1">
			<data element_type="f32" shape="1, 256, 1, 1" offset="1316620" size="1024" />
			<output>
				<port id="0" precision="FP32">
					<dim>1</dim>
					<dim>256</dim>
					<dim>1</dim>
					<dim>1</dim>
				</port>
			</output>
		</layer>
		<layer id="66" name="/nncf_module/backbone/layer1/layer1.0/downsample/downsample.1/BatchNormalization" type="Add" version="opset1">
			<data auto_broadcast="numpy" />
			<input>
				<port id="0" precision="FP32">
					<dim>1</dim>
					<dim>256</dim>
					<dim>160</dim>
					<dim>160</dim>
				</port>
				<port id="1" precision="FP32">
					<dim>1</dim>
					<dim>256</dim>
					<dim>1</dim>
					<dim>1</dim>
				</port>
			</input>
			<output>
				<port id="2" precision="FP32" names="/nncf_module/backbone/layer1/layer1.0/downsample/downsample.1/BatchNormalization_output_0">
					<dim>1</dim>
					<dim>256</dim>
					<dim>160</dim>
					<dim>160</dim>
				</port>
			</output>
		</layer>
		<layer id="67" name="Constant_91113" type="Const" version="opset1">
			<data element_type="f32" shape="1, 1, 1, 1" offset="1317644" size="4" />
			<output>
				<port id="0" precision="FP32">
					<dim>1</dim>
					<dim>1</dim>
					<dim>1</dim>
					<dim>1</dim>
				</port>
			</output>
		</layer>
		<layer id="68" name="Constant_91114" type="Const" version="opset1">
			<data element_type="f32" shape="1, 1, 1, 1" offset="1317648" size="4" />
			<output>
				<port id="0" precision="FP32">
					<dim>1</dim>
					<dim>1</dim>
					<dim>1</dim>
					<dim>1</dim>
				</port>
			</output>
		</layer>
		<layer id="69" name="Constant_91115" type="Const" version="opset1">
			<data element_type="f32" shape="1, 1, 1, 1" offset="1317644" size="4" />
			<output>
				<port id="0" precision="FP32">
					<dim>1</dim>
					<dim>1</dim>
					<dim>1</dim>
					<dim>1</dim>
				</port>
			</output>
		</layer>
		<layer id="70" name="Constant_91116" type="Const" version="opset1">
			<data element_type="f32" shape="1, 1, 1, 1" offset="1317648" size="4" />
			<output>
				<port id="0" precision="FP32">
					<dim>1</dim>
					<dim>1</dim>
					<dim>1</dim>
					<dim>1</dim>
				</port>
			</output>
		</layer>
		<layer id="71" name="/nncf_module/backbone/layer1/layer1.0/downsample/downsample.1/CustomMaskRCNN/ResNet[backbone]/ResLayer[layer1]/Bottleneck[0]/Sequential[downsample]/NNCFBatchNorm2d[1]/batch_norm_0|OUTPUT/FakeQuantize" type="FakeQuantize" version="opset1">
			<data levels="256" auto_broadcast="numpy" />
			<input>
				<port id="0" precision="FP32">
					<dim>1</dim>
					<dim>256</dim>
					<dim>160</dim>
					<dim>160</dim>
				</port>
				<port id="1" precision="FP32">
					<dim>1</dim>
					<dim>1</dim>
					<dim>1</dim>
					<dim>1</dim>
				</port>
				<port id="2" precision="FP32">
					<dim>1</dim>
					<dim>1</dim>
					<dim>1</dim>
					<dim>1</dim>
				</port>
				<port id="3" precision="FP32">
					<dim>1</dim>
					<dim>1</dim>
					<dim>1</dim>
					<dim>1</dim>
				</port>
				<port id="4" precision="FP32">
					<dim>1</dim>
					<dim>1</dim>
					<dim>1</dim>
					<dim>1</dim>
				</port>
			</input>
			<output>
				<port id="5" precision="FP32" names="/nncf_module/backbone/layer1/layer1.0/downsample/downsample.1/CustomMaskRCNN/ResNet[backbone]/ResLayer[layer1]/Bottleneck[0]/Sequential[downsample]/NNCFBatchNorm2d[1]/batch_norm_0|OUTPUT/FakeQuantize_output_0">
					<dim>1</dim>
					<dim>256</dim>
					<dim>160</dim>
					<dim>160</dim>
				</port>
			</output>
		</layer>
		<layer id="72" name="/nncf_module/backbone/layer1/layer1.0/Add" type="Add" version="opset1">
			<data auto_broadcast="numpy" />
			<input>
				<port id="0" precision="FP32">
					<dim>1</dim>
					<dim>256</dim>
					<dim>160</dim>
					<dim>160</dim>
				</port>
				<port id="1" precision="FP32">
					<dim>1</dim>
					<dim>256</dim>
					<dim>160</dim>
					<dim>160</dim>
				</port>
			</input>
			<output>
				<port id="2" precision="FP32" names="/nncf_module/backbone/layer1/layer1.0/Add_output_0">
					<dim>1</dim>
					<dim>256</dim>
					<dim>160</dim>
					<dim>160</dim>
				</port>
			</output>
		</layer>
		<layer id="73" name="Constant_91117" type="Const" version="opset1">
			<data element_type="f32" shape="1, 1, 1, 1" offset="0" size="4" />
			<output>
				<port id="0" precision="FP32">
					<dim>1</dim>
					<dim>1</dim>
					<dim>1</dim>
					<dim>1</dim>
				</port>
			</output>
		</layer>
		<layer id="74" name="Constant_91118" type="Const" version="opset1">
			<data element_type="f32" shape="1, 1, 1, 1" offset="1317652" size="4" />
			<output>
				<port id="0" precision="FP32">
					<dim>1</dim>
					<dim>1</dim>
					<dim>1</dim>
					<dim>1</dim>
				</port>
			</output>
		</layer>
		<layer id="75" name="Constant_91119" type="Const" version="opset1">
			<data element_type="f32" shape="1, 1, 1, 1" offset="0" size="4" />
			<output>
				<port id="0" precision="FP32">
					<dim>1</dim>
					<dim>1</dim>
					<dim>1</dim>
					<dim>1</dim>
				</port>
			</output>
		</layer>
		<layer id="76" name="Constant_91120" type="Const" version="opset1">
			<data element_type="f32" shape="1, 1, 1, 1" offset="1317652" size="4" />
			<output>
				<port id="0" precision="FP32">
					<dim>1</dim>
					<dim>1</dim>
					<dim>1</dim>
					<dim>1</dim>
				</port>
			</output>
		</layer>
		<layer id="77" name="/nncf_module/backbone/layer1/layer1.0/relu/CustomMaskRCNN/ResNet[backbone]/ResLayer[layer1]/Bottleneck[0]/ReLU[relu]/relu__2|OUTPUT/FakeQuantize" type="FakeQuantize" version="opset1">
			<data levels="256" auto_broadcast="numpy" />
			<input>
				<port id="0" precision="FP32">
					<dim>1</dim>
					<dim>256</dim>
					<dim>160</dim>
					<dim>160</dim>
				</port>
				<port id="1" precision="FP32">
					<dim>1</dim>
					<dim>1</dim>
					<dim>1</dim>
					<dim>1</dim>
				</port>
				<port id="2" precision="FP32">
					<dim>1</dim>
					<dim>1</dim>
					<dim>1</dim>
					<dim>1</dim>
				</port>
				<port id="3" precision="FP32">
					<dim>1</dim>
					<dim>1</dim>
					<dim>1</dim>
					<dim>1</dim>
				</port>
				<port id="4" precision="FP32">
					<dim>1</dim>
					<dim>1</dim>
					<dim>1</dim>
					<dim>1</dim>
				</port>
			</input>
			<output>
				<port id="5" precision="FP32" names="/nncf_module/backbone/layer1/layer1.0/relu/CustomMaskRCNN/ResNet[backbone]/ResLayer[layer1]/Bottleneck[0]/ReLU[relu]/relu__2|OUTPUT/FakeQuantize_output_0">
					<dim>1</dim>
					<dim>256</dim>
					<dim>160</dim>
					<dim>160</dim>
				</port>
			</output>
		</layer>
		<layer id="78" name="/nncf_module/backbone/layer1/layer1.1/conv1/pre_ops.0/op/Constant" type="Const" version="opset1">
			<data element_type="i8" shape="64, 256, 1, 1" offset="1317656" size="16384" />
			<output>
				<port id="0" precision="I8">
					<dim>64</dim>
					<dim>256</dim>
					<dim>1</dim>
					<dim>1</dim>
				</port>
			</output>
		</layer>
		<layer id="79" name="Convert_96057" type="Convert" version="opset1">
			<data destination_type="f32" />
			<input>
				<port id="0" precision="I8">
					<dim>64</dim>
					<dim>256</dim>
					<dim>1</dim>
					<dim>1</dim>
				</port>
			</input>
			<output>
				<port id="1" precision="FP32">
					<dim>64</dim>
					<dim>256</dim>
					<dim>1</dim>
					<dim>1</dim>
				</port>
			</output>
		</layer>
		<layer id="80" name="Constant_95994" type="Const" version="opset1">
			<data element_type="f32" shape="64, 1, 1, 1" offset="1334040" size="256" />
			<output>
				<port id="0" precision="FP32">
					<dim>64</dim>
					<dim>1</dim>
					<dim>1</dim>
					<dim>1</dim>
				</port>
			</output>
		</layer>
		<layer id="81" name="Multiply_87663" type="Multiply" version="opset1">
			<data auto_broadcast="numpy" />
			<input>
				<port id="0" precision="FP32">
					<dim>64</dim>
					<dim>256</dim>
					<dim>1</dim>
					<dim>1</dim>
				</port>
				<port id="1" precision="FP32">
					<dim>64</dim>
					<dim>1</dim>
					<dim>1</dim>
					<dim>1</dim>
				</port>
			</input>
			<output>
				<port id="2" precision="FP32">
					<dim>64</dim>
					<dim>256</dim>
					<dim>1</dim>
					<dim>1</dim>
				</port>
			</output>
		</layer>
		<layer id="82" name="Multiply_87275" type="Convolution" version="opset1">
			<data strides="1, 1" dilations="1, 1" pads_begin="0, 0" pads_end="0, 0" auto_pad="explicit" />
			<input>
				<port id="0" precision="FP32">
					<dim>1</dim>
					<dim>256</dim>
					<dim>160</dim>
					<dim>160</dim>
				</port>
				<port id="1" precision="FP32">
					<dim>64</dim>
					<dim>256</dim>
					<dim>1</dim>
					<dim>1</dim>
				</port>
			</input>
			<output>
				<port id="2" precision="FP32">
					<dim>1</dim>
					<dim>64</dim>
					<dim>160</dim>
					<dim>160</dim>
				</port>
			</output>
		</layer>
		<layer id="83" name="Constant_87280" type="Const" version="opset1">
			<data element_type="f32" shape="1, 64, 1, 1" offset="1334296" size="256" />
			<output>
				<port id="0" precision="FP32">
					<dim>1</dim>
					<dim>64</dim>
					<dim>1</dim>
					<dim>1</dim>
				</port>
			</output>
		</layer>
		<layer id="84" name="/nncf_module/backbone/layer1/layer1.1/bn1/BatchNormalization" type="Add" version="opset1">
			<data auto_broadcast="numpy" />
			<input>
				<port id="0" precision="FP32">
					<dim>1</dim>
					<dim>64</dim>
					<dim>160</dim>
					<dim>160</dim>
				</port>
				<port id="1" precision="FP32">
					<dim>1</dim>
					<dim>64</dim>
					<dim>1</dim>
					<dim>1</dim>
				</port>
			</input>
			<output>
				<port id="2" precision="FP32" names="/nncf_module/backbone/layer1/layer1.1/bn1/BatchNormalization_output_0">
					<dim>1</dim>
					<dim>64</dim>
					<dim>160</dim>
					<dim>160</dim>
				</port>
			</output>
		</layer>
		<layer id="85" name="Constant_91121" type="Const" version="opset1">
			<data element_type="f32" shape="1, 1, 1, 1" offset="0" size="4" />
			<output>
				<port id="0" precision="FP32">
					<dim>1</dim>
					<dim>1</dim>
					<dim>1</dim>
					<dim>1</dim>
				</port>
			</output>
		</layer>
		<layer id="86" name="Constant_91122" type="Const" version="opset1">
			<data element_type="f32" shape="1, 1, 1, 1" offset="1334552" size="4" />
			<output>
				<port id="0" precision="FP32">
					<dim>1</dim>
					<dim>1</dim>
					<dim>1</dim>
					<dim>1</dim>
				</port>
			</output>
		</layer>
		<layer id="87" name="Constant_91123" type="Const" version="opset1">
			<data element_type="f32" shape="1, 1, 1, 1" offset="0" size="4" />
			<output>
				<port id="0" precision="FP32">
					<dim>1</dim>
					<dim>1</dim>
					<dim>1</dim>
					<dim>1</dim>
				</port>
			</output>
		</layer>
		<layer id="88" name="Constant_91124" type="Const" version="opset1">
			<data element_type="f32" shape="1, 1, 1, 1" offset="1334552" size="4" />
			<output>
				<port id="0" precision="FP32">
					<dim>1</dim>
					<dim>1</dim>
					<dim>1</dim>
					<dim>1</dim>
				</port>
			</output>
		</layer>
		<layer id="89" name="/nncf_module/backbone/layer1/layer1.1/relu/CustomMaskRCNN/ResNet[backbone]/ResLayer[layer1]/Bottleneck[1]/ReLU[relu]/relu__0|OUTPUT/FakeQuantize" type="FakeQuantize" version="opset1">
			<data levels="256" auto_broadcast="numpy" />
			<input>
				<port id="0" precision="FP32">
					<dim>1</dim>
					<dim>64</dim>
					<dim>160</dim>
					<dim>160</dim>
				</port>
				<port id="1" precision="FP32">
					<dim>1</dim>
					<dim>1</dim>
					<dim>1</dim>
					<dim>1</dim>
				</port>
				<port id="2" precision="FP32">
					<dim>1</dim>
					<dim>1</dim>
					<dim>1</dim>
					<dim>1</dim>
				</port>
				<port id="3" precision="FP32">
					<dim>1</dim>
					<dim>1</dim>
					<dim>1</dim>
					<dim>1</dim>
				</port>
				<port id="4" precision="FP32">
					<dim>1</dim>
					<dim>1</dim>
					<dim>1</dim>
					<dim>1</dim>
				</port>
			</input>
			<output>
				<port id="5" precision="FP32" names="/nncf_module/backbone/layer1/layer1.1/relu/CustomMaskRCNN/ResNet[backbone]/ResLayer[layer1]/Bottleneck[1]/ReLU[relu]/relu__0|OUTPUT/FakeQuantize_output_0">
					<dim>1</dim>
					<dim>64</dim>
					<dim>160</dim>
					<dim>160</dim>
				</port>
			</output>
		</layer>
		<layer id="90" name="/nncf_module/backbone/layer1/layer1.1/conv2/pre_ops.0/op/Constant" type="Const" version="opset1">
			<data element_type="i8" shape="64, 64, 3, 3" offset="1334556" size="36864" />
			<output>
				<port id="0" precision="I8">
					<dim>64</dim>
					<dim>64</dim>
					<dim>3</dim>
					<dim>3</dim>
				</port>
			</output>
		</layer>
		<layer id="91" name="Convert_96178" type="Convert" version="opset1">
			<data destination_type="f32" />
			<input>
				<port id="0" precision="I8">
					<dim>64</dim>
					<dim>64</dim>
					<dim>3</dim>
					<dim>3</dim>
				</port>
			</input>
			<output>
				<port id="1" precision="FP32">
					<dim>64</dim>
					<dim>64</dim>
					<dim>3</dim>
					<dim>3</dim>
				</port>
			</output>
		</layer>
		<layer id="92" name="Constant_96115" type="Const" version="opset1">
			<data element_type="f32" shape="64, 1, 1, 1" offset="1371420" size="256" />
			<output>
				<port id="0" precision="FP32">
					<dim>64</dim>
					<dim>1</dim>
					<dim>1</dim>
					<dim>1</dim>
				</port>
			</output>
		</layer>
		<layer id="93" name="Multiply_87672" type="Multiply" version="opset1">
			<data auto_broadcast="numpy" />
			<input>
				<port id="0" precision="FP32">
					<dim>64</dim>
					<dim>64</dim>
					<dim>3</dim>
					<dim>3</dim>
				</port>
				<port id="1" precision="FP32">
					<dim>64</dim>
					<dim>1</dim>
					<dim>1</dim>
					<dim>1</dim>
				</port>
			</input>
			<output>
				<port id="2" precision="FP32">
					<dim>64</dim>
					<dim>64</dim>
					<dim>3</dim>
					<dim>3</dim>
				</port>
			</output>
		</layer>
		<layer id="94" name="Multiply_87282" type="Convolution" version="opset1">
			<data strides="1, 1" dilations="1, 1" pads_begin="1, 1" pads_end="1, 1" auto_pad="explicit" />
			<input>
				<port id="0" precision="FP32">
					<dim>1</dim>
					<dim>64</dim>
					<dim>160</dim>
					<dim>160</dim>
				</port>
				<port id="1" precision="FP32">
					<dim>64</dim>
					<dim>64</dim>
					<dim>3</dim>
					<dim>3</dim>
				</port>
			</input>
			<output>
				<port id="2" precision="FP32">
					<dim>1</dim>
					<dim>64</dim>
					<dim>160</dim>
					<dim>160</dim>
				</port>
			</output>
		</layer>
		<layer id="95" name="Constant_87287" type="Const" version="opset1">
			<data element_type="f32" shape="1, 64, 1, 1" offset="1371676" size="256" />
			<output>
				<port id="0" precision="FP32">
					<dim>1</dim>
					<dim>64</dim>
					<dim>1</dim>
					<dim>1</dim>
				</port>
			</output>
		</layer>
		<layer id="96" name="/nncf_module/backbone/layer1/layer1.1/bn2/BatchNormalization" type="Add" version="opset1">
			<data auto_broadcast="numpy" />
			<input>
				<port id="0" precision="FP32">
					<dim>1</dim>
					<dim>64</dim>
					<dim>160</dim>
					<dim>160</dim>
				</port>
				<port id="1" precision="FP32">
					<dim>1</dim>
					<dim>64</dim>
					<dim>1</dim>
					<dim>1</dim>
				</port>
			</input>
			<output>
				<port id="2" precision="FP32" names="/nncf_module/backbone/layer1/layer1.1/bn2/BatchNormalization_output_0">
					<dim>1</dim>
					<dim>64</dim>
					<dim>160</dim>
					<dim>160</dim>
				</port>
			</output>
		</layer>
		<layer id="97" name="Constant_91125" type="Const" version="opset1">
			<data element_type="f32" shape="1, 1, 1, 1" offset="0" size="4" />
			<output>
				<port id="0" precision="FP32">
					<dim>1</dim>
					<dim>1</dim>
					<dim>1</dim>
					<dim>1</dim>
				</port>
			</output>
		</layer>
		<layer id="98" name="Constant_91126" type="Const" version="opset1">
			<data element_type="f32" shape="1, 1, 1, 1" offset="1371932" size="4" />
			<output>
				<port id="0" precision="FP32">
					<dim>1</dim>
					<dim>1</dim>
					<dim>1</dim>
					<dim>1</dim>
				</port>
			</output>
		</layer>
		<layer id="99" name="Constant_91127" type="Const" version="opset1">
			<data element_type="f32" shape="1, 1, 1, 1" offset="0" size="4" />
			<output>
				<port id="0" precision="FP32">
					<dim>1</dim>
					<dim>1</dim>
					<dim>1</dim>
					<dim>1</dim>
				</port>
			</output>
		</layer>
		<layer id="100" name="Constant_91128" type="Const" version="opset1">
			<data element_type="f32" shape="1, 1, 1, 1" offset="1371932" size="4" />
			<output>
				<port id="0" precision="FP32">
					<dim>1</dim>
					<dim>1</dim>
					<dim>1</dim>
					<dim>1</dim>
				</port>
			</output>
		</layer>
		<layer id="101" name="/nncf_module/backbone/layer1/layer1.1/relu/CustomMaskRCNN/ResNet[backbone]/ResLayer[layer1]/Bottleneck[1]/ReLU[relu]/relu__1|OUTPUT/FakeQuantize" type="FakeQuantize" version="opset1">
			<data levels="256" auto_broadcast="numpy" />
			<input>
				<port id="0" precision="FP32">
					<dim>1</dim>
					<dim>64</dim>
					<dim>160</dim>
					<dim>160</dim>
				</port>
				<port id="1" precision="FP32">
					<dim>1</dim>
					<dim>1</dim>
					<dim>1</dim>
					<dim>1</dim>
				</port>
				<port id="2" precision="FP32">
					<dim>1</dim>
					<dim>1</dim>
					<dim>1</dim>
					<dim>1</dim>
				</port>
				<port id="3" precision="FP32">
					<dim>1</dim>
					<dim>1</dim>
					<dim>1</dim>
					<dim>1</dim>
				</port>
				<port id="4" precision="FP32">
					<dim>1</dim>
					<dim>1</dim>
					<dim>1</dim>
					<dim>1</dim>
				</port>
			</input>
			<output>
				<port id="5" precision="FP32" names="/nncf_module/backbone/layer1/layer1.1/relu/CustomMaskRCNN/ResNet[backbone]/ResLayer[layer1]/Bottleneck[1]/ReLU[relu]/relu__1|OUTPUT/FakeQuantize_output_0">
					<dim>1</dim>
					<dim>64</dim>
					<dim>160</dim>
					<dim>160</dim>
				</port>
			</output>
		</layer>
		<layer id="102" name="/nncf_module/backbone/layer1/layer1.1/conv3/pre_ops.0/op/Constant" type="Const" version="opset1">
			<data element_type="i8" shape="256, 64, 1, 1" offset="1371936" size="16384" />
			<output>
				<port id="0" precision="I8">
					<dim>256</dim>
					<dim>64</dim>
					<dim>1</dim>
					<dim>1</dim>
				</port>
			</output>
		</layer>
		<layer id="103" name="Convert_96299" type="Convert" version="opset1">
			<data destination_type="f32" />
			<input>
				<port id="0" precision="I8">
					<dim>256</dim>
					<dim>64</dim>
					<dim>1</dim>
					<dim>1</dim>
				</port>
			</input>
			<output>
				<port id="1" precision="FP32">
					<dim>256</dim>
					<dim>64</dim>
					<dim>1</dim>
					<dim>1</dim>
				</port>
			</output>
		</layer>
		<layer id="104" name="Constant_96236" type="Const" version="opset1">
			<data element_type="f32" shape="256, 1, 1, 1" offset="1388320" size="1024" />
			<output>
				<port id="0" precision="FP32">
					<dim>256</dim>
					<dim>1</dim>
					<dim>1</dim>
					<dim>1</dim>
				</port>
			</output>
		</layer>
		<layer id="105" name="Multiply_87681" type="Multiply" version="opset1">
			<data auto_broadcast="numpy" />
			<input>
				<port id="0" precision="FP32">
					<dim>256</dim>
					<dim>64</dim>
					<dim>1</dim>
					<dim>1</dim>
				</port>
				<port id="1" precision="FP32">
					<dim>256</dim>
					<dim>1</dim>
					<dim>1</dim>
					<dim>1</dim>
				</port>
			</input>
			<output>
				<port id="2" precision="FP32">
					<dim>256</dim>
					<dim>64</dim>
					<dim>1</dim>
					<dim>1</dim>
				</port>
			</output>
		</layer>
		<layer id="106" name="Multiply_87289" type="Convolution" version="opset1">
			<data strides="1, 1" dilations="1, 1" pads_begin="0, 0" pads_end="0, 0" auto_pad="explicit" />
			<input>
				<port id="0" precision="FP32">
					<dim>1</dim>
					<dim>64</dim>
					<dim>160</dim>
					<dim>160</dim>
				</port>
				<port id="1" precision="FP32">
					<dim>256</dim>
					<dim>64</dim>
					<dim>1</dim>
					<dim>1</dim>
				</port>
			</input>
			<output>
				<port id="2" precision="FP32">
					<dim>1</dim>
					<dim>256</dim>
					<dim>160</dim>
					<dim>160</dim>
				</port>
			</output>
		</layer>
		<layer id="107" name="Constant_87294" type="Const" version="opset1">
			<data element_type="f32" shape="1, 256, 1, 1" offset="1389344" size="1024" />
			<output>
				<port id="0" precision="FP32">
					<dim>1</dim>
					<dim>256</dim>
					<dim>1</dim>
					<dim>1</dim>
				</port>
			</output>
		</layer>
		<layer id="108" name="/nncf_module/backbone/layer1/layer1.1/bn3/BatchNormalization" type="Add" version="opset1">
			<data auto_broadcast="numpy" />
			<input>
				<port id="0" precision="FP32">
					<dim>1</dim>
					<dim>256</dim>
					<dim>160</dim>
					<dim>160</dim>
				</port>
				<port id="1" precision="FP32">
					<dim>1</dim>
					<dim>256</dim>
					<dim>1</dim>
					<dim>1</dim>
				</port>
			</input>
			<output>
				<port id="2" precision="FP32" names="/nncf_module/backbone/layer1/layer1.1/bn3/BatchNormalization_output_0">
					<dim>1</dim>
					<dim>256</dim>
					<dim>160</dim>
					<dim>160</dim>
				</port>
			</output>
		</layer>
		<layer id="109" name="Constant_91129" type="Const" version="opset1">
			<data element_type="f32" shape="1, 1, 1, 1" offset="1390368" size="4" />
			<output>
				<port id="0" precision="FP32">
					<dim>1</dim>
					<dim>1</dim>
					<dim>1</dim>
					<dim>1</dim>
				</port>
			</output>
		</layer>
		<layer id="110" name="Constant_91130" type="Const" version="opset1">
			<data element_type="f32" shape="1, 1, 1, 1" offset="1390372" size="4" />
			<output>
				<port id="0" precision="FP32">
					<dim>1</dim>
					<dim>1</dim>
					<dim>1</dim>
					<dim>1</dim>
				</port>
			</output>
		</layer>
		<layer id="111" name="Constant_91131" type="Const" version="opset1">
			<data element_type="f32" shape="1, 1, 1, 1" offset="1390368" size="4" />
			<output>
				<port id="0" precision="FP32">
					<dim>1</dim>
					<dim>1</dim>
					<dim>1</dim>
					<dim>1</dim>
				</port>
			</output>
		</layer>
		<layer id="112" name="Constant_91132" type="Const" version="opset1">
			<data element_type="f32" shape="1, 1, 1, 1" offset="1390372" size="4" />
			<output>
				<port id="0" precision="FP32">
					<dim>1</dim>
					<dim>1</dim>
					<dim>1</dim>
					<dim>1</dim>
				</port>
			</output>
		</layer>
		<layer id="113" name="/nncf_module/backbone/layer1/layer1.1/bn3/CustomMaskRCNN/ResNet[backbone]/ResLayer[layer1]/Bottleneck[1]/NNCFBatchNorm2d[bn3]/batch_norm_0|OUTPUT/FakeQuantize" type="FakeQuantize" version="opset1">
			<data levels="256" auto_broadcast="numpy" />
			<input>
				<port id="0" precision="FP32">
					<dim>1</dim>
					<dim>256</dim>
					<dim>160</dim>
					<dim>160</dim>
				</port>
				<port id="1" precision="FP32">
					<dim>1</dim>
					<dim>1</dim>
					<dim>1</dim>
					<dim>1</dim>
				</port>
				<port id="2" precision="FP32">
					<dim>1</dim>
					<dim>1</dim>
					<dim>1</dim>
					<dim>1</dim>
				</port>
				<port id="3" precision="FP32">
					<dim>1</dim>
					<dim>1</dim>
					<dim>1</dim>
					<dim>1</dim>
				</port>
				<port id="4" precision="FP32">
					<dim>1</dim>
					<dim>1</dim>
					<dim>1</dim>
					<dim>1</dim>
				</port>
			</input>
			<output>
				<port id="5" precision="FP32" names="/nncf_module/backbone/layer1/layer1.1/bn3/CustomMaskRCNN/ResNet[backbone]/ResLayer[layer1]/Bottleneck[1]/NNCFBatchNorm2d[bn3]/batch_norm_0|OUTPUT/FakeQuantize_output_0">
					<dim>1</dim>
					<dim>256</dim>
					<dim>160</dim>
					<dim>160</dim>
				</port>
			</output>
		</layer>
		<layer id="114" name="/nncf_module/backbone/layer1/layer1.1/Add" type="Add" version="opset1">
			<data auto_broadcast="numpy" />
			<input>
				<port id="0" precision="FP32">
					<dim>1</dim>
					<dim>256</dim>
					<dim>160</dim>
					<dim>160</dim>
				</port>
				<port id="1" precision="FP32">
					<dim>1</dim>
					<dim>256</dim>
					<dim>160</dim>
					<dim>160</dim>
				</port>
			</input>
			<output>
				<port id="2" precision="FP32" names="/nncf_module/backbone/layer1/layer1.1/Add_output_0">
					<dim>1</dim>
					<dim>256</dim>
					<dim>160</dim>
					<dim>160</dim>
				</port>
			</output>
		</layer>
		<layer id="115" name="Constant_91133" type="Const" version="opset1">
			<data element_type="f32" shape="1, 1, 1, 1" offset="0" size="4" />
			<output>
				<port id="0" precision="FP32">
					<dim>1</dim>
					<dim>1</dim>
					<dim>1</dim>
					<dim>1</dim>
				</port>
			</output>
		</layer>
		<layer id="116" name="Constant_91134" type="Const" version="opset1">
			<data element_type="f32" shape="1, 1, 1, 1" offset="1390376" size="4" />
			<output>
				<port id="0" precision="FP32">
					<dim>1</dim>
					<dim>1</dim>
					<dim>1</dim>
					<dim>1</dim>
				</port>
			</output>
		</layer>
		<layer id="117" name="Constant_91135" type="Const" version="opset1">
			<data element_type="f32" shape="1, 1, 1, 1" offset="0" size="4" />
			<output>
				<port id="0" precision="FP32">
					<dim>1</dim>
					<dim>1</dim>
					<dim>1</dim>
					<dim>1</dim>
				</port>
			</output>
		</layer>
		<layer id="118" name="Constant_91136" type="Const" version="opset1">
			<data element_type="f32" shape="1, 1, 1, 1" offset="1390376" size="4" />
			<output>
				<port id="0" precision="FP32">
					<dim>1</dim>
					<dim>1</dim>
					<dim>1</dim>
					<dim>1</dim>
				</port>
			</output>
		</layer>
		<layer id="119" name="/nncf_module/backbone/layer1/layer1.1/relu/CustomMaskRCNN/ResNet[backbone]/ResLayer[layer1]/Bottleneck[1]/ReLU[relu]/relu__2|OUTPUT/FakeQuantize" type="FakeQuantize" version="opset1">
			<data levels="256" auto_broadcast="numpy" />
			<input>
				<port id="0" precision="FP32">
					<dim>1</dim>
					<dim>256</dim>
					<dim>160</dim>
					<dim>160</dim>
				</port>
				<port id="1" precision="FP32">
					<dim>1</dim>
					<dim>1</dim>
					<dim>1</dim>
					<dim>1</dim>
				</port>
				<port id="2" precision="FP32">
					<dim>1</dim>
					<dim>1</dim>
					<dim>1</dim>
					<dim>1</dim>
				</port>
				<port id="3" precision="FP32">
					<dim>1</dim>
					<dim>1</dim>
					<dim>1</dim>
					<dim>1</dim>
				</port>
				<port id="4" precision="FP32">
					<dim>1</dim>
					<dim>1</dim>
					<dim>1</dim>
					<dim>1</dim>
				</port>
			</input>
			<output>
				<port id="5" precision="FP32" names="/nncf_module/backbone/layer1/layer1.1/relu/CustomMaskRCNN/ResNet[backbone]/ResLayer[layer1]/Bottleneck[1]/ReLU[relu]/relu__2|OUTPUT/FakeQuantize_output_0">
					<dim>1</dim>
					<dim>256</dim>
					<dim>160</dim>
					<dim>160</dim>
				</port>
			</output>
		</layer>
		<layer id="120" name="/nncf_module/backbone/layer1/layer1.2/conv1/pre_ops.0/op/Constant" type="Const" version="opset1">
			<data element_type="i8" shape="64, 256, 1, 1" offset="1390380" size="16384" />
			<output>
				<port id="0" precision="I8">
					<dim>64</dim>
					<dim>256</dim>
					<dim>1</dim>
					<dim>1</dim>
				</port>
			</output>
		</layer>
		<layer id="121" name="Convert_96420" type="Convert" version="opset1">
			<data destination_type="f32" />
			<input>
				<port id="0" precision="I8">
					<dim>64</dim>
					<dim>256</dim>
					<dim>1</dim>
					<dim>1</dim>
				</port>
			</input>
			<output>
				<port id="1" precision="FP32">
					<dim>64</dim>
					<dim>256</dim>
					<dim>1</dim>
					<dim>1</dim>
				</port>
			</output>
		</layer>
		<layer id="122" name="Constant_96357" type="Const" version="opset1">
			<data element_type="f32" shape="64, 1, 1, 1" offset="1406764" size="256" />
			<output>
				<port id="0" precision="FP32">
					<dim>64</dim>
					<dim>1</dim>
					<dim>1</dim>
					<dim>1</dim>
				</port>
			</output>
		</layer>
		<layer id="123" name="Multiply_87690" type="Multiply" version="opset1">
			<data auto_broadcast="numpy" />
			<input>
				<port id="0" precision="FP32">
					<dim>64</dim>
					<dim>256</dim>
					<dim>1</dim>
					<dim>1</dim>
				</port>
				<port id="1" precision="FP32">
					<dim>64</dim>
					<dim>1</dim>
					<dim>1</dim>
					<dim>1</dim>
				</port>
			</input>
			<output>
				<port id="2" precision="FP32">
					<dim>64</dim>
					<dim>256</dim>
					<dim>1</dim>
					<dim>1</dim>
				</port>
			</output>
		</layer>
		<layer id="124" name="Multiply_87296" type="Convolution" version="opset1">
			<data strides="1, 1" dilations="1, 1" pads_begin="0, 0" pads_end="0, 0" auto_pad="explicit" />
			<input>
				<port id="0" precision="FP32">
					<dim>1</dim>
					<dim>256</dim>
					<dim>160</dim>
					<dim>160</dim>
				</port>
				<port id="1" precision="FP32">
					<dim>64</dim>
					<dim>256</dim>
					<dim>1</dim>
					<dim>1</dim>
				</port>
			</input>
			<output>
				<port id="2" precision="FP32">
					<dim>1</dim>
					<dim>64</dim>
					<dim>160</dim>
					<dim>160</dim>
				</port>
			</output>
		</layer>
		<layer id="125" name="Constant_87301" type="Const" version="opset1">
			<data element_type="f32" shape="1, 64, 1, 1" offset="1407020" size="256" />
			<output>
				<port id="0" precision="FP32">
					<dim>1</dim>
					<dim>64</dim>
					<dim>1</dim>
					<dim>1</dim>
				</port>
			</output>
		</layer>
		<layer id="126" name="/nncf_module/backbone/layer1/layer1.2/bn1/BatchNormalization" type="Add" version="opset1">
			<data auto_broadcast="numpy" />
			<input>
				<port id="0" precision="FP32">
					<dim>1</dim>
					<dim>64</dim>
					<dim>160</dim>
					<dim>160</dim>
				</port>
				<port id="1" precision="FP32">
					<dim>1</dim>
					<dim>64</dim>
					<dim>1</dim>
					<dim>1</dim>
				</port>
			</input>
			<output>
				<port id="2" precision="FP32" names="/nncf_module/backbone/layer1/layer1.2/bn1/BatchNormalization_output_0">
					<dim>1</dim>
					<dim>64</dim>
					<dim>160</dim>
					<dim>160</dim>
				</port>
			</output>
		</layer>
		<layer id="127" name="Constant_91137" type="Const" version="opset1">
			<data element_type="f32" shape="1, 1, 1, 1" offset="0" size="4" />
			<output>
				<port id="0" precision="FP32">
					<dim>1</dim>
					<dim>1</dim>
					<dim>1</dim>
					<dim>1</dim>
				</port>
			</output>
		</layer>
		<layer id="128" name="Constant_91138" type="Const" version="opset1">
			<data element_type="f32" shape="1, 1, 1, 1" offset="1407276" size="4" />
			<output>
				<port id="0" precision="FP32">
					<dim>1</dim>
					<dim>1</dim>
					<dim>1</dim>
					<dim>1</dim>
				</port>
			</output>
		</layer>
		<layer id="129" name="Constant_91139" type="Const" version="opset1">
			<data element_type="f32" shape="1, 1, 1, 1" offset="0" size="4" />
			<output>
				<port id="0" precision="FP32">
					<dim>1</dim>
					<dim>1</dim>
					<dim>1</dim>
					<dim>1</dim>
				</port>
			</output>
		</layer>
		<layer id="130" name="Constant_91140" type="Const" version="opset1">
			<data element_type="f32" shape="1, 1, 1, 1" offset="1407276" size="4" />
			<output>
				<port id="0" precision="FP32">
					<dim>1</dim>
					<dim>1</dim>
					<dim>1</dim>
					<dim>1</dim>
				</port>
			</output>
		</layer>
		<layer id="131" name="/nncf_module/backbone/layer1/layer1.2/relu/CustomMaskRCNN/ResNet[backbone]/ResLayer[layer1]/Bottleneck[2]/ReLU[relu]/relu__0|OUTPUT/FakeQuantize" type="FakeQuantize" version="opset1">
			<data levels="256" auto_broadcast="numpy" />
			<input>
				<port id="0" precision="FP32">
					<dim>1</dim>
					<dim>64</dim>
					<dim>160</dim>
					<dim>160</dim>
				</port>
				<port id="1" precision="FP32">
					<dim>1</dim>
					<dim>1</dim>
					<dim>1</dim>
					<dim>1</dim>
				</port>
				<port id="2" precision="FP32">
					<dim>1</dim>
					<dim>1</dim>
					<dim>1</dim>
					<dim>1</dim>
				</port>
				<port id="3" precision="FP32">
					<dim>1</dim>
					<dim>1</dim>
					<dim>1</dim>
					<dim>1</dim>
				</port>
				<port id="4" precision="FP32">
					<dim>1</dim>
					<dim>1</dim>
					<dim>1</dim>
					<dim>1</dim>
				</port>
			</input>
			<output>
				<port id="5" precision="FP32" names="/nncf_module/backbone/layer1/layer1.2/relu/CustomMaskRCNN/ResNet[backbone]/ResLayer[layer1]/Bottleneck[2]/ReLU[relu]/relu__0|OUTPUT/FakeQuantize_output_0">
					<dim>1</dim>
					<dim>64</dim>
					<dim>160</dim>
					<dim>160</dim>
				</port>
			</output>
		</layer>
		<layer id="132" name="/nncf_module/backbone/layer1/layer1.2/conv2/pre_ops.0/op/Constant" type="Const" version="opset1">
			<data element_type="i8" shape="64, 64, 3, 3" offset="1407280" size="36864" />
			<output>
				<port id="0" precision="I8">
					<dim>64</dim>
					<dim>64</dim>
					<dim>3</dim>
					<dim>3</dim>
				</port>
			</output>
		</layer>
		<layer id="133" name="Convert_96541" type="Convert" version="opset1">
			<data destination_type="f32" />
			<input>
				<port id="0" precision="I8">
					<dim>64</dim>
					<dim>64</dim>
					<dim>3</dim>
					<dim>3</dim>
				</port>
			</input>
			<output>
				<port id="1" precision="FP32">
					<dim>64</dim>
					<dim>64</dim>
					<dim>3</dim>
					<dim>3</dim>
				</port>
			</output>
		</layer>
		<layer id="134" name="Constant_96478" type="Const" version="opset1">
			<data element_type="f32" shape="64, 1, 1, 1" offset="1444144" size="256" />
			<output>
				<port id="0" precision="FP32">
					<dim>64</dim>
					<dim>1</dim>
					<dim>1</dim>
					<dim>1</dim>
				</port>
			</output>
		</layer>
		<layer id="135" name="Multiply_87699" type="Multiply" version="opset1">
			<data auto_broadcast="numpy" />
			<input>
				<port id="0" precision="FP32">
					<dim>64</dim>
					<dim>64</dim>
					<dim>3</dim>
					<dim>3</dim>
				</port>
				<port id="1" precision="FP32">
					<dim>64</dim>
					<dim>1</dim>
					<dim>1</dim>
					<dim>1</dim>
				</port>
			</input>
			<output>
				<port id="2" precision="FP32">
					<dim>64</dim>
					<dim>64</dim>
					<dim>3</dim>
					<dim>3</dim>
				</port>
			</output>
		</layer>
		<layer id="136" name="Multiply_87303" type="Convolution" version="opset1">
			<data strides="1, 1" dilations="1, 1" pads_begin="1, 1" pads_end="1, 1" auto_pad="explicit" />
			<input>
				<port id="0" precision="FP32">
					<dim>1</dim>
					<dim>64</dim>
					<dim>160</dim>
					<dim>160</dim>
				</port>
				<port id="1" precision="FP32">
					<dim>64</dim>
					<dim>64</dim>
					<dim>3</dim>
					<dim>3</dim>
				</port>
			</input>
			<output>
				<port id="2" precision="FP32">
					<dim>1</dim>
					<dim>64</dim>
					<dim>160</dim>
					<dim>160</dim>
				</port>
			</output>
		</layer>
		<layer id="137" name="Constant_87308" type="Const" version="opset1">
			<data element_type="f32" shape="1, 64, 1, 1" offset="1444400" size="256" />
			<output>
				<port id="0" precision="FP32">
					<dim>1</dim>
					<dim>64</dim>
					<dim>1</dim>
					<dim>1</dim>
				</port>
			</output>
		</layer>
		<layer id="138" name="/nncf_module/backbone/layer1/layer1.2/bn2/BatchNormalization" type="Add" version="opset1">
			<data auto_broadcast="numpy" />
			<input>
				<port id="0" precision="FP32">
					<dim>1</dim>
					<dim>64</dim>
					<dim>160</dim>
					<dim>160</dim>
				</port>
				<port id="1" precision="FP32">
					<dim>1</dim>
					<dim>64</dim>
					<dim>1</dim>
					<dim>1</dim>
				</port>
			</input>
			<output>
				<port id="2" precision="FP32" names="/nncf_module/backbone/layer1/layer1.2/bn2/BatchNormalization_output_0">
					<dim>1</dim>
					<dim>64</dim>
					<dim>160</dim>
					<dim>160</dim>
				</port>
			</output>
		</layer>
		<layer id="139" name="Constant_91141" type="Const" version="opset1">
			<data element_type="f32" shape="1, 1, 1, 1" offset="0" size="4" />
			<output>
				<port id="0" precision="FP32">
					<dim>1</dim>
					<dim>1</dim>
					<dim>1</dim>
					<dim>1</dim>
				</port>
			</output>
		</layer>
		<layer id="140" name="Constant_91142" type="Const" version="opset1">
			<data element_type="f32" shape="1, 1, 1, 1" offset="1444656" size="4" />
			<output>
				<port id="0" precision="FP32">
					<dim>1</dim>
					<dim>1</dim>
					<dim>1</dim>
					<dim>1</dim>
				</port>
			</output>
		</layer>
		<layer id="141" name="Constant_91143" type="Const" version="opset1">
			<data element_type="f32" shape="1, 1, 1, 1" offset="0" size="4" />
			<output>
				<port id="0" precision="FP32">
					<dim>1</dim>
					<dim>1</dim>
					<dim>1</dim>
					<dim>1</dim>
				</port>
			</output>
		</layer>
		<layer id="142" name="Constant_91144" type="Const" version="opset1">
			<data element_type="f32" shape="1, 1, 1, 1" offset="1444656" size="4" />
			<output>
				<port id="0" precision="FP32">
					<dim>1</dim>
					<dim>1</dim>
					<dim>1</dim>
					<dim>1</dim>
				</port>
			</output>
		</layer>
		<layer id="143" name="/nncf_module/backbone/layer1/layer1.2/relu/CustomMaskRCNN/ResNet[backbone]/ResLayer[layer1]/Bottleneck[2]/ReLU[relu]/relu__1|OUTPUT/FakeQuantize" type="FakeQuantize" version="opset1">
			<data levels="256" auto_broadcast="numpy" />
			<input>
				<port id="0" precision="FP32">
					<dim>1</dim>
					<dim>64</dim>
					<dim>160</dim>
					<dim>160</dim>
				</port>
				<port id="1" precision="FP32">
					<dim>1</dim>
					<dim>1</dim>
					<dim>1</dim>
					<dim>1</dim>
				</port>
				<port id="2" precision="FP32">
					<dim>1</dim>
					<dim>1</dim>
					<dim>1</dim>
					<dim>1</dim>
				</port>
				<port id="3" precision="FP32">
					<dim>1</dim>
					<dim>1</dim>
					<dim>1</dim>
					<dim>1</dim>
				</port>
				<port id="4" precision="FP32">
					<dim>1</dim>
					<dim>1</dim>
					<dim>1</dim>
					<dim>1</dim>
				</port>
			</input>
			<output>
				<port id="5" precision="FP32" names="/nncf_module/backbone/layer1/layer1.2/relu/CustomMaskRCNN/ResNet[backbone]/ResLayer[layer1]/Bottleneck[2]/ReLU[relu]/relu__1|OUTPUT/FakeQuantize_output_0">
					<dim>1</dim>
					<dim>64</dim>
					<dim>160</dim>
					<dim>160</dim>
				</port>
			</output>
		</layer>
		<layer id="144" name="/nncf_module/backbone/layer1/layer1.2/conv3/pre_ops.0/op/Constant" type="Const" version="opset1">
			<data element_type="i8" shape="256, 64, 1, 1" offset="1444660" size="16384" />
			<output>
				<port id="0" precision="I8">
					<dim>256</dim>
					<dim>64</dim>
					<dim>1</dim>
					<dim>1</dim>
				</port>
			</output>
		</layer>
		<layer id="145" name="Convert_96662" type="Convert" version="opset1">
			<data destination_type="f32" />
			<input>
				<port id="0" precision="I8">
					<dim>256</dim>
					<dim>64</dim>
					<dim>1</dim>
					<dim>1</dim>
				</port>
			</input>
			<output>
				<port id="1" precision="FP32">
					<dim>256</dim>
					<dim>64</dim>
					<dim>1</dim>
					<dim>1</dim>
				</port>
			</output>
		</layer>
		<layer id="146" name="Constant_96599" type="Const" version="opset1">
			<data element_type="f32" shape="256, 1, 1, 1" offset="1461044" size="1024" />
			<output>
				<port id="0" precision="FP32">
					<dim>256</dim>
					<dim>1</dim>
					<dim>1</dim>
					<dim>1</dim>
				</port>
			</output>
		</layer>
		<layer id="147" name="Multiply_87708" type="Multiply" version="opset1">
			<data auto_broadcast="numpy" />
			<input>
				<port id="0" precision="FP32">
					<dim>256</dim>
					<dim>64</dim>
					<dim>1</dim>
					<dim>1</dim>
				</port>
				<port id="1" precision="FP32">
					<dim>256</dim>
					<dim>1</dim>
					<dim>1</dim>
					<dim>1</dim>
				</port>
			</input>
			<output>
				<port id="2" precision="FP32">
					<dim>256</dim>
					<dim>64</dim>
					<dim>1</dim>
					<dim>1</dim>
				</port>
			</output>
		</layer>
		<layer id="148" name="Multiply_87310" type="Convolution" version="opset1">
			<data strides="1, 1" dilations="1, 1" pads_begin="0, 0" pads_end="0, 0" auto_pad="explicit" />
			<input>
				<port id="0" precision="FP32">
					<dim>1</dim>
					<dim>64</dim>
					<dim>160</dim>
					<dim>160</dim>
				</port>
				<port id="1" precision="FP32">
					<dim>256</dim>
					<dim>64</dim>
					<dim>1</dim>
					<dim>1</dim>
				</port>
			</input>
			<output>
				<port id="2" precision="FP32">
					<dim>1</dim>
					<dim>256</dim>
					<dim>160</dim>
					<dim>160</dim>
				</port>
			</output>
		</layer>
		<layer id="149" name="Constant_87315" type="Const" version="opset1">
			<data element_type="f32" shape="1, 256, 1, 1" offset="1462068" size="1024" />
			<output>
				<port id="0" precision="FP32">
					<dim>1</dim>
					<dim>256</dim>
					<dim>1</dim>
					<dim>1</dim>
				</port>
			</output>
		</layer>
		<layer id="150" name="/nncf_module/backbone/layer1/layer1.2/bn3/BatchNormalization" type="Add" version="opset1">
			<data auto_broadcast="numpy" />
			<input>
				<port id="0" precision="FP32">
					<dim>1</dim>
					<dim>256</dim>
					<dim>160</dim>
					<dim>160</dim>
				</port>
				<port id="1" precision="FP32">
					<dim>1</dim>
					<dim>256</dim>
					<dim>1</dim>
					<dim>1</dim>
				</port>
			</input>
			<output>
				<port id="2" precision="FP32" names="/nncf_module/backbone/layer1/layer1.2/bn3/BatchNormalization_output_0">
					<dim>1</dim>
					<dim>256</dim>
					<dim>160</dim>
					<dim>160</dim>
				</port>
			</output>
		</layer>
		<layer id="151" name="Constant_91145" type="Const" version="opset1">
			<data element_type="f32" shape="1, 1, 1, 1" offset="1463092" size="4" />
			<output>
				<port id="0" precision="FP32">
					<dim>1</dim>
					<dim>1</dim>
					<dim>1</dim>
					<dim>1</dim>
				</port>
			</output>
		</layer>
		<layer id="152" name="Constant_91146" type="Const" version="opset1">
			<data element_type="f32" shape="1, 1, 1, 1" offset="1463096" size="4" />
			<output>
				<port id="0" precision="FP32">
					<dim>1</dim>
					<dim>1</dim>
					<dim>1</dim>
					<dim>1</dim>
				</port>
			</output>
		</layer>
		<layer id="153" name="Constant_91147" type="Const" version="opset1">
			<data element_type="f32" shape="1, 1, 1, 1" offset="1463092" size="4" />
			<output>
				<port id="0" precision="FP32">
					<dim>1</dim>
					<dim>1</dim>
					<dim>1</dim>
					<dim>1</dim>
				</port>
			</output>
		</layer>
		<layer id="154" name="Constant_91148" type="Const" version="opset1">
			<data element_type="f32" shape="1, 1, 1, 1" offset="1463096" size="4" />
			<output>
				<port id="0" precision="FP32">
					<dim>1</dim>
					<dim>1</dim>
					<dim>1</dim>
					<dim>1</dim>
				</port>
			</output>
		</layer>
		<layer id="155" name="/nncf_module/backbone/layer1/layer1.2/bn3/CustomMaskRCNN/ResNet[backbone]/ResLayer[layer1]/Bottleneck[2]/NNCFBatchNorm2d[bn3]/batch_norm_0|OUTPUT/FakeQuantize" type="FakeQuantize" version="opset1">
			<data levels="256" auto_broadcast="numpy" />
			<input>
				<port id="0" precision="FP32">
					<dim>1</dim>
					<dim>256</dim>
					<dim>160</dim>
					<dim>160</dim>
				</port>
				<port id="1" precision="FP32">
					<dim>1</dim>
					<dim>1</dim>
					<dim>1</dim>
					<dim>1</dim>
				</port>
				<port id="2" precision="FP32">
					<dim>1</dim>
					<dim>1</dim>
					<dim>1</dim>
					<dim>1</dim>
				</port>
				<port id="3" precision="FP32">
					<dim>1</dim>
					<dim>1</dim>
					<dim>1</dim>
					<dim>1</dim>
				</port>
				<port id="4" precision="FP32">
					<dim>1</dim>
					<dim>1</dim>
					<dim>1</dim>
					<dim>1</dim>
				</port>
			</input>
			<output>
				<port id="5" precision="FP32" names="/nncf_module/backbone/layer1/layer1.2/bn3/CustomMaskRCNN/ResNet[backbone]/ResLayer[layer1]/Bottleneck[2]/NNCFBatchNorm2d[bn3]/batch_norm_0|OUTPUT/FakeQuantize_output_0">
					<dim>1</dim>
					<dim>256</dim>
					<dim>160</dim>
					<dim>160</dim>
				</port>
			</output>
		</layer>
		<layer id="156" name="/nncf_module/backbone/layer1/layer1.2/Add" type="Add" version="opset1">
			<data auto_broadcast="numpy" />
			<input>
				<port id="0" precision="FP32">
					<dim>1</dim>
					<dim>256</dim>
					<dim>160</dim>
					<dim>160</dim>
				</port>
				<port id="1" precision="FP32">
					<dim>1</dim>
					<dim>256</dim>
					<dim>160</dim>
					<dim>160</dim>
				</port>
			</input>
			<output>
				<port id="2" precision="FP32" names="/nncf_module/backbone/layer1/layer1.2/Add_output_0">
					<dim>1</dim>
					<dim>256</dim>
					<dim>160</dim>
					<dim>160</dim>
				</port>
			</output>
		</layer>
		<layer id="157" name="Constant_91149" type="Const" version="opset1">
			<data element_type="f32" shape="1, 1, 1, 1" offset="0" size="4" />
			<output>
				<port id="0" precision="FP32">
					<dim>1</dim>
					<dim>1</dim>
					<dim>1</dim>
					<dim>1</dim>
				</port>
			</output>
		</layer>
		<layer id="158" name="Constant_91150" type="Const" version="opset1">
			<data element_type="f32" shape="1, 1, 1, 1" offset="1463100" size="4" />
			<output>
				<port id="0" precision="FP32">
					<dim>1</dim>
					<dim>1</dim>
					<dim>1</dim>
					<dim>1</dim>
				</port>
			</output>
		</layer>
		<layer id="159" name="Constant_91151" type="Const" version="opset1">
			<data element_type="f32" shape="1, 1, 1, 1" offset="0" size="4" />
			<output>
				<port id="0" precision="FP32">
					<dim>1</dim>
					<dim>1</dim>
					<dim>1</dim>
					<dim>1</dim>
				</port>
			</output>
		</layer>
		<layer id="160" name="Constant_91152" type="Const" version="opset1">
			<data element_type="f32" shape="1, 1, 1, 1" offset="1463100" size="4" />
			<output>
				<port id="0" precision="FP32">
					<dim>1</dim>
					<dim>1</dim>
					<dim>1</dim>
					<dim>1</dim>
				</port>
			</output>
		</layer>
		<layer id="161" name="/nncf_module/backbone/layer1/layer1.2/relu/CustomMaskRCNN/ResNet[backbone]/ResLayer[layer1]/Bottleneck[2]/ReLU[relu]/relu__2|OUTPUT/FakeQuantize" type="FakeQuantize" version="opset1">
			<data levels="256" auto_broadcast="numpy" />
			<input>
				<port id="0" precision="FP32">
					<dim>1</dim>
					<dim>256</dim>
					<dim>160</dim>
					<dim>160</dim>
				</port>
				<port id="1" precision="FP32">
					<dim>1</dim>
					<dim>1</dim>
					<dim>1</dim>
					<dim>1</dim>
				</port>
				<port id="2" precision="FP32">
					<dim>1</dim>
					<dim>1</dim>
					<dim>1</dim>
					<dim>1</dim>
				</port>
				<port id="3" precision="FP32">
					<dim>1</dim>
					<dim>1</dim>
					<dim>1</dim>
					<dim>1</dim>
				</port>
				<port id="4" precision="FP32">
					<dim>1</dim>
					<dim>1</dim>
					<dim>1</dim>
					<dim>1</dim>
				</port>
			</input>
			<output>
				<port id="5" precision="FP32" names="/nncf_module/backbone/layer1/layer1.2/relu/CustomMaskRCNN/ResNet[backbone]/ResLayer[layer1]/Bottleneck[2]/ReLU[relu]/relu__2|OUTPUT/FakeQuantize_output_0">
					<dim>1</dim>
					<dim>256</dim>
					<dim>160</dim>
					<dim>160</dim>
				</port>
			</output>
		</layer>
		<layer id="162" name="/nncf_module/neck/lateral_convs.0/conv/pre_ops.0/op/Constant" type="Const" version="opset1">
			<data element_type="i8" shape="256, 256, 1, 1" offset="1463104" size="65536" />
			<output>
				<port id="0" precision="I8">
					<dim>256</dim>
					<dim>256</dim>
					<dim>1</dim>
					<dim>1</dim>
				</port>
			</output>
		</layer>
		<layer id="163" name="Convert_96783" type="Convert" version="opset1">
			<data destination_type="f32" />
			<input>
				<port id="0" precision="I8">
					<dim>256</dim>
					<dim>256</dim>
					<dim>1</dim>
					<dim>1</dim>
				</port>
			</input>
			<output>
				<port id="1" precision="FP32">
					<dim>256</dim>
					<dim>256</dim>
					<dim>1</dim>
					<dim>1</dim>
				</port>
			</output>
		</layer>
		<layer id="164" name="Constant_96720" type="Const" version="opset1">
			<data element_type="f32" shape="256, 1, 1, 1" offset="1528640" size="1024" />
			<output>
				<port id="0" precision="FP32">
					<dim>256</dim>
					<dim>1</dim>
					<dim>1</dim>
					<dim>1</dim>
				</port>
			</output>
		</layer>
		<layer id="165" name="/nncf_module/neck/lateral_convs.0/conv/pre_ops.0/op/FakeQuantize" type="Multiply" version="opset1">
			<data auto_broadcast="numpy" />
			<input>
				<port id="0" precision="FP32">
					<dim>256</dim>
					<dim>256</dim>
					<dim>1</dim>
					<dim>1</dim>
				</port>
				<port id="1" precision="FP32">
					<dim>256</dim>
					<dim>1</dim>
					<dim>1</dim>
					<dim>1</dim>
				</port>
			</input>
			<output>
				<port id="2" precision="FP32" names="/nncf_module/neck/lateral_convs.0/conv/pre_ops.0/op/FakeQuantize_output_0">
					<dim>256</dim>
					<dim>256</dim>
					<dim>1</dim>
					<dim>1</dim>
				</port>
			</output>
		</layer>
		<layer id="166" name="/nncf_module/neck/lateral_convs.0/conv/Conv/WithoutBiases" type="Convolution" version="opset1">
			<data strides="1, 1" dilations="1, 1" pads_begin="0, 0" pads_end="0, 0" auto_pad="explicit" />
			<input>
				<port id="0" precision="FP32">
					<dim>1</dim>
					<dim>256</dim>
					<dim>160</dim>
					<dim>160</dim>
				</port>
				<port id="1" precision="FP32">
					<dim>256</dim>
					<dim>256</dim>
					<dim>1</dim>
					<dim>1</dim>
				</port>
			</input>
			<output>
				<port id="2" precision="FP32">
					<dim>1</dim>
					<dim>256</dim>
					<dim>160</dim>
					<dim>160</dim>
				</port>
			</output>
		</layer>
		<layer id="167" name="Reshape_857" type="Const" version="opset1">
			<data element_type="f32" shape="1, 256, 1, 1" offset="1529664" size="1024" />
			<output>
				<port id="0" precision="FP32">
					<dim>1</dim>
					<dim>256</dim>
					<dim>1</dim>
					<dim>1</dim>
				</port>
			</output>
		</layer>
		<layer id="168" name="/nncf_module/neck/lateral_convs.0/conv/Conv" type="Add" version="opset1">
			<data auto_broadcast="numpy" />
			<input>
				<port id="0" precision="FP32">
					<dim>1</dim>
					<dim>256</dim>
					<dim>160</dim>
					<dim>160</dim>
				</port>
				<port id="1" precision="FP32">
					<dim>1</dim>
					<dim>256</dim>
					<dim>1</dim>
					<dim>1</dim>
				</port>
			</input>
			<output>
				<port id="2" precision="FP32" names="/nncf_module/neck/lateral_convs.0/conv/Conv_output_0">
					<dim>1</dim>
					<dim>256</dim>
					<dim>160</dim>
					<dim>160</dim>
				</port>
			</output>
		</layer>
		<layer id="169" name="Constant_91153" type="Const" version="opset1">
			<data element_type="f32" shape="1, 1, 1, 1" offset="1530688" size="4" />
			<output>
				<port id="0" precision="FP32">
					<dim>1</dim>
					<dim>1</dim>
					<dim>1</dim>
					<dim>1</dim>
				</port>
			</output>
		</layer>
		<layer id="170" name="Constant_91154" type="Const" version="opset1">
			<data element_type="f32" shape="1, 1, 1, 1" offset="1530692" size="4" />
			<output>
				<port id="0" precision="FP32">
					<dim>1</dim>
					<dim>1</dim>
					<dim>1</dim>
					<dim>1</dim>
				</port>
			</output>
		</layer>
		<layer id="171" name="Constant_91155" type="Const" version="opset1">
			<data element_type="f32" shape="1, 1, 1, 1" offset="1530688" size="4" />
			<output>
				<port id="0" precision="FP32">
					<dim>1</dim>
					<dim>1</dim>
					<dim>1</dim>
					<dim>1</dim>
				</port>
			</output>
		</layer>
		<layer id="172" name="Constant_91156" type="Const" version="opset1">
			<data element_type="f32" shape="1, 1, 1, 1" offset="1530692" size="4" />
			<output>
				<port id="0" precision="FP32">
					<dim>1</dim>
					<dim>1</dim>
					<dim>1</dim>
					<dim>1</dim>
				</port>
			</output>
		</layer>
		<layer id="173" name="/nncf_module/neck/lateral_convs.0/conv/CustomMaskRCNN/FPN[neck]/ModuleList[lateral_convs]/ConvModule[0]/NNCFConv2d[conv]/conv2d_0|OUTPUT/FakeQuantize" type="FakeQuantize" version="opset1">
			<data levels="256" auto_broadcast="numpy" />
			<input>
				<port id="0" precision="FP32">
					<dim>1</dim>
					<dim>256</dim>
					<dim>160</dim>
					<dim>160</dim>
				</port>
				<port id="1" precision="FP32">
					<dim>1</dim>
					<dim>1</dim>
					<dim>1</dim>
					<dim>1</dim>
				</port>
				<port id="2" precision="FP32">
					<dim>1</dim>
					<dim>1</dim>
					<dim>1</dim>
					<dim>1</dim>
				</port>
				<port id="3" precision="FP32">
					<dim>1</dim>
					<dim>1</dim>
					<dim>1</dim>
					<dim>1</dim>
				</port>
				<port id="4" precision="FP32">
					<dim>1</dim>
					<dim>1</dim>
					<dim>1</dim>
					<dim>1</dim>
				</port>
			</input>
			<output>
				<port id="5" precision="FP32" names="/nncf_module/neck/lateral_convs.0/conv/CustomMaskRCNN/FPN[neck]/ModuleList[lateral_convs]/ConvModule[0]/NNCFConv2d[conv]/conv2d_0|OUTPUT/FakeQuantize_output_0">
					<dim>1</dim>
					<dim>256</dim>
					<dim>160</dim>
					<dim>160</dim>
				</port>
			</output>
		</layer>
		<layer id="174" name="/nncf_module/backbone/layer2/layer2.0/conv1/pre_ops.0/op/Constant" type="Const" version="opset1">
			<data element_type="i8" shape="128, 256, 1, 1" offset="1530696" size="32768" />
			<output>
				<port id="0" precision="I8">
					<dim>128</dim>
					<dim>256</dim>
					<dim>1</dim>
					<dim>1</dim>
				</port>
			</output>
		</layer>
		<layer id="175" name="Convert_96904" type="Convert" version="opset1">
			<data destination_type="f32" />
			<input>
				<port id="0" precision="I8">
					<dim>128</dim>
					<dim>256</dim>
					<dim>1</dim>
					<dim>1</dim>
				</port>
			</input>
			<output>
				<port id="1" precision="FP32">
					<dim>128</dim>
					<dim>256</dim>
					<dim>1</dim>
					<dim>1</dim>
				</port>
			</output>
		</layer>
		<layer id="176" name="Constant_96841" type="Const" version="opset1">
			<data element_type="f32" shape="128, 1, 1, 1" offset="1563464" size="512" />
			<output>
				<port id="0" precision="FP32">
					<dim>128</dim>
					<dim>1</dim>
					<dim>1</dim>
					<dim>1</dim>
				</port>
			</output>
		</layer>
		<layer id="177" name="Multiply_87717" type="Multiply" version="opset1">
			<data auto_broadcast="numpy" />
			<input>
				<port id="0" precision="FP32">
					<dim>128</dim>
					<dim>256</dim>
					<dim>1</dim>
					<dim>1</dim>
				</port>
				<port id="1" precision="FP32">
					<dim>128</dim>
					<dim>1</dim>
					<dim>1</dim>
					<dim>1</dim>
				</port>
			</input>
			<output>
				<port id="2" precision="FP32">
					<dim>128</dim>
					<dim>256</dim>
					<dim>1</dim>
					<dim>1</dim>
				</port>
			</output>
		</layer>
		<layer id="178" name="Multiply_87317" type="Convolution" version="opset1">
			<data strides="1, 1" dilations="1, 1" pads_begin="0, 0" pads_end="0, 0" auto_pad="explicit" />
			<input>
				<port id="0" precision="FP32">
					<dim>1</dim>
					<dim>256</dim>
					<dim>160</dim>
					<dim>160</dim>
				</port>
				<port id="1" precision="FP32">
					<dim>128</dim>
					<dim>256</dim>
					<dim>1</dim>
					<dim>1</dim>
				</port>
			</input>
			<output>
				<port id="2" precision="FP32">
					<dim>1</dim>
					<dim>128</dim>
					<dim>160</dim>
					<dim>160</dim>
				</port>
			</output>
		</layer>
		<layer id="179" name="Constant_87322" type="Const" version="opset1">
			<data element_type="f32" shape="1, 128, 1, 1" offset="1563976" size="512" />
			<output>
				<port id="0" precision="FP32">
					<dim>1</dim>
					<dim>128</dim>
					<dim>1</dim>
					<dim>1</dim>
				</port>
			</output>
		</layer>
		<layer id="180" name="/nncf_module/backbone/layer2/layer2.0/bn1/BatchNormalization" type="Add" version="opset1">
			<data auto_broadcast="numpy" />
			<input>
				<port id="0" precision="FP32">
					<dim>1</dim>
					<dim>128</dim>
					<dim>160</dim>
					<dim>160</dim>
				</port>
				<port id="1" precision="FP32">
					<dim>1</dim>
					<dim>128</dim>
					<dim>1</dim>
					<dim>1</dim>
				</port>
			</input>
			<output>
				<port id="2" precision="FP32" names="/nncf_module/backbone/layer2/layer2.0/bn1/BatchNormalization_output_0">
					<dim>1</dim>
					<dim>128</dim>
					<dim>160</dim>
					<dim>160</dim>
				</port>
			</output>
		</layer>
		<layer id="181" name="Constant_91157" type="Const" version="opset1">
			<data element_type="f32" shape="1, 1, 1, 1" offset="0" size="4" />
			<output>
				<port id="0" precision="FP32">
					<dim>1</dim>
					<dim>1</dim>
					<dim>1</dim>
					<dim>1</dim>
				</port>
			</output>
		</layer>
		<layer id="182" name="Constant_91158" type="Const" version="opset1">
			<data element_type="f32" shape="1, 1, 1, 1" offset="1564488" size="4" />
			<output>
				<port id="0" precision="FP32">
					<dim>1</dim>
					<dim>1</dim>
					<dim>1</dim>
					<dim>1</dim>
				</port>
			</output>
		</layer>
		<layer id="183" name="Constant_91159" type="Const" version="opset1">
			<data element_type="f32" shape="1, 1, 1, 1" offset="0" size="4" />
			<output>
				<port id="0" precision="FP32">
					<dim>1</dim>
					<dim>1</dim>
					<dim>1</dim>
					<dim>1</dim>
				</port>
			</output>
		</layer>
		<layer id="184" name="Constant_91160" type="Const" version="opset1">
			<data element_type="f32" shape="1, 1, 1, 1" offset="1564488" size="4" />
			<output>
				<port id="0" precision="FP32">
					<dim>1</dim>
					<dim>1</dim>
					<dim>1</dim>
					<dim>1</dim>
				</port>
			</output>
		</layer>
		<layer id="185" name="/nncf_module/backbone/layer2/layer2.0/relu/CustomMaskRCNN/ResNet[backbone]/ResLayer[layer2]/Bottleneck[0]/ReLU[relu]/relu__0|OUTPUT/FakeQuantize" type="FakeQuantize" version="opset1">
			<data levels="256" auto_broadcast="numpy" />
			<input>
				<port id="0" precision="FP32">
					<dim>1</dim>
					<dim>128</dim>
					<dim>160</dim>
					<dim>160</dim>
				</port>
				<port id="1" precision="FP32">
					<dim>1</dim>
					<dim>1</dim>
					<dim>1</dim>
					<dim>1</dim>
				</port>
				<port id="2" precision="FP32">
					<dim>1</dim>
					<dim>1</dim>
					<dim>1</dim>
					<dim>1</dim>
				</port>
				<port id="3" precision="FP32">
					<dim>1</dim>
					<dim>1</dim>
					<dim>1</dim>
					<dim>1</dim>
				</port>
				<port id="4" precision="FP32">
					<dim>1</dim>
					<dim>1</dim>
					<dim>1</dim>
					<dim>1</dim>
				</port>
			</input>
			<output>
				<port id="5" precision="FP32" names="/nncf_module/backbone/layer2/layer2.0/relu/CustomMaskRCNN/ResNet[backbone]/ResLayer[layer2]/Bottleneck[0]/ReLU[relu]/relu__0|OUTPUT/FakeQuantize_output_0">
					<dim>1</dim>
					<dim>128</dim>
					<dim>160</dim>
					<dim>160</dim>
				</port>
			</output>
		</layer>
		<layer id="186" name="/nncf_module/backbone/layer2/layer2.0/conv2/pre_ops.0/op/Constant" type="Const" version="opset1">
			<data element_type="i8" shape="128, 128, 3, 3" offset="1564492" size="147456" />
			<output>
				<port id="0" precision="I8">
					<dim>128</dim>
					<dim>128</dim>
					<dim>3</dim>
					<dim>3</dim>
				</port>
			</output>
		</layer>
		<layer id="187" name="Convert_97025" type="Convert" version="opset1">
			<data destination_type="f32" />
			<input>
				<port id="0" precision="I8">
					<dim>128</dim>
					<dim>128</dim>
					<dim>3</dim>
					<dim>3</dim>
				</port>
			</input>
			<output>
				<port id="1" precision="FP32">
					<dim>128</dim>
					<dim>128</dim>
					<dim>3</dim>
					<dim>3</dim>
				</port>
			</output>
		</layer>
		<layer id="188" name="Constant_96962" type="Const" version="opset1">
			<data element_type="f32" shape="128, 1, 1, 1" offset="1711948" size="512" />
			<output>
				<port id="0" precision="FP32">
					<dim>128</dim>
					<dim>1</dim>
					<dim>1</dim>
					<dim>1</dim>
				</port>
			</output>
		</layer>
		<layer id="189" name="Multiply_87726" type="Multiply" version="opset1">
			<data auto_broadcast="numpy" />
			<input>
				<port id="0" precision="FP32">
					<dim>128</dim>
					<dim>128</dim>
					<dim>3</dim>
					<dim>3</dim>
				</port>
				<port id="1" precision="FP32">
					<dim>128</dim>
					<dim>1</dim>
					<dim>1</dim>
					<dim>1</dim>
				</port>
			</input>
			<output>
				<port id="2" precision="FP32">
					<dim>128</dim>
					<dim>128</dim>
					<dim>3</dim>
					<dim>3</dim>
				</port>
			</output>
		</layer>
		<layer id="190" name="Multiply_87324" type="Convolution" version="opset1">
			<data strides="2, 2" dilations="1, 1" pads_begin="1, 1" pads_end="1, 1" auto_pad="explicit" />
			<input>
				<port id="0" precision="FP32">
					<dim>1</dim>
					<dim>128</dim>
					<dim>160</dim>
					<dim>160</dim>
				</port>
				<port id="1" precision="FP32">
					<dim>128</dim>
					<dim>128</dim>
					<dim>3</dim>
					<dim>3</dim>
				</port>
			</input>
			<output>
				<port id="2" precision="FP32">
					<dim>1</dim>
					<dim>128</dim>
					<dim>80</dim>
					<dim>80</dim>
				</port>
			</output>
		</layer>
		<layer id="191" name="Constant_87329" type="Const" version="opset1">
			<data element_type="f32" shape="1, 128, 1, 1" offset="1712460" size="512" />
			<output>
				<port id="0" precision="FP32">
					<dim>1</dim>
					<dim>128</dim>
					<dim>1</dim>
					<dim>1</dim>
				</port>
			</output>
		</layer>
		<layer id="192" name="/nncf_module/backbone/layer2/layer2.0/bn2/BatchNormalization" type="Add" version="opset1">
			<data auto_broadcast="numpy" />
			<input>
				<port id="0" precision="FP32">
					<dim>1</dim>
					<dim>128</dim>
					<dim>80</dim>
					<dim>80</dim>
				</port>
				<port id="1" precision="FP32">
					<dim>1</dim>
					<dim>128</dim>
					<dim>1</dim>
					<dim>1</dim>
				</port>
			</input>
			<output>
				<port id="2" precision="FP32" names="/nncf_module/backbone/layer2/layer2.0/bn2/BatchNormalization_output_0">
					<dim>1</dim>
					<dim>128</dim>
					<dim>80</dim>
					<dim>80</dim>
				</port>
			</output>
		</layer>
		<layer id="193" name="Constant_91161" type="Const" version="opset1">
			<data element_type="f32" shape="1, 1, 1, 1" offset="0" size="4" />
			<output>
				<port id="0" precision="FP32">
					<dim>1</dim>
					<dim>1</dim>
					<dim>1</dim>
					<dim>1</dim>
				</port>
			</output>
		</layer>
		<layer id="194" name="Constant_91162" type="Const" version="opset1">
			<data element_type="f32" shape="1, 1, 1, 1" offset="1712972" size="4" />
			<output>
				<port id="0" precision="FP32">
					<dim>1</dim>
					<dim>1</dim>
					<dim>1</dim>
					<dim>1</dim>
				</port>
			</output>
		</layer>
		<layer id="195" name="Constant_91163" type="Const" version="opset1">
			<data element_type="f32" shape="1, 1, 1, 1" offset="0" size="4" />
			<output>
				<port id="0" precision="FP32">
					<dim>1</dim>
					<dim>1</dim>
					<dim>1</dim>
					<dim>1</dim>
				</port>
			</output>
		</layer>
		<layer id="196" name="Constant_91164" type="Const" version="opset1">
			<data element_type="f32" shape="1, 1, 1, 1" offset="1712972" size="4" />
			<output>
				<port id="0" precision="FP32">
					<dim>1</dim>
					<dim>1</dim>
					<dim>1</dim>
					<dim>1</dim>
				</port>
			</output>
		</layer>
		<layer id="197" name="/nncf_module/backbone/layer2/layer2.0/relu/CustomMaskRCNN/ResNet[backbone]/ResLayer[layer2]/Bottleneck[0]/ReLU[relu]/relu__1|OUTPUT/FakeQuantize" type="FakeQuantize" version="opset1">
			<data levels="256" auto_broadcast="numpy" />
			<input>
				<port id="0" precision="FP32">
					<dim>1</dim>
					<dim>128</dim>
					<dim>80</dim>
					<dim>80</dim>
				</port>
				<port id="1" precision="FP32">
					<dim>1</dim>
					<dim>1</dim>
					<dim>1</dim>
					<dim>1</dim>
				</port>
				<port id="2" precision="FP32">
					<dim>1</dim>
					<dim>1</dim>
					<dim>1</dim>
					<dim>1</dim>
				</port>
				<port id="3" precision="FP32">
					<dim>1</dim>
					<dim>1</dim>
					<dim>1</dim>
					<dim>1</dim>
				</port>
				<port id="4" precision="FP32">
					<dim>1</dim>
					<dim>1</dim>
					<dim>1</dim>
					<dim>1</dim>
				</port>
			</input>
			<output>
				<port id="5" precision="FP32" names="/nncf_module/backbone/layer2/layer2.0/relu/CustomMaskRCNN/ResNet[backbone]/ResLayer[layer2]/Bottleneck[0]/ReLU[relu]/relu__1|OUTPUT/FakeQuantize_output_0">
					<dim>1</dim>
					<dim>128</dim>
					<dim>80</dim>
					<dim>80</dim>
				</port>
			</output>
		</layer>
		<layer id="198" name="/nncf_module/backbone/layer2/layer2.0/conv3/pre_ops.0/op/Constant" type="Const" version="opset1">
			<data element_type="i8" shape="512, 128, 1, 1" offset="1712976" size="65536" />
			<output>
				<port id="0" precision="I8">
					<dim>512</dim>
					<dim>128</dim>
					<dim>1</dim>
					<dim>1</dim>
				</port>
			</output>
		</layer>
		<layer id="199" name="Convert_97146" type="Convert" version="opset1">
			<data destination_type="f32" />
			<input>
				<port id="0" precision="I8">
					<dim>512</dim>
					<dim>128</dim>
					<dim>1</dim>
					<dim>1</dim>
				</port>
			</input>
			<output>
				<port id="1" precision="FP32">
					<dim>512</dim>
					<dim>128</dim>
					<dim>1</dim>
					<dim>1</dim>
				</port>
			</output>
		</layer>
		<layer id="200" name="Constant_97083" type="Const" version="opset1">
			<data element_type="f32" shape="512, 1, 1, 1" offset="1778512" size="2048" />
			<output>
				<port id="0" precision="FP32">
					<dim>512</dim>
					<dim>1</dim>
					<dim>1</dim>
					<dim>1</dim>
				</port>
			</output>
		</layer>
		<layer id="201" name="Multiply_87735" type="Multiply" version="opset1">
			<data auto_broadcast="numpy" />
			<input>
				<port id="0" precision="FP32">
					<dim>512</dim>
					<dim>128</dim>
					<dim>1</dim>
					<dim>1</dim>
				</port>
				<port id="1" precision="FP32">
					<dim>512</dim>
					<dim>1</dim>
					<dim>1</dim>
					<dim>1</dim>
				</port>
			</input>
			<output>
				<port id="2" precision="FP32">
					<dim>512</dim>
					<dim>128</dim>
					<dim>1</dim>
					<dim>1</dim>
				</port>
			</output>
		</layer>
		<layer id="202" name="Multiply_87331" type="Convolution" version="opset1">
			<data strides="1, 1" dilations="1, 1" pads_begin="0, 0" pads_end="0, 0" auto_pad="explicit" />
			<input>
				<port id="0" precision="FP32">
					<dim>1</dim>
					<dim>128</dim>
					<dim>80</dim>
					<dim>80</dim>
				</port>
				<port id="1" precision="FP32">
					<dim>512</dim>
					<dim>128</dim>
					<dim>1</dim>
					<dim>1</dim>
				</port>
			</input>
			<output>
				<port id="2" precision="FP32">
					<dim>1</dim>
					<dim>512</dim>
					<dim>80</dim>
					<dim>80</dim>
				</port>
			</output>
		</layer>
		<layer id="203" name="Constant_87336" type="Const" version="opset1">
			<data element_type="f32" shape="1, 512, 1, 1" offset="1780560" size="2048" />
			<output>
				<port id="0" precision="FP32">
					<dim>1</dim>
					<dim>512</dim>
					<dim>1</dim>
					<dim>1</dim>
				</port>
			</output>
		</layer>
		<layer id="204" name="/nncf_module/backbone/layer2/layer2.0/bn3/BatchNormalization" type="Add" version="opset1">
			<data auto_broadcast="numpy" />
			<input>
				<port id="0" precision="FP32">
					<dim>1</dim>
					<dim>512</dim>
					<dim>80</dim>
					<dim>80</dim>
				</port>
				<port id="1" precision="FP32">
					<dim>1</dim>
					<dim>512</dim>
					<dim>1</dim>
					<dim>1</dim>
				</port>
			</input>
			<output>
				<port id="2" precision="FP32" names="/nncf_module/backbone/layer2/layer2.0/bn3/BatchNormalization_output_0">
					<dim>1</dim>
					<dim>512</dim>
					<dim>80</dim>
					<dim>80</dim>
				</port>
			</output>
		</layer>
		<layer id="205" name="Constant_91165" type="Const" version="opset1">
			<data element_type="f32" shape="1, 1, 1, 1" offset="1782608" size="4" />
			<output>
				<port id="0" precision="FP32">
					<dim>1</dim>
					<dim>1</dim>
					<dim>1</dim>
					<dim>1</dim>
				</port>
			</output>
		</layer>
		<layer id="206" name="Constant_91166" type="Const" version="opset1">
			<data element_type="f32" shape="1, 1, 1, 1" offset="1782612" size="4" />
			<output>
				<port id="0" precision="FP32">
					<dim>1</dim>
					<dim>1</dim>
					<dim>1</dim>
					<dim>1</dim>
				</port>
			</output>
		</layer>
		<layer id="207" name="Constant_91167" type="Const" version="opset1">
			<data element_type="f32" shape="1, 1, 1, 1" offset="1782608" size="4" />
			<output>
				<port id="0" precision="FP32">
					<dim>1</dim>
					<dim>1</dim>
					<dim>1</dim>
					<dim>1</dim>
				</port>
			</output>
		</layer>
		<layer id="208" name="Constant_91168" type="Const" version="opset1">
			<data element_type="f32" shape="1, 1, 1, 1" offset="1782612" size="4" />
			<output>
				<port id="0" precision="FP32">
					<dim>1</dim>
					<dim>1</dim>
					<dim>1</dim>
					<dim>1</dim>
				</port>
			</output>
		</layer>
		<layer id="209" name="/nncf_module/backbone/layer2/layer2.0/bn3/CustomMaskRCNN/ResNet[backbone]/ResLayer[layer2]/Bottleneck[0]/NNCFBatchNorm2d[bn3]/batch_norm_0|OUTPUT/FakeQuantize" type="FakeQuantize" version="opset1">
			<data levels="256" auto_broadcast="numpy" />
			<input>
				<port id="0" precision="FP32">
					<dim>1</dim>
					<dim>512</dim>
					<dim>80</dim>
					<dim>80</dim>
				</port>
				<port id="1" precision="FP32">
					<dim>1</dim>
					<dim>1</dim>
					<dim>1</dim>
					<dim>1</dim>
				</port>
				<port id="2" precision="FP32">
					<dim>1</dim>
					<dim>1</dim>
					<dim>1</dim>
					<dim>1</dim>
				</port>
				<port id="3" precision="FP32">
					<dim>1</dim>
					<dim>1</dim>
					<dim>1</dim>
					<dim>1</dim>
				</port>
				<port id="4" precision="FP32">
					<dim>1</dim>
					<dim>1</dim>
					<dim>1</dim>
					<dim>1</dim>
				</port>
			</input>
			<output>
				<port id="5" precision="FP32" names="/nncf_module/backbone/layer2/layer2.0/bn3/CustomMaskRCNN/ResNet[backbone]/ResLayer[layer2]/Bottleneck[0]/NNCFBatchNorm2d[bn3]/batch_norm_0|OUTPUT/FakeQuantize_output_0">
					<dim>1</dim>
					<dim>512</dim>
					<dim>80</dim>
					<dim>80</dim>
				</port>
			</output>
		</layer>
		<layer id="210" name="/nncf_module/backbone/layer2/layer2.0/downsample/downsample.0/pre_ops.0/op/Constant" type="Const" version="opset1">
			<data element_type="i8" shape="512, 256, 1, 1" offset="1782616" size="131072" />
			<output>
				<port id="0" precision="I8">
					<dim>512</dim>
					<dim>256</dim>
					<dim>1</dim>
					<dim>1</dim>
				</port>
			</output>
		</layer>
		<layer id="211" name="Convert_97267" type="Convert" version="opset1">
			<data destination_type="f32" />
			<input>
				<port id="0" precision="I8">
					<dim>512</dim>
					<dim>256</dim>
					<dim>1</dim>
					<dim>1</dim>
				</port>
			</input>
			<output>
				<port id="1" precision="FP32">
					<dim>512</dim>
					<dim>256</dim>
					<dim>1</dim>
					<dim>1</dim>
				</port>
			</output>
		</layer>
		<layer id="212" name="Constant_97204" type="Const" version="opset1">
			<data element_type="f32" shape="512, 1, 1, 1" offset="1913688" size="2048" />
			<output>
				<port id="0" precision="FP32">
					<dim>512</dim>
					<dim>1</dim>
					<dim>1</dim>
					<dim>1</dim>
				</port>
			</output>
		</layer>
		<layer id="213" name="Multiply_87744" type="Multiply" version="opset1">
			<data auto_broadcast="numpy" />
			<input>
				<port id="0" precision="FP32">
					<dim>512</dim>
					<dim>256</dim>
					<dim>1</dim>
					<dim>1</dim>
				</port>
				<port id="1" precision="FP32">
					<dim>512</dim>
					<dim>1</dim>
					<dim>1</dim>
					<dim>1</dim>
				</port>
			</input>
			<output>
				<port id="2" precision="FP32">
					<dim>512</dim>
					<dim>256</dim>
					<dim>1</dim>
					<dim>1</dim>
				</port>
			</output>
		</layer>
		<layer id="214" name="Multiply_87338" type="Convolution" version="opset1">
			<data strides="2, 2" dilations="1, 1" pads_begin="0, 0" pads_end="0, 0" auto_pad="explicit" />
			<input>
				<port id="0" precision="FP32">
					<dim>1</dim>
					<dim>256</dim>
					<dim>160</dim>
					<dim>160</dim>
				</port>
				<port id="1" precision="FP32">
					<dim>512</dim>
					<dim>256</dim>
					<dim>1</dim>
					<dim>1</dim>
				</port>
			</input>
			<output>
				<port id="2" precision="FP32">
					<dim>1</dim>
					<dim>512</dim>
					<dim>80</dim>
					<dim>80</dim>
				</port>
			</output>
		</layer>
		<layer id="215" name="Constant_87343" type="Const" version="opset1">
			<data element_type="f32" shape="1, 512, 1, 1" offset="1915736" size="2048" />
			<output>
				<port id="0" precision="FP32">
					<dim>1</dim>
					<dim>512</dim>
					<dim>1</dim>
					<dim>1</dim>
				</port>
			</output>
		</layer>
		<layer id="216" name="/nncf_module/backbone/layer2/layer2.0/downsample/downsample.1/BatchNormalization" type="Add" version="opset1">
			<data auto_broadcast="numpy" />
			<input>
				<port id="0" precision="FP32">
					<dim>1</dim>
					<dim>512</dim>
					<dim>80</dim>
					<dim>80</dim>
				</port>
				<port id="1" precision="FP32">
					<dim>1</dim>
					<dim>512</dim>
					<dim>1</dim>
					<dim>1</dim>
				</port>
			</input>
			<output>
				<port id="2" precision="FP32" names="/nncf_module/backbone/layer2/layer2.0/downsample/downsample.1/BatchNormalization_output_0">
					<dim>1</dim>
					<dim>512</dim>
					<dim>80</dim>
					<dim>80</dim>
				</port>
			</output>
		</layer>
		<layer id="217" name="Constant_91169" type="Const" version="opset1">
			<data element_type="f32" shape="1, 1, 1, 1" offset="1917784" size="4" />
			<output>
				<port id="0" precision="FP32">
					<dim>1</dim>
					<dim>1</dim>
					<dim>1</dim>
					<dim>1</dim>
				</port>
			</output>
		</layer>
		<layer id="218" name="Constant_91170" type="Const" version="opset1">
			<data element_type="f32" shape="1, 1, 1, 1" offset="1917788" size="4" />
			<output>
				<port id="0" precision="FP32">
					<dim>1</dim>
					<dim>1</dim>
					<dim>1</dim>
					<dim>1</dim>
				</port>
			</output>
		</layer>
		<layer id="219" name="Constant_91171" type="Const" version="opset1">
			<data element_type="f32" shape="1, 1, 1, 1" offset="1917784" size="4" />
			<output>
				<port id="0" precision="FP32">
					<dim>1</dim>
					<dim>1</dim>
					<dim>1</dim>
					<dim>1</dim>
				</port>
			</output>
		</layer>
		<layer id="220" name="Constant_91172" type="Const" version="opset1">
			<data element_type="f32" shape="1, 1, 1, 1" offset="1917788" size="4" />
			<output>
				<port id="0" precision="FP32">
					<dim>1</dim>
					<dim>1</dim>
					<dim>1</dim>
					<dim>1</dim>
				</port>
			</output>
		</layer>
		<layer id="221" name="/nncf_module/backbone/layer2/layer2.0/downsample/downsample.1/CustomMaskRCNN/ResNet[backbone]/ResLayer[layer2]/Bottleneck[0]/Sequential[downsample]/NNCFBatchNorm2d[1]/batch_norm_0|OUTPUT/FakeQuantize" type="FakeQuantize" version="opset1">
			<data levels="256" auto_broadcast="numpy" />
			<input>
				<port id="0" precision="FP32">
					<dim>1</dim>
					<dim>512</dim>
					<dim>80</dim>
					<dim>80</dim>
				</port>
				<port id="1" precision="FP32">
					<dim>1</dim>
					<dim>1</dim>
					<dim>1</dim>
					<dim>1</dim>
				</port>
				<port id="2" precision="FP32">
					<dim>1</dim>
					<dim>1</dim>
					<dim>1</dim>
					<dim>1</dim>
				</port>
				<port id="3" precision="FP32">
					<dim>1</dim>
					<dim>1</dim>
					<dim>1</dim>
					<dim>1</dim>
				</port>
				<port id="4" precision="FP32">
					<dim>1</dim>
					<dim>1</dim>
					<dim>1</dim>
					<dim>1</dim>
				</port>
			</input>
			<output>
				<port id="5" precision="FP32" names="/nncf_module/backbone/layer2/layer2.0/downsample/downsample.1/CustomMaskRCNN/ResNet[backbone]/ResLayer[layer2]/Bottleneck[0]/Sequential[downsample]/NNCFBatchNorm2d[1]/batch_norm_0|OUTPUT/FakeQuantize_output_0">
					<dim>1</dim>
					<dim>512</dim>
					<dim>80</dim>
					<dim>80</dim>
				</port>
			</output>
		</layer>
		<layer id="222" name="/nncf_module/backbone/layer2/layer2.0/Add" type="Add" version="opset1">
			<data auto_broadcast="numpy" />
			<input>
				<port id="0" precision="FP32">
					<dim>1</dim>
					<dim>512</dim>
					<dim>80</dim>
					<dim>80</dim>
				</port>
				<port id="1" precision="FP32">
					<dim>1</dim>
					<dim>512</dim>
					<dim>80</dim>
					<dim>80</dim>
				</port>
			</input>
			<output>
				<port id="2" precision="FP32" names="/nncf_module/backbone/layer2/layer2.0/Add_output_0">
					<dim>1</dim>
					<dim>512</dim>
					<dim>80</dim>
					<dim>80</dim>
				</port>
			</output>
		</layer>
		<layer id="223" name="Constant_91173" type="Const" version="opset1">
			<data element_type="f32" shape="1, 1, 1, 1" offset="0" size="4" />
			<output>
				<port id="0" precision="FP32">
					<dim>1</dim>
					<dim>1</dim>
					<dim>1</dim>
					<dim>1</dim>
				</port>
			</output>
		</layer>
		<layer id="224" name="Constant_91174" type="Const" version="opset1">
			<data element_type="f32" shape="1, 1, 1, 1" offset="1917792" size="4" />
			<output>
				<port id="0" precision="FP32">
					<dim>1</dim>
					<dim>1</dim>
					<dim>1</dim>
					<dim>1</dim>
				</port>
			</output>
		</layer>
		<layer id="225" name="Constant_91175" type="Const" version="opset1">
			<data element_type="f32" shape="1, 1, 1, 1" offset="0" size="4" />
			<output>
				<port id="0" precision="FP32">
					<dim>1</dim>
					<dim>1</dim>
					<dim>1</dim>
					<dim>1</dim>
				</port>
			</output>
		</layer>
		<layer id="226" name="Constant_91176" type="Const" version="opset1">
			<data element_type="f32" shape="1, 1, 1, 1" offset="1917792" size="4" />
			<output>
				<port id="0" precision="FP32">
					<dim>1</dim>
					<dim>1</dim>
					<dim>1</dim>
					<dim>1</dim>
				</port>
			</output>
		</layer>
		<layer id="227" name="/nncf_module/backbone/layer2/layer2.0/relu/CustomMaskRCNN/ResNet[backbone]/ResLayer[layer2]/Bottleneck[0]/ReLU[relu]/relu__2|OUTPUT/FakeQuantize" type="FakeQuantize" version="opset1">
			<data levels="256" auto_broadcast="numpy" />
			<input>
				<port id="0" precision="FP32">
					<dim>1</dim>
					<dim>512</dim>
					<dim>80</dim>
					<dim>80</dim>
				</port>
				<port id="1" precision="FP32">
					<dim>1</dim>
					<dim>1</dim>
					<dim>1</dim>
					<dim>1</dim>
				</port>
				<port id="2" precision="FP32">
					<dim>1</dim>
					<dim>1</dim>
					<dim>1</dim>
					<dim>1</dim>
				</port>
				<port id="3" precision="FP32">
					<dim>1</dim>
					<dim>1</dim>
					<dim>1</dim>
					<dim>1</dim>
				</port>
				<port id="4" precision="FP32">
					<dim>1</dim>
					<dim>1</dim>
					<dim>1</dim>
					<dim>1</dim>
				</port>
			</input>
			<output>
				<port id="5" precision="FP32" names="/nncf_module/backbone/layer2/layer2.0/relu/CustomMaskRCNN/ResNet[backbone]/ResLayer[layer2]/Bottleneck[0]/ReLU[relu]/relu__2|OUTPUT/FakeQuantize_output_0">
					<dim>1</dim>
					<dim>512</dim>
					<dim>80</dim>
					<dim>80</dim>
				</port>
			</output>
		</layer>
		<layer id="228" name="/nncf_module/backbone/layer2/layer2.1/conv1/pre_ops.0/op/Constant" type="Const" version="opset1">
			<data element_type="i8" shape="128, 512, 1, 1" offset="1917796" size="65536" />
			<output>
				<port id="0" precision="I8">
					<dim>128</dim>
					<dim>512</dim>
					<dim>1</dim>
					<dim>1</dim>
				</port>
			</output>
		</layer>
		<layer id="229" name="Convert_97388" type="Convert" version="opset1">
			<data destination_type="f32" />
			<input>
				<port id="0" precision="I8">
					<dim>128</dim>
					<dim>512</dim>
					<dim>1</dim>
					<dim>1</dim>
				</port>
			</input>
			<output>
				<port id="1" precision="FP32">
					<dim>128</dim>
					<dim>512</dim>
					<dim>1</dim>
					<dim>1</dim>
				</port>
			</output>
		</layer>
		<layer id="230" name="Constant_97325" type="Const" version="opset1">
			<data element_type="f32" shape="128, 1, 1, 1" offset="1983332" size="512" />
			<output>
				<port id="0" precision="FP32">
					<dim>128</dim>
					<dim>1</dim>
					<dim>1</dim>
					<dim>1</dim>
				</port>
			</output>
		</layer>
		<layer id="231" name="Multiply_87753" type="Multiply" version="opset1">
			<data auto_broadcast="numpy" />
			<input>
				<port id="0" precision="FP32">
					<dim>128</dim>
					<dim>512</dim>
					<dim>1</dim>
					<dim>1</dim>
				</port>
				<port id="1" precision="FP32">
					<dim>128</dim>
					<dim>1</dim>
					<dim>1</dim>
					<dim>1</dim>
				</port>
			</input>
			<output>
				<port id="2" precision="FP32">
					<dim>128</dim>
					<dim>512</dim>
					<dim>1</dim>
					<dim>1</dim>
				</port>
			</output>
		</layer>
		<layer id="232" name="Multiply_87345" type="Convolution" version="opset1">
			<data strides="1, 1" dilations="1, 1" pads_begin="0, 0" pads_end="0, 0" auto_pad="explicit" />
			<input>
				<port id="0" precision="FP32">
					<dim>1</dim>
					<dim>512</dim>
					<dim>80</dim>
					<dim>80</dim>
				</port>
				<port id="1" precision="FP32">
					<dim>128</dim>
					<dim>512</dim>
					<dim>1</dim>
					<dim>1</dim>
				</port>
			</input>
			<output>
				<port id="2" precision="FP32">
					<dim>1</dim>
					<dim>128</dim>
					<dim>80</dim>
					<dim>80</dim>
				</port>
			</output>
		</layer>
		<layer id="233" name="Constant_87350" type="Const" version="opset1">
			<data element_type="f32" shape="1, 128, 1, 1" offset="1983844" size="512" />
			<output>
				<port id="0" precision="FP32">
					<dim>1</dim>
					<dim>128</dim>
					<dim>1</dim>
					<dim>1</dim>
				</port>
			</output>
		</layer>
		<layer id="234" name="/nncf_module/backbone/layer2/layer2.1/bn1/BatchNormalization" type="Add" version="opset1">
			<data auto_broadcast="numpy" />
			<input>
				<port id="0" precision="FP32">
					<dim>1</dim>
					<dim>128</dim>
					<dim>80</dim>
					<dim>80</dim>
				</port>
				<port id="1" precision="FP32">
					<dim>1</dim>
					<dim>128</dim>
					<dim>1</dim>
					<dim>1</dim>
				</port>
			</input>
			<output>
				<port id="2" precision="FP32" names="/nncf_module/backbone/layer2/layer2.1/bn1/BatchNormalization_output_0">
					<dim>1</dim>
					<dim>128</dim>
					<dim>80</dim>
					<dim>80</dim>
				</port>
			</output>
		</layer>
		<layer id="235" name="Constant_91177" type="Const" version="opset1">
			<data element_type="f32" shape="1, 1, 1, 1" offset="0" size="4" />
			<output>
				<port id="0" precision="FP32">
					<dim>1</dim>
					<dim>1</dim>
					<dim>1</dim>
					<dim>1</dim>
				</port>
			</output>
		</layer>
		<layer id="236" name="Constant_91178" type="Const" version="opset1">
			<data element_type="f32" shape="1, 1, 1, 1" offset="1984356" size="4" />
			<output>
				<port id="0" precision="FP32">
					<dim>1</dim>
					<dim>1</dim>
					<dim>1</dim>
					<dim>1</dim>
				</port>
			</output>
		</layer>
		<layer id="237" name="Constant_91179" type="Const" version="opset1">
			<data element_type="f32" shape="1, 1, 1, 1" offset="0" size="4" />
			<output>
				<port id="0" precision="FP32">
					<dim>1</dim>
					<dim>1</dim>
					<dim>1</dim>
					<dim>1</dim>
				</port>
			</output>
		</layer>
		<layer id="238" name="Constant_91180" type="Const" version="opset1">
			<data element_type="f32" shape="1, 1, 1, 1" offset="1984356" size="4" />
			<output>
				<port id="0" precision="FP32">
					<dim>1</dim>
					<dim>1</dim>
					<dim>1</dim>
					<dim>1</dim>
				</port>
			</output>
		</layer>
		<layer id="239" name="/nncf_module/backbone/layer2/layer2.1/relu/CustomMaskRCNN/ResNet[backbone]/ResLayer[layer2]/Bottleneck[1]/ReLU[relu]/relu__0|OUTPUT/FakeQuantize" type="FakeQuantize" version="opset1">
			<data levels="256" auto_broadcast="numpy" />
			<input>
				<port id="0" precision="FP32">
					<dim>1</dim>
					<dim>128</dim>
					<dim>80</dim>
					<dim>80</dim>
				</port>
				<port id="1" precision="FP32">
					<dim>1</dim>
					<dim>1</dim>
					<dim>1</dim>
					<dim>1</dim>
				</port>
				<port id="2" precision="FP32">
					<dim>1</dim>
					<dim>1</dim>
					<dim>1</dim>
					<dim>1</dim>
				</port>
				<port id="3" precision="FP32">
					<dim>1</dim>
					<dim>1</dim>
					<dim>1</dim>
					<dim>1</dim>
				</port>
				<port id="4" precision="FP32">
					<dim>1</dim>
					<dim>1</dim>
					<dim>1</dim>
					<dim>1</dim>
				</port>
			</input>
			<output>
				<port id="5" precision="FP32" names="/nncf_module/backbone/layer2/layer2.1/relu/CustomMaskRCNN/ResNet[backbone]/ResLayer[layer2]/Bottleneck[1]/ReLU[relu]/relu__0|OUTPUT/FakeQuantize_output_0">
					<dim>1</dim>
					<dim>128</dim>
					<dim>80</dim>
					<dim>80</dim>
				</port>
			</output>
		</layer>
		<layer id="240" name="/nncf_module/backbone/layer2/layer2.1/conv2/pre_ops.0/op/Constant" type="Const" version="opset1">
			<data element_type="i8" shape="128, 128, 3, 3" offset="1984360" size="147456" />
			<output>
				<port id="0" precision="I8">
					<dim>128</dim>
					<dim>128</dim>
					<dim>3</dim>
					<dim>3</dim>
				</port>
			</output>
		</layer>
		<layer id="241" name="Convert_97509" type="Convert" version="opset1">
			<data destination_type="f32" />
			<input>
				<port id="0" precision="I8">
					<dim>128</dim>
					<dim>128</dim>
					<dim>3</dim>
					<dim>3</dim>
				</port>
			</input>
			<output>
				<port id="1" precision="FP32">
					<dim>128</dim>
					<dim>128</dim>
					<dim>3</dim>
					<dim>3</dim>
				</port>
			</output>
		</layer>
		<layer id="242" name="Constant_97446" type="Const" version="opset1">
			<data element_type="f32" shape="128, 1, 1, 1" offset="2131816" size="512" />
			<output>
				<port id="0" precision="FP32">
					<dim>128</dim>
					<dim>1</dim>
					<dim>1</dim>
					<dim>1</dim>
				</port>
			</output>
		</layer>
		<layer id="243" name="Multiply_87762" type="Multiply" version="opset1">
			<data auto_broadcast="numpy" />
			<input>
				<port id="0" precision="FP32">
					<dim>128</dim>
					<dim>128</dim>
					<dim>3</dim>
					<dim>3</dim>
				</port>
				<port id="1" precision="FP32">
					<dim>128</dim>
					<dim>1</dim>
					<dim>1</dim>
					<dim>1</dim>
				</port>
			</input>
			<output>
				<port id="2" precision="FP32">
					<dim>128</dim>
					<dim>128</dim>
					<dim>3</dim>
					<dim>3</dim>
				</port>
			</output>
		</layer>
		<layer id="244" name="Multiply_87352" type="Convolution" version="opset1">
			<data strides="1, 1" dilations="1, 1" pads_begin="1, 1" pads_end="1, 1" auto_pad="explicit" />
			<input>
				<port id="0" precision="FP32">
					<dim>1</dim>
					<dim>128</dim>
					<dim>80</dim>
					<dim>80</dim>
				</port>
				<port id="1" precision="FP32">
					<dim>128</dim>
					<dim>128</dim>
					<dim>3</dim>
					<dim>3</dim>
				</port>
			</input>
			<output>
				<port id="2" precision="FP32">
					<dim>1</dim>
					<dim>128</dim>
					<dim>80</dim>
					<dim>80</dim>
				</port>
			</output>
		</layer>
		<layer id="245" name="Constant_87357" type="Const" version="opset1">
			<data element_type="f32" shape="1, 128, 1, 1" offset="2132328" size="512" />
			<output>
				<port id="0" precision="FP32">
					<dim>1</dim>
					<dim>128</dim>
					<dim>1</dim>
					<dim>1</dim>
				</port>
			</output>
		</layer>
		<layer id="246" name="/nncf_module/backbone/layer2/layer2.1/bn2/BatchNormalization" type="Add" version="opset1">
			<data auto_broadcast="numpy" />
			<input>
				<port id="0" precision="FP32">
					<dim>1</dim>
					<dim>128</dim>
					<dim>80</dim>
					<dim>80</dim>
				</port>
				<port id="1" precision="FP32">
					<dim>1</dim>
					<dim>128</dim>
					<dim>1</dim>
					<dim>1</dim>
				</port>
			</input>
			<output>
				<port id="2" precision="FP32" names="/nncf_module/backbone/layer2/layer2.1/bn2/BatchNormalization_output_0">
					<dim>1</dim>
					<dim>128</dim>
					<dim>80</dim>
					<dim>80</dim>
				</port>
			</output>
		</layer>
		<layer id="247" name="Constant_91181" type="Const" version="opset1">
			<data element_type="f32" shape="1, 1, 1, 1" offset="0" size="4" />
			<output>
				<port id="0" precision="FP32">
					<dim>1</dim>
					<dim>1</dim>
					<dim>1</dim>
					<dim>1</dim>
				</port>
			</output>
		</layer>
		<layer id="248" name="Constant_91182" type="Const" version="opset1">
			<data element_type="f32" shape="1, 1, 1, 1" offset="2132840" size="4" />
			<output>
				<port id="0" precision="FP32">
					<dim>1</dim>
					<dim>1</dim>
					<dim>1</dim>
					<dim>1</dim>
				</port>
			</output>
		</layer>
		<layer id="249" name="Constant_91183" type="Const" version="opset1">
			<data element_type="f32" shape="1, 1, 1, 1" offset="0" size="4" />
			<output>
				<port id="0" precision="FP32">
					<dim>1</dim>
					<dim>1</dim>
					<dim>1</dim>
					<dim>1</dim>
				</port>
			</output>
		</layer>
		<layer id="250" name="Constant_91184" type="Const" version="opset1">
			<data element_type="f32" shape="1, 1, 1, 1" offset="2132840" size="4" />
			<output>
				<port id="0" precision="FP32">
					<dim>1</dim>
					<dim>1</dim>
					<dim>1</dim>
					<dim>1</dim>
				</port>
			</output>
		</layer>
		<layer id="251" name="/nncf_module/backbone/layer2/layer2.1/relu/CustomMaskRCNN/ResNet[backbone]/ResLayer[layer2]/Bottleneck[1]/ReLU[relu]/relu__1|OUTPUT/FakeQuantize" type="FakeQuantize" version="opset1">
			<data levels="256" auto_broadcast="numpy" />
			<input>
				<port id="0" precision="FP32">
					<dim>1</dim>
					<dim>128</dim>
					<dim>80</dim>
					<dim>80</dim>
				</port>
				<port id="1" precision="FP32">
					<dim>1</dim>
					<dim>1</dim>
					<dim>1</dim>
					<dim>1</dim>
				</port>
				<port id="2" precision="FP32">
					<dim>1</dim>
					<dim>1</dim>
					<dim>1</dim>
					<dim>1</dim>
				</port>
				<port id="3" precision="FP32">
					<dim>1</dim>
					<dim>1</dim>
					<dim>1</dim>
					<dim>1</dim>
				</port>
				<port id="4" precision="FP32">
					<dim>1</dim>
					<dim>1</dim>
					<dim>1</dim>
					<dim>1</dim>
				</port>
			</input>
			<output>
				<port id="5" precision="FP32" names="/nncf_module/backbone/layer2/layer2.1/relu/CustomMaskRCNN/ResNet[backbone]/ResLayer[layer2]/Bottleneck[1]/ReLU[relu]/relu__1|OUTPUT/FakeQuantize_output_0">
					<dim>1</dim>
					<dim>128</dim>
					<dim>80</dim>
					<dim>80</dim>
				</port>
			</output>
		</layer>
		<layer id="252" name="/nncf_module/backbone/layer2/layer2.1/conv3/pre_ops.0/op/Constant" type="Const" version="opset1">
			<data element_type="i8" shape="512, 128, 1, 1" offset="2132844" size="65536" />
			<output>
				<port id="0" precision="I8">
					<dim>512</dim>
					<dim>128</dim>
					<dim>1</dim>
					<dim>1</dim>
				</port>
			</output>
		</layer>
		<layer id="253" name="Convert_97630" type="Convert" version="opset1">
			<data destination_type="f32" />
			<input>
				<port id="0" precision="I8">
					<dim>512</dim>
					<dim>128</dim>
					<dim>1</dim>
					<dim>1</dim>
				</port>
			</input>
			<output>
				<port id="1" precision="FP32">
					<dim>512</dim>
					<dim>128</dim>
					<dim>1</dim>
					<dim>1</dim>
				</port>
			</output>
		</layer>
		<layer id="254" name="Constant_97567" type="Const" version="opset1">
			<data element_type="f32" shape="512, 1, 1, 1" offset="2198380" size="2048" />
			<output>
				<port id="0" precision="FP32">
					<dim>512</dim>
					<dim>1</dim>
					<dim>1</dim>
					<dim>1</dim>
				</port>
			</output>
		</layer>
		<layer id="255" name="Multiply_87771" type="Multiply" version="opset1">
			<data auto_broadcast="numpy" />
			<input>
				<port id="0" precision="FP32">
					<dim>512</dim>
					<dim>128</dim>
					<dim>1</dim>
					<dim>1</dim>
				</port>
				<port id="1" precision="FP32">
					<dim>512</dim>
					<dim>1</dim>
					<dim>1</dim>
					<dim>1</dim>
				</port>
			</input>
			<output>
				<port id="2" precision="FP32">
					<dim>512</dim>
					<dim>128</dim>
					<dim>1</dim>
					<dim>1</dim>
				</port>
			</output>
		</layer>
		<layer id="256" name="Multiply_87359" type="Convolution" version="opset1">
			<data strides="1, 1" dilations="1, 1" pads_begin="0, 0" pads_end="0, 0" auto_pad="explicit" />
			<input>
				<port id="0" precision="FP32">
					<dim>1</dim>
					<dim>128</dim>
					<dim>80</dim>
					<dim>80</dim>
				</port>
				<port id="1" precision="FP32">
					<dim>512</dim>
					<dim>128</dim>
					<dim>1</dim>
					<dim>1</dim>
				</port>
			</input>
			<output>
				<port id="2" precision="FP32">
					<dim>1</dim>
					<dim>512</dim>
					<dim>80</dim>
					<dim>80</dim>
				</port>
			</output>
		</layer>
		<layer id="257" name="Constant_87364" type="Const" version="opset1">
			<data element_type="f32" shape="1, 512, 1, 1" offset="2200428" size="2048" />
			<output>
				<port id="0" precision="FP32">
					<dim>1</dim>
					<dim>512</dim>
					<dim>1</dim>
					<dim>1</dim>
				</port>
			</output>
		</layer>
		<layer id="258" name="/nncf_module/backbone/layer2/layer2.1/bn3/BatchNormalization" type="Add" version="opset1">
			<data auto_broadcast="numpy" />
			<input>
				<port id="0" precision="FP32">
					<dim>1</dim>
					<dim>512</dim>
					<dim>80</dim>
					<dim>80</dim>
				</port>
				<port id="1" precision="FP32">
					<dim>1</dim>
					<dim>512</dim>
					<dim>1</dim>
					<dim>1</dim>
				</port>
			</input>
			<output>
				<port id="2" precision="FP32" names="/nncf_module/backbone/layer2/layer2.1/bn3/BatchNormalization_output_0">
					<dim>1</dim>
					<dim>512</dim>
					<dim>80</dim>
					<dim>80</dim>
				</port>
			</output>
		</layer>
		<layer id="259" name="Constant_91185" type="Const" version="opset1">
			<data element_type="f32" shape="1, 1, 1, 1" offset="2202476" size="4" />
			<output>
				<port id="0" precision="FP32">
					<dim>1</dim>
					<dim>1</dim>
					<dim>1</dim>
					<dim>1</dim>
				</port>
			</output>
		</layer>
		<layer id="260" name="Constant_91186" type="Const" version="opset1">
			<data element_type="f32" shape="1, 1, 1, 1" offset="2202480" size="4" />
			<output>
				<port id="0" precision="FP32">
					<dim>1</dim>
					<dim>1</dim>
					<dim>1</dim>
					<dim>1</dim>
				</port>
			</output>
		</layer>
		<layer id="261" name="Constant_91187" type="Const" version="opset1">
			<data element_type="f32" shape="1, 1, 1, 1" offset="2202476" size="4" />
			<output>
				<port id="0" precision="FP32">
					<dim>1</dim>
					<dim>1</dim>
					<dim>1</dim>
					<dim>1</dim>
				</port>
			</output>
		</layer>
		<layer id="262" name="Constant_91188" type="Const" version="opset1">
			<data element_type="f32" shape="1, 1, 1, 1" offset="2202480" size="4" />
			<output>
				<port id="0" precision="FP32">
					<dim>1</dim>
					<dim>1</dim>
					<dim>1</dim>
					<dim>1</dim>
				</port>
			</output>
		</layer>
		<layer id="263" name="/nncf_module/backbone/layer2/layer2.1/bn3/CustomMaskRCNN/ResNet[backbone]/ResLayer[layer2]/Bottleneck[1]/NNCFBatchNorm2d[bn3]/batch_norm_0|OUTPUT/FakeQuantize" type="FakeQuantize" version="opset1">
			<data levels="256" auto_broadcast="numpy" />
			<input>
				<port id="0" precision="FP32">
					<dim>1</dim>
					<dim>512</dim>
					<dim>80</dim>
					<dim>80</dim>
				</port>
				<port id="1" precision="FP32">
					<dim>1</dim>
					<dim>1</dim>
					<dim>1</dim>
					<dim>1</dim>
				</port>
				<port id="2" precision="FP32">
					<dim>1</dim>
					<dim>1</dim>
					<dim>1</dim>
					<dim>1</dim>
				</port>
				<port id="3" precision="FP32">
					<dim>1</dim>
					<dim>1</dim>
					<dim>1</dim>
					<dim>1</dim>
				</port>
				<port id="4" precision="FP32">
					<dim>1</dim>
					<dim>1</dim>
					<dim>1</dim>
					<dim>1</dim>
				</port>
			</input>
			<output>
				<port id="5" precision="FP32" names="/nncf_module/backbone/layer2/layer2.1/bn3/CustomMaskRCNN/ResNet[backbone]/ResLayer[layer2]/Bottleneck[1]/NNCFBatchNorm2d[bn3]/batch_norm_0|OUTPUT/FakeQuantize_output_0">
					<dim>1</dim>
					<dim>512</dim>
					<dim>80</dim>
					<dim>80</dim>
				</port>
			</output>
		</layer>
		<layer id="264" name="/nncf_module/backbone/layer2/layer2.1/Add" type="Add" version="opset1">
			<data auto_broadcast="numpy" />
			<input>
				<port id="0" precision="FP32">
					<dim>1</dim>
					<dim>512</dim>
					<dim>80</dim>
					<dim>80</dim>
				</port>
				<port id="1" precision="FP32">
					<dim>1</dim>
					<dim>512</dim>
					<dim>80</dim>
					<dim>80</dim>
				</port>
			</input>
			<output>
				<port id="2" precision="FP32" names="/nncf_module/backbone/layer2/layer2.1/Add_output_0">
					<dim>1</dim>
					<dim>512</dim>
					<dim>80</dim>
					<dim>80</dim>
				</port>
			</output>
		</layer>
		<layer id="265" name="Constant_91189" type="Const" version="opset1">
			<data element_type="f32" shape="1, 1, 1, 1" offset="0" size="4" />
			<output>
				<port id="0" precision="FP32">
					<dim>1</dim>
					<dim>1</dim>
					<dim>1</dim>
					<dim>1</dim>
				</port>
			</output>
		</layer>
		<layer id="266" name="Constant_91190" type="Const" version="opset1">
			<data element_type="f32" shape="1, 1, 1, 1" offset="2202484" size="4" />
			<output>
				<port id="0" precision="FP32">
					<dim>1</dim>
					<dim>1</dim>
					<dim>1</dim>
					<dim>1</dim>
				</port>
			</output>
		</layer>
		<layer id="267" name="Constant_91191" type="Const" version="opset1">
			<data element_type="f32" shape="1, 1, 1, 1" offset="0" size="4" />
			<output>
				<port id="0" precision="FP32">
					<dim>1</dim>
					<dim>1</dim>
					<dim>1</dim>
					<dim>1</dim>
				</port>
			</output>
		</layer>
		<layer id="268" name="Constant_91192" type="Const" version="opset1">
			<data element_type="f32" shape="1, 1, 1, 1" offset="2202484" size="4" />
			<output>
				<port id="0" precision="FP32">
					<dim>1</dim>
					<dim>1</dim>
					<dim>1</dim>
					<dim>1</dim>
				</port>
			</output>
		</layer>
		<layer id="269" name="/nncf_module/backbone/layer2/layer2.1/relu/CustomMaskRCNN/ResNet[backbone]/ResLayer[layer2]/Bottleneck[1]/ReLU[relu]/relu__2|OUTPUT/FakeQuantize" type="FakeQuantize" version="opset1">
			<data levels="256" auto_broadcast="numpy" />
			<input>
				<port id="0" precision="FP32">
					<dim>1</dim>
					<dim>512</dim>
					<dim>80</dim>
					<dim>80</dim>
				</port>
				<port id="1" precision="FP32">
					<dim>1</dim>
					<dim>1</dim>
					<dim>1</dim>
					<dim>1</dim>
				</port>
				<port id="2" precision="FP32">
					<dim>1</dim>
					<dim>1</dim>
					<dim>1</dim>
					<dim>1</dim>
				</port>
				<port id="3" precision="FP32">
					<dim>1</dim>
					<dim>1</dim>
					<dim>1</dim>
					<dim>1</dim>
				</port>
				<port id="4" precision="FP32">
					<dim>1</dim>
					<dim>1</dim>
					<dim>1</dim>
					<dim>1</dim>
				</port>
			</input>
			<output>
				<port id="5" precision="FP32" names="/nncf_module/backbone/layer2/layer2.1/relu/CustomMaskRCNN/ResNet[backbone]/ResLayer[layer2]/Bottleneck[1]/ReLU[relu]/relu__2|OUTPUT/FakeQuantize_output_0">
					<dim>1</dim>
					<dim>512</dim>
					<dim>80</dim>
					<dim>80</dim>
				</port>
			</output>
		</layer>
		<layer id="270" name="/nncf_module/backbone/layer2/layer2.2/conv1/pre_ops.0/op/Constant" type="Const" version="opset1">
			<data element_type="i8" shape="128, 512, 1, 1" offset="2202488" size="65536" />
			<output>
				<port id="0" precision="I8">
					<dim>128</dim>
					<dim>512</dim>
					<dim>1</dim>
					<dim>1</dim>
				</port>
			</output>
		</layer>
		<layer id="271" name="Convert_97751" type="Convert" version="opset1">
			<data destination_type="f32" />
			<input>
				<port id="0" precision="I8">
					<dim>128</dim>
					<dim>512</dim>
					<dim>1</dim>
					<dim>1</dim>
				</port>
			</input>
			<output>
				<port id="1" precision="FP32">
					<dim>128</dim>
					<dim>512</dim>
					<dim>1</dim>
					<dim>1</dim>
				</port>
			</output>
		</layer>
		<layer id="272" name="Constant_97688" type="Const" version="opset1">
			<data element_type="f32" shape="128, 1, 1, 1" offset="2268024" size="512" />
			<output>
				<port id="0" precision="FP32">
					<dim>128</dim>
					<dim>1</dim>
					<dim>1</dim>
					<dim>1</dim>
				</port>
			</output>
		</layer>
		<layer id="273" name="Multiply_87780" type="Multiply" version="opset1">
			<data auto_broadcast="numpy" />
			<input>
				<port id="0" precision="FP32">
					<dim>128</dim>
					<dim>512</dim>
					<dim>1</dim>
					<dim>1</dim>
				</port>
				<port id="1" precision="FP32">
					<dim>128</dim>
					<dim>1</dim>
					<dim>1</dim>
					<dim>1</dim>
				</port>
			</input>
			<output>
				<port id="2" precision="FP32">
					<dim>128</dim>
					<dim>512</dim>
					<dim>1</dim>
					<dim>1</dim>
				</port>
			</output>
		</layer>
		<layer id="274" name="Multiply_87366" type="Convolution" version="opset1">
			<data strides="1, 1" dilations="1, 1" pads_begin="0, 0" pads_end="0, 0" auto_pad="explicit" />
			<input>
				<port id="0" precision="FP32">
					<dim>1</dim>
					<dim>512</dim>
					<dim>80</dim>
					<dim>80</dim>
				</port>
				<port id="1" precision="FP32">
					<dim>128</dim>
					<dim>512</dim>
					<dim>1</dim>
					<dim>1</dim>
				</port>
			</input>
			<output>
				<port id="2" precision="FP32">
					<dim>1</dim>
					<dim>128</dim>
					<dim>80</dim>
					<dim>80</dim>
				</port>
			</output>
		</layer>
		<layer id="275" name="Constant_87371" type="Const" version="opset1">
			<data element_type="f32" shape="1, 128, 1, 1" offset="2268536" size="512" />
			<output>
				<port id="0" precision="FP32">
					<dim>1</dim>
					<dim>128</dim>
					<dim>1</dim>
					<dim>1</dim>
				</port>
			</output>
		</layer>
		<layer id="276" name="/nncf_module/backbone/layer2/layer2.2/bn1/BatchNormalization" type="Add" version="opset1">
			<data auto_broadcast="numpy" />
			<input>
				<port id="0" precision="FP32">
					<dim>1</dim>
					<dim>128</dim>
					<dim>80</dim>
					<dim>80</dim>
				</port>
				<port id="1" precision="FP32">
					<dim>1</dim>
					<dim>128</dim>
					<dim>1</dim>
					<dim>1</dim>
				</port>
			</input>
			<output>
				<port id="2" precision="FP32" names="/nncf_module/backbone/layer2/layer2.2/bn1/BatchNormalization_output_0">
					<dim>1</dim>
					<dim>128</dim>
					<dim>80</dim>
					<dim>80</dim>
				</port>
			</output>
		</layer>
		<layer id="277" name="Constant_91193" type="Const" version="opset1">
			<data element_type="f32" shape="1, 1, 1, 1" offset="0" size="4" />
			<output>
				<port id="0" precision="FP32">
					<dim>1</dim>
					<dim>1</dim>
					<dim>1</dim>
					<dim>1</dim>
				</port>
			</output>
		</layer>
		<layer id="278" name="Constant_91194" type="Const" version="opset1">
			<data element_type="f32" shape="1, 1, 1, 1" offset="2269048" size="4" />
			<output>
				<port id="0" precision="FP32">
					<dim>1</dim>
					<dim>1</dim>
					<dim>1</dim>
					<dim>1</dim>
				</port>
			</output>
		</layer>
		<layer id="279" name="Constant_91195" type="Const" version="opset1">
			<data element_type="f32" shape="1, 1, 1, 1" offset="0" size="4" />
			<output>
				<port id="0" precision="FP32">
					<dim>1</dim>
					<dim>1</dim>
					<dim>1</dim>
					<dim>1</dim>
				</port>
			</output>
		</layer>
		<layer id="280" name="Constant_91196" type="Const" version="opset1">
			<data element_type="f32" shape="1, 1, 1, 1" offset="2269048" size="4" />
			<output>
				<port id="0" precision="FP32">
					<dim>1</dim>
					<dim>1</dim>
					<dim>1</dim>
					<dim>1</dim>
				</port>
			</output>
		</layer>
		<layer id="281" name="/nncf_module/backbone/layer2/layer2.2/relu/CustomMaskRCNN/ResNet[backbone]/ResLayer[layer2]/Bottleneck[2]/ReLU[relu]/relu__0|OUTPUT/FakeQuantize" type="FakeQuantize" version="opset1">
			<data levels="256" auto_broadcast="numpy" />
			<input>
				<port id="0" precision="FP32">
					<dim>1</dim>
					<dim>128</dim>
					<dim>80</dim>
					<dim>80</dim>
				</port>
				<port id="1" precision="FP32">
					<dim>1</dim>
					<dim>1</dim>
					<dim>1</dim>
					<dim>1</dim>
				</port>
				<port id="2" precision="FP32">
					<dim>1</dim>
					<dim>1</dim>
					<dim>1</dim>
					<dim>1</dim>
				</port>
				<port id="3" precision="FP32">
					<dim>1</dim>
					<dim>1</dim>
					<dim>1</dim>
					<dim>1</dim>
				</port>
				<port id="4" precision="FP32">
					<dim>1</dim>
					<dim>1</dim>
					<dim>1</dim>
					<dim>1</dim>
				</port>
			</input>
			<output>
				<port id="5" precision="FP32" names="/nncf_module/backbone/layer2/layer2.2/relu/CustomMaskRCNN/ResNet[backbone]/ResLayer[layer2]/Bottleneck[2]/ReLU[relu]/relu__0|OUTPUT/FakeQuantize_output_0">
					<dim>1</dim>
					<dim>128</dim>
					<dim>80</dim>
					<dim>80</dim>
				</port>
			</output>
		</layer>
		<layer id="282" name="/nncf_module/backbone/layer2/layer2.2/conv2/pre_ops.0/op/Constant" type="Const" version="opset1">
			<data element_type="i8" shape="128, 128, 3, 3" offset="2269052" size="147456" />
			<output>
				<port id="0" precision="I8">
					<dim>128</dim>
					<dim>128</dim>
					<dim>3</dim>
					<dim>3</dim>
				</port>
			</output>
		</layer>
		<layer id="283" name="Convert_97872" type="Convert" version="opset1">
			<data destination_type="f32" />
			<input>
				<port id="0" precision="I8">
					<dim>128</dim>
					<dim>128</dim>
					<dim>3</dim>
					<dim>3</dim>
				</port>
			</input>
			<output>
				<port id="1" precision="FP32">
					<dim>128</dim>
					<dim>128</dim>
					<dim>3</dim>
					<dim>3</dim>
				</port>
			</output>
		</layer>
		<layer id="284" name="Constant_97809" type="Const" version="opset1">
			<data element_type="f32" shape="128, 1, 1, 1" offset="2416508" size="512" />
			<output>
				<port id="0" precision="FP32">
					<dim>128</dim>
					<dim>1</dim>
					<dim>1</dim>
					<dim>1</dim>
				</port>
			</output>
		</layer>
		<layer id="285" name="Multiply_87789" type="Multiply" version="opset1">
			<data auto_broadcast="numpy" />
			<input>
				<port id="0" precision="FP32">
					<dim>128</dim>
					<dim>128</dim>
					<dim>3</dim>
					<dim>3</dim>
				</port>
				<port id="1" precision="FP32">
					<dim>128</dim>
					<dim>1</dim>
					<dim>1</dim>
					<dim>1</dim>
				</port>
			</input>
			<output>
				<port id="2" precision="FP32">
					<dim>128</dim>
					<dim>128</dim>
					<dim>3</dim>
					<dim>3</dim>
				</port>
			</output>
		</layer>
		<layer id="286" name="Multiply_87373" type="Convolution" version="opset1">
			<data strides="1, 1" dilations="1, 1" pads_begin="1, 1" pads_end="1, 1" auto_pad="explicit" />
			<input>
				<port id="0" precision="FP32">
					<dim>1</dim>
					<dim>128</dim>
					<dim>80</dim>
					<dim>80</dim>
				</port>
				<port id="1" precision="FP32">
					<dim>128</dim>
					<dim>128</dim>
					<dim>3</dim>
					<dim>3</dim>
				</port>
			</input>
			<output>
				<port id="2" precision="FP32">
					<dim>1</dim>
					<dim>128</dim>
					<dim>80</dim>
					<dim>80</dim>
				</port>
			</output>
		</layer>
		<layer id="287" name="Constant_87378" type="Const" version="opset1">
			<data element_type="f32" shape="1, 128, 1, 1" offset="2417020" size="512" />
			<output>
				<port id="0" precision="FP32">
					<dim>1</dim>
					<dim>128</dim>
					<dim>1</dim>
					<dim>1</dim>
				</port>
			</output>
		</layer>
		<layer id="288" name="/nncf_module/backbone/layer2/layer2.2/bn2/BatchNormalization" type="Add" version="opset1">
			<data auto_broadcast="numpy" />
			<input>
				<port id="0" precision="FP32">
					<dim>1</dim>
					<dim>128</dim>
					<dim>80</dim>
					<dim>80</dim>
				</port>
				<port id="1" precision="FP32">
					<dim>1</dim>
					<dim>128</dim>
					<dim>1</dim>
					<dim>1</dim>
				</port>
			</input>
			<output>
				<port id="2" precision="FP32" names="/nncf_module/backbone/layer2/layer2.2/bn2/BatchNormalization_output_0">
					<dim>1</dim>
					<dim>128</dim>
					<dim>80</dim>
					<dim>80</dim>
				</port>
			</output>
		</layer>
		<layer id="289" name="Constant_91197" type="Const" version="opset1">
			<data element_type="f32" shape="1, 1, 1, 1" offset="0" size="4" />
			<output>
				<port id="0" precision="FP32">
					<dim>1</dim>
					<dim>1</dim>
					<dim>1</dim>
					<dim>1</dim>
				</port>
			</output>
		</layer>
		<layer id="290" name="Constant_91198" type="Const" version="opset1">
			<data element_type="f32" shape="1, 1, 1, 1" offset="2417532" size="4" />
			<output>
				<port id="0" precision="FP32">
					<dim>1</dim>
					<dim>1</dim>
					<dim>1</dim>
					<dim>1</dim>
				</port>
			</output>
		</layer>
		<layer id="291" name="Constant_91199" type="Const" version="opset1">
			<data element_type="f32" shape="1, 1, 1, 1" offset="0" size="4" />
			<output>
				<port id="0" precision="FP32">
					<dim>1</dim>
					<dim>1</dim>
					<dim>1</dim>
					<dim>1</dim>
				</port>
			</output>
		</layer>
		<layer id="292" name="Constant_91200" type="Const" version="opset1">
			<data element_type="f32" shape="1, 1, 1, 1" offset="2417532" size="4" />
			<output>
				<port id="0" precision="FP32">
					<dim>1</dim>
					<dim>1</dim>
					<dim>1</dim>
					<dim>1</dim>
				</port>
			</output>
		</layer>
		<layer id="293" name="/nncf_module/backbone/layer2/layer2.2/relu/CustomMaskRCNN/ResNet[backbone]/ResLayer[layer2]/Bottleneck[2]/ReLU[relu]/relu__1|OUTPUT/FakeQuantize" type="FakeQuantize" version="opset1">
			<data levels="256" auto_broadcast="numpy" />
			<input>
				<port id="0" precision="FP32">
					<dim>1</dim>
					<dim>128</dim>
					<dim>80</dim>
					<dim>80</dim>
				</port>
				<port id="1" precision="FP32">
					<dim>1</dim>
					<dim>1</dim>
					<dim>1</dim>
					<dim>1</dim>
				</port>
				<port id="2" precision="FP32">
					<dim>1</dim>
					<dim>1</dim>
					<dim>1</dim>
					<dim>1</dim>
				</port>
				<port id="3" precision="FP32">
					<dim>1</dim>
					<dim>1</dim>
					<dim>1</dim>
					<dim>1</dim>
				</port>
				<port id="4" precision="FP32">
					<dim>1</dim>
					<dim>1</dim>
					<dim>1</dim>
					<dim>1</dim>
				</port>
			</input>
			<output>
				<port id="5" precision="FP32" names="/nncf_module/backbone/layer2/layer2.2/relu/CustomMaskRCNN/ResNet[backbone]/ResLayer[layer2]/Bottleneck[2]/ReLU[relu]/relu__1|OUTPUT/FakeQuantize_output_0">
					<dim>1</dim>
					<dim>128</dim>
					<dim>80</dim>
					<dim>80</dim>
				</port>
			</output>
		</layer>
		<layer id="294" name="/nncf_module/backbone/layer2/layer2.2/conv3/pre_ops.0/op/Constant" type="Const" version="opset1">
			<data element_type="i8" shape="512, 128, 1, 1" offset="2417536" size="65536" />
			<output>
				<port id="0" precision="I8">
					<dim>512</dim>
					<dim>128</dim>
					<dim>1</dim>
					<dim>1</dim>
				</port>
			</output>
		</layer>
		<layer id="295" name="Convert_97993" type="Convert" version="opset1">
			<data destination_type="f32" />
			<input>
				<port id="0" precision="I8">
					<dim>512</dim>
					<dim>128</dim>
					<dim>1</dim>
					<dim>1</dim>
				</port>
			</input>
			<output>
				<port id="1" precision="FP32">
					<dim>512</dim>
					<dim>128</dim>
					<dim>1</dim>
					<dim>1</dim>
				</port>
			</output>
		</layer>
		<layer id="296" name="Constant_97930" type="Const" version="opset1">
			<data element_type="f32" shape="512, 1, 1, 1" offset="2483072" size="2048" />
			<output>
				<port id="0" precision="FP32">
					<dim>512</dim>
					<dim>1</dim>
					<dim>1</dim>
					<dim>1</dim>
				</port>
			</output>
		</layer>
		<layer id="297" name="Multiply_87798" type="Multiply" version="opset1">
			<data auto_broadcast="numpy" />
			<input>
				<port id="0" precision="FP32">
					<dim>512</dim>
					<dim>128</dim>
					<dim>1</dim>
					<dim>1</dim>
				</port>
				<port id="1" precision="FP32">
					<dim>512</dim>
					<dim>1</dim>
					<dim>1</dim>
					<dim>1</dim>
				</port>
			</input>
			<output>
				<port id="2" precision="FP32">
					<dim>512</dim>
					<dim>128</dim>
					<dim>1</dim>
					<dim>1</dim>
				</port>
			</output>
		</layer>
		<layer id="298" name="Multiply_87380" type="Convolution" version="opset1">
			<data strides="1, 1" dilations="1, 1" pads_begin="0, 0" pads_end="0, 0" auto_pad="explicit" />
			<input>
				<port id="0" precision="FP32">
					<dim>1</dim>
					<dim>128</dim>
					<dim>80</dim>
					<dim>80</dim>
				</port>
				<port id="1" precision="FP32">
					<dim>512</dim>
					<dim>128</dim>
					<dim>1</dim>
					<dim>1</dim>
				</port>
			</input>
			<output>
				<port id="2" precision="FP32">
					<dim>1</dim>
					<dim>512</dim>
					<dim>80</dim>
					<dim>80</dim>
				</port>
			</output>
		</layer>
		<layer id="299" name="Constant_87385" type="Const" version="opset1">
			<data element_type="f32" shape="1, 512, 1, 1" offset="2485120" size="2048" />
			<output>
				<port id="0" precision="FP32">
					<dim>1</dim>
					<dim>512</dim>
					<dim>1</dim>
					<dim>1</dim>
				</port>
			</output>
		</layer>
		<layer id="300" name="/nncf_module/backbone/layer2/layer2.2/bn3/BatchNormalization" type="Add" version="opset1">
			<data auto_broadcast="numpy" />
			<input>
				<port id="0" precision="FP32">
					<dim>1</dim>
					<dim>512</dim>
					<dim>80</dim>
					<dim>80</dim>
				</port>
				<port id="1" precision="FP32">
					<dim>1</dim>
					<dim>512</dim>
					<dim>1</dim>
					<dim>1</dim>
				</port>
			</input>
			<output>
				<port id="2" precision="FP32" names="/nncf_module/backbone/layer2/layer2.2/bn3/BatchNormalization_output_0">
					<dim>1</dim>
					<dim>512</dim>
					<dim>80</dim>
					<dim>80</dim>
				</port>
			</output>
		</layer>
		<layer id="301" name="Constant_91201" type="Const" version="opset1">
			<data element_type="f32" shape="1, 1, 1, 1" offset="2487168" size="4" />
			<output>
				<port id="0" precision="FP32">
					<dim>1</dim>
					<dim>1</dim>
					<dim>1</dim>
					<dim>1</dim>
				</port>
			</output>
		</layer>
		<layer id="302" name="Constant_91202" type="Const" version="opset1">
			<data element_type="f32" shape="1, 1, 1, 1" offset="2487172" size="4" />
			<output>
				<port id="0" precision="FP32">
					<dim>1</dim>
					<dim>1</dim>
					<dim>1</dim>
					<dim>1</dim>
				</port>
			</output>
		</layer>
		<layer id="303" name="Constant_91203" type="Const" version="opset1">
			<data element_type="f32" shape="1, 1, 1, 1" offset="2487168" size="4" />
			<output>
				<port id="0" precision="FP32">
					<dim>1</dim>
					<dim>1</dim>
					<dim>1</dim>
					<dim>1</dim>
				</port>
			</output>
		</layer>
		<layer id="304" name="Constant_91204" type="Const" version="opset1">
			<data element_type="f32" shape="1, 1, 1, 1" offset="2487172" size="4" />
			<output>
				<port id="0" precision="FP32">
					<dim>1</dim>
					<dim>1</dim>
					<dim>1</dim>
					<dim>1</dim>
				</port>
			</output>
		</layer>
		<layer id="305" name="/nncf_module/backbone/layer2/layer2.2/bn3/CustomMaskRCNN/ResNet[backbone]/ResLayer[layer2]/Bottleneck[2]/NNCFBatchNorm2d[bn3]/batch_norm_0|OUTPUT/FakeQuantize" type="FakeQuantize" version="opset1">
			<data levels="256" auto_broadcast="numpy" />
			<input>
				<port id="0" precision="FP32">
					<dim>1</dim>
					<dim>512</dim>
					<dim>80</dim>
					<dim>80</dim>
				</port>
				<port id="1" precision="FP32">
					<dim>1</dim>
					<dim>1</dim>
					<dim>1</dim>
					<dim>1</dim>
				</port>
				<port id="2" precision="FP32">
					<dim>1</dim>
					<dim>1</dim>
					<dim>1</dim>
					<dim>1</dim>
				</port>
				<port id="3" precision="FP32">
					<dim>1</dim>
					<dim>1</dim>
					<dim>1</dim>
					<dim>1</dim>
				</port>
				<port id="4" precision="FP32">
					<dim>1</dim>
					<dim>1</dim>
					<dim>1</dim>
					<dim>1</dim>
				</port>
			</input>
			<output>
				<port id="5" precision="FP32" names="/nncf_module/backbone/layer2/layer2.2/bn3/CustomMaskRCNN/ResNet[backbone]/ResLayer[layer2]/Bottleneck[2]/NNCFBatchNorm2d[bn3]/batch_norm_0|OUTPUT/FakeQuantize_output_0">
					<dim>1</dim>
					<dim>512</dim>
					<dim>80</dim>
					<dim>80</dim>
				</port>
			</output>
		</layer>
		<layer id="306" name="/nncf_module/backbone/layer2/layer2.2/Add" type="Add" version="opset1">
			<data auto_broadcast="numpy" />
			<input>
				<port id="0" precision="FP32">
					<dim>1</dim>
					<dim>512</dim>
					<dim>80</dim>
					<dim>80</dim>
				</port>
				<port id="1" precision="FP32">
					<dim>1</dim>
					<dim>512</dim>
					<dim>80</dim>
					<dim>80</dim>
				</port>
			</input>
			<output>
				<port id="2" precision="FP32" names="/nncf_module/backbone/layer2/layer2.2/Add_output_0">
					<dim>1</dim>
					<dim>512</dim>
					<dim>80</dim>
					<dim>80</dim>
				</port>
			</output>
		</layer>
		<layer id="307" name="Constant_91205" type="Const" version="opset1">
			<data element_type="f32" shape="1, 1, 1, 1" offset="0" size="4" />
			<output>
				<port id="0" precision="FP32">
					<dim>1</dim>
					<dim>1</dim>
					<dim>1</dim>
					<dim>1</dim>
				</port>
			</output>
		</layer>
		<layer id="308" name="Constant_91206" type="Const" version="opset1">
			<data element_type="f32" shape="1, 1, 1, 1" offset="2487176" size="4" />
			<output>
				<port id="0" precision="FP32">
					<dim>1</dim>
					<dim>1</dim>
					<dim>1</dim>
					<dim>1</dim>
				</port>
			</output>
		</layer>
		<layer id="309" name="Constant_91207" type="Const" version="opset1">
			<data element_type="f32" shape="1, 1, 1, 1" offset="0" size="4" />
			<output>
				<port id="0" precision="FP32">
					<dim>1</dim>
					<dim>1</dim>
					<dim>1</dim>
					<dim>1</dim>
				</port>
			</output>
		</layer>
		<layer id="310" name="Constant_91208" type="Const" version="opset1">
			<data element_type="f32" shape="1, 1, 1, 1" offset="2487176" size="4" />
			<output>
				<port id="0" precision="FP32">
					<dim>1</dim>
					<dim>1</dim>
					<dim>1</dim>
					<dim>1</dim>
				</port>
			</output>
		</layer>
		<layer id="311" name="/nncf_module/backbone/layer2/layer2.2/relu/CustomMaskRCNN/ResNet[backbone]/ResLayer[layer2]/Bottleneck[2]/ReLU[relu]/relu__2|OUTPUT/FakeQuantize" type="FakeQuantize" version="opset1">
			<data levels="256" auto_broadcast="numpy" />
			<input>
				<port id="0" precision="FP32">
					<dim>1</dim>
					<dim>512</dim>
					<dim>80</dim>
					<dim>80</dim>
				</port>
				<port id="1" precision="FP32">
					<dim>1</dim>
					<dim>1</dim>
					<dim>1</dim>
					<dim>1</dim>
				</port>
				<port id="2" precision="FP32">
					<dim>1</dim>
					<dim>1</dim>
					<dim>1</dim>
					<dim>1</dim>
				</port>
				<port id="3" precision="FP32">
					<dim>1</dim>
					<dim>1</dim>
					<dim>1</dim>
					<dim>1</dim>
				</port>
				<port id="4" precision="FP32">
					<dim>1</dim>
					<dim>1</dim>
					<dim>1</dim>
					<dim>1</dim>
				</port>
			</input>
			<output>
				<port id="5" precision="FP32" names="/nncf_module/backbone/layer2/layer2.2/relu/CustomMaskRCNN/ResNet[backbone]/ResLayer[layer2]/Bottleneck[2]/ReLU[relu]/relu__2|OUTPUT/FakeQuantize_output_0">
					<dim>1</dim>
					<dim>512</dim>
					<dim>80</dim>
					<dim>80</dim>
				</port>
			</output>
		</layer>
		<layer id="312" name="/nncf_module/backbone/layer2/layer2.3/conv1/pre_ops.0/op/Constant" type="Const" version="opset1">
			<data element_type="i8" shape="128, 512, 1, 1" offset="2487180" size="65536" />
			<output>
				<port id="0" precision="I8">
					<dim>128</dim>
					<dim>512</dim>
					<dim>1</dim>
					<dim>1</dim>
				</port>
			</output>
		</layer>
		<layer id="313" name="Convert_98114" type="Convert" version="opset1">
			<data destination_type="f32" />
			<input>
				<port id="0" precision="I8">
					<dim>128</dim>
					<dim>512</dim>
					<dim>1</dim>
					<dim>1</dim>
				</port>
			</input>
			<output>
				<port id="1" precision="FP32">
					<dim>128</dim>
					<dim>512</dim>
					<dim>1</dim>
					<dim>1</dim>
				</port>
			</output>
		</layer>
		<layer id="314" name="Constant_98051" type="Const" version="opset1">
			<data element_type="f32" shape="128, 1, 1, 1" offset="2552716" size="512" />
			<output>
				<port id="0" precision="FP32">
					<dim>128</dim>
					<dim>1</dim>
					<dim>1</dim>
					<dim>1</dim>
				</port>
			</output>
		</layer>
		<layer id="315" name="Multiply_87807" type="Multiply" version="opset1">
			<data auto_broadcast="numpy" />
			<input>
				<port id="0" precision="FP32">
					<dim>128</dim>
					<dim>512</dim>
					<dim>1</dim>
					<dim>1</dim>
				</port>
				<port id="1" precision="FP32">
					<dim>128</dim>
					<dim>1</dim>
					<dim>1</dim>
					<dim>1</dim>
				</port>
			</input>
			<output>
				<port id="2" precision="FP32">
					<dim>128</dim>
					<dim>512</dim>
					<dim>1</dim>
					<dim>1</dim>
				</port>
			</output>
		</layer>
		<layer id="316" name="Multiply_87387" type="Convolution" version="opset1">
			<data strides="1, 1" dilations="1, 1" pads_begin="0, 0" pads_end="0, 0" auto_pad="explicit" />
			<input>
				<port id="0" precision="FP32">
					<dim>1</dim>
					<dim>512</dim>
					<dim>80</dim>
					<dim>80</dim>
				</port>
				<port id="1" precision="FP32">
					<dim>128</dim>
					<dim>512</dim>
					<dim>1</dim>
					<dim>1</dim>
				</port>
			</input>
			<output>
				<port id="2" precision="FP32">
					<dim>1</dim>
					<dim>128</dim>
					<dim>80</dim>
					<dim>80</dim>
				</port>
			</output>
		</layer>
		<layer id="317" name="Constant_87392" type="Const" version="opset1">
			<data element_type="f32" shape="1, 128, 1, 1" offset="2553228" size="512" />
			<output>
				<port id="0" precision="FP32">
					<dim>1</dim>
					<dim>128</dim>
					<dim>1</dim>
					<dim>1</dim>
				</port>
			</output>
		</layer>
		<layer id="318" name="/nncf_module/backbone/layer2/layer2.3/bn1/BatchNormalization" type="Add" version="opset1">
			<data auto_broadcast="numpy" />
			<input>
				<port id="0" precision="FP32">
					<dim>1</dim>
					<dim>128</dim>
					<dim>80</dim>
					<dim>80</dim>
				</port>
				<port id="1" precision="FP32">
					<dim>1</dim>
					<dim>128</dim>
					<dim>1</dim>
					<dim>1</dim>
				</port>
			</input>
			<output>
				<port id="2" precision="FP32" names="/nncf_module/backbone/layer2/layer2.3/bn1/BatchNormalization_output_0">
					<dim>1</dim>
					<dim>128</dim>
					<dim>80</dim>
					<dim>80</dim>
				</port>
			</output>
		</layer>
		<layer id="319" name="Constant_91209" type="Const" version="opset1">
			<data element_type="f32" shape="1, 1, 1, 1" offset="0" size="4" />
			<output>
				<port id="0" precision="FP32">
					<dim>1</dim>
					<dim>1</dim>
					<dim>1</dim>
					<dim>1</dim>
				</port>
			</output>
		</layer>
…
		<edge from-layer="1611" from-port="2" to-layer="1613" to-port="0" />
		<edge from-layer="1612" from-port="0" to-layer="1613" to-port="1" />
		<edge from-layer="1613" from-port="2" to-layer="1614" to-port="1" />
		<edge from-layer="1614" from-port="2" to-layer="1621" to-port="0" />
		<edge from-layer="1615" from-port="0" to-layer="1617" to-port="1" />
		<edge from-layer="1616" from-port="0" to-layer="1617" to-port="2" />
		<edge from-layer="1617" from-port="3" to-layer="1618" to-port="1" />
		<edge from-layer="1618" from-port="2" to-layer="1619" to-port="1" />
		<edge from-layer="1619" from-port="2" to-layer="1621" to-port="1" />
		<edge from-layer="1619" from-port="2" to-layer="1628" to-port="0" />
		<edge from-layer="1620" from-port="0" to-layer="1621" to-port="2" />
		<edge from-layer="1621" from-port="3" to-layer="1627" to-port="0" />
		<edge from-layer="1622" from-port="0" to-layer="1626" to-port="0" />
		<edge from-layer="1623" from-port="0" to-layer="1625" to-port="1" />
		<edge from-layer="1624" from-port="0" to-layer="1625" to-port="2" />
		<edge from-layer="1625" from-port="3" to-layer="1629" to-port="1" />
		<edge from-layer="1625" from-port="3" to-layer="1626" to-port="1" />
		<edge from-layer="1626" from-port="2" to-layer="1627" to-port="1" />
		<edge from-layer="1627" from-port="2" to-layer="1630" to-port="0" />
		<edge from-layer="1628" from-port="1" to-layer="1629" to-port="0" />
		<edge from-layer="1629" from-port="2" to-layer="1630" to-port="1" />
		<edge from-layer="1630" from-port="2" to-layer="1631" to-port="4" />
		<edge from-layer="1631" from-port="5" to-layer="1652" to-port="0" />
		<edge from-layer="1631" from-port="5" to-layer="1633" to-port="0" />
		<edge from-layer="1632" from-port="0" to-layer="1633" to-port="1" />
		<edge from-layer="1633" from-port="2" to-layer="1635" to-port="0" />
		<edge from-layer="1634" from-port="0" to-layer="1635" to-port="1" />
		<edge from-layer="1635" from-port="2" to-layer="1637" to-port="0" />
		<edge from-layer="1635" from-port="2" to-layer="1648" to-port="0" />
		<edge from-layer="1636" from-port="0" to-layer="1641" to-port="0" />
		<edge from-layer="1637" from-port="1" to-layer="1640" to-port="0" />
		<edge from-layer="1638" from-port="0" to-layer="1640" to-port="1" />
		<edge from-layer="1639" from-port="0" to-layer="1640" to-port="2" />
		<edge from-layer="1640" from-port="3" to-layer="1643" to-port="2" />
		<edge from-layer="1640" from-port="3" to-layer="1641" to-port="1" />
		<edge from-layer="1641" from-port="2" to-layer="1643" to-port="0" />
		<edge from-layer="1642" from-port="0" to-layer="1970" to-port="1" />
		<edge from-layer="1642" from-port="0" to-layer="1643" to-port="1" />
		<edge from-layer="1643" from-port="3" to-layer="1645" to-port="0" />
		<edge from-layer="1644" from-port="0" to-layer="1645" to-port="1" />
		<edge from-layer="1645" from-port="2" to-layer="1647" to-port="0" />
		<edge from-layer="1646" from-port="0" to-layer="1647" to-port="1" />
		<edge from-layer="1647" from-port="2" to-layer="1648" to-port="1" />
		<edge from-layer="1648" from-port="3" to-layer="1652" to-port="1" />
		<edge from-layer="1648" from-port="3" to-layer="1650" to-port="1" />
		<edge from-layer="1649" from-port="0" to-layer="1650" to-port="2" />
		<edge from-layer="1650" from-port="3" to-layer="1664" to-port="0" />
		<edge from-layer="1650" from-port="3" to-layer="1658" to-port="0" />
		<edge from-layer="1651" from-port="0" to-layer="1652" to-port="2" />
		<edge from-layer="1652" from-port="3" to-layer="1654" to-port="0" />
		<edge from-layer="1652" from-port="3" to-layer="1666" to-port="0" />
		<edge from-layer="1653" from-port="0" to-layer="1654" to-port="1" />
		<edge from-layer="1654" from-port="2" to-layer="1679" to-port="0" />
		<edge from-layer="1654" from-port="2" to-layer="1658" to-port="1" />
		<edge from-layer="1655" from-port="0" to-layer="1658" to-port="2" />
		<edge from-layer="1656" from-port="0" to-layer="1658" to-port="3" />
		<edge from-layer="1657" from-port="0" to-layer="1658" to-port="4" />
		<edge from-layer="1658" from-port="5" to-layer="1678" to-port="0" />
		<edge from-layer="1658" from-port="5" to-layer="1661" to-port="0" />
		<edge from-layer="1659" from-port="0" to-layer="1661" to-port="1" />
		<edge from-layer="1659" from-port="0" to-layer="1987" to-port="1" />
		<edge from-layer="1660" from-port="0" to-layer="1661" to-port="2" />
		<edge from-layer="1661" from-port="3" to-layer="1684" to-port="0" />
		<edge from-layer="1661" from-port="3" to-layer="1662" to-port="0" />
		<edge from-layer="1662" from-port="1" to-layer="1664" to-port="1" />
		<edge from-layer="1663" from-port="0" to-layer="1664" to-port="2" />
		<edge from-layer="1664" from-port="3" to-layer="1700" to-port="0" />
		<edge from-layer="1665" from-port="0" to-layer="1666" to-port="1" />
		<edge from-layer="1666" from-port="2" to-layer="1676" to-port="0" />
		<edge from-layer="1666" from-port="2" to-layer="1667" to-port="0" />
		<edge from-layer="1667" from-port="1" to-layer="1671" to-port="0" />
		<edge from-layer="1668" from-port="0" to-layer="1671" to-port="1" />
		<edge from-layer="1669" from-port="0" to-layer="1671" to-port="2" />
		<edge from-layer="1670" from-port="0" to-layer="1671" to-port="3" />
		<edge from-layer="1671" from-port="4" to-layer="1673" to-port="0" />
		<edge from-layer="1672" from-port="0" to-layer="1673" to-port="1" />
		<edge from-layer="1673" from-port="2" to-layer="1675" to-port="0" />
		<edge from-layer="1674" from-port="0" to-layer="1675" to-port="1" />
		<edge from-layer="1675" from-port="2" to-layer="1676" to-port="1" />
		<edge from-layer="1676" from-port="2" to-layer="1686" to-port="0" />
		<edge from-layer="1677" from-port="0" to-layer="1678" to-port="2" />
		<edge from-layer="1678" from-port="3" to-layer="1683" to-port="0" />
		<edge from-layer="1679" from-port="1" to-layer="1690" to-port="0" />
		<edge from-layer="1679" from-port="1" to-layer="1682" to-port="0" />
		<edge from-layer="1680" from-port="0" to-layer="1682" to-port="1" />
		<edge from-layer="1681" from-port="0" to-layer="1682" to-port="2" />
		<edge from-layer="1682" from-port="3" to-layer="1683" to-port="1" />
		<edge from-layer="1683" from-port="2" to-layer="1684" to-port="1" />
		<edge from-layer="1684" from-port="2" to-layer="1686" to-port="1" />
		<edge from-layer="1684" from-port="2" to-layer="1695" to-port="0" />
		<edge from-layer="1685" from-port="0" to-layer="1686" to-port="2" />
		<edge from-layer="1686" from-port="3" to-layer="1692" to-port="0" />
		<edge from-layer="1687" from-port="0" to-layer="1691" to-port="0" />
		<edge from-layer="1688" from-port="0" to-layer="1690" to-port="1" />
		<edge from-layer="1689" from-port="0" to-layer="1690" to-port="2" />
		<edge from-layer="1690" from-port="3" to-layer="1691" to-port="1" />
		<edge from-layer="1690" from-port="3" to-layer="1696" to-port="0" />
		<edge from-layer="1691" from-port="2" to-layer="1692" to-port="1" />
		<edge from-layer="1692" from-port="2" to-layer="1694" to-port="0" />
		<edge from-layer="1693" from-port="0" to-layer="1694" to-port="1" />
		<edge from-layer="1694" from-port="2" to-layer="1697" to-port="0" />
		<edge from-layer="1695" from-port="1" to-layer="1696" to-port="1" />
		<edge from-layer="1696" from-port="2" to-layer="1697" to-port="1" />
		<edge from-layer="1697" from-port="2" to-layer="1699" to-port="0" />
		<edge from-layer="1698" from-port="0" to-layer="1699" to-port="1" />
		<edge from-layer="1699" from-port="2" to-layer="1700" to-port="1" />
		<edge from-layer="1700" from-port="2" to-layer="1702" to-port="0" />
		<edge from-layer="1701" from-port="0" to-layer="1702" to-port="1" />
		<edge from-layer="1702" from-port="2" to-layer="1721" to-port="0" />
		<edge from-layer="1702" from-port="2" to-layer="1705" to-port="0" />
		<edge from-layer="1703" from-port="0" to-layer="2028" to-port="1" />
		<edge from-layer="1703" from-port="0" to-layer="1705" to-port="1" />
		<edge from-layer="1704" from-port="0" to-layer="1705" to-port="2" />
		<edge from-layer="1705" from-port="3" to-layer="1717" to-port="0" />
		<edge from-layer="1705" from-port="3" to-layer="1707" to-port="0" />
		<edge from-layer="1706" from-port="0" to-layer="1711" to-port="0" />
		<edge from-layer="1707" from-port="1" to-layer="1710" to-port="0" />
		<edge from-layer="1708" from-port="0" to-layer="1710" to-port="1" />
		<edge from-layer="1709" from-port="0" to-layer="1710" to-port="2" />
		<edge from-layer="1710" from-port="3" to-layer="1711" to-port="1" />
		<edge from-layer="1710" from-port="3" to-layer="1712" to-port="2" />
		<edge from-layer="1711" from-port="2" to-layer="1712" to-port="0" />
		<edge from-layer="1712" from-port="3" to-layer="1714" to-port="0" />
		<edge from-layer="1713" from-port="0" to-layer="1714" to-port="1" />
		<edge from-layer="1714" from-port="2" to-layer="1716" to-port="0" />
		<edge from-layer="1715" from-port="0" to-layer="1716" to-port="1" />
		<edge from-layer="1716" from-port="2" to-layer="1717" to-port="1" />
		<edge from-layer="1717" from-port="3" to-layer="1719" to-port="0" />
		<edge from-layer="1718" from-port="0" to-layer="1719" to-port="1" />
		<edge from-layer="1719" from-port="2" to-layer="1721" to-port="1" />
		<edge from-layer="1720" from-port="0" to-layer="1721" to-port="2" />
		<edge from-layer="1721" from-port="3" to-layer="1722" to-port="0" />
		<edge from-layer="1721" from-port="3" to-layer="1746" to-port="0" />
		<edge from-layer="1722" from-port="1" to-layer="1733" to-port="0" />
		<edge from-layer="1722" from-port="1" to-layer="1725" to-port="0" />
		<edge from-layer="1723" from-port="0" to-layer="1725" to-port="1" />
		<edge from-layer="1724" from-port="0" to-layer="1725" to-port="2" />
		<edge from-layer="1725" from-port="3" to-layer="1727" to-port="1" />
		<edge from-layer="1726" from-port="0" to-layer="1727" to-port="2" />
		<edge from-layer="1727" from-port="3" to-layer="1728" to-port="0" />
		<edge from-layer="1728" from-port="1" to-layer="1730" to-port="0" />
		<edge from-layer="1729" from-port="0" to-layer="1730" to-port="1" />
		<edge from-layer="1730" from-port="2" to-layer="1742" to-port="0" />
		<edge from-layer="1731" from-port="0" to-layer="1733" to-port="1" />
		<edge from-layer="1732" from-port="0" to-layer="1733" to-port="2" />
		<edge from-layer="1733" from-port="3" to-layer="1735" to-port="0" />
		<edge from-layer="1734" from-port="0" to-layer="1735" to-port="1" />
		<edge from-layer="1735" from-port="2" to-layer="1737" to-port="0" />
		<edge from-layer="1736" from-port="0" to-layer="1737" to-port="1" />
		<edge from-layer="1737" from-port="2" to-layer="1739" to-port="0" />
		<edge from-layer="1737" from-port="2" to-layer="1741" to-port="2" />
		<edge from-layer="1738" from-port="0" to-layer="1739" to-port="1" />
		<edge from-layer="1739" from-port="2" to-layer="1741" to-port="0" />
		<edge from-layer="1740" from-port="0" to-layer="1741" to-port="1" />
		<edge from-layer="1741" from-port="3" to-layer="1742" to-port="1" />
		<edge from-layer="1742" from-port="2" to-layer="1747" to-port="0" />
		<edge from-layer="1743" from-port="0" to-layer="1746" to-port="1" />
		<edge from-layer="1744" from-port="0" to-layer="1746" to-port="2" />
		<edge from-layer="1745" from-port="0" to-layer="1746" to-port="3" />
		<edge from-layer="1746" from-port="4" to-layer="1747" to-port="1" />
		<edge from-layer="1747" from-port="2" to-layer="1750" to-port="0" />
		<edge from-layer="1747" from-port="2" to-layer="1749" to-port="0" />
		<edge from-layer="1748" from-port="0" to-layer="1749" to-port="1" />
		<edge from-layer="1749" from-port="2" to-layer="1755" to-port="0" />
		<edge from-layer="1749" from-port="2" to-layer="1787" to-port="0" />
		<edge from-layer="1749" from-port="2" to-layer="1765" to-port="0" />
		<edge from-layer="1750" from-port="1" to-layer="1753" to-port="0" />
		<edge from-layer="1750" from-port="1" to-layer="1905" to-port="0" />
		<edge from-layer="1750" from-port="1" to-layer="1828" to-port="0" />
		<edge from-layer="1751" from-port="0" to-layer="1753" to-port="1" />
		<edge from-layer="1752" from-port="0" to-layer="1753" to-port="2" />
		<edge from-layer="1752" from-port="0" to-layer="1905" to-port="2" />
		<edge from-layer="1752" from-port="0" to-layer="1828" to-port="2" />
		<edge from-layer="1753" from-port="3" to-layer="1764" to-port="0" />
		<edge from-layer="1754" from-port="0" to-layer="1764" to-port="1" />
		<edge from-layer="1755" from-port="1" to-layer="1759" to-port="0" />
		<edge from-layer="1756" from-port="0" to-layer="1759" to-port="1" />
		<edge from-layer="1757" from-port="0" to-layer="1759" to-port="2" />
		<edge from-layer="1758" from-port="0" to-layer="1759" to-port="3" />
		<edge from-layer="1759" from-port="4" to-layer="1761" to-port="0" />
		<edge from-layer="1760" from-port="0" to-layer="1761" to-port="1" />
		<edge from-layer="1761" from-port="2" to-layer="1763" to-port="0" />
		<edge from-layer="1762" from-port="0" to-layer="1763" to-port="1" />
		<edge from-layer="1763" from-port="2" to-layer="1764" to-port="2" />
		<edge from-layer="1764" from-port="3" to-layer="1765" to-port="1" />
		<edge from-layer="1765" from-port="2" to-layer="1769" to-port="0" />
		<edge from-layer="1766" from-port="0" to-layer="1769" to-port="1" />
		<edge from-layer="1767" from-port="0" to-layer="1769" to-port="2" />
		<edge from-layer="1768" from-port="0" to-layer="1769" to-port="3" />
		<edge from-layer="1769" from-port="4" to-layer="1771" to-port="0" />
		<edge from-layer="1770" from-port="0" to-layer="1771" to-port="1" />
		<edge from-layer="1771" from-port="2" to-layer="1775" to-port="0" />
		<edge from-layer="1771" from-port="2" to-layer="1779" to-port="0" />
		<edge from-layer="1772" from-port="0" to-layer="1775" to-port="1" />
		<edge from-layer="1773" from-port="0" to-layer="1775" to-port="2" />
		<edge from-layer="1774" from-port="0" to-layer="1775" to-port="3" />
		<edge from-layer="1775" from-port="4" to-layer="1783" to-port="1" />
		<edge from-layer="1775" from-port="4" to-layer="1780" to-port="0" />
		<edge from-layer="1776" from-port="0" to-layer="1779" to-port="1" />
		<edge from-layer="1777" from-port="0" to-layer="1779" to-port="2" />
		<edge from-layer="1778" from-port="0" to-layer="1779" to-port="3" />
		<edge from-layer="1779" from-port="4" to-layer="1780" to-port="1" />
		<edge from-layer="1779" from-port="4" to-layer="1783" to-port="0" />
		<edge from-layer="1780" from-port="2" to-layer="1782" to-port="0" />
		<edge from-layer="1781" from-port="0" to-layer="1782" to-port="1" />
		<edge from-layer="1782" from-port="2" to-layer="1850" to-port="0" />
		<edge from-layer="1783" from-port="2" to-layer="1857" to-port="0" />
		<edge from-layer="1783" from-port="2" to-layer="1849" to-port="0" />
		<edge from-layer="1784" from-port="0" to-layer="1787" to-port="1" />
		<edge from-layer="1785" from-port="0" to-layer="1787" to-port="2" />
		<edge from-layer="1786" from-port="0" to-layer="1787" to-port="3" />
		<edge from-layer="1787" from-port="4" to-layer="1788" to-port="0" />
		<edge from-layer="1788" from-port="5" to-layer="1799" to-port="0" />
		<edge from-layer="1789" from-port="0" to-layer="1798" to-port="0" />
		<edge from-layer="1790" from-port="0" to-layer="1791" to-port="0" />
		<edge from-layer="1791" from-port="1" to-layer="1793" to-port="0" />
		<edge from-layer="1792" from-port="0" to-layer="1793" to-port="1" />
		<edge from-layer="1793" from-port="2" to-layer="1800" to-port="1" />
		<edge from-layer="1793" from-port="2" to-layer="1794" to-port="0" />
		<edge from-layer="1794" from-port="1" to-layer="1797" to-port="0" />
		<edge from-layer="1795" from-port="0" to-layer="1797" to-port="1" />
		<edge from-layer="1796" from-port="0" to-layer="1797" to-port="2" />
		<edge from-layer="1797" from-port="3" to-layer="1798" to-port="1" />
		<edge from-layer="1798" from-port="2" to-layer="1799" to-port="1" />
		<edge from-layer="1799" from-port="2" to-layer="1800" to-port="0" />
		<edge from-layer="1800" from-port="2" to-layer="1802" to-port="0" />
		<edge from-layer="1801" from-port="0" to-layer="1802" to-port="1" />
		<edge from-layer="1802" from-port="2" to-layer="1807" to-port="0" />
		<edge from-layer="1803" from-port="0" to-layer="1807" to-port="1" />
		<edge from-layer="1804" from-port="0" to-layer="1807" to-port="2" />
		<edge from-layer="1805" from-port="0" to-layer="1807" to-port="3" />
		<edge from-layer="1806" from-port="0" to-layer="1807" to-port="4" />
		<edge from-layer="1807" from-port="5" to-layer="1812" to-port="0" />
		<edge from-layer="1808" from-port="0" to-layer="1809" to-port="0" />
		<edge from-layer="1809" from-port="1" to-layer="1811" to-port="0" />
		<edge from-layer="1810" from-port="0" to-layer="1811" to-port="1" />
		<edge from-layer="1811" from-port="2" to-layer="1812" to-port="1" />
		<edge from-layer="1812" from-port="2" to-layer="1814" to-port="0" />
		<edge from-layer="1813" from-port="0" to-layer="1814" to-port="1" />
		<edge from-layer="1814" from-port="2" to-layer="1819" to-port="0" />
		<edge from-layer="1815" from-port="0" to-layer="1819" to-port="1" />
		<edge from-layer="1816" from-port="0" to-layer="1819" to-port="2" />
		<edge from-layer="1817" from-port="0" to-layer="1819" to-port="3" />
		<edge from-layer="1818" from-port="0" to-layer="1819" to-port="4" />
		<edge from-layer="1819" from-port="5" to-layer="1901" to-port="0" />
		<edge from-layer="1819" from-port="5" to-layer="1824" to-port="0" />
		<edge from-layer="1820" from-port="0" to-layer="1821" to-port="0" />
		<edge from-layer="1821" from-port="1" to-layer="1823" to-port="0" />
		<edge from-layer="1822" from-port="0" to-layer="1823" to-port="1" />
		<edge from-layer="1823" from-port="2" to-layer="1824" to-port="1" />
		<edge from-layer="1824" from-port="2" to-layer="1826" to-port="0" />
		<edge from-layer="1825" from-port="0" to-layer="1826" to-port="1" />
		<edge from-layer="1826" from-port="2" to-layer="1840" to-port="0" />
		<edge from-layer="1826" from-port="2" to-layer="1830" to-port="0" />
		<edge from-layer="1827" from-port="0" to-layer="1828" to-port="1" />
		<edge from-layer="1828" from-port="3" to-layer="1839" to-port="0" />
		<edge from-layer="1829" from-port="0" to-layer="1839" to-port="1" />
		<edge from-layer="1830" from-port="1" to-layer="1834" to-port="0" />
		<edge from-layer="1831" from-port="0" to-layer="1834" to-port="1" />
		<edge from-layer="1832" from-port="0" to-layer="1834" to-port="2" />
		<edge from-layer="1833" from-port="0" to-layer="1834" to-port="3" />
		<edge from-layer="1834" from-port="4" to-layer="1836" to-port="0" />
		<edge from-layer="1835" from-port="0" to-layer="1836" to-port="1" />
		<edge from-layer="1836" from-port="2" to-layer="1838" to-port="0" />
		<edge from-layer="1837" from-port="0" to-layer="1838" to-port="1" />
		<edge from-layer="1838" from-port="2" to-layer="1839" to-port="2" />
		<edge from-layer="1839" from-port="3" to-layer="1840" to-port="1" />
		<edge from-layer="1840" from-port="2" to-layer="1883" to-port="0" />
		<edge from-layer="1840" from-port="2" to-layer="1842" to-port="0" />
		<edge from-layer="1841" from-port="0" to-layer="1842" to-port="1" />
		<edge from-layer="1842" from-port="2" to-layer="1844" to-port="0" />
		<edge from-layer="1843" from-port="0" to-layer="1844" to-port="1" />
		<edge from-layer="1844" from-port="2" to-layer="1848" to-port="0" />
		<edge from-layer="1844" from-port="2" to-layer="1854" to-port="0" />
		<edge from-layer="1845" from-port="0" to-layer="1848" to-port="1" />
		<edge from-layer="1846" from-port="0" to-layer="1848" to-port="2" />
		<edge from-layer="1847" from-port="0" to-layer="1848" to-port="3" />
		<edge from-layer="1848" from-port="4" to-layer="1849" to-port="1" />
		<edge from-layer="1849" from-port="2" to-layer="1850" to-port="1" />
		<edge from-layer="1850" from-port="2" to-layer="1860" to-port="0" />
		<edge from-layer="1850" from-port="2" to-layer="1871" to-port="0" />
		<edge from-layer="1851" from-port="0" to-layer="1854" to-port="1" />
		<edge from-layer="1852" from-port="0" to-layer="1854" to-port="2" />
		<edge from-layer="1853" from-port="0" to-layer="1854" to-port="3" />
		<edge from-layer="1854" from-port="4" to-layer="1855" to-port="0" />
		<edge from-layer="1855" from-port="1" to-layer="1856" to-port="0" />
		<edge from-layer="1856" from-port="1" to-layer="1857" to-port="1" />
		<edge from-layer="1857" from-port="2" to-layer="1859" to-port="0" />
		<edge from-layer="1858" from-port="0" to-layer="1859" to-port="1" />
		<edge from-layer="1859" from-port="2" to-layer="1871" to-port="1" />
		<edge from-layer="1859" from-port="2" to-layer="1860" to-port="1" />
		<edge from-layer="1860" from-port="2" to-layer="1862" to-port="0" />
		<edge from-layer="1860" from-port="2" to-layer="1867" to-port="0" />
		<edge from-layer="1861" from-port="0" to-layer="1862" to-port="2" />
		<edge from-layer="1862" from-port="3" to-layer="1863" to-port="0" />
		<edge from-layer="1863" from-port="1" to-layer="1865" to-port="0" />
		<edge from-layer="1864" from-port="0" to-layer="1865" to-port="1" />
		<edge from-layer="1865" from-port="2" to-layer="1882" to-port="0" />
		<edge from-layer="1866" from-port="0" to-layer="1867" to-port="2" />
		<edge from-layer="1867" from-port="3" to-layer="1868" to-port="0" />
		<edge from-layer="1868" from-port="1" to-layer="1870" to-port="0" />
		<edge from-layer="1869" from-port="0" to-layer="1870" to-port="1" />
		<edge from-layer="1870" from-port="2" to-layer="1882" to-port="1" />
		<edge from-layer="1871" from-port="2" to-layer="1878" to-port="0" />
		<edge from-layer="1871" from-port="2" to-layer="1873" to-port="0" />
		<edge from-layer="1872" from-port="0" to-layer="1873" to-port="2" />
		<edge from-layer="1873" from-port="3" to-layer="1874" to-port="0" />
		<edge from-layer="1874" from-port="1" to-layer="1876" to-port="0" />
		<edge from-layer="1875" from-port="0" to-layer="1876" to-port="1" />
		<edge from-layer="1876" from-port="2" to-layer="1882" to-port="2" />
		<edge from-layer="1877" from-port="0" to-layer="1878" to-port="2" />
		<edge from-layer="1878" from-port="3" to-layer="1879" to-port="0" />
		<edge from-layer="1879" from-port="1" to-layer="1881" to-port="0" />
		<edge from-layer="1880" from-port="0" to-layer="1881" to-port="1" />
		<edge from-layer="1881" from-port="2" to-layer="1882" to-port="3" />
		<edge from-layer="1882" from-port="4" to-layer="1884" to-port="0" />
		<edge from-layer="1883" from-port="1" to-layer="1884" to-port="1" />
		<edge from-layer="1884" from-port="2" to-layer="1886" to-port="0" />
		<edge from-layer="1885" from-port="0" to-layer="1886" to-port="1" />
		<edge from-layer="1886" from-port="2" to-layer="1887" to-port="0" />
		<edge from-layer="1886" from-port="2" to-layer="1896" to-port="0" />
		<edge from-layer="1887" from-port="1" to-layer="1946" to-port="0" />
		<edge from-layer="1887" from-port="1" to-layer="1931" to-port="0" />
		<edge from-layer="1887" from-port="1" to-layer="1891" to-port="0" />
		<edge from-layer="1887" from-port="1" to-layer="1938" to-port="0" />
		<edge from-layer="1888" from-port="0" to-layer="1891" to-port="1" />
		<edge from-layer="1889" from-port="0" to-layer="1891" to-port="2" />
		<edge from-layer="1890" from-port="0" to-layer="1891" to-port="3" />
		<edge from-layer="1891" from-port="4" to-layer="1893" to-port="0" />
		<edge from-layer="1892" from-port="0" to-layer="1893" to-port="1" />
		<edge from-layer="1893" from-port="2" to-layer="1895" to-port="0" />
		<edge from-layer="1894" from-port="0" to-layer="1895" to-port="1" />
		<edge from-layer="1895" from-port="2" to-layer="1896" to-port="1" />
		<edge from-layer="1896" from-port="2" to-layer="1942" to-port="0" />
		<edge from-layer="1897" from-port="0" to-layer="1898" to-port="0" />
		<edge from-layer="1898" from-port="1" to-layer="1900" to-port="0" />
		<edge from-layer="1899" from-port="0" to-layer="1900" to-port="1" />
		<edge from-layer="1900" from-port="2" to-layer="1901" to-port="1" />
		<edge from-layer="1901" from-port="2" to-layer="1903" to-port="0" />
		<edge from-layer="1902" from-port="0" to-layer="1903" to-port="1" />
		<edge from-layer="1903" from-port="2" to-layer="1907" to-port="0" />
		<edge from-layer="1903" from-port="2" to-layer="1917" to-port="0" />
		<edge from-layer="1904" from-port="0" to-layer="1905" to-port="1" />
		<edge from-layer="1905" from-port="3" to-layer="1916" to-port="0" />
		<edge from-layer="1906" from-port="0" to-layer="1916" to-port="1" />
		<edge from-layer="1907" from-port="1" to-layer="1911" to-port="0" />
		<edge from-layer="1908" from-port="0" to-layer="1911" to-port="1" />
		<edge from-layer="1909" from-port="0" to-layer="1911" to-port="2" />
		<edge from-layer="1910" from-port="0" to-layer="1911" to-port="3" />
		<edge from-layer="1911" from-port="4" to-layer="1913" to-port="0" />
		<edge from-layer="1912" from-port="0" to-layer="1913" to-port="1" />
		<edge from-layer="1913" from-port="2" to-layer="1915" to-port="0" />
		<edge from-layer="1914" from-port="0" to-layer="1915" to-port="1" />
		<edge from-layer="1915" from-port="2" to-layer="1916" to-port="2" />
		<edge from-layer="1916" from-port="3" to-layer="1917" to-port="1" />
		<edge from-layer="1917" from-port="2" to-layer="1918" to-port="0" />
		<edge from-layer="1918" from-port="1" to-layer="1952" to-port="0" />
		<edge from-layer="1918" from-port="1" to-layer="1922" to-port="0" />
		<edge from-layer="1919" from-port="0" to-layer="1922" to-port="1" />
		<edge from-layer="1920" from-port="0" to-layer="1922" to-port="2" />
		<edge from-layer="1921" from-port="0" to-layer="1922" to-port="3" />
		<edge from-layer="1922" from-port="4" to-layer="1961" to-port="0" />
		<edge from-layer="1922" from-port="4" to-layer="1924" to-port="0" />
		<edge from-layer="1922" from-port="4" to-layer="1979" to-port="0" />
		<edge from-layer="1923" from-port="0" to-layer="1924" to-port="1" />
		<edge from-layer="1924" from-port="2" to-layer="1926" to-port="0" />
		<edge from-layer="1925" from-port="0" to-layer="1926" to-port="1" />
		<edge from-layer="1926" from-port="3" to-layer="1927" to-port="0" />
		<edge from-layer="1927" from-port="1" to-layer="1940" to-port="0" />
		<edge from-layer="1928" from-port="0" to-layer="1933" to-port="0" />
		<edge from-layer="1929" from-port="0" to-layer="1931" to-port="1" />
		<edge from-layer="1930" from-port="0" to-layer="1931" to-port="2" />
		<edge from-layer="1931" from-port="3" to-layer="1933" to-port="1" />
		<edge from-layer="1932" from-port="0" to-layer="1933" to-port="2" />
		<edge from-layer="1933" from-port="3" to-layer="1935" to-port="0" />
		<edge from-layer="1934" from-port="0" to-layer="1935" to-port="1" />
		<edge from-layer="1935" from-port="2" to-layer="1939" to-port="0" />
		<edge from-layer="1936" from-port="0" to-layer="1938" to-port="1" />
		<edge from-layer="1937" from-port="0" to-layer="1938" to-port="2" />
		<edge from-layer="1938" from-port="3" to-layer="1939" to-port="1" />
		<edge from-layer="1939" from-port="2" to-layer="1940" to-port="1" />
		<edge from-layer="1940" from-port="2" to-layer="1949" to-port="0" />
		<edge from-layer="1940" from-port="2" to-layer="1942" to-port="1" />
		<edge from-layer="1941" from-port="0" to-layer="1942" to-port="2" />
		<edge from-layer="1942" from-port="3" to-layer="1948" to-port="0" />
		<edge from-layer="1943" from-port="0" to-layer="1947" to-port="0" />
		<edge from-layer="1944" from-port="0" to-layer="1946" to-port="1" />
		<edge from-layer="1945" from-port="0" to-layer="1946" to-port="2" />
		<edge from-layer="1946" from-port="3" to-layer="1947" to-port="1" />
		<edge from-layer="1946" from-port="3" to-layer="1950" to-port="1" />
		<edge from-layer="1947" from-port="2" to-layer="1948" to-port="1" />
		<edge from-layer="1948" from-port="2" to-layer="1951" to-port="0" />
		<edge from-layer="1949" from-port="1" to-layer="1950" to-port="0" />
		<edge from-layer="1950" from-port="2" to-layer="1951" to-port="1" />
		<edge from-layer="1951" from-port="2" to-layer="1959" to-port="0" />
		<edge from-layer="1952" from-port="1" to-layer="1955" to-port="0" />
		<edge from-layer="1953" from-port="0" to-layer="1955" to-port="1" />
		<edge from-layer="1954" from-port="0" to-layer="1955" to-port="2" />
		<edge from-layer="1955" from-port="3" to-layer="1958" to-port="0" />
		<edge from-layer="1956" from-port="0" to-layer="1958" to-port="1" />
		<edge from-layer="1957" from-port="0" to-layer="1958" to-port="2" />
		<edge from-layer="1958" from-port="3" to-layer="1959" to-port="1" />
		<edge from-layer="1959" from-port="2" to-layer="1977" to-port="0" />
		<edge from-layer="1960" from-port="0" to-layer="1961" to-port="1" />
		<edge from-layer="1961" from-port="2" to-layer="1963" to-port="0" />
		<edge from-layer="1962" from-port="0" to-layer="1963" to-port="1" />
		<edge from-layer="1963" from-port="2" to-layer="1965" to-port="0" />
		<edge from-layer="1963" from-port="2" to-layer="1975" to-port="0" />
		<edge from-layer="1964" from-port="0" to-layer="1969" to-port="0" />
		<edge from-layer="1965" from-port="1" to-layer="1968" to-port="0" />
		<edge from-layer="1966" from-port="0" to-layer="1968" to-port="1" />
		<edge from-layer="1967" from-port="0" to-layer="1968" to-port="2" />
		<edge from-layer="1968" from-port="3" to-layer="1970" to-port="2" />
		<edge from-layer="1968" from-port="3" to-layer="1969" to-port="1" />
		<edge from-layer="1969" from-port="2" to-layer="1970" to-port="0" />
		<edge from-layer="1970" from-port="3" to-layer="1972" to-port="0" />
		<edge from-layer="1971" from-port="0" to-layer="1972" to-port="1" />
		<edge from-layer="1972" from-port="2" to-layer="1974" to-port="0" />
		<edge from-layer="1973" from-port="0" to-layer="1974" to-port="1" />
		<edge from-layer="1974" from-port="2" to-layer="1975" to-port="1" />
		<edge from-layer="1975" from-port="3" to-layer="1979" to-port="1" />
		<edge from-layer="1975" from-port="3" to-layer="1977" to-port="1" />
		<edge from-layer="1976" from-port="0" to-layer="1977" to-port="2" />
		<edge from-layer="1977" from-port="3" to-layer="1985" to-port="0" />
		<edge from-layer="1977" from-port="3" to-layer="1990" to-port="0" />
		<edge from-layer="1978" from-port="0" to-layer="1979" to-port="2" />
		<edge from-layer="1979" from-port="3" to-layer="1981" to-port="0" />
		<edge from-layer="1979" from-port="3" to-layer="1991" to-port="0" />
		<edge from-layer="1979" from-port="3" to-layer="2000" to-port="0" />
		<edge from-layer="1980" from-port="0" to-layer="1981" to-port="1" />
		<edge from-layer="1981" from-port="2" to-layer="1985" to-port="1" />
		<edge from-layer="1981" from-port="2" to-layer="2003" to-port="0" />
		<edge from-layer="1982" from-port="0" to-layer="1985" to-port="2" />
		<edge from-layer="1983" from-port="0" to-layer="1985" to-port="3" />
		<edge from-layer="1984" from-port="0" to-layer="1985" to-port="4" />
		<edge from-layer="1985" from-port="5" to-layer="1987" to-port="0" />
		<edge from-layer="1985" from-port="5" to-layer="2002" to-port="0" />
		<edge from-layer="1986" from-port="0" to-layer="1987" to-port="2" />
		<edge from-layer="1987" from-port="3" to-layer="1988" to-port="0" />
		<edge from-layer="1987" from-port="3" to-layer="2008" to-port="0" />
		<edge from-layer="1988" from-port="1" to-layer="1990" to-port="1" />
		<edge from-layer="1989" from-port="0" to-layer="1990" to-port="2" />
		<edge from-layer="1990" from-port="3" to-layer="2024" to-port="0" />
		<edge from-layer="1991" from-port="1" to-layer="1995" to-port="0" />
		<edge from-layer="1992" from-port="0" to-layer="1995" to-port="1" />
		<edge from-layer="1993" from-port="0" to-layer="1995" to-port="2" />
		<edge from-layer="1994" from-port="0" to-layer="1995" to-port="3" />
		<edge from-layer="1995" from-port="4" to-layer="1997" to-port="0" />
		<edge from-layer="1996" from-port="0" to-layer="1997" to-port="1" />
		<edge from-layer="1997" from-port="2" to-layer="1999" to-port="0" />
		<edge from-layer="1998" from-port="0" to-layer="1999" to-port="1" />
		<edge from-layer="1999" from-port="2" to-layer="2000" to-port="1" />
		<edge from-layer="2000" from-port="2" to-layer="2010" to-port="0" />
		<edge from-layer="2001" from-port="0" to-layer="2002" to-port="2" />
		<edge from-layer="2002" from-port="3" to-layer="2007" to-port="0" />
		<edge from-layer="2002" from-port="3" to-layer="2166" to-port="0" />
		<edge from-layer="2003" from-port="1" to-layer="2006" to-port="0" />
		<edge from-layer="2003" from-port="1" to-layer="2014" to-port="0" />
		<edge from-layer="2004" from-port="0" to-layer="2006" to-port="1" />
		<edge from-layer="2005" from-port="0" to-layer="2006" to-port="2" />
		<edge from-layer="2006" from-port="3" to-layer="2007" to-port="1" />
		<edge from-layer="2007" from-port="2" to-layer="2008" to-port="1" />
		<edge from-layer="2008" from-port="2" to-layer="2019" to-port="0" />
		<edge from-layer="2008" from-port="2" to-layer="2010" to-port="1" />
		<edge from-layer="2009" from-port="0" to-layer="2010" to-port="2" />
		<edge from-layer="2010" from-port="3" to-layer="2016" to-port="0" />
		<edge from-layer="2011" from-port="0" to-layer="2015" to-port="0" />
		<edge from-layer="2012" from-port="0" to-layer="2014" to-port="1" />
		<edge from-layer="2013" from-port="0" to-layer="2014" to-port="2" />
		<edge from-layer="2014" from-port="3" to-layer="2020" to-port="0" />
		<edge from-layer="2014" from-port="3" to-layer="2015" to-port="1" />
		<edge from-layer="2015" from-port="2" to-layer="2016" to-port="1" />
		<edge from-layer="2016" from-port="2" to-layer="2018" to-port="0" />
		<edge from-layer="2017" from-port="0" to-layer="2018" to-port="1" />
		<edge from-layer="2018" from-port="2" to-layer="2021" to-port="0" />
		<edge from-layer="2019" from-port="1" to-layer="2020" to-port="1" />
		<edge from-layer="2020" from-port="2" to-layer="2021" to-port="1" />
		<edge from-layer="2021" from-port="2" to-layer="2023" to-port="0" />
		<edge from-layer="2022" from-port="0" to-layer="2023" to-port="1" />
		<edge from-layer="2023" from-port="2" to-layer="2024" to-port="1" />
		<edge from-layer="2024" from-port="2" to-layer="2026" to-port="0" />
		<edge from-layer="2025" from-port="0" to-layer="2026" to-port="1" />
		<edge from-layer="2026" from-port="2" to-layer="2028" to-port="0" />
		<edge from-layer="2026" from-port="2" to-layer="2045" to-port="0" />
		<edge from-layer="2027" from-port="0" to-layer="2028" to-port="2" />
		<edge from-layer="2028" from-port="3" to-layer="2030" to-port="0" />
		<edge from-layer="2028" from-port="3" to-layer="2041" to-port="0" />
		<edge from-layer="2029" from-port="0" to-layer="2034" to-port="0" />
		<edge from-layer="2030" from-port="1" to-layer="2033" to-port="0" />
		<edge from-layer="2031" from-port="0" to-layer="2033" to-port="1" />
		<edge from-layer="2032" from-port="0" to-layer="2033" to-port="2" />
		<edge from-layer="2033" from-port="3" to-layer="2034" to-port="1" />
		<edge from-layer="2033" from-port="3" to-layer="2036" to-port="2" />
		<edge from-layer="2034" from-port="2" to-layer="2036" to-port="0" />
		<edge from-layer="2035" from-port="0" to-layer="2036" to-port="1" />
		<edge from-layer="2036" from-port="3" to-layer="2038" to-port="0" />
		<edge from-layer="2037" from-port="0" to-layer="2038" to-port="1" />
		<edge from-layer="2038" from-port="2" to-layer="2040" to-port="0" />
		<edge from-layer="2039" from-port="0" to-layer="2040" to-port="1" />
		<edge from-layer="2040" from-port="2" to-layer="2041" to-port="1" />
		<edge from-layer="2041" from-port="3" to-layer="2043" to-port="0" />
		<edge from-layer="2042" from-port="0" to-layer="2043" to-port="1" />
		<edge from-layer="2043" from-port="2" to-layer="2045" to-port="1" />
		<edge from-layer="2043" from-port="2" to-layer="2170" to-port="1" />
		<edge from-layer="2044" from-port="0" to-layer="2045" to-port="2" />
		<edge from-layer="2045" from-port="3" to-layer="2047" to-port="0" />
		<edge from-layer="2045" from-port="3" to-layer="2057" to-port="0" />
		<edge from-layer="2046" from-port="0" to-layer="2056" to-port="0" />
		<edge from-layer="2047" from-port="1" to-layer="2054" to-port="0" />
		<edge from-layer="2047" from-port="1" to-layer="2050" to-port="0" />
		<edge from-layer="2048" from-port="0" to-layer="2050" to-port="1" />
		<edge from-layer="2049" from-port="0" to-layer="2050" to-port="2" />
		<edge from-layer="2050" from-port="3" to-layer="2055" to-port="0" />
		<edge from-layer="2051" from-port="0" to-layer="2055" to-port="1" />
		<edge from-layer="2052" from-port="0" to-layer="2054" to-port="1" />
		<edge from-layer="2053" from-port="0" to-layer="2054" to-port="2" />
		<edge from-layer="2054" from-port="3" to-layer="2055" to-port="2" />
		<edge from-layer="2055" from-port="3" to-layer="2056" to-port="1" />
		<edge from-layer="2056" from-port="2" to-layer="2057" to-port="1" />
		<edge from-layer="2057" from-port="2" to-layer="2209" to-port="0" />
		<edge from-layer="2057" from-port="2" to-layer="2221" to-port="0" />
		<edge from-layer="2057" from-port="2" to-layer="2061" to-port="0" />
		<edge from-layer="2058" from-port="0" to-layer="2061" to-port="1" />
		<edge from-layer="2059" from-port="0" to-layer="2061" to-port="2" />
		<edge from-layer="2060" from-port="0" to-layer="2061" to-port="3" />
		<edge from-layer="2061" from-port="4" to-layer="2062" to-port="0" />
		<edge from-layer="2061" from-port="4" to-layer="2079" to-port="1" />
		<edge from-layer="2062" from-port="1" to-layer="2072" to-port="0" />
		<edge from-layer="2062" from-port="1" to-layer="2215" to-port="0" />
		<edge from-layer="2062" from-port="1" to-layer="2065" to-port="0" />
		<edge from-layer="2063" from-port="0" to-layer="2065" to-port="1" />
		<edge from-layer="2064" from-port="0" to-layer="2065" to-port="2" />
		<edge from-layer="2065" from-port="3" to-layer="2066" to-port="1" />
		<edge from-layer="2066" from-port="2" to-layer="2068" to-port="0" />
		<edge from-layer="2067" from-port="0" to-layer="2068" to-port="1" />
		<edge from-layer="2068" from-port="2" to-layer="2078" to-port="0" />
		<edge from-layer="2069" from-port="0" to-layer="2074" to-port="0" />
		<edge from-layer="2070" from-port="0" to-layer="2072" to-port="1" />
		<edge from-layer="2071" from-port="0" to-layer="2072" to-port="2" />
		<edge from-layer="2072" from-port="3" to-layer="2074" to-port="1" />
		<edge from-layer="2073" from-port="0" to-layer="2074" to-port="2" />
		<edge from-layer="2074" from-port="3" to-layer="2075" to-port="0" />
		<edge from-layer="2075" from-port="1" to-layer="2077" to-port="0" />
		<edge from-layer="2076" from-port="0" to-layer="2077" to-port="1" />
		<edge from-layer="2077" from-port="2" to-layer="2078" to-port="1" />
		<edge from-layer="2078" from-port="2" to-layer="2079" to-port="0" />
		<edge from-layer="2079" from-port="2" to-layer="2081" to-port="0" />
		<edge from-layer="2080" from-port="0" to-layer="2081" to-port="1" />
		<edge from-layer="2081" from-port="2" to-layer="2085" to-port="0" />
		<edge from-layer="2082" from-port="0" to-layer="2085" to-port="1" />
		<edge from-layer="2083" from-port="0" to-layer="2085" to-port="2" />
		<edge from-layer="2084" from-port="0" to-layer="2085" to-port="3" />
		<edge from-layer="2085" from-port="4" to-layer="2086" to-port="0" />
		<edge from-layer="2086" from-port="5" to-layer="2091" to-port="0" />
		<edge from-layer="2087" from-port="0" to-layer="2088" to-port="0" />
		<edge from-layer="2088" from-port="1" to-layer="2090" to-port="0" />
		<edge from-layer="2089" from-port="0" to-layer="2090" to-port="1" />
		<edge from-layer="2090" from-port="2" to-layer="2091" to-port="1" />
		<edge from-layer="2091" from-port="2" to-layer="2093" to-port="0" />
		<edge from-layer="2092" from-port="0" to-layer="2093" to-port="1" />
		<edge from-layer="2093" from-port="2" to-layer="2098" to-port="0" />
		<edge from-layer="2094" from-port="0" to-layer="2098" to-port="1" />
		<edge from-layer="2095" from-port="0" to-layer="2098" to-port="2" />
		<edge from-layer="2096" from-port="0" to-layer="2098" to-port="3" />
		<edge from-layer="2097" from-port="0" to-layer="2098" to-port="4" />
		<edge from-layer="2098" from-port="5" to-layer="2103" to-port="0" />
		<edge from-layer="2099" from-port="0" to-layer="2100" to-port="0" />
		<edge from-layer="2100" from-port="1" to-layer="2102" to-port="0" />
		<edge from-layer="2101" from-port="0" to-layer="2102" to-port="1" />
		<edge from-layer="2102" from-port="2" to-layer="2103" to-port="1" />
		<edge from-layer="2103" from-port="2" to-layer="2105" to-port="0" />
		<edge from-layer="2104" from-port="0" to-layer="2105" to-port="1" />
		<edge from-layer="2105" from-port="2" to-layer="2110" to-port="0" />
		<edge from-layer="2106" from-port="0" to-layer="2110" to-port="1" />
		<edge from-layer="2107" from-port="0" to-layer="2110" to-port="2" />
		<edge from-layer="2108" from-port="0" to-layer="2110" to-port="3" />
		<edge from-layer="2109" from-port="0" to-layer="2110" to-port="4" />
		<edge from-layer="2110" from-port="5" to-layer="2115" to-port="0" />
		<edge from-layer="2111" from-port="0" to-layer="2112" to-port="0" />
		<edge from-layer="2112" from-port="1" to-layer="2114" to-port="0" />
		<edge from-layer="2113" from-port="0" to-layer="2114" to-port="1" />
		<edge from-layer="2114" from-port="2" to-layer="2115" to-port="1" />
		<edge from-layer="2115" from-port="2" to-layer="2117" to-port="0" />
		<edge from-layer="2116" from-port="0" to-layer="2117" to-port="1" />
		<edge from-layer="2117" from-port="2" to-layer="2122" to-port="0" />
		<edge from-layer="2118" from-port="0" to-layer="2122" to-port="1" />
		<edge from-layer="2119" from-port="0" to-layer="2122" to-port="2" />
		<edge from-layer="2120" from-port="0" to-layer="2122" to-port="3" />
		<edge from-layer="2121" from-port="0" to-layer="2122" to-port="4" />
		<edge from-layer="2122" from-port="5" to-layer="2127" to-port="0" />
		<edge from-layer="2123" from-port="0" to-layer="2124" to-port="0" />
		<edge from-layer="2124" from-port="1" to-layer="2126" to-port="0" />
		<edge from-layer="2125" from-port="0" to-layer="2126" to-port="1" />
		<edge from-layer="2126" from-port="2" to-layer="2127" to-port="1" />
		<edge from-layer="2127" from-port="2" to-layer="2129" to-port="0" />
		<edge from-layer="2128" from-port="0" to-layer="2129" to-port="1" />
		<edge from-layer="2129" from-port="2" to-layer="2134" to-port="0" />
		<edge from-layer="2130" from-port="0" to-layer="2134" to-port="1" />
		<edge from-layer="2131" from-port="0" to-layer="2134" to-port="2" />
		<edge from-layer="2132" from-port="0" to-layer="2134" to-port="3" />
		<edge from-layer="2133" from-port="0" to-layer="2134" to-port="4" />
		<edge from-layer="2134" from-port="5" to-layer="2139" to-port="0" />
		<edge from-layer="2135" from-port="0" to-layer="2136" to-port="0" />
		<edge from-layer="2136" from-port="1" to-layer="2138" to-port="0" />
		<edge from-layer="2137" from-port="0" to-layer="2138" to-port="1" />
		<edge from-layer="2138" from-port="2" to-layer="2139" to-port="1" />
		<edge from-layer="2139" from-port="2" to-layer="2141" to-port="0" />
		<edge from-layer="2140" from-port="0" to-layer="2141" to-port="1" />
		<edge from-layer="2141" from-port="2" to-layer="2146" to-port="0" />
		<edge from-layer="2142" from-port="0" to-layer="2146" to-port="1" />
		<edge from-layer="2143" from-port="0" to-layer="2146" to-port="2" />
		<edge from-layer="2144" from-port="0" to-layer="2146" to-port="3" />
		<edge from-layer="2145" from-port="0" to-layer="2146" to-port="4" />
		<edge from-layer="2146" from-port="5" to-layer="2151" to-port="0" />
		<edge from-layer="2147" from-port="0" to-layer="2148" to-port="0" />
		<edge from-layer="2148" from-port="1" to-layer="2150" to-port="0" />
		<edge from-layer="2149" from-port="0" to-layer="2150" to-port="1" />
		<edge from-layer="2150" from-port="2" to-layer="2151" to-port="1" />
		<edge from-layer="2151" from-port="2" to-layer="2153" to-port="0" />
		<edge from-layer="2152" from-port="0" to-layer="2153" to-port="1" />
		<edge from-layer="2153" from-port="2" to-layer="2154" to-port="0" />
		<edge from-layer="2154" from-port="1" to-layer="2155" to-port="0" />
		<edge from-layer="2154" from-port="1" to-layer="2164" to-port="0" />
		<edge from-layer="2155" from-port="1" to-layer="2159" to-port="0" />
		<edge from-layer="2155" from-port="1" to-layer="2204" to-port="0" />
		<edge from-layer="2155" from-port="1" to-layer="2198" to-port="0" />
		<edge from-layer="2155" from-port="1" to-layer="2190" to-port="0" />
		<edge from-layer="2155" from-port="1" to-layer="2185" to-port="0" />
		<edge from-layer="2156" from-port="0" to-layer="2159" to-port="1" />
		<edge from-layer="2157" from-port="0" to-layer="2159" to-port="2" />
		<edge from-layer="2158" from-port="0" to-layer="2159" to-port="3" />
		<edge from-layer="2159" from-port="4" to-layer="2161" to-port="0" />
		<edge from-layer="2160" from-port="0" to-layer="2161" to-port="1" />
		<edge from-layer="2161" from-port="2" to-layer="2163" to-port="0" />
		<edge from-layer="2162" from-port="0" to-layer="2163" to-port="1" />
		<edge from-layer="2163" from-port="2" to-layer="2164" to-port="1" />
		<edge from-layer="2164" from-port="2" to-layer="2194" to-port="0" />
		<edge from-layer="2165" from-port="0" to-layer="2166" to-port="1" />
		<edge from-layer="2166" from-port="2" to-layer="2168" to-port="0" />
		<edge from-layer="2167" from-port="0" to-layer="2168" to-port="1" />
		<edge from-layer="2168" from-port="2" to-layer="2170" to-port="0" />
		<edge from-layer="2169" from-port="0" to-layer="2170" to-port="2" />
		<edge from-layer="2170" from-port="3" to-layer="2179" to-port="0" />
		<edge from-layer="2170" from-port="3" to-layer="2172" to-port="0" />
		<edge from-layer="2171" from-port="0" to-layer="2178" to-port="0" />
		<edge from-layer="2172" from-port="1" to-layer="2175" to-port="0" />
		<edge from-layer="2173" from-port="0" to-layer="2175" to-port="1" />
		<edge from-layer="2174" from-port="0" to-layer="2175" to-port="2" />
		<edge from-layer="2175" from-port="3" to-layer="2177" to-port="0" />
		<edge from-layer="2176" from-port="0" to-layer="2177" to-port="1" />
		<edge from-layer="2177" from-port="2" to-layer="2178" to-port="1" />
		<edge from-layer="2178" from-port="2" to-layer="2179" to-port="1" />
		<edge from-layer="2179" from-port="2" to-layer="2220" to-port="0" />
		<edge from-layer="2179" from-port="2" to-layer="2181" to-port="0" />
		<edge from-layer="2180" from-port="0" to-layer="2181" to-port="1" />
		<edge from-layer="2181" from-port="2" to-layer="2192" to-port="0" />
		<edge from-layer="2182" from-port="0" to-layer="2187" to-port="0" />
		<edge from-layer="2183" from-port="0" to-layer="2185" to-port="1" />
		<edge from-layer="2184" from-port="0" to-layer="2185" to-port="2" />
		<edge from-layer="2185" from-port="3" to-layer="2187" to-port="1" />
		<edge from-layer="2186" from-port="0" to-layer="2187" to-port="2" />
		<edge from-layer="2187" from-port="3" to-layer="2191" to-port="0" />
		<edge from-layer="2188" from-port="0" to-layer="2190" to-port="1" />
		<edge from-layer="2189" from-port="0" to-layer="2190" to-port="2" />
		<edge from-layer="2190" from-port="3" to-layer="2191" to-port="1" />
		<edge from-layer="2191" from-port="2" to-layer="2192" to-port="1" />
		<edge from-layer="2192" from-port="2" to-layer="2194" to-port="1" />
		<edge from-layer="2192" from-port="2" to-layer="2201" to-port="0" />
		<edge from-layer="2193" from-port="0" to-layer="2194" to-port="2" />
		<edge from-layer="2194" from-port="3" to-layer="2200" to-port="0" />
		<edge from-layer="2195" from-port="0" to-layer="2199" to-port="0" />
		<edge from-layer="2196" from-port="0" to-layer="2198" to-port="1" />
		<edge from-layer="2197" from-port="0" to-layer="2198" to-port="2" />
		<edge from-layer="2198" from-port="3" to-layer="2199" to-port="1" />
		<edge from-layer="2199" from-port="2" to-layer="2200" to-port="1" />
		<edge from-layer="2200" from-port="2" to-layer="2206" to-port="0" />
		<edge from-layer="2201" from-port="1" to-layer="2205" to-port="0" />
		<edge from-layer="2202" from-port="0" to-layer="2204" to-port="1" />
		<edge from-layer="2203" from-port="0" to-layer="2204" to-port="2" />
		<edge from-layer="2204" from-port="3" to-layer="2205" to-port="1" />
		<edge from-layer="2205" from-port="2" to-layer="2206" to-port="1" />
		<edge from-layer="2206" from-port="2" to-layer="2208" to-port="0" />
		<edge from-layer="2207" from-port="0" to-layer="2208" to-port="1" />
		<edge from-layer="2208" from-port="2" to-layer="2218" to-port="0" />
		<edge from-layer="2209" from-port="1" to-layer="2212" to-port="0" />
		<edge from-layer="2210" from-port="0" to-layer="2212" to-port="1" />
		<edge from-layer="2211" from-port="0" to-layer="2212" to-port="2" />
		<edge from-layer="2212" from-port="3" to-layer="2217" to-port="0" />
		<edge from-layer="2213" from-port="0" to-layer="2215" to-port="1" />
		<edge from-layer="2214" from-port="0" to-layer="2215" to-port="2" />
		<edge from-layer="2215" from-port="3" to-layer="2217" to-port="1" />
		<edge from-layer="2216" from-port="0" to-layer="2217" to-port="2" />
		<edge from-layer="2217" from-port="3" to-layer="2218" to-port="1" />
		<edge from-layer="2218" from-port="2" to-layer="2219" to-port="0" />
	</edges>
	<rt_info>
		<MO_version value="2022.3.0-9038-b84161848ea-releases/2022/3" />
		<Runtime_version value="2022.3.0-9038-b84161848ea-releases/2022/3" />
		<conversion_parameters>
			<framework value="onnx" />
			<input value="image" />
			<input_model value="DIR/model_ready.onnx" />
			<input_shape value="[1, 3, 640, 640]" />
			<mean_values value="[123.675, 116.28, 103.53]" />
			<model_name value="model" />
			<output value="boxes,labels,masks" />
			<output_dir value="DIR" />
			<scale_values value="[58.395, 57.12, 57.375]" />
		</conversion_parameters>
		<legacy_frontend value="False" />
		<model_info>
			<confidence_threshold value="0.9" />
			<iou_threshold value="0.5" />
			<labels value="pallets" />
			<model_type value="MaskRCNN" />
		</model_info>
	</rt_info>
</net>
