<?xml version="1.0" ?>
<net name="torch_jit" version="11">
	<layers>
		<layer id="58" name="image" type="Parameter" version="opset1">
			<data shape="1,3,640,640" element_type="f32"/>
			<rt_info>
				<attribute name="old_api_map_element_type" version="0" value="f16"/>
			</rt_info>
			<output>
				<port id="0" precision="FP32" names="image">
					<dim>1</dim>
					<dim>3</dim>
					<dim>640</dim>
					<dim>640</dim>
					<rt_info/>
				</port>
			</output>
		</layer>
		<layer id="0" name="/Flatten_2169825303" type="Const" version="opset1">
			<data offset="0" size="614400" shape="76800,4" element_type="f16"/>
			<output>
				<port id="0" precision="FP16">
					<dim>76800</dim>
					<dim>4</dim>
				</port>
			</output>
		</layer>
		<layer id="1" name="/Flatten_2169815199/restored_convert" type="Convert" version="opset1">
			<data destination_type="f32"/>
			<rt_info>
				<attribute name="decompression" version="0"/>
			</rt_info>
			<input>
				<port id="0">
					<dim>76800</dim>
					<dim>4</dim>
				</port>
			</input>
			<output>
				<port id="1" precision="FP32" names="/Flatten_2_output_0">
					<dim>76800</dim>
					<dim>4</dim>
				</port>
			</output>
		</layer>
		<layer id="2" name="8027803127121" type="Const" version="opset1">
			<data offset="614400" size="4" shape="" element_type="f32"/>
			<output>
				<port id="0" precision="FP32"/>
			</output>
		</layer>
		<layer id="3" name="8028803227247" type="Const" version="opset1">
			<data offset="614404" size="4" shape="" element_type="f32"/>
			<output>
				<port id="0" precision="FP32"/>
			</output>
		</layer>
		<layer id="4" name="8029803326248" type="Const" version="opset1">
			<data offset="614400" size="4" shape="" element_type="f32"/>
			<output>
				<port id="0" precision="FP32"/>
			</output>
		</layer>
		<layer id="5" name="8030803425753" type="Const" version="opset1">
			<data offset="614404" size="4" shape="" element_type="f32"/>
			<output>
				<port id="0" precision="FP32"/>
			</output>
		</layer>
		<layer id="6" name="8207821126446" type="Const" version="opset1">
			<data offset="614408" size="4" shape="" element_type="f32"/>
			<output>
				<port id="0" precision="FP32"/>
			</output>
		</layer>
		<layer id="7" name="8208821225426" type="Const" version="opset1">
			<data offset="614412" size="4" shape="" element_type="f32"/>
			<output>
				<port id="0" precision="FP32"/>
			</output>
		</layer>
		<layer id="8" name="8209821326731" type="Const" version="opset1">
			<data offset="614408" size="4" shape="" element_type="f32"/>
			<output>
				<port id="0" precision="FP32"/>
			</output>
		</layer>
		<layer id="9" name="8210821426728" type="Const" version="opset1">
			<data offset="614412" size="4" shape="" element_type="f32"/>
			<output>
				<port id="0" precision="FP32"/>
			</output>
		</layer>
		<layer id="10" name="8187819124736" type="Const" version="opset1">
			<data offset="614400" size="4" shape="" element_type="f32"/>
			<output>
				<port id="0" precision="FP32"/>
			</output>
		</layer>
		<layer id="11" name="8188819225483" type="Const" version="opset1">
			<data offset="614416" size="4" shape="" element_type="f32"/>
			<output>
				<port id="0" precision="FP32"/>
			</output>
		</layer>
		<layer id="12" name="8189819327022" type="Const" version="opset1">
			<data offset="614400" size="4" shape="" element_type="f32"/>
			<output>
				<port id="0" precision="FP32"/>
			</output>
		</layer>
		<layer id="13" name="8190819427427" type="Const" version="opset1">
			<data offset="614416" size="4" shape="" element_type="f32"/>
			<output>
				<port id="0" precision="FP32"/>
			</output>
		</layer>
		<layer id="14" name="7757776127580" type="Const" version="opset1">
			<data offset="614400" size="4" shape="" element_type="f32"/>
			<output>
				<port id="0" precision="FP32"/>
			</output>
		</layer>
		<layer id="15" name="7758776226590" type="Const" version="opset1">
			<data offset="614420" size="4" shape="" element_type="f32"/>
			<output>
				<port id="0" precision="FP32"/>
			</output>
		</layer>
		<layer id="16" name="7759776327187" type="Const" version="opset1">
			<data offset="614400" size="4" shape="" element_type="f32"/>
			<output>
				<port id="0" precision="FP32"/>
			</output>
		</layer>
		<layer id="17" name="7760776425060" type="Const" version="opset1">
			<data offset="614420" size="4" shape="" element_type="f32"/>
			<output>
				<port id="0" precision="FP32"/>
			</output>
		</layer>
		<layer id="18" name="8217822125336" type="Const" version="opset1">
			<data offset="614400" size="4" shape="" element_type="f32"/>
			<output>
				<port id="0" precision="FP32"/>
			</output>
		</layer>
		<layer id="19" name="8218822227547" type="Const" version="opset1">
			<data offset="614424" size="4" shape="" element_type="f32"/>
			<output>
				<port id="0" precision="FP32"/>
			</output>
		</layer>
		<layer id="20" name="8219822326971" type="Const" version="opset1">
			<data offset="614400" size="4" shape="" element_type="f32"/>
			<output>
				<port id="0" precision="FP32"/>
			</output>
		</layer>
		<layer id="21" name="8220822424676" type="Const" version="opset1">
			<data offset="614424" size="4" shape="" element_type="f32"/>
			<output>
				<port id="0" precision="FP32"/>
			</output>
		</layer>
		<layer id="22" name="6987699125129" type="Const" version="opset1">
			<data offset="614428" size="4" shape="" element_type="f32"/>
			<output>
				<port id="0" precision="FP32"/>
			</output>
		</layer>
		<layer id="23" name="6988699227670" type="Const" version="opset1">
			<data offset="614432" size="4" shape="" element_type="f32"/>
			<output>
				<port id="0" precision="FP32"/>
			</output>
		</layer>
		<layer id="24" name="6989699325036" type="Const" version="opset1">
			<data offset="614428" size="4" shape="" element_type="f32"/>
			<output>
				<port id="0" precision="FP32"/>
			</output>
		</layer>
		<layer id="25" name="6990699426050" type="Const" version="opset1">
			<data offset="614432" size="4" shape="" element_type="f32"/>
			<output>
				<port id="0" precision="FP32"/>
			</output>
		</layer>
		<layer id="26" name="8047805127397" type="Const" version="opset1">
			<data offset="614400" size="4" shape="" element_type="f32"/>
			<output>
				<port id="0" precision="FP32"/>
			</output>
		</layer>
		<layer id="27" name="8048805225135" type="Const" version="opset1">
			<data offset="614436" size="4" shape="" element_type="f32"/>
			<output>
				<port id="0" precision="FP32"/>
			</output>
		</layer>
		<layer id="28" name="8049805326944" type="Const" version="opset1">
			<data offset="614400" size="4" shape="" element_type="f32"/>
			<output>
				<port id="0" precision="FP32"/>
			</output>
		</layer>
		<layer id="29" name="8050805426377" type="Const" version="opset1">
			<data offset="614436" size="4" shape="" element_type="f32"/>
			<output>
				<port id="0" precision="FP32"/>
			</output>
		</layer>
		<layer id="30" name="7107711127073" type="Const" version="opset1">
			<data offset="614400" size="4" shape="" element_type="f32"/>
			<output>
				<port id="0" precision="FP32"/>
			</output>
		</layer>
		<layer id="31" name="7108711225813" type="Const" version="opset1">
			<data offset="614440" size="4" shape="" element_type="f32"/>
			<output>
				<port id="0" precision="FP32"/>
			</output>
		</layer>
		<layer id="32" name="7109711324955" type="Const" version="opset1">
			<data offset="614400" size="4" shape="" element_type="f32"/>
			<output>
				<port id="0" precision="FP32"/>
			</output>
		</layer>
		<layer id="33" name="7110711426569" type="Const" version="opset1">
			<data offset="614440" size="4" shape="" element_type="f32"/>
			<output>
				<port id="0" precision="FP32"/>
			</output>
		</layer>
		<layer id="34" name="6997700127319" type="Const" version="opset1">
			<data offset="614400" size="4" shape="" element_type="f32"/>
			<output>
				<port id="0" precision="FP32"/>
			</output>
		</layer>
		<layer id="35" name="6998700224727" type="Const" version="opset1">
			<data offset="614444" size="4" shape="" element_type="f32"/>
			<output>
				<port id="0" precision="FP32"/>
			</output>
		</layer>
		<layer id="36" name="6999700326071" type="Const" version="opset1">
			<data offset="614400" size="4" shape="" element_type="f32"/>
			<output>
				<port id="0" precision="FP32"/>
			</output>
		</layer>
		<layer id="37" name="7000700427502" type="Const" version="opset1">
			<data offset="614444" size="4" shape="" element_type="f32"/>
			<output>
				<port id="0" precision="FP32"/>
			</output>
		</layer>
		<layer id="38" name="6757676125393" type="Const" version="opset1">
			<data offset="614448" size="4" shape="" element_type="f32"/>
			<output>
				<port id="0" precision="FP32"/>
			</output>
		</layer>
		<layer id="39" name="6758676225285" type="Const" version="opset1">
			<data offset="614452" size="4" shape="" element_type="f32"/>
			<output>
				<port id="0" precision="FP32"/>
			</output>
		</layer>
		<layer id="40" name="6759676326785" type="Const" version="opset1">
			<data offset="614448" size="4" shape="" element_type="f32"/>
			<output>
				<port id="0" precision="FP32"/>
			</output>
		</layer>
		<layer id="41" name="6760676425330" type="Const" version="opset1">
			<data offset="614452" size="4" shape="" element_type="f32"/>
			<output>
				<port id="0" precision="FP32"/>
			</output>
		</layer>
		<layer id="42" name="7907791125009" type="Const" version="opset1">
			<data offset="614400" size="4" shape="" element_type="f32"/>
			<output>
				<port id="0" precision="FP32"/>
			</output>
		</layer>
		<layer id="43" name="7908791225471" type="Const" version="opset1">
			<data offset="614456" size="4" shape="" element_type="f32"/>
			<output>
				<port id="0" precision="FP32"/>
			</output>
		</layer>
		<layer id="44" name="7909791326605" type="Const" version="opset1">
			<data offset="614400" size="4" shape="" element_type="f32"/>
			<output>
				<port id="0" precision="FP32"/>
			</output>
		</layer>
		<layer id="45" name="7910791424682" type="Const" version="opset1">
			<data offset="614456" size="4" shape="" element_type="f32"/>
			<output>
				<port id="0" precision="FP32"/>
			</output>
		</layer>
		<layer id="46" name="7207721126962" type="Const" version="opset1">
			<data offset="614400" size="4" shape="" element_type="f32"/>
			<output>
				<port id="0" precision="FP32"/>
			</output>
		</layer>
		<layer id="47" name="7208721224958" type="Const" version="opset1">
			<data offset="614460" size="4" shape="" element_type="f32"/>
			<output>
				<port id="0" precision="FP32"/>
			</output>
		</layer>
		<layer id="48" name="7209721327013" type="Const" version="opset1">
			<data offset="614400" size="4" shape="" element_type="f32"/>
			<output>
				<port id="0" precision="FP32"/>
			</output>
		</layer>
		<layer id="49" name="7210721425666" type="Const" version="opset1">
			<data offset="614460" size="4" shape="" element_type="f32"/>
			<output>
				<port id="0" precision="FP32"/>
			</output>
		</layer>
		<layer id="50" name="9834983827166" type="Const" version="opset1">
			<data offset="614400" size="4" shape="" element_type="f32"/>
			<output>
				<port id="0" precision="FP32"/>
			</output>
		</layer>
		<layer id="51" name="9835983925771" type="Const" version="opset1">
			<data offset="614464" size="4" shape="" element_type="f32"/>
			<output>
				<port id="0" precision="FP32"/>
			</output>
		</layer>
		<layer id="52" name="9836984024964" type="Const" version="opset1">
			<data offset="614400" size="4" shape="" element_type="f32"/>
			<output>
				<port id="0" precision="FP32"/>
			</output>
		</layer>
		<layer id="53" name="9837984124757" type="Const" version="opset1">
			<data offset="614464" size="4" shape="" element_type="f32"/>
			<output>
				<port id="0" precision="FP32"/>
			</output>
		</layer>
		<layer id="54" name="6537654126617" type="Const" version="opset1">
			<data offset="614468" size="4" shape="" element_type="f32"/>
			<output>
				<port id="0" precision="FP32"/>
			</output>
		</layer>
		<layer id="55" name="6538654225675" type="Const" version="opset1">
			<data offset="614472" size="4" shape="" element_type="f32"/>
			<output>
				<port id="0" precision="FP32"/>
			</output>
		</layer>
		<layer id="56" name="6539654327394" type="Const" version="opset1">
			<data offset="614468" size="4" shape="" element_type="f32"/>
			<output>
				<port id="0" precision="FP32"/>
			</output>
		</layer>
		<layer id="57" name="6540654426830" type="Const" version="opset1">
			<data offset="614472" size="4" shape="" element_type="f32"/>
			<output>
				<port id="0" precision="FP32"/>
			</output>
		</layer>
		<layer id="59" name="Constant_12077170026515" type="Const" version="opset1">
			<data offset="614476" size="6" shape="1,3,1,1" element_type="f16"/>
			<output>
				<port id="0" precision="FP16">
					<dim>1</dim>
					<dim>3</dim>
					<dim>1</dim>
					<dim>1</dim>
				</port>
			</output>
		</layer>
		<layer id="60" name="Constant_12077170015200/restored_convert" type="Convert" version="opset1">
			<data destination_type="f32"/>
			<rt_info>
				<attribute name="decompression" version="0"/>
			</rt_info>
			<input>
				<port id="0">
					<dim>1</dim>
					<dim>3</dim>
					<dim>1</dim>
					<dim>1</dim>
				</port>
			</input>
			<output>
				<port id="1" precision="FP32">
					<dim>1</dim>
					<dim>3</dim>
					<dim>1</dim>
					<dim>1</dim>
				</port>
			</output>
		</layer>
		<layer id="61" name="Subtract_12078" type="Subtract" version="opset1">
			<data auto_broadcast="numpy"/>
			<rt_info>
				<attribute name="preprocessing" version="0"/>
			</rt_info>
			<input>
				<port id="0">
					<dim>1</dim>
					<dim>3</dim>
					<dim>640</dim>
					<dim>640</dim>
				</port>
				<port id="1">
					<dim>1</dim>
					<dim>3</dim>
					<dim>1</dim>
					<dim>1</dim>
				</port>
			</input>
			<output>
				<port id="2" precision="FP32">
					<dim>1</dim>
					<dim>3</dim>
					<dim>640</dim>
					<dim>640</dim>
				</port>
			</output>
		</layer>
		<layer id="62" name="/backbone/conv1/Conv/WithoutBiases/fq_input_0" type="FakeQuantize" version="opset1">
			<data levels="256" auto_broadcast="numpy"/>
			<input>
				<port id="0">
					<dim>1</dim>
					<dim>3</dim>
					<dim>640</dim>
					<dim>640</dim>
				</port>
				<port id="1"/>
				<port id="2"/>
				<port id="3"/>
				<port id="4"/>
			</input>
			<output>
				<port id="5" precision="FP32">
					<dim>1</dim>
					<dim>3</dim>
					<dim>640</dim>
					<dim>640</dim>
				</port>
			</output>
		</layer>
		<layer id="63" name="/backbone/conv1/Conv/WithoutBiases/fq_weights_1/scale1801526752" type="Const" version="opset1">
			<data offset="614482" size="256" shape="64,1,1,1" element_type="f32"/>
			<output>
				<port id="0" precision="FP32">
					<dim>64</dim>
					<dim>1</dim>
					<dim>1</dim>
					<dim>1</dim>
				</port>
			</output>
		</layer>
		<layer id="64" name="Constant_89140170315201/restored_convert/quantized1800726557" type="Const" version="opset1">
			<data offset="614738" size="9408" shape="64,3,7,7" element_type="i8"/>
			<output>
				<port id="0" precision="I8">
					<dim>64</dim>
					<dim>3</dim>
					<dim>7</dim>
					<dim>7</dim>
				</port>
			</output>
		</layer>
		<layer id="65" name="Constant_89140170315201/restored_convert/quantized/to_f32" type="Convert" version="opset1">
			<data destination_type="f32"/>
			<input>
				<port id="0">
					<dim>64</dim>
					<dim>3</dim>
					<dim>7</dim>
					<dim>7</dim>
				</port>
			</input>
			<output>
				<port id="1" precision="FP32">
					<dim>64</dim>
					<dim>3</dim>
					<dim>7</dim>
					<dim>7</dim>
				</port>
			</output>
		</layer>
		<layer id="66" name="/backbone/conv1/Conv/WithoutBiases/fq_weights_1/mulpiply_by_scale" type="Multiply" version="opset1">
			<data auto_broadcast="numpy"/>
			<input>
				<port id="0">
					<dim>64</dim>
					<dim>3</dim>
					<dim>7</dim>
					<dim>7</dim>
				</port>
				<port id="1">
					<dim>64</dim>
					<dim>1</dim>
					<dim>1</dim>
					<dim>1</dim>
				</port>
			</input>
			<output>
				<port id="2" precision="FP32">
					<dim>64</dim>
					<dim>3</dim>
					<dim>7</dim>
					<dim>7</dim>
				</port>
			</output>
		</layer>
		<layer id="67" name="/backbone/conv1/Conv/WithoutBiases" type="Convolution" version="opset1">
			<data auto_pad="explicit" strides="2,2" dilations="1,1" pads_begin="3,3" pads_end="3,3"/>
			<rt_info>
				<attribute name="preprocessing" version="0"/>
			</rt_info>
			<input>
				<port id="0">
					<dim>1</dim>
					<dim>3</dim>
					<dim>640</dim>
					<dim>640</dim>
				</port>
				<port id="1">
					<dim>64</dim>
					<dim>3</dim>
					<dim>7</dim>
					<dim>7</dim>
				</port>
			</input>
			<output>
				<port id="2" precision="FP32">
					<dim>1</dim>
					<dim>64</dim>
					<dim>320</dim>
					<dim>320</dim>
				</port>
			</output>
		</layer>
		<layer id="68" name="Reshape_170170625978" type="Const" version="opset1">
			<data offset="624146" size="128" shape="1,64,1,1" element_type="f16"/>
			<output>
				<port id="0" precision="FP16">
					<dim>1</dim>
					<dim>64</dim>
					<dim>1</dim>
					<dim>1</dim>
				</port>
			</output>
		</layer>
		<layer id="69" name="Reshape_170170615202/restored_convert" type="Convert" version="opset1">
			<data destination_type="f32"/>
			<rt_info>
				<attribute name="decompression" version="0"/>
			</rt_info>
			<input>
				<port id="0">
					<dim>1</dim>
					<dim>64</dim>
					<dim>1</dim>
					<dim>1</dim>
				</port>
			</input>
			<output>
				<port id="1" precision="FP32">
					<dim>1</dim>
					<dim>64</dim>
					<dim>1</dim>
					<dim>1</dim>
				</port>
			</output>
		</layer>
		<layer id="70" name="/backbone/conv1/Conv" type="Add" version="opset1">
			<data auto_broadcast="numpy"/>
			<input>
				<port id="0">
					<dim>1</dim>
					<dim>64</dim>
					<dim>320</dim>
					<dim>320</dim>
				</port>
				<port id="1">
					<dim>1</dim>
					<dim>64</dim>
					<dim>1</dim>
					<dim>1</dim>
				</port>
			</input>
			<output>
				<port id="2" precision="FP32" names="/backbone/conv1/Conv_output_0">
					<dim>1</dim>
					<dim>64</dim>
					<dim>320</dim>
					<dim>320</dim>
				</port>
			</output>
		</layer>
		<layer id="71" name="/backbone/relu/Relu" type="ReLU" version="opset1">
			<input>
				<port id="0">
					<dim>1</dim>
					<dim>64</dim>
					<dim>320</dim>
					<dim>320</dim>
				</port>
			</input>
			<output>
				<port id="1" precision="FP32" names="/backbone/relu/Relu_output_0">
					<dim>1</dim>
					<dim>64</dim>
					<dim>320</dim>
					<dim>320</dim>
				</port>
			</output>
		</layer>
		<layer id="72" name="/backbone/maxpool/MaxPool/fq_input_0" type="FakeQuantize" version="opset1">
			<data levels="256" auto_broadcast="numpy"/>
			<input>
				<port id="0">
					<dim>1</dim>
					<dim>64</dim>
					<dim>320</dim>
					<dim>320</dim>
				</port>
				<port id="1"/>
				<port id="2"/>
				<port id="3"/>
				<port id="4"/>
			</input>
			<output>
				<port id="5" precision="FP32">
					<dim>1</dim>
					<dim>64</dim>
					<dim>320</dim>
					<dim>320</dim>
				</port>
			</output>
		</layer>
		<layer id="73" name="/backbone/maxpool/MaxPool" type="MaxPool" version="opset8">
			<data strides="2,2" kernel="3,3" pads_begin="1,1" pads_end="1,1" rounding_type="floor" auto_pad="explicit" dilations="1,1" axis="0" index_element_type="i64"/>
			<input>
				<port id="0">
					<dim>1</dim>
					<dim>64</dim>
					<dim>320</dim>
					<dim>320</dim>
				</port>
			</input>
			<output>
				<port id="1" precision="FP32" names="/backbone/maxpool/MaxPool_output_0">
					<dim>1</dim>
					<dim>64</dim>
					<dim>160</dim>
					<dim>160</dim>
				</port>
				<port id="2" precision="FP32">
					<dim>1</dim>
					<dim>64</dim>
					<dim>160</dim>
					<dim>160</dim>
					<rt_info/>
				</port>
			</output>
		</layer>
		<layer id="74" name="/backbone/layer1/layer1.0/conv1/Conv/WithoutBiases/fq_weights_1/scale1777525405" type="Const" version="opset1">
			<data offset="624274" size="256" shape="64,1,1,1" element_type="f32"/>
			<output>
				<port id="0" precision="FP32">
					<dim>64</dim>
					<dim>1</dim>
					<dim>1</dim>
					<dim>1</dim>
				</port>
			</output>
		</layer>
		<layer id="75" name="onnx::Conv_1561171115203/restored_convert/quantized1776727235" type="Const" version="opset1">
			<data offset="624530" size="4096" shape="64,64,1,1" element_type="i8"/>
			<output>
				<port id="0" precision="I8">
					<dim>64</dim>
					<dim>64</dim>
					<dim>1</dim>
					<dim>1</dim>
				</port>
			</output>
		</layer>
		<layer id="76" name="onnx::Conv_1561171115203/restored_convert/quantized/to_f32" type="Convert" version="opset1">
			<data destination_type="f32"/>
			<input>
				<port id="0">
					<dim>64</dim>
					<dim>64</dim>
					<dim>1</dim>
					<dim>1</dim>
				</port>
			</input>
			<output>
				<port id="1" precision="FP32">
					<dim>64</dim>
					<dim>64</dim>
					<dim>1</dim>
					<dim>1</dim>
				</port>
			</output>
		</layer>
		<layer id="77" name="/backbone/layer1/layer1.0/conv1/Conv/WithoutBiases/fq_weights_1/mulpiply_by_scale" type="Multiply" version="opset1">
			<data auto_broadcast="numpy"/>
			<input>
				<port id="0">
					<dim>64</dim>
					<dim>64</dim>
					<dim>1</dim>
					<dim>1</dim>
				</port>
				<port id="1">
					<dim>64</dim>
					<dim>1</dim>
					<dim>1</dim>
					<dim>1</dim>
				</port>
			</input>
			<output>
				<port id="2" precision="FP32">
					<dim>64</dim>
					<dim>64</dim>
					<dim>1</dim>
					<dim>1</dim>
				</port>
			</output>
		</layer>
		<layer id="78" name="/backbone/layer1/layer1.0/conv1/Conv/WithoutBiases" type="Convolution" version="opset1">
			<data auto_pad="explicit" strides="1,1" dilations="1,1" pads_begin="0,0" pads_end="0,0"/>
			<input>
				<port id="0">
					<dim>1</dim>
					<dim>64</dim>
					<dim>160</dim>
					<dim>160</dim>
				</port>
				<port id="1">
					<dim>64</dim>
					<dim>64</dim>
					<dim>1</dim>
					<dim>1</dim>
				</port>
			</input>
			<output>
				<port id="2" precision="FP32">
					<dim>1</dim>
					<dim>64</dim>
					<dim>160</dim>
					<dim>160</dim>
				</port>
			</output>
		</layer>
		<layer id="79" name="Reshape_220171426224" type="Const" version="opset1">
			<data offset="628626" size="128" shape="1,64,1,1" element_type="f16"/>
			<output>
				<port id="0" precision="FP16">
					<dim>1</dim>
					<dim>64</dim>
					<dim>1</dim>
					<dim>1</dim>
				</port>
			</output>
		</layer>
		<layer id="80" name="Reshape_220171415204/restored_convert" type="Convert" version="opset1">
			<data destination_type="f32"/>
			<rt_info>
				<attribute name="decompression" version="0"/>
			</rt_info>
			<input>
				<port id="0">
					<dim>1</dim>
					<dim>64</dim>
					<dim>1</dim>
					<dim>1</dim>
				</port>
			</input>
			<output>
				<port id="1" precision="FP32">
					<dim>1</dim>
					<dim>64</dim>
					<dim>1</dim>
					<dim>1</dim>
				</port>
			</output>
		</layer>
		<layer id="81" name="/backbone/layer1/layer1.0/conv1/Conv" type="Add" version="opset1">
			<data auto_broadcast="numpy"/>
			<input>
				<port id="0">
					<dim>1</dim>
					<dim>64</dim>
					<dim>160</dim>
					<dim>160</dim>
				</port>
				<port id="1">
					<dim>1</dim>
					<dim>64</dim>
					<dim>1</dim>
					<dim>1</dim>
				</port>
			</input>
			<output>
				<port id="2" precision="FP32" names="/backbone/layer1/layer1.0/conv1/Conv_output_0">
					<dim>1</dim>
					<dim>64</dim>
					<dim>160</dim>
					<dim>160</dim>
				</port>
			</output>
		</layer>
		<layer id="82" name="/backbone/layer1/layer1.0/relu/Relu" type="ReLU" version="opset1">
			<input>
				<port id="0">
					<dim>1</dim>
					<dim>64</dim>
					<dim>160</dim>
					<dim>160</dim>
				</port>
			</input>
			<output>
				<port id="1" precision="FP32" names="/backbone/layer1/layer1.0/relu/Relu_output_0">
					<dim>1</dim>
					<dim>64</dim>
					<dim>160</dim>
					<dim>160</dim>
				</port>
			</output>
		</layer>
		<layer id="83" name="/backbone/layer1/layer1.0/conv2/Conv/WithoutBiases/fq_input_0" type="FakeQuantize" version="opset1">
			<data levels="256" auto_broadcast="numpy"/>
			<input>
				<port id="0">
					<dim>1</dim>
					<dim>64</dim>
					<dim>160</dim>
					<dim>160</dim>
				</port>
				<port id="1"/>
				<port id="2"/>
				<port id="3"/>
				<port id="4"/>
			</input>
			<output>
				<port id="5" precision="FP32">
					<dim>1</dim>
					<dim>64</dim>
					<dim>160</dim>
					<dim>160</dim>
				</port>
			</output>
		</layer>
		<layer id="84" name="/backbone/layer1/layer1.0/conv2/Conv/WithoutBiases/fq_weights_1/scale1750525834" type="Const" version="opset1">
			<data offset="628754" size="256" shape="64,1,1,1" element_type="f32"/>
			<output>
				<port id="0" precision="FP32">
					<dim>64</dim>
					<dim>1</dim>
					<dim>1</dim>
					<dim>1</dim>
				</port>
			</output>
		</layer>
		<layer id="85" name="onnx::Conv_1564171815205/restored_convert/quantized1749724733" type="Const" version="opset1">
			<data offset="629010" size="36864" shape="64,64,3,3" element_type="i8"/>
			<output>
				<port id="0" precision="I8">
					<dim>64</dim>
					<dim>64</dim>
					<dim>3</dim>
					<dim>3</dim>
				</port>
			</output>
		</layer>
		<layer id="86" name="onnx::Conv_1564171815205/restored_convert/quantized/to_f32" type="Convert" version="opset1">
			<data destination_type="f32"/>
			<input>
				<port id="0">
					<dim>64</dim>
					<dim>64</dim>
					<dim>3</dim>
					<dim>3</dim>
				</port>
			</input>
			<output>
				<port id="1" precision="FP32">
					<dim>64</dim>
					<dim>64</dim>
					<dim>3</dim>
					<dim>3</dim>
				</port>
			</output>
		</layer>
		<layer id="87" name="/backbone/layer1/layer1.0/conv2/Conv/WithoutBiases/fq_weights_1/mulpiply_by_scale" type="Multiply" version="opset1">
			<data auto_broadcast="numpy"/>
			<input>
				<port id="0">
					<dim>64</dim>
					<dim>64</dim>
					<dim>3</dim>
					<dim>3</dim>
				</port>
				<port id="1">
					<dim>64</dim>
					<dim>1</dim>
					<dim>1</dim>
					<dim>1</dim>
				</port>
			</input>
			<output>
				<port id="2" precision="FP32">
					<dim>64</dim>
					<dim>64</dim>
					<dim>3</dim>
					<dim>3</dim>
				</port>
			</output>
		</layer>
		<layer id="88" name="/backbone/layer1/layer1.0/conv2/Conv/WithoutBiases" type="Convolution" version="opset1">
			<data auto_pad="explicit" strides="1,1" dilations="1,1" pads_begin="1,1" pads_end="1,1"/>
			<input>
				<port id="0">
					<dim>1</dim>
					<dim>64</dim>
					<dim>160</dim>
					<dim>160</dim>
				</port>
				<port id="1">
					<dim>64</dim>
					<dim>64</dim>
					<dim>3</dim>
					<dim>3</dim>
				</port>
			</input>
			<output>
				<port id="2" precision="FP32">
					<dim>1</dim>
					<dim>64</dim>
					<dim>160</dim>
					<dim>160</dim>
				</port>
			</output>
		</layer>
		<layer id="89" name="Reshape_269172126065" type="Const" version="opset1">
			<data offset="665874" size="128" shape="1,64,1,1" element_type="f16"/>
			<output>
				<port id="0" precision="FP16">
					<dim>1</dim>
					<dim>64</dim>
					<dim>1</dim>
					<dim>1</dim>
				</port>
			</output>
		</layer>
		<layer id="90" name="Reshape_269172115206/restored_convert" type="Convert" version="opset1">
			<data destination_type="f32"/>
			<rt_info>
				<attribute name="decompression" version="0"/>
			</rt_info>
			<input>
				<port id="0">
					<dim>1</dim>
					<dim>64</dim>
					<dim>1</dim>
					<dim>1</dim>
				</port>
			</input>
			<output>
				<port id="1" precision="FP32">
					<dim>1</dim>
					<dim>64</dim>
					<dim>1</dim>
					<dim>1</dim>
				</port>
			</output>
		</layer>
		<layer id="91" name="/backbone/layer1/layer1.0/conv2/Conv" type="Add" version="opset1">
			<data auto_broadcast="numpy"/>
			<input>
				<port id="0">
					<dim>1</dim>
					<dim>64</dim>
					<dim>160</dim>
					<dim>160</dim>
				</port>
				<port id="1">
					<dim>1</dim>
					<dim>64</dim>
					<dim>1</dim>
					<dim>1</dim>
				</port>
			</input>
			<output>
				<port id="2" precision="FP32" names="/backbone/layer1/layer1.0/conv2/Conv_output_0">
					<dim>1</dim>
					<dim>64</dim>
					<dim>160</dim>
					<dim>160</dim>
				</port>
			</output>
		</layer>
		<layer id="92" name="/backbone/layer1/layer1.0/relu_1/Relu" type="ReLU" version="opset1">
			<input>
				<port id="0">
					<dim>1</dim>
					<dim>64</dim>
					<dim>160</dim>
					<dim>160</dim>
				</port>
			</input>
			<output>
				<port id="1" precision="FP32" names="/backbone/layer1/layer1.0/relu_1/Relu_output_0">
					<dim>1</dim>
					<dim>64</dim>
					<dim>160</dim>
					<dim>160</dim>
				</port>
			</output>
		</layer>
		<layer id="93" name="/backbone/layer1/layer1.0/conv3/Conv/WithoutBiases/fq_input_0" type="FakeQuantize" version="opset1">
			<data levels="256" auto_broadcast="numpy"/>
			<input>
				<port id="0">
					<dim>1</dim>
					<dim>64</dim>
					<dim>160</dim>
					<dim>160</dim>
				</port>
				<port id="1"/>
				<port id="2"/>
				<port id="3"/>
				<port id="4"/>
			</input>
			<output>
				<port id="5" precision="FP32">
					<dim>1</dim>
					<dim>64</dim>
					<dim>160</dim>
					<dim>160</dim>
				</port>
			</output>
		</layer>
		<layer id="94" name="/backbone/layer1/layer1.0/conv3/Conv/WithoutBiases/fq_weights_1/scale1702525705" type="Const" version="opset1">
			<data offset="666002" size="1024" shape="256,1,1,1" element_type="f32"/>
			<output>
				<port id="0" precision="FP32">
					<dim>256</dim>
					<dim>1</dim>
					<dim>1</dim>
					<dim>1</dim>
				</port>
			</output>
		</layer>
		<layer id="95" name="onnx::Conv_1567172515207/restored_convert/quantized1701726563" type="Const" version="opset1">
			<data offset="667026" size="16384" shape="256,64,1,1" element_type="i8"/>
			<output>
				<port id="0" precision="I8">
					<dim>256</dim>
					<dim>64</dim>
					<dim>1</dim>
					<dim>1</dim>
				</port>
			</output>
		</layer>
		<layer id="96" name="onnx::Conv_1567172515207/restored_convert/quantized/to_f32" type="Convert" version="opset1">
			<data destination_type="f32"/>
			<input>
				<port id="0">
					<dim>256</dim>
					<dim>64</dim>
					<dim>1</dim>
					<dim>1</dim>
				</port>
			</input>
			<output>
				<port id="1" precision="FP32">
					<dim>256</dim>
					<dim>64</dim>
					<dim>1</dim>
					<dim>1</dim>
				</port>
			</output>
		</layer>
		<layer id="97" name="/backbone/layer1/layer1.0/conv3/Conv/WithoutBiases/fq_weights_1/mulpiply_by_scale" type="Multiply" version="opset1">
			<data auto_broadcast="numpy"/>
			<input>
				<port id="0">
					<dim>256</dim>
					<dim>64</dim>
					<dim>1</dim>
					<dim>1</dim>
				</port>
				<port id="1">
					<dim>256</dim>
					<dim>1</dim>
					<dim>1</dim>
					<dim>1</dim>
				</port>
			</input>
			<output>
				<port id="2" precision="FP32">
					<dim>256</dim>
					<dim>64</dim>
					<dim>1</dim>
					<dim>1</dim>
				</port>
			</output>
		</layer>
		<layer id="98" name="/backbone/layer1/layer1.0/conv3/Conv/WithoutBiases" type="Convolution" version="opset1">
			<data auto_pad="explicit" strides="1,1" dilations="1,1" pads_begin="0,0" pads_end="0,0"/>
			<input>
				<port id="0">
					<dim>1</dim>
					<dim>64</dim>
					<dim>160</dim>
					<dim>160</dim>
				</port>
				<port id="1">
					<dim>256</dim>
					<dim>64</dim>
					<dim>1</dim>
					<dim>1</dim>
				</port>
			</input>
			<output>
				<port id="2" precision="FP32">
					<dim>1</dim>
					<dim>256</dim>
					<dim>160</dim>
					<dim>160</dim>
				</port>
			</output>
		</layer>
		<layer id="99" name="Reshape_318172825597" type="Const" version="opset1">
			<data offset="683410" size="512" shape="1,256,1,1" element_type="f16"/>
			<output>
				<port id="0" precision="FP16">
					<dim>1</dim>
					<dim>256</dim>
					<dim>1</dim>
					<dim>1</dim>
				</port>
			</output>
		</layer>
		<layer id="100" name="Reshape_318172815208/restored_convert" type="Convert" version="opset1">
			<data destination_type="f32"/>
			<rt_info>
				<attribute name="decompression" version="0"/>
			</rt_info>
			<input>
				<port id="0">
					<dim>1</dim>
					<dim>256</dim>
					<dim>1</dim>
					<dim>1</dim>
				</port>
			</input>
			<output>
				<port id="1" precision="FP32">
					<dim>1</dim>
					<dim>256</dim>
					<dim>1</dim>
					<dim>1</dim>
				</port>
			</output>
		</layer>
		<layer id="101" name="/backbone/layer1/layer1.0/conv3/Conv" type="Add" version="opset1">
			<data auto_broadcast="numpy"/>
			<input>
				<port id="0">
					<dim>1</dim>
					<dim>256</dim>
					<dim>160</dim>
					<dim>160</dim>
				</port>
				<port id="1">
					<dim>1</dim>
					<dim>256</dim>
					<dim>1</dim>
					<dim>1</dim>
				</port>
			</input>
			<output>
				<port id="2" precision="FP32" names="/backbone/layer1/layer1.0/conv3/Conv_output_0">
					<dim>1</dim>
					<dim>256</dim>
					<dim>160</dim>
					<dim>160</dim>
				</port>
			</output>
		</layer>
		<layer id="102" name="/backbone/layer1/layer1.0/Add/fq_input_0" type="FakeQuantize" version="opset1">
			<data levels="256" auto_broadcast="numpy"/>
			<input>
				<port id="0">
					<dim>1</dim>
					<dim>256</dim>
					<dim>160</dim>
					<dim>160</dim>
				</port>
				<port id="1"/>
				<port id="2"/>
				<port id="3"/>
				<port id="4"/>
			</input>
			<output>
				<port id="5" precision="FP32">
					<dim>1</dim>
					<dim>256</dim>
					<dim>160</dim>
					<dim>160</dim>
				</port>
			</output>
		</layer>
		<layer id="103" name="6767677125684" type="Const" version="opset1">
			<data offset="683922" size="4" shape="" element_type="f32"/>
			<output>
				<port id="0" precision="FP32"/>
			</output>
		</layer>
		<layer id="104" name="6768677226863" type="Const" version="opset1">
			<data offset="683926" size="4" shape="" element_type="f32"/>
			<output>
				<port id="0" precision="FP32"/>
			</output>
		</layer>
		<layer id="105" name="6769677326440" type="Const" version="opset1">
			<data offset="683922" size="4" shape="" element_type="f32"/>
			<output>
				<port id="0" precision="FP32"/>
			</output>
		</layer>
		<layer id="106" name="6770677425783" type="Const" version="opset1">
			<data offset="683926" size="4" shape="" element_type="f32"/>
			<output>
				<port id="0" precision="FP32"/>
			</output>
		</layer>
		<layer id="107" name="/backbone/layer1/layer1.0/downsample/downsample.0/Conv/WithoutBiases/fq_weights_1/scale1756527067" type="Const" version="opset1">
			<data offset="683930" size="1024" shape="256,1,1,1" element_type="f32"/>
			<output>
				<port id="0" precision="FP32">
					<dim>256</dim>
					<dim>1</dim>
					<dim>1</dim>
					<dim>1</dim>
				</port>
			</output>
		</layer>
		<layer id="108" name="onnx::Conv_1570173115209/restored_convert/quantized1755727361" type="Const" version="opset1">
			<data offset="684954" size="16384" shape="256,64,1,1" element_type="i8"/>
			<output>
				<port id="0" precision="I8">
					<dim>256</dim>
					<dim>64</dim>
					<dim>1</dim>
					<dim>1</dim>
				</port>
			</output>
		</layer>
		<layer id="109" name="onnx::Conv_1570173115209/restored_convert/quantized/to_f32" type="Convert" version="opset1">
			<data destination_type="f32"/>
			<input>
				<port id="0">
					<dim>256</dim>
					<dim>64</dim>
					<dim>1</dim>
					<dim>1</dim>
				</port>
			</input>
			<output>
				<port id="1" precision="FP32">
					<dim>256</dim>
					<dim>64</dim>
					<dim>1</dim>
					<dim>1</dim>
				</port>
			</output>
		</layer>
		<layer id="110" name="/backbone/layer1/layer1.0/downsample/downsample.0/Conv/WithoutBiases/fq_weights_1/mulpiply_by_scale" type="Multiply" version="opset1">
			<data auto_broadcast="numpy"/>
			<input>
				<port id="0">
					<dim>256</dim>
					<dim>64</dim>
					<dim>1</dim>
					<dim>1</dim>
				</port>
				<port id="1">
					<dim>256</dim>
					<dim>1</dim>
					<dim>1</dim>
					<dim>1</dim>
				</port>
			</input>
			<output>
				<port id="2" precision="FP32">
					<dim>256</dim>
					<dim>64</dim>
					<dim>1</dim>
					<dim>1</dim>
				</port>
			</output>
		</layer>
		<layer id="111" name="/backbone/layer1/layer1.0/downsample/downsample.0/Conv/WithoutBiases" type="Convolution" version="opset1">
			<data auto_pad="explicit" strides="1,1" dilations="1,1" pads_begin="0,0" pads_end="0,0"/>
			<input>
				<port id="0">
					<dim>1</dim>
					<dim>64</dim>
					<dim>160</dim>
					<dim>160</dim>
				</port>
				<port id="1">
					<dim>256</dim>
					<dim>64</dim>
					<dim>1</dim>
					<dim>1</dim>
				</port>
			</input>
			<output>
				<port id="2" precision="FP32">
					<dim>1</dim>
					<dim>256</dim>
					<dim>160</dim>
					<dim>160</dim>
				</port>
			</output>
		</layer>
		<layer id="112" name="Reshape_366173426608" type="Const" version="opset1">
			<data offset="701338" size="512" shape="1,256,1,1" element_type="f16"/>
			<output>
				<port id="0" precision="FP16">
					<dim>1</dim>
					<dim>256</dim>
					<dim>1</dim>
					<dim>1</dim>
				</port>
			</output>
		</layer>
		<layer id="113" name="Reshape_366173415210/restored_convert" type="Convert" version="opset1">
			<data destination_type="f32"/>
			<rt_info>
				<attribute name="decompression" version="0"/>
			</rt_info>
			<input>
				<port id="0">
					<dim>1</dim>
					<dim>256</dim>
					<dim>1</dim>
					<dim>1</dim>
				</port>
			</input>
			<output>
				<port id="1" precision="FP32">
					<dim>1</dim>
					<dim>256</dim>
					<dim>1</dim>
					<dim>1</dim>
				</port>
			</output>
		</layer>
		<layer id="114" name="/backbone/layer1/layer1.0/downsample/downsample.0/Conv" type="Add" version="opset1">
			<data auto_broadcast="numpy"/>
			<input>
				<port id="0">
					<dim>1</dim>
					<dim>256</dim>
					<dim>160</dim>
					<dim>160</dim>
				</port>
				<port id="1">
					<dim>1</dim>
					<dim>256</dim>
					<dim>1</dim>
					<dim>1</dim>
				</port>
			</input>
			<output>
				<port id="2" precision="FP32" names="/backbone/layer1/layer1.0/downsample/downsample.0/Conv_output_0">
					<dim>1</dim>
					<dim>256</dim>
					<dim>160</dim>
					<dim>160</dim>
				</port>
			</output>
		</layer>
		<layer id="115" name="/backbone/layer1/layer1.0/Add/fq_input_1" type="FakeQuantize" version="opset1">
			<data levels="256" auto_broadcast="numpy"/>
			<input>
				<port id="0">
					<dim>1</dim>
					<dim>256</dim>
					<dim>160</dim>
					<dim>160</dim>
				</port>
				<port id="1"/>
				<port id="2"/>
				<port id="3"/>
				<port id="4"/>
			</input>
			<output>
				<port id="5" precision="FP32">
					<dim>1</dim>
					<dim>256</dim>
					<dim>160</dim>
					<dim>160</dim>
				</port>
			</output>
		</layer>
		<layer id="116" name="/backbone/layer1/layer1.0/Add" type="Add" version="opset1">
			<data auto_broadcast="numpy"/>
			<input>
				<port id="0">
					<dim>1</dim>
					<dim>256</dim>
					<dim>160</dim>
					<dim>160</dim>
				</port>
				<port id="1">
					<dim>1</dim>
					<dim>256</dim>
					<dim>160</dim>
					<dim>160</dim>
				</port>
			</input>
			<output>
				<port id="2" precision="FP32" names="/backbone/layer1/layer1.0/Add_output_0">
					<dim>1</dim>
					<dim>256</dim>
					<dim>160</dim>
					<dim>160</dim>
				</port>
			</output>
		</layer>
		<layer id="117" name="/backbone/layer1/layer1.0/relu_2/Relu" type="ReLU" version="opset1">
			<input>
				<port id="0">
					<dim>1</dim>
					<dim>256</dim>
					<dim>160</dim>
					<dim>160</dim>
				</port>
			</input>
			<output>
				<port id="1" precision="FP32" names="/backbone/layer1/layer1.0/relu_2/Relu_output_0">
					<dim>1</dim>
					<dim>256</dim>
					<dim>160</dim>
					<dim>160</dim>
				</port>
			</output>
		</layer>
		<layer id="118" name="/backbone/layer1/layer1.1/Add/fq_input_1" type="FakeQuantize" version="opset1">
			<data levels="256" auto_broadcast="numpy"/>
			<input>
				<port id="0">
					<dim>1</dim>
					<dim>256</dim>
					<dim>160</dim>
					<dim>160</dim>
				</port>
				<port id="1"/>
				<port id="2"/>
				<port id="3"/>
				<port id="4"/>
			</input>
			<output>
				<port id="5" precision="FP32">
					<dim>1</dim>
					<dim>256</dim>
					<dim>160</dim>
					<dim>160</dim>
				</port>
			</output>
		</layer>
		<layer id="119" name="/backbone/layer1/layer1.1/conv1/Conv/WithoutBiases/fq_weights_1/scale1861526080" type="Const" version="opset1">
			<data offset="701850" size="256" shape="64,1,1,1" element_type="f32"/>
			<output>
				<port id="0" precision="FP32">
					<dim>64</dim>
					<dim>1</dim>
					<dim>1</dim>
					<dim>1</dim>
				</port>
			</output>
		</layer>
		<layer id="120" name="onnx::Conv_1573173915211/restored_convert/quantized1860725243" type="Const" version="opset1">
			<data offset="702106" size="16384" shape="64,256,1,1" element_type="i8"/>
			<output>
				<port id="0" precision="I8">
					<dim>64</dim>
					<dim>256</dim>
					<dim>1</dim>
					<dim>1</dim>
				</port>
			</output>
		</layer>
		<layer id="121" name="onnx::Conv_1573173915211/restored_convert/quantized/to_f32" type="Convert" version="opset1">
			<data destination_type="f32"/>
			<input>
				<port id="0">
					<dim>64</dim>
					<dim>256</dim>
					<dim>1</dim>
					<dim>1</dim>
				</port>
			</input>
			<output>
				<port id="1" precision="FP32">
					<dim>64</dim>
					<dim>256</dim>
					<dim>1</dim>
					<dim>1</dim>
				</port>
			</output>
		</layer>
		<layer id="122" name="/backbone/layer1/layer1.1/conv1/Conv/WithoutBiases/fq_weights_1/mulpiply_by_scale" type="Multiply" version="opset1">
			<data auto_broadcast="numpy"/>
			<input>
				<port id="0">
					<dim>64</dim>
					<dim>256</dim>
					<dim>1</dim>
					<dim>1</dim>
				</port>
				<port id="1">
					<dim>64</dim>
					<dim>1</dim>
					<dim>1</dim>
					<dim>1</dim>
				</port>
			</input>
			<output>
				<port id="2" precision="FP32">
					<dim>64</dim>
					<dim>256</dim>
					<dim>1</dim>
					<dim>1</dim>
				</port>
			</output>
		</layer>
		<layer id="123" name="/backbone/layer1/layer1.1/conv1/Conv/WithoutBiases" type="Convolution" version="opset1">
			<data auto_pad="explicit" strides="1,1" dilations="1,1" pads_begin="0,0" pads_end="0,0"/>
			<input>
				<port id="0">
					<dim>1</dim>
					<dim>256</dim>
					<dim>160</dim>
					<dim>160</dim>
				</port>
				<port id="1">
					<dim>64</dim>
					<dim>256</dim>
					<dim>1</dim>
					<dim>1</dim>
				</port>
			</input>
			<output>
				<port id="2" precision="FP32">
					<dim>1</dim>
					<dim>64</dim>
					<dim>160</dim>
					<dim>160</dim>
				</port>
			</output>
		</layer>
		<layer id="124" name="Reshape_416174224778" type="Const" version="opset1">
			<data offset="718490" size="128" shape="1,64,1,1" element_type="f16"/>
			<output>
				<port id="0" precision="FP16">
					<dim>1</dim>
					<dim>64</dim>
					<dim>1</dim>
					<dim>1</dim>
				</port>
			</output>
		</layer>
		<layer id="125" name="Reshape_416174215212/restored_convert" type="Convert" version="opset1">
			<data destination_type="f32"/>
			<rt_info>
				<attribute name="decompression" version="0"/>
			</rt_info>
			<input>
				<port id="0">
					<dim>1</dim>
					<dim>64</dim>
					<dim>1</dim>
					<dim>1</dim>
				</port>
			</input>
			<output>
				<port id="1" precision="FP32">
					<dim>1</dim>
					<dim>64</dim>
					<dim>1</dim>
					<dim>1</dim>
				</port>
			</output>
		</layer>
		<layer id="126" name="/backbone/layer1/layer1.1/conv1/Conv" type="Add" version="opset1">
			<data auto_broadcast="numpy"/>
			<input>
				<port id="0">
					<dim>1</dim>
					<dim>64</dim>
					<dim>160</dim>
					<dim>160</dim>
				</port>
				<port id="1">
					<dim>1</dim>
					<dim>64</dim>
					<dim>1</dim>
					<dim>1</dim>
				</port>
			</input>
			<output>
				<port id="2" precision="FP32" names="/backbone/layer1/layer1.1/conv1/Conv_output_0">
					<dim>1</dim>
					<dim>64</dim>
					<dim>160</dim>
					<dim>160</dim>
				</port>
			</output>
		</layer>
		<layer id="127" name="/backbone/layer1/layer1.1/relu/Relu" type="ReLU" version="opset1">
			<input>
				<port id="0">
					<dim>1</dim>
					<dim>64</dim>
					<dim>160</dim>
					<dim>160</dim>
				</port>
			</input>
			<output>
				<port id="1" precision="FP32" names="/backbone/layer1/layer1.1/relu/Relu_output_0">
					<dim>1</dim>
					<dim>64</dim>
					<dim>160</dim>
					<dim>160</dim>
				</port>
			</output>
		</layer>
		<layer id="128" name="/backbone/layer1/layer1.1/conv2/Conv/WithoutBiases/fq_input_0" type="FakeQuantize" version="opset1">
			<data levels="256" auto_broadcast="numpy"/>
			<input>
				<port id="0">
					<dim>1</dim>
					<dim>64</dim>
					<dim>160</dim>
					<dim>160</dim>
				</port>
				<port id="1"/>
				<port id="2"/>
				<port id="3"/>
				<port id="4"/>
			</input>
			<output>
				<port id="5" precision="FP32">
					<dim>1</dim>
					<dim>64</dim>
					<dim>160</dim>
					<dim>160</dim>
				</port>
			</output>
		</layer>
		<layer id="129" name="/backbone/layer1/layer1.1/conv2/Conv/WithoutBiases/fq_weights_1/scale1852527196" type="Const" version="opset1">
			<data offset="718618" size="256" shape="64,1,1,1" element_type="f32"/>
			<output>
				<port id="0" precision="FP32">
					<dim>64</dim>
					<dim>1</dim>
					<dim>1</dim>
					<dim>1</dim>
				</port>
			</output>
		</layer>
		<layer id="130" name="onnx::Conv_1576174615213/restored_convert/quantized1851726437" type="Const" version="opset1">
			<data offset="718874" size="36864" shape="64,64,3,3" element_type="i8"/>
			<output>
				<port id="0" precision="I8">
					<dim>64</dim>
					<dim>64</dim>
					<dim>3</dim>
					<dim>3</dim>
				</port>
			</output>
		</layer>
		<layer id="131" name="onnx::Conv_1576174615213/restored_convert/quantized/to_f32" type="Convert" version="opset1">
			<data destination_type="f32"/>
			<input>
				<port id="0">
					<dim>64</dim>
					<dim>64</dim>
					<dim>3</dim>
					<dim>3</dim>
				</port>
			</input>
			<output>
				<port id="1" precision="FP32">
					<dim>64</dim>
					<dim>64</dim>
					<dim>3</dim>
					<dim>3</dim>
				</port>
			</output>
		</layer>
		<layer id="132" name="/backbone/layer1/layer1.1/conv2/Conv/WithoutBiases/fq_weights_1/mulpiply_by_scale" type="Multiply" version="opset1">
			<data auto_broadcast="numpy"/>
			<input>
				<port id="0">
					<dim>64</dim>
					<dim>64</dim>
					<dim>3</dim>
					<dim>3</dim>
				</port>
				<port id="1">
					<dim>64</dim>
					<dim>1</dim>
					<dim>1</dim>
					<dim>1</dim>
				</port>
			</input>
			<output>
				<port id="2" precision="FP32">
					<dim>64</dim>
					<dim>64</dim>
					<dim>3</dim>
					<dim>3</dim>
				</port>
			</output>
		</layer>
		<layer id="133" name="/backbone/layer1/layer1.1/conv2/Conv/WithoutBiases" type="Convolution" version="opset1">
			<data auto_pad="explicit" strides="1,1" dilations="1,1" pads_begin="1,1" pads_end="1,1"/>
			<input>
				<port id="0">
					<dim>1</dim>
					<dim>64</dim>
					<dim>160</dim>
					<dim>160</dim>
				</port>
				<port id="1">
					<dim>64</dim>
					<dim>64</dim>
					<dim>3</dim>
					<dim>3</dim>
				</port>
			</input>
			<output>
				<port id="2" precision="FP32">
					<dim>1</dim>
					<dim>64</dim>
					<dim>160</dim>
					<dim>160</dim>
				</port>
			</output>
		</layer>
		<layer id="134" name="Reshape_465174925306" type="Const" version="opset1">
			<data offset="755738" size="128" shape="1,64,1,1" element_type="f16"/>
			<output>
				<port id="0" precision="FP16">
					<dim>1</dim>
					<dim>64</dim>
					<dim>1</dim>
					<dim>1</dim>
				</port>
			</output>
		</layer>
		<layer id="135" name="Reshape_465174915214/restored_convert" type="Convert" version="opset1">
			<data destination_type="f32"/>
			<rt_info>
				<attribute name="decompression" version="0"/>
			</rt_info>
			<input>
				<port id="0">
					<dim>1</dim>
					<dim>64</dim>
					<dim>1</dim>
					<dim>1</dim>
				</port>
			</input>
			<output>
				<port id="1" precision="FP32">
					<dim>1</dim>
					<dim>64</dim>
					<dim>1</dim>
					<dim>1</dim>
				</port>
			</output>
		</layer>
		<layer id="136" name="/backbone/layer1/layer1.1/conv2/Conv" type="Add" version="opset1">
			<data auto_broadcast="numpy"/>
			<input>
				<port id="0">
					<dim>1</dim>
					<dim>64</dim>
					<dim>160</dim>
					<dim>160</dim>
				</port>
				<port id="1">
					<dim>1</dim>
					<dim>64</dim>
					<dim>1</dim>
					<dim>1</dim>
				</port>
			</input>
			<output>
				<port id="2" precision="FP32" names="/backbone/layer1/layer1.1/conv2/Conv_output_0">
					<dim>1</dim>
					<dim>64</dim>
					<dim>160</dim>
					<dim>160</dim>
				</port>
			</output>
		</layer>
		<layer id="137" name="/backbone/layer1/layer1.1/relu_1/Relu" type="ReLU" version="opset1">
			<input>
				<port id="0">
					<dim>1</dim>
					<dim>64</dim>
					<dim>160</dim>
					<dim>160</dim>
				</port>
			</input>
			<output>
				<port id="1" precision="FP32" names="/backbone/layer1/layer1.1/relu_1/Relu_output_0">
					<dim>1</dim>
					<dim>64</dim>
					<dim>160</dim>
					<dim>160</dim>
				</port>
			</output>
		</layer>
		<layer id="138" name="/backbone/layer1/layer1.1/conv3/Conv/WithoutBiases/fq_input_0" type="FakeQuantize" version="opset1">
			<data levels="256" auto_broadcast="numpy"/>
			<input>
				<port id="0">
					<dim>1</dim>
					<dim>64</dim>
					<dim>160</dim>
					<dim>160</dim>
				</port>
				<port id="1"/>
				<port id="2"/>
				<port id="3"/>
				<port id="4"/>
			</input>
			<output>
				<port id="5" precision="FP32">
					<dim>1</dim>
					<dim>64</dim>
					<dim>160</dim>
					<dim>160</dim>
				</port>
			</output>
		</layer>
		<layer id="139" name="/backbone/layer1/layer1.1/conv3/Conv/WithoutBiases/fq_weights_1/scale1849526185" type="Const" version="opset1">
			<data offset="755866" size="1024" shape="256,1,1,1" element_type="f32"/>
			<output>
				<port id="0" precision="FP32">
					<dim>256</dim>
					<dim>1</dim>
					<dim>1</dim>
					<dim>1</dim>
				</port>
			</output>
		</layer>
		<layer id="140" name="onnx::Conv_1579175315215/restored_convert/quantized1848727307" type="Const" version="opset1">
			<data offset="756890" size="16384" shape="256,64,1,1" element_type="i8"/>
			<output>
				<port id="0" precision="I8">
					<dim>256</dim>
					<dim>64</dim>
					<dim>1</dim>
					<dim>1</dim>
				</port>
			</output>
		</layer>
		<layer id="141" name="onnx::Conv_1579175315215/restored_convert/quantized/to_f32" type="Convert" version="opset1">
			<data destination_type="f32"/>
			<input>
				<port id="0">
					<dim>256</dim>
					<dim>64</dim>
					<dim>1</dim>
					<dim>1</dim>
				</port>
			</input>
			<output>
				<port id="1" precision="FP32">
					<dim>256</dim>
					<dim>64</dim>
					<dim>1</dim>
					<dim>1</dim>
				</port>
			</output>
		</layer>
		<layer id="142" name="/backbone/layer1/layer1.1/conv3/Conv/WithoutBiases/fq_weights_1/mulpiply_by_scale" type="Multiply" version="opset1">
			<data auto_broadcast="numpy"/>
			<input>
				<port id="0">
					<dim>256</dim>
					<dim>64</dim>
					<dim>1</dim>
					<dim>1</dim>
				</port>
				<port id="1">
					<dim>256</dim>
					<dim>1</dim>
					<dim>1</dim>
					<dim>1</dim>
				</port>
			</input>
			<output>
				<port id="2" precision="FP32">
					<dim>256</dim>
					<dim>64</dim>
					<dim>1</dim>
					<dim>1</dim>
				</port>
			</output>
		</layer>
		<layer id="143" name="/backbone/layer1/layer1.1/conv3/Conv/WithoutBiases" type="Convolution" version="opset1">
			<data auto_pad="explicit" strides="1,1" dilations="1,1" pads_begin="0,0" pads_end="0,0"/>
			<input>
				<port id="0">
					<dim>1</dim>
					<dim>64</dim>
					<dim>160</dim>
					<dim>160</dim>
				</port>
				<port id="1">
					<dim>256</dim>
					<dim>64</dim>
					<dim>1</dim>
					<dim>1</dim>
				</port>
			</input>
			<output>
				<port id="2" precision="FP32">
					<dim>1</dim>
					<dim>256</dim>
					<dim>160</dim>
					<dim>160</dim>
				</port>
			</output>
		</layer>
		<layer id="144" name="Reshape_514175627313" type="Const" version="opset1">
			<data offset="773274" size="512" shape="1,256,1,1" element_type="f16"/>
			<output>
				<port id="0" precision="FP16">
					<dim>1</dim>
					<dim>256</dim>
					<dim>1</dim>
					<dim>1</dim>
				</port>
			</output>
		</layer>
		<layer id="145" name="Reshape_514175615216/restored_convert" type="Convert" version="opset1">
			<data destination_type="f32"/>
			<rt_info>
				<attribute name="decompression" version="0"/>
			</rt_info>
			<input>
				<port id="0">
					<dim>1</dim>
					<dim>256</dim>
					<dim>1</dim>
					<dim>1</dim>
				</port>
			</input>
			<output>
				<port id="1" precision="FP32">
					<dim>1</dim>
					<dim>256</dim>
					<dim>1</dim>
					<dim>1</dim>
				</port>
			</output>
		</layer>
		<layer id="146" name="/backbone/layer1/layer1.1/conv3/Conv" type="Add" version="opset1">
			<data auto_broadcast="numpy"/>
			<input>
				<port id="0">
					<dim>1</dim>
					<dim>256</dim>
					<dim>160</dim>
					<dim>160</dim>
				</port>
				<port id="1">
					<dim>1</dim>
					<dim>256</dim>
					<dim>1</dim>
					<dim>1</dim>
				</port>
			</input>
			<output>
				<port id="2" precision="FP32" names="/backbone/layer1/layer1.1/conv3/Conv_output_0">
					<dim>1</dim>
					<dim>256</dim>
					<dim>160</dim>
					<dim>160</dim>
				</port>
			</output>
		</layer>
		<layer id="147" name="/backbone/layer1/layer1.1/Add/fq_input_0" type="FakeQuantize" version="opset1">
			<data levels="256" auto_broadcast="numpy"/>
			<input>
				<port id="0">
					<dim>1</dim>
					<dim>256</dim>
					<dim>160</dim>
					<dim>160</dim>
				</port>
				<port id="1"/>
				<port id="2"/>
				<port id="3"/>
				<port id="4"/>
			</input>
			<output>
				<port id="5" precision="FP32">
					<dim>1</dim>
					<dim>256</dim>
					<dim>160</dim>
					<dim>160</dim>
				</port>
			</output>
		</layer>
		<layer id="148" name="/backbone/layer1/layer1.1/Add" type="Add" version="opset1">
			<data auto_broadcast="numpy"/>
			<input>
				<port id="0">
					<dim>1</dim>
					<dim>256</dim>
					<dim>160</dim>
					<dim>160</dim>
				</port>
				<port id="1">
					<dim>1</dim>
					<dim>256</dim>
					<dim>160</dim>
					<dim>160</dim>
				</port>
			</input>
			<output>
				<port id="2" precision="FP32" names="/backbone/layer1/layer1.1/Add_output_0">
					<dim>1</dim>
					<dim>256</dim>
					<dim>160</dim>
					<dim>160</dim>
				</port>
			</output>
		</layer>
		<layer id="149" name="/backbone/layer1/layer1.1/relu_2/Relu" type="ReLU" version="opset1">
			<input>
				<port id="0">
					<dim>1</dim>
					<dim>256</dim>
					<dim>160</dim>
					<dim>160</dim>
				</port>
			</input>
			<output>
				<port id="1" precision="FP32" names="/backbone/layer1/layer1.1/relu_2/Relu_output_0">
					<dim>1</dim>
					<dim>256</dim>
					<dim>160</dim>
					<dim>160</dim>
				</port>
			</output>
		</layer>
		<layer id="150" name="/backbone/layer1/layer1.2/Add/fq_input_1" type="FakeQuantize" version="opset1">
			<data levels="256" auto_broadcast="numpy"/>
			<input>
				<port id="0">
					<dim>1</dim>
					<dim>256</dim>
					<dim>160</dim>
					<dim>160</dim>
				</port>
				<port id="1"/>
				<port id="2"/>
				<port id="3"/>
				<port id="4"/>
			</input>
			<output>
				<port id="5" precision="FP32">
					<dim>1</dim>
					<dim>256</dim>
					<dim>160</dim>
					<dim>160</dim>
				</port>
			</output>
		</layer>
		<layer id="151" name="/backbone/layer1/layer1.2/conv1/Conv/WithoutBiases/fq_weights_1/scale1783526845" type="Const" version="opset1">
			<data offset="773786" size="256" shape="64,1,1,1" element_type="f32"/>
			<output>
				<port id="0" precision="FP32">
					<dim>64</dim>
					<dim>1</dim>
					<dim>1</dim>
					<dim>1</dim>
				</port>
			</output>
		</layer>
		<layer id="152" name="onnx::Conv_1582176115217/restored_convert/quantized1782725999" type="Const" version="opset1">
			<data offset="774042" size="16384" shape="64,256,1,1" element_type="i8"/>
			<output>
				<port id="0" precision="I8">
					<dim>64</dim>
					<dim>256</dim>
					<dim>1</dim>
					<dim>1</dim>
				</port>
			</output>
		</layer>
		<layer id="153" name="onnx::Conv_1582176115217/restored_convert/quantized/to_f32" type="Convert" version="opset1">
			<data destination_type="f32"/>
			<input>
				<port id="0">
					<dim>64</dim>
					<dim>256</dim>
					<dim>1</dim>
					<dim>1</dim>
				</port>
			</input>
			<output>
				<port id="1" precision="FP32">
					<dim>64</dim>
					<dim>256</dim>
					<dim>1</dim>
					<dim>1</dim>
				</port>
			</output>
		</layer>
		<layer id="154" name="/backbone/layer1/layer1.2/conv1/Conv/WithoutBiases/fq_weights_1/mulpiply_by_scale" type="Multiply" version="opset1">
			<data auto_broadcast="numpy"/>
			<input>
				<port id="0">
					<dim>64</dim>
					<dim>256</dim>
					<dim>1</dim>
					<dim>1</dim>
				</port>
				<port id="1">
					<dim>64</dim>
					<dim>1</dim>
					<dim>1</dim>
					<dim>1</dim>
				</port>
			</input>
			<output>
				<port id="2" precision="FP32">
					<dim>64</dim>
					<dim>256</dim>
					<dim>1</dim>
					<dim>1</dim>
				</port>
			</output>
		</layer>
		<layer id="155" name="/backbone/layer1/layer1.2/conv1/Conv/WithoutBiases" type="Convolution" version="opset1">
			<data auto_pad="explicit" strides="1,1" dilations="1,1" pads_begin="0,0" pads_end="0,0"/>
			<input>
				<port id="0">
					<dim>1</dim>
					<dim>256</dim>
					<dim>160</dim>
					<dim>160</dim>
				</port>
				<port id="1">
					<dim>64</dim>
					<dim>256</dim>
					<dim>1</dim>
					<dim>1</dim>
				</port>
			</input>
			<output>
				<port id="2" precision="FP32">
					<dim>1</dim>
					<dim>64</dim>
					<dim>160</dim>
					<dim>160</dim>
				</port>
			</output>
		</layer>
		<layer id="156" name="Reshape_564176426236" type="Const" version="opset1">
			<data offset="790426" size="128" shape="1,64,1,1" element_type="f16"/>
			<output>
				<port id="0" precision="FP16">
					<dim>1</dim>
					<dim>64</dim>
					<dim>1</dim>
					<dim>1</dim>
				</port>
			</output>
		</layer>
		<layer id="157" name="Reshape_564176415218/restored_convert" type="Convert" version="opset1">
			<data destination_type="f32"/>
			<rt_info>
				<attribute name="decompression" version="0"/>
			</rt_info>
			<input>
				<port id="0">
					<dim>1</dim>
					<dim>64</dim>
					<dim>1</dim>
					<dim>1</dim>
				</port>
			</input>
			<output>
				<port id="1" precision="FP32">
					<dim>1</dim>
					<dim>64</dim>
					<dim>1</dim>
					<dim>1</dim>
				</port>
			</output>
		</layer>
		<layer id="158" name="/backbone/layer1/layer1.2/conv1/Conv" type="Add" version="opset1">
			<data auto_broadcast="numpy"/>
			<input>
				<port id="0">
					<dim>1</dim>
					<dim>64</dim>
					<dim>160</dim>
					<dim>160</dim>
				</port>
				<port id="1">
					<dim>1</dim>
					<dim>64</dim>
					<dim>1</dim>
					<dim>1</dim>
				</port>
			</input>
			<output>
				<port id="2" precision="FP32" names="/backbone/layer1/layer1.2/conv1/Conv_output_0">
					<dim>1</dim>
					<dim>64</dim>
					<dim>160</dim>
					<dim>160</dim>
				</port>
			</output>
		</layer>
		<layer id="159" name="/backbone/layer1/layer1.2/relu/Relu" type="ReLU" version="opset1">
			<input>
				<port id="0">
					<dim>1</dim>
					<dim>64</dim>
					<dim>160</dim>
					<dim>160</dim>
				</port>
			</input>
			<output>
				<port id="1" precision="FP32" names="/backbone/layer1/layer1.2/relu/Relu_output_0">
					<dim>1</dim>
					<dim>64</dim>
					<dim>160</dim>
					<dim>160</dim>
				</port>
			</output>
		</layer>
		<layer id="160" name="/backbone/layer1/layer1.2/conv2/Conv/WithoutBiases/fq_input_0" type="FakeQuantize" version="opset1">
			<data levels="256" auto_broadcast="numpy"/>
			<input>
				<port id="0">
					<dim>1</dim>
					<dim>64</dim>
					<dim>160</dim>
					<dim>160</dim>
				</port>
				<port id="1"/>
				<port id="2"/>
				<port id="3"/>
				<port id="4"/>
			</input>
			<output>
				<port id="5" precision="FP32">
					<dim>1</dim>
					<dim>64</dim>
					<dim>160</dim>
					<dim>160</dim>
				</port>
			</output>
		</layer>
		<layer id="161" name="/backbone/layer1/layer1.2/conv2/Conv/WithoutBiases/fq_weights_1/scale1843524823" type="Const" version="opset1">
			<data offset="790554" size="256" shape="64,1,1,1" element_type="f32"/>
			<output>
				<port id="0" precision="FP32">
					<dim>64</dim>
					<dim>1</dim>
					<dim>1</dim>
					<dim>1</dim>
				</port>
			</output>
		</layer>
		<layer id="162" name="onnx::Conv_1585176815219/restored_convert/quantized1842727448" type="Const" version="opset1">
			<data offset="790810" size="36864" shape="64,64,3,3" element_type="i8"/>
			<output>
				<port id="0" precision="I8">
					<dim>64</dim>
					<dim>64</dim>
					<dim>3</dim>
					<dim>3</dim>
				</port>
			</output>
		</layer>
		<layer id="163" name="onnx::Conv_1585176815219/restored_convert/quantized/to_f32" type="Convert" version="opset1">
			<data destination_type="f32"/>
			<input>
				<port id="0">
					<dim>64</dim>
					<dim>64</dim>
					<dim>3</dim>
					<dim>3</dim>
				</port>
			</input>
			<output>
				<port id="1" precision="FP32">
					<dim>64</dim>
					<dim>64</dim>
					<dim>3</dim>
					<dim>3</dim>
				</port>
			</output>
		</layer>
		<layer id="164" name="/backbone/layer1/layer1.2/conv2/Conv/WithoutBiases/fq_weights_1/mulpiply_by_scale" type="Multiply" version="opset1">
			<data auto_broadcast="numpy"/>
			<input>
				<port id="0">
					<dim>64</dim>
					<dim>64</dim>
					<dim>3</dim>
					<dim>3</dim>
				</port>
				<port id="1">
					<dim>64</dim>
					<dim>1</dim>
					<dim>1</dim>
					<dim>1</dim>
				</port>
			</input>
			<output>
				<port id="2" precision="FP32">
					<dim>64</dim>
					<dim>64</dim>
					<dim>3</dim>
					<dim>3</dim>
				</port>
			</output>
		</layer>
		<layer id="165" name="/backbone/layer1/layer1.2/conv2/Conv/WithoutBiases" type="Convolution" version="opset1">
			<data auto_pad="explicit" strides="1,1" dilations="1,1" pads_begin="1,1" pads_end="1,1"/>
			<input>
				<port id="0">
					<dim>1</dim>
					<dim>64</dim>
					<dim>160</dim>
					<dim>160</dim>
				</port>
				<port id="1">
					<dim>64</dim>
					<dim>64</dim>
					<dim>3</dim>
					<dim>3</dim>
				</port>
			</input>
			<output>
				<port id="2" precision="FP32">
					<dim>1</dim>
					<dim>64</dim>
					<dim>160</dim>
					<dim>160</dim>
				</port>
			</output>
		</layer>
		<layer id="166" name="Reshape_613177125354" type="Const" version="opset1">
			<data offset="827674" size="128" shape="1,64,1,1" element_type="f16"/>
			<output>
				<port id="0" precision="FP16">
					<dim>1</dim>
					<dim>64</dim>
					<dim>1</dim>
					<dim>1</dim>
				</port>
			</output>
		</layer>
		<layer id="167" name="Reshape_613177115220/restored_convert" type="Convert" version="opset1">
			<data destination_type="f32"/>
			<rt_info>
				<attribute name="decompression" version="0"/>
			</rt_info>
			<input>
				<port id="0">
					<dim>1</dim>
					<dim>64</dim>
					<dim>1</dim>
					<dim>1</dim>
				</port>
			</input>
			<output>
				<port id="1" precision="FP32">
					<dim>1</dim>
					<dim>64</dim>
					<dim>1</dim>
					<dim>1</dim>
				</port>
			</output>
		</layer>
		<layer id="168" name="/backbone/layer1/layer1.2/conv2/Conv" type="Add" version="opset1">
			<data auto_broadcast="numpy"/>
			<input>
				<port id="0">
					<dim>1</dim>
					<dim>64</dim>
					<dim>160</dim>
					<dim>160</dim>
				</port>
				<port id="1">
					<dim>1</dim>
					<dim>64</dim>
					<dim>1</dim>
					<dim>1</dim>
				</port>
			</input>
			<output>
				<port id="2" precision="FP32" names="/backbone/layer1/layer1.2/conv2/Conv_output_0">
					<dim>1</dim>
					<dim>64</dim>
					<dim>160</dim>
					<dim>160</dim>
				</port>
			</output>
		</layer>
		<layer id="169" name="/backbone/layer1/layer1.2/relu_1/Relu" type="ReLU" version="opset1">
			<input>
				<port id="0">
					<dim>1</dim>
					<dim>64</dim>
					<dim>160</dim>
					<dim>160</dim>
				</port>
			</input>
			<output>
				<port id="1" precision="FP32" names="/backbone/layer1/layer1.2/relu_1/Relu_output_0">
					<dim>1</dim>
					<dim>64</dim>
					<dim>160</dim>
					<dim>160</dim>
				</port>
			</output>
		</layer>
		<layer id="170" name="/backbone/layer1/layer1.2/conv3/Conv/WithoutBiases/fq_input_0" type="FakeQuantize" version="opset1">
			<data levels="256" auto_broadcast="numpy"/>
			<input>
				<port id="0">
					<dim>1</dim>
					<dim>64</dim>
					<dim>160</dim>
					<dim>160</dim>
				</port>
				<port id="1"/>
				<port id="2"/>
				<port id="3"/>
				<port id="4"/>
			</input>
			<output>
				<port id="5" precision="FP32">
					<dim>1</dim>
					<dim>64</dim>
					<dim>160</dim>
					<dim>160</dim>
				</port>
			</output>
		</layer>
		<layer id="171" name="/backbone/layer1/layer1.2/conv3/Conv/WithoutBiases/fq_weights_1/scale1699526140" type="Const" version="opset1">
			<data offset="827802" size="1024" shape="256,1,1,1" element_type="f32"/>
			<output>
				<port id="0" precision="FP32">
					<dim>256</dim>
					<dim>1</dim>
					<dim>1</dim>
					<dim>1</dim>
				</port>
			</output>
		</layer>
		<layer id="172" name="onnx::Conv_1588177515221/restored_convert/quantized1698726893" type="Const" version="opset1">
			<data offset="828826" size="16384" shape="256,64,1,1" element_type="i8"/>
			<output>
				<port id="0" precision="I8">
					<dim>256</dim>
					<dim>64</dim>
					<dim>1</dim>
					<dim>1</dim>
				</port>
			</output>
		</layer>
		<layer id="173" name="onnx::Conv_1588177515221/restored_convert/quantized/to_f32" type="Convert" version="opset1">
			<data destination_type="f32"/>
			<input>
				<port id="0">
					<dim>256</dim>
					<dim>64</dim>
					<dim>1</dim>
					<dim>1</dim>
				</port>
			</input>
			<output>
				<port id="1" precision="FP32">
					<dim>256</dim>
					<dim>64</dim>
					<dim>1</dim>
					<dim>1</dim>
				</port>
			</output>
		</layer>
		<layer id="174" name="/backbone/layer1/layer1.2/conv3/Conv/WithoutBiases/fq_weights_1/mulpiply_by_scale" type="Multiply" version="opset1">
			<data auto_broadcast="numpy"/>
			<input>
				<port id="0">
					<dim>256</dim>
					<dim>64</dim>
					<dim>1</dim>
					<dim>1</dim>
				</port>
				<port id="1">
					<dim>256</dim>
					<dim>1</dim>
					<dim>1</dim>
					<dim>1</dim>
				</port>
			</input>
			<output>
				<port id="2" precision="FP32">
					<dim>256</dim>
					<dim>64</dim>
					<dim>1</dim>
					<dim>1</dim>
				</port>
			</output>
		</layer>
		<layer id="175" name="/backbone/layer1/layer1.2/conv3/Conv/WithoutBiases" type="Convolution" version="opset1">
			<data auto_pad="explicit" strides="1,1" dilations="1,1" pads_begin="0,0" pads_end="0,0"/>
			<input>
				<port id="0">
					<dim>1</dim>
					<dim>64</dim>
					<dim>160</dim>
					<dim>160</dim>
				</port>
				<port id="1">
					<dim>256</dim>
					<dim>64</dim>
					<dim>1</dim>
					<dim>1</dim>
				</port>
			</input>
			<output>
				<port id="2" precision="FP32">
					<dim>1</dim>
					<dim>256</dim>
					<dim>160</dim>
					<dim>160</dim>
				</port>
			</output>
		</layer>
		<layer id="176" name="Reshape_662177827706" type="Const" version="opset1">
			<data offset="845210" size="512" shape="1,256,1,1" element_type="f16"/>
			<output>
				<port id="0" precision="FP16">
					<dim>1</dim>
					<dim>256</dim>
					<dim>1</dim>
					<dim>1</dim>
				</port>
			</output>
		</layer>
		<layer id="177" name="Reshape_662177815222/restored_convert" type="Convert" version="opset1">
			<data destination_type="f32"/>
			<rt_info>
				<attribute name="decompression" version="0"/>
			</rt_info>
			<input>
				<port id="0">
					<dim>1</dim>
					<dim>256</dim>
					<dim>1</dim>
					<dim>1</dim>
				</port>
			</input>
			<output>
				<port id="1" precision="FP32">
					<dim>1</dim>
					<dim>256</dim>
					<dim>1</dim>
					<dim>1</dim>
				</port>
			</output>
		</layer>
		<layer id="178" name="/backbone/layer1/layer1.2/conv3/Conv" type="Add" version="opset1">
			<data auto_broadcast="numpy"/>
			<input>
				<port id="0">
					<dim>1</dim>
					<dim>256</dim>
					<dim>160</dim>
					<dim>160</dim>
				</port>
				<port id="1">
					<dim>1</dim>
					<dim>256</dim>
					<dim>1</dim>
					<dim>1</dim>
				</port>
			</input>
			<output>
				<port id="2" precision="FP32" names="/backbone/layer1/layer1.2/conv3/Conv_output_0">
					<dim>1</dim>
					<dim>256</dim>
					<dim>160</dim>
					<dim>160</dim>
				</port>
			</output>
		</layer>
		<layer id="179" name="/backbone/layer1/layer1.2/Add/fq_input_0" type="FakeQuantize" version="opset1">
			<data levels="256" auto_broadcast="numpy"/>
			<input>
				<port id="0">
					<dim>1</dim>
					<dim>256</dim>
					<dim>160</dim>
					<dim>160</dim>
				</port>
				<port id="1"/>
				<port id="2"/>
				<port id="3"/>
				<port id="4"/>
			</input>
			<output>
				<port id="5" precision="FP32">
					<dim>1</dim>
					<dim>256</dim>
					<dim>160</dim>
					<dim>160</dim>
				</port>
			</output>
		</layer>
		<layer id="180" name="/backbone/layer1/layer1.2/Add" type="Add" version="opset1">
			<data auto_broadcast="numpy"/>
			<input>
				<port id="0">
					<dim>1</dim>
					<dim>256</dim>
					<dim>160</dim>
					<dim>160</dim>
				</port>
				<port id="1">
					<dim>1</dim>
					<dim>256</dim>
					<dim>160</dim>
					<dim>160</dim>
				</port>
			</input>
			<output>
				<port id="2" precision="FP32" names="/backbone/layer1/layer1.2/Add_output_0">
					<dim>1</dim>
					<dim>256</dim>
					<dim>160</dim>
					<dim>160</dim>
				</port>
			</output>
		</layer>
		<layer id="181" name="/backbone/layer1/layer1.2/relu_2/Relu" type="ReLU" version="opset1">
			<input>
				<port id="0">
					<dim>1</dim>
					<dim>256</dim>
					<dim>160</dim>
					<dim>160</dim>
				</port>
			</input>
			<output>
				<port id="1" precision="FP32" names="/backbone/layer1/layer1.2/relu_2/Relu_output_0">
					<dim>1</dim>
					<dim>256</dim>
					<dim>160</dim>
					<dim>160</dim>
				</port>
			</output>
		</layer>
		<layer id="182" name="/backbone/layer2/layer2.0/conv1/Conv/WithoutBiases/fq_input_0" type="FakeQuantize" version="opset1">
			<data levels="256" auto_broadcast="numpy"/>
			<input>
				<port id="0">
					<dim>1</dim>
					<dim>256</dim>
					<dim>160</dim>
					<dim>160</dim>
				</port>
				<port id="1"/>
				<port id="2"/>
				<port id="3"/>
				<port id="4"/>
			</input>
			<output>
				<port id="5" precision="FP32">
					<dim>1</dim>
					<dim>256</dim>
					<dim>160</dim>
					<dim>160</dim>
				</port>
			</output>
		</layer>
		<layer id="183" name="/neck/lateral_convs.0/conv/Conv/WithoutBiases/fq_weights_1/scale1831525510" type="Const" version="opset1">
			<data offset="845722" size="1024" shape="256,1,1,1" element_type="f32"/>
			<output>
				<port id="0" precision="FP32">
					<dim>256</dim>
					<dim>1</dim>
					<dim>1</dim>
					<dim>1</dim>
				</port>
			</output>
		</layer>
		<layer id="184" name="neck.lateral_convs.0.conv.weight178315223/restored_convert/quantized1830727700" type="Const" version="opset1">
			<data offset="846746" size="65536" shape="256,256,1,1" element_type="i8"/>
			<output>
				<port id="0" precision="I8">
					<dim>256</dim>
					<dim>256</dim>
					<dim>1</dim>
					<dim>1</dim>
				</port>
			</output>
		</layer>
		<layer id="185" name="neck.lateral_convs.0.conv.weight178315223/restored_convert/quantized/to_f32" type="Convert" version="opset1">
			<data destination_type="f32"/>
			<input>
				<port id="0">
					<dim>256</dim>
					<dim>256</dim>
					<dim>1</dim>
					<dim>1</dim>
				</port>
			</input>
			<output>
				<port id="1" precision="FP32">
					<dim>256</dim>
					<dim>256</dim>
					<dim>1</dim>
					<dim>1</dim>
				</port>
			</output>
		</layer>
		<layer id="186" name="/neck/lateral_convs.0/conv/Conv/WithoutBiases/fq_weights_1/mulpiply_by_scale" type="Multiply" version="opset1">
			<data auto_broadcast="numpy"/>
			<input>
				<port id="0">
					<dim>256</dim>
					<dim>256</dim>
					<dim>1</dim>
					<dim>1</dim>
				</port>
				<port id="1">
					<dim>256</dim>
					<dim>1</dim>
					<dim>1</dim>
					<dim>1</dim>
				</port>
			</input>
			<output>
				<port id="2" precision="FP32">
					<dim>256</dim>
					<dim>256</dim>
					<dim>1</dim>
					<dim>1</dim>
				</port>
			</output>
		</layer>
		<layer id="187" name="/neck/lateral_convs.0/conv/Conv/WithoutBiases" type="Convolution" version="opset1">
			<data auto_pad="explicit" strides="1,1" dilations="1,1" pads_begin="0,0" pads_end="0,0"/>
			<input>
				<port id="0">
					<dim>1</dim>
					<dim>256</dim>
					<dim>160</dim>
					<dim>160</dim>
				</port>
				<port id="1">
					<dim>256</dim>
					<dim>256</dim>
					<dim>1</dim>
					<dim>1</dim>
				</port>
			</input>
			<output>
				<port id="2" precision="FP32">
					<dim>1</dim>
					<dim>256</dim>
					<dim>160</dim>
					<dim>160</dim>
				</port>
			</output>
		</layer>
		<layer id="188" name="Reshape_2780178625513" type="Const" version="opset1">
			<data offset="912282" size="512" shape="1,256,1,1" element_type="f16"/>
			<output>
				<port id="0" precision="FP16">
					<dim>1</dim>
					<dim>256</dim>
					<dim>1</dim>
					<dim>1</dim>
				</port>
			</output>
		</layer>
		<layer id="189" name="Reshape_2780178615224/restored_convert" type="Convert" version="opset1">
			<data destination_type="f32"/>
			<rt_info>
				<attribute name="decompression" version="0"/>
			</rt_info>
			<input>
				<port id="0">
					<dim>1</dim>
					<dim>256</dim>
					<dim>1</dim>
					<dim>1</dim>
				</port>
			</input>
			<output>
				<port id="1" precision="FP32">
					<dim>1</dim>
					<dim>256</dim>
					<dim>1</dim>
					<dim>1</dim>
				</port>
			</output>
		</layer>
		<layer id="190" name="/neck/lateral_convs.0/conv/Conv" type="Add" version="opset1">
			<data auto_broadcast="numpy"/>
			<input>
				<port id="0">
					<dim>1</dim>
					<dim>256</dim>
					<dim>160</dim>
					<dim>160</dim>
				</port>
				<port id="1">
					<dim>1</dim>
					<dim>256</dim>
					<dim>1</dim>
					<dim>1</dim>
				</port>
			</input>
			<output>
				<port id="2" precision="FP32" names="/neck/lateral_convs.0/conv/Conv_output_0">
					<dim>1</dim>
					<dim>256</dim>
					<dim>160</dim>
					<dim>160</dim>
				</port>
			</output>
		</layer>
		<layer id="191" name="7027703125765" type="Const" version="opset1">
			<data offset="614400" size="4" shape="" element_type="f32"/>
			<output>
				<port id="0" precision="FP32"/>
			</output>
		</layer>
		<layer id="192" name="7028703227010" type="Const" version="opset1">
			<data offset="912794" size="4" shape="" element_type="f32"/>
			<output>
				<port id="0" precision="FP32"/>
			</output>
		</layer>
		<layer id="193" name="7029703327553" type="Const" version="opset1">
			<data offset="614400" size="4" shape="" element_type="f32"/>
			<output>
				<port id="0" precision="FP32"/>
			</output>
		</layer>
		<layer id="194" name="7030703426368" type="Const" version="opset1">
			<data offset="912794" size="4" shape="" element_type="f32"/>
			<output>
				<port id="0" precision="FP32"/>
			</output>
		</layer>
		<layer id="195" name="6847685125186" type="Const" version="opset1">
			<data offset="912798" size="4" shape="" element_type="f32"/>
			<output>
				<port id="0" precision="FP32"/>
			</output>
		</layer>
		<layer id="196" name="6848685226587" type="Const" version="opset1">
			<data offset="912802" size="4" shape="" element_type="f32"/>
			<output>
				<port id="0" precision="FP32"/>
			</output>
		</layer>
		<layer id="197" name="6849685325579" type="Const" version="opset1">
			<data offset="912798" size="4" shape="" element_type="f32"/>
			<output>
				<port id="0" precision="FP32"/>
			</output>
		</layer>
		<layer id="198" name="6850685425642" type="Const" version="opset1">
			<data offset="912802" size="4" shape="" element_type="f32"/>
			<output>
				<port id="0" precision="FP32"/>
			</output>
		</layer>
		<layer id="199" name="6677668127811" type="Const" version="opset1">
			<data offset="614400" size="4" shape="" element_type="f32"/>
			<output>
				<port id="0" precision="FP32"/>
			</output>
		</layer>
		<layer id="200" name="6678668227412" type="Const" version="opset1">
			<data offset="912806" size="4" shape="" element_type="f32"/>
			<output>
				<port id="0" precision="FP32"/>
			</output>
		</layer>
		<layer id="201" name="6679668324754" type="Const" version="opset1">
			<data offset="614400" size="4" shape="" element_type="f32"/>
			<output>
				<port id="0" precision="FP32"/>
			</output>
		</layer>
		<layer id="202" name="6680668424970" type="Const" version="opset1">
			<data offset="912806" size="4" shape="" element_type="f32"/>
			<output>
				<port id="0" precision="FP32"/>
			</output>
		</layer>
		<layer id="203" name="7007701126281" type="Const" version="opset1">
			<data offset="614400" size="4" shape="" element_type="f32"/>
			<output>
				<port id="0" precision="FP32"/>
			</output>
		</layer>
		<layer id="204" name="7008701225726" type="Const" version="opset1">
			<data offset="912810" size="4" shape="" element_type="f32"/>
			<output>
				<port id="0" precision="FP32"/>
			</output>
		</layer>
		<layer id="205" name="7009701325702" type="Const" version="opset1">
			<data offset="614400" size="4" shape="" element_type="f32"/>
			<output>
				<port id="0" precision="FP32"/>
			</output>
		</layer>
		<layer id="206" name="7010701426680" type="Const" version="opset1">
			<data offset="912810" size="4" shape="" element_type="f32"/>
			<output>
				<port id="0" precision="FP32"/>
			</output>
		</layer>
		<layer id="207" name="6857686125054" type="Const" version="opset1">
			<data offset="614400" size="4" shape="" element_type="f32"/>
			<output>
				<port id="0" precision="FP32"/>
			</output>
		</layer>
		<layer id="208" name="6858686225687" type="Const" version="opset1">
			<data offset="912814" size="4" shape="" element_type="f32"/>
			<output>
				<port id="0" precision="FP32"/>
			</output>
		</layer>
		<layer id="209" name="6859686325366" type="Const" version="opset1">
			<data offset="614400" size="4" shape="" element_type="f32"/>
			<output>
				<port id="0" precision="FP32"/>
			</output>
		</layer>
		<layer id="210" name="6860686427802" type="Const" version="opset1">
			<data offset="912814" size="4" shape="" element_type="f32"/>
			<output>
				<port id="0" precision="FP32"/>
			</output>
		</layer>
		<layer id="211" name="6217622125441" type="Const" version="opset1">
			<data offset="912818" size="4" shape="" element_type="f32"/>
			<output>
				<port id="0" precision="FP32"/>
			</output>
		</layer>
		<layer id="212" name="6218622227520" type="Const" version="opset1">
			<data offset="912822" size="4" shape="" element_type="f32"/>
			<output>
				<port id="0" precision="FP32"/>
			</output>
		</layer>
		<layer id="213" name="6219622327796" type="Const" version="opset1">
			<data offset="912818" size="4" shape="" element_type="f32"/>
			<output>
				<port id="0" precision="FP32"/>
			</output>
		</layer>
		<layer id="214" name="6220622426029" type="Const" version="opset1">
			<data offset="912822" size="4" shape="" element_type="f32"/>
			<output>
				<port id="0" precision="FP32"/>
			</output>
		</layer>
		<layer id="215" name="7607761127220" type="Const" version="opset1">
			<data offset="614400" size="4" shape="" element_type="f32"/>
			<output>
				<port id="0" precision="FP32"/>
			</output>
		</layer>
		<layer id="216" name="7608761225162" type="Const" version="opset1">
			<data offset="912826" size="4" shape="" element_type="f32"/>
			<output>
				<port id="0" precision="FP32"/>
			</output>
		</layer>
		<layer id="217" name="7609761326218" type="Const" version="opset1">
			<data offset="614400" size="4" shape="" element_type="f32"/>
			<output>
				<port id="0" precision="FP32"/>
			</output>
		</layer>
		<layer id="218" name="7610761427328" type="Const" version="opset1">
			<data offset="912826" size="4" shape="" element_type="f32"/>
			<output>
				<port id="0" precision="FP32"/>
			</output>
		</layer>
		<layer id="219" name="6157616127058" type="Const" version="opset1">
			<data offset="614400" size="4" shape="" element_type="f32"/>
			<output>
				<port id="0" precision="FP32"/>
			</output>
		</layer>
		<layer id="220" name="6158616224730" type="Const" version="opset1">
			<data offset="912830" size="4" shape="" element_type="f32"/>
			<output>
				<port id="0" precision="FP32"/>
			</output>
		</layer>
		<layer id="221" name="6159616326968" type="Const" version="opset1">
			<data offset="614400" size="4" shape="" element_type="f32"/>
			<output>
				<port id="0" precision="FP32"/>
			</output>
		</layer>
		<layer id="222" name="6160616425492" type="Const" version="opset1">
			<data offset="912830" size="4" shape="" element_type="f32"/>
			<output>
				<port id="0" precision="FP32"/>
			</output>
		</layer>
		<layer id="223" name="6227623124865" type="Const" version="opset1">
			<data offset="614400" size="4" shape="" element_type="f32"/>
			<output>
				<port id="0" precision="FP32"/>
			</output>
		</layer>
		<layer id="224" name="6228623225810" type="Const" version="opset1">
			<data offset="912834" size="4" shape="" element_type="f32"/>
			<output>
				<port id="0" precision="FP32"/>
			</output>
		</layer>
		<layer id="225" name="6229623327625" type="Const" version="opset1">
			<data offset="614400" size="4" shape="" element_type="f32"/>
			<output>
				<port id="0" precision="FP32"/>
			</output>
		</layer>
		<layer id="226" name="6230623427064" type="Const" version="opset1">
			<data offset="912834" size="4" shape="" element_type="f32"/>
			<output>
				<port id="0" precision="FP32"/>
			</output>
		</layer>
		<layer id="227" name="7287729126665" type="Const" version="opset1">
			<data offset="912838" size="4" shape="" element_type="f32"/>
			<output>
				<port id="0" precision="FP32"/>
			</output>
		</layer>
		<layer id="228" name="7288729227586" type="Const" version="opset1">
			<data offset="912842" size="4" shape="" element_type="f32"/>
			<output>
				<port id="0" precision="FP32"/>
			</output>
		</layer>
		<layer id="229" name="7289729326803" type="Const" version="opset1">
			<data offset="912838" size="4" shape="" element_type="f32"/>
			<output>
				<port id="0" precision="FP32"/>
			</output>
		</layer>
		<layer id="230" name="7290729427556" type="Const" version="opset1">
			<data offset="912842" size="4" shape="" element_type="f32"/>
			<output>
				<port id="0" precision="FP32"/>
			</output>
		</layer>
		<layer id="231" name="6647665125966" type="Const" version="opset1">
			<data offset="614400" size="4" shape="" element_type="f32"/>
			<output>
				<port id="0" precision="FP32"/>
			</output>
		</layer>
		<layer id="232" name="6648665227628" type="Const" version="opset1">
			<data offset="912846" size="4" shape="" element_type="f32"/>
			<output>
				<port id="0" precision="FP32"/>
			</output>
		</layer>
		<layer id="233" name="6649665325240" type="Const" version="opset1">
			<data offset="614400" size="4" shape="" element_type="f32"/>
			<output>
				<port id="0" precision="FP32"/>
			</output>
		</layer>
		<layer id="234" name="6650665426245" type="Const" version="opset1">
			<data offset="912846" size="4" shape="" element_type="f32"/>
			<output>
				<port id="0" precision="FP32"/>
			</output>
		</layer>
		<layer id="235" name="8107811126056" type="Const" version="opset1">
			<data offset="614400" size="4" shape="" element_type="f32"/>
			<output>
				<port id="0" precision="FP32"/>
			</output>
		</layer>
		<layer id="236" name="8108811225873" type="Const" version="opset1">
			<data offset="912850" size="4" shape="" element_type="f32"/>
			<output>
				<port id="0" precision="FP32"/>
			</output>
		</layer>
		<layer id="237" name="8109811326392" type="Const" version="opset1">
			<data offset="614400" size="4" shape="" element_type="f32"/>
			<output>
				<port id="0" precision="FP32"/>
			</output>
		</layer>
		<layer id="238" name="8110811427175" type="Const" version="opset1">
			<data offset="912850" size="4" shape="" element_type="f32"/>
			<output>
				<port id="0" precision="FP32"/>
			</output>
		</layer>
		<layer id="239" name="7297730127217" type="Const" version="opset1">
			<data offset="614400" size="4" shape="" element_type="f32"/>
			<output>
				<port id="0" precision="FP32"/>
			</output>
		</layer>
		<layer id="240" name="7298730226743" type="Const" version="opset1">
			<data offset="912854" size="4" shape="" element_type="f32"/>
			<output>
				<port id="0" precision="FP32"/>
			</output>
		</layer>
		<layer id="241" name="7299730326356" type="Const" version="opset1">
			<data offset="614400" size="4" shape="" element_type="f32"/>
			<output>
				<port id="0" precision="FP32"/>
			</output>
		</layer>
		<layer id="242" name="7300730427019" type="Const" version="opset1">
			<data offset="912854" size="4" shape="" element_type="f32"/>
			<output>
				<port id="0" precision="FP32"/>
			</output>
		</layer>
		<layer id="243" name="8007801127190" type="Const" version="opset1">
			<data offset="912858" size="4" shape="" element_type="f32"/>
			<output>
				<port id="0" precision="FP32"/>
			</output>
		</layer>
		<layer id="244" name="8008801225039" type="Const" version="opset1">
			<data offset="912862" size="4" shape="" element_type="f32"/>
			<output>
				<port id="0" precision="FP32"/>
			</output>
		</layer>
		<layer id="245" name="8009801325549" type="Const" version="opset1">
			<data offset="912858" size="4" shape="" element_type="f32"/>
			<output>
				<port id="0" precision="FP32"/>
			</output>
		</layer>
		<layer id="246" name="8010801427445" type="Const" version="opset1">
			<data offset="912862" size="4" shape="" element_type="f32"/>
			<output>
				<port id="0" precision="FP32"/>
			</output>
		</layer>
		<layer id="247" name="6607661125042" type="Const" version="opset1">
			<data offset="614400" size="4" shape="" element_type="f32"/>
			<output>
				<port id="0" precision="FP32"/>
			</output>
		</layer>
		<layer id="248" name="6608661227517" type="Const" version="opset1">
			<data offset="912866" size="4" shape="" element_type="f32"/>
			<output>
				<port id="0" precision="FP32"/>
			</output>
		</layer>
		<layer id="249" name="6609661327130" type="Const" version="opset1">
			<data offset="614400" size="4" shape="" element_type="f32"/>
			<output>
				<port id="0" precision="FP32"/>
			</output>
		</layer>
		<layer id="250" name="6610661427100" type="Const" version="opset1">
			<data offset="912866" size="4" shape="" element_type="f32"/>
			<output>
				<port id="0" precision="FP32"/>
			</output>
		</layer>
		<layer id="251" name="6887689125573" type="Const" version="opset1">
			<data offset="614400" size="4" shape="" element_type="f32"/>
			<output>
				<port id="0" precision="FP32"/>
			</output>
		</layer>
		<layer id="252" name="6888689224937" type="Const" version="opset1">
			<data offset="912870" size="4" shape="" element_type="f32"/>
			<output>
				<port id="0" precision="FP32"/>
			</output>
		</layer>
		<layer id="253" name="6889689326416" type="Const" version="opset1">
			<data offset="614400" size="4" shape="" element_type="f32"/>
			<output>
				<port id="0" precision="FP32"/>
			</output>
		</layer>
		<layer id="254" name="6890689426038" type="Const" version="opset1">
			<data offset="912870" size="4" shape="" element_type="f32"/>
			<output>
				<port id="0" precision="FP32"/>
			</output>
		</layer>
		<layer id="255" name="/backbone/layer2/layer2.0/conv1/Conv/WithoutBiases/fq_weights_1/scale1840525180" type="Const" version="opset1">
			<data offset="912874" size="512" shape="128,1,1,1" element_type="f32"/>
			<output>
				<port id="0" precision="FP32">
					<dim>128</dim>
					<dim>1</dim>
					<dim>1</dim>
					<dim>1</dim>
				</port>
			</output>
		</layer>
		<layer id="256" name="onnx::Conv_1591178915225/restored_convert/quantized1839725252" type="Const" version="opset1">
			<data offset="913386" size="32768" shape="128,256,1,1" element_type="i8"/>
			<output>
				<port id="0" precision="I8">
					<dim>128</dim>
					<dim>256</dim>
					<dim>1</dim>
					<dim>1</dim>
				</port>
			</output>
		</layer>
		<layer id="257" name="onnx::Conv_1591178915225/restored_convert/quantized/to_f32" type="Convert" version="opset1">
			<data destination_type="f32"/>
			<input>
				<port id="0">
					<dim>128</dim>
					<dim>256</dim>
					<dim>1</dim>
					<dim>1</dim>
				</port>
			</input>
			<output>
				<port id="1" precision="FP32">
					<dim>128</dim>
					<dim>256</dim>
					<dim>1</dim>
					<dim>1</dim>
				</port>
			</output>
		</layer>
		<layer id="258" name="/backbone/layer2/layer2.0/conv1/Conv/WithoutBiases/fq_weights_1/mulpiply_by_scale" type="Multiply" version="opset1">
			<data auto_broadcast="numpy"/>
			<input>
				<port id="0">
					<dim>128</dim>
					<dim>256</dim>
					<dim>1</dim>
					<dim>1</dim>
				</port>
				<port id="1">
					<dim>128</dim>
					<dim>1</dim>
					<dim>1</dim>
					<dim>1</dim>
				</port>
			</input>
			<output>
				<port id="2" precision="FP32">
					<dim>128</dim>
					<dim>256</dim>
					<dim>1</dim>
					<dim>1</dim>
				</port>
			</output>
		</layer>
		<layer id="259" name="/backbone/layer2/layer2.0/conv1/Conv/WithoutBiases" type="Convolution" version="opset1">
			<data auto_pad="explicit" strides="1,1" dilations="1,1" pads_begin="0,0" pads_end="0,0"/>
			<input>
				<port id="0">
					<dim>1</dim>
					<dim>256</dim>
					<dim>160</dim>
					<dim>160</dim>
				</port>
				<port id="1">
					<dim>128</dim>
					<dim>256</dim>
					<dim>1</dim>
					<dim>1</dim>
				</port>
			</input>
			<output>
				<port id="2" precision="FP32">
					<dim>1</dim>
					<dim>128</dim>
					<dim>160</dim>
					<dim>160</dim>
				</port>
			</output>
		</layer>
		<layer id="260" name="Reshape_712179226917" type="Const" version="opset1">
			<data offset="946154" size="256" shape="1,128,1,1" element_type="f16"/>
			<output>
				<port id="0" precision="FP16">
					<dim>1</dim>
					<dim>128</dim>
					<dim>1</dim>
					<dim>1</dim>
				</port>
			</output>
		</layer>
		<layer id="261" name="Reshape_712179215226/restored_convert" type="Convert" version="opset1">
			<data destination_type="f32"/>
			<rt_info>
				<attribute name="decompression" version="0"/>
			</rt_info>
			<input>
				<port id="0">
					<dim>1</dim>
					<dim>128</dim>
					<dim>1</dim>
					<dim>1</dim>
				</port>
			</input>
			<output>
				<port id="1" precision="FP32">
					<dim>1</dim>
					<dim>128</dim>
					<dim>1</dim>
					<dim>1</dim>
				</port>
			</output>
		</layer>
		<layer id="262" name="/backbone/layer2/layer2.0/conv1/Conv" type="Add" version="opset1">
			<data auto_broadcast="numpy"/>
			<input>
				<port id="0">
					<dim>1</dim>
					<dim>128</dim>
					<dim>160</dim>
					<dim>160</dim>
				</port>
				<port id="1">
					<dim>1</dim>
					<dim>128</dim>
					<dim>1</dim>
					<dim>1</dim>
				</port>
			</input>
			<output>
				<port id="2" precision="FP32" names="/backbone/layer2/layer2.0/conv1/Conv_output_0">
					<dim>1</dim>
					<dim>128</dim>
					<dim>160</dim>
					<dim>160</dim>
				</port>
			</output>
		</layer>
		<layer id="263" name="/backbone/layer2/layer2.0/relu/Relu" type="ReLU" version="opset1">
			<input>
				<port id="0">
					<dim>1</dim>
					<dim>128</dim>
					<dim>160</dim>
					<dim>160</dim>
				</port>
			</input>
			<output>
				<port id="1" precision="FP32" names="/backbone/layer2/layer2.0/relu/Relu_output_0">
					<dim>1</dim>
					<dim>128</dim>
					<dim>160</dim>
					<dim>160</dim>
				</port>
			</output>
		</layer>
		<layer id="264" name="/backbone/layer2/layer2.0/conv2/Conv/WithoutBiases/fq_input_0" type="FakeQuantize" version="opset1">
			<data levels="256" auto_broadcast="numpy"/>
			<input>
				<port id="0">
					<dim>1</dim>
					<dim>128</dim>
					<dim>160</dim>
					<dim>160</dim>
				</port>
				<port id="1"/>
				<port id="2"/>
				<port id="3"/>
				<port id="4"/>
			</input>
			<output>
				<port id="5" precision="FP32">
					<dim>1</dim>
					<dim>128</dim>
					<dim>160</dim>
					<dim>160</dim>
				</port>
			</output>
		</layer>
		<layer id="265" name="/backbone/layer2/layer2.0/conv2/Conv/WithoutBiases/fq_weights_1/scale1789526095" type="Const" version="opset1">
			<data offset="946410" size="512" shape="128,1,1,1" element_type="f32"/>
			<output>
				<port id="0" precision="FP32">
					<dim>128</dim>
					<dim>1</dim>
					<dim>1</dim>
					<dim>1</dim>
				</port>
			</output>
		</layer>
		<layer id="266" name="onnx::Conv_1594179615227/restored_convert/quantized1788725159" type="Const" version="opset1">
			<data offset="946922" size="147456" shape="128,128,3,3" element_type="i8"/>
			<output>
				<port id="0" precision="I8">
					<dim>128</dim>
					<dim>128</dim>
					<dim>3</dim>
					<dim>3</dim>
				</port>
			</output>
		</layer>
		<layer id="267" name="onnx::Conv_1594179615227/restored_convert/quantized/to_f32" type="Convert" version="opset1">
			<data destination_type="f32"/>
			<input>
				<port id="0">
					<dim>128</dim>
					<dim>128</dim>
					<dim>3</dim>
					<dim>3</dim>
				</port>
			</input>
			<output>
				<port id="1" precision="FP32">
					<dim>128</dim>
					<dim>128</dim>
					<dim>3</dim>
					<dim>3</dim>
				</port>
			</output>
		</layer>
		<layer id="268" name="/backbone/layer2/layer2.0/conv2/Conv/WithoutBiases/fq_weights_1/mulpiply_by_scale" type="Multiply" version="opset1">
			<data auto_broadcast="numpy"/>
			<input>
				<port id="0">
					<dim>128</dim>
					<dim>128</dim>
					<dim>3</dim>
					<dim>3</dim>
				</port>
				<port id="1">
					<dim>128</dim>
					<dim>1</dim>
					<dim>1</dim>
					<dim>1</dim>
				</port>
			</input>
			<output>
				<port id="2" precision="FP32">
					<dim>128</dim>
					<dim>128</dim>
					<dim>3</dim>
					<dim>3</dim>
				</port>
			</output>
		</layer>
		<layer id="269" name="/backbone/layer2/layer2.0/conv2/Conv/WithoutBiases" type="Convolution" version="opset1">
			<data auto_pad="explicit" strides="2,2" dilations="1,1" pads_begin="1,1" pads_end="1,1"/>
			<input>
				<port id="0">
					<dim>1</dim>
					<dim>128</dim>
					<dim>160</dim>
					<dim>160</dim>
				</port>
				<port id="1">
					<dim>128</dim>
					<dim>128</dim>
					<dim>3</dim>
					<dim>3</dim>
				</port>
			</input>
			<output>
				<port id="2" precision="FP32">
					<dim>1</dim>
					<dim>128</dim>
					<dim>80</dim>
					<dim>80</dim>
				</port>
			</output>
		</layer>
		<layer id="270" name="Reshape_761179927028" type="Const" version="opset1">
			<data offset="1094378" size="256" shape="1,128,1,1" element_type="f16"/>
			<output>
				<port id="0" precision="FP16">
					<dim>1</dim>
					<dim>128</dim>
					<dim>1</dim>
					<dim>1</dim>
				</port>
			</output>
		</layer>
		<layer id="271" name="Reshape_761179915228/restored_convert" type="Convert" version="opset1">
			<data destination_type="f32"/>
			<rt_info>
				<attribute name="decompression" version="0"/>
			</rt_info>
			<input>
				<port id="0">
					<dim>1</dim>
					<dim>128</dim>
					<dim>1</dim>
					<dim>1</dim>
				</port>
			</input>
			<output>
				<port id="1" precision="FP32">
					<dim>1</dim>
					<dim>128</dim>
					<dim>1</dim>
					<dim>1</dim>
				</port>
			</output>
		</layer>
		<layer id="272" name="/backbone/layer2/layer2.0/conv2/Conv" type="Add" version="opset1">
			<data auto_broadcast="numpy"/>
			<input>
				<port id="0">
					<dim>1</dim>
					<dim>128</dim>
					<dim>80</dim>
					<dim>80</dim>
				</port>
				<port id="1">
					<dim>1</dim>
					<dim>128</dim>
					<dim>1</dim>
					<dim>1</dim>
				</port>
			</input>
			<output>
				<port id="2" precision="FP32" names="/backbone/layer2/layer2.0/conv2/Conv_output_0">
					<dim>1</dim>
					<dim>128</dim>
					<dim>80</dim>
					<dim>80</dim>
				</port>
			</output>
		</layer>
		<layer id="273" name="/backbone/layer2/layer2.0/relu_1/Relu" type="ReLU" version="opset1">
			<input>
				<port id="0">
					<dim>1</dim>
					<dim>128</dim>
					<dim>80</dim>
					<dim>80</dim>
				</port>
			</input>
			<output>
				<port id="1" precision="FP32" names="/backbone/layer2/layer2.0/relu_1/Relu_output_0">
					<dim>1</dim>
					<dim>128</dim>
					<dim>80</dim>
					<dim>80</dim>
				</port>
			</output>
		</layer>
		<layer id="274" name="/backbone/layer2/layer2.0/conv3/Conv/WithoutBiases/fq_input_0" type="FakeQuantize" version="opset1">
			<data levels="256" auto_broadcast="numpy"/>
			<input>
				<port id="0">
					<dim>1</dim>
					<dim>128</dim>
					<dim>80</dim>
					<dim>80</dim>
				</port>
				<port id="1"/>
				<port id="2"/>
				<port id="3"/>
				<port id="4"/>
			</input>
			<output>
				<port id="5" precision="FP32">
					<dim>1</dim>
					<dim>128</dim>
					<dim>80</dim>
					<dim>80</dim>
				</port>
			</output>
		</layer>
		<layer id="275" name="/backbone/layer2/layer2.0/conv3/Conv/WithoutBiases/fq_weights_1/scale1753525747" type="Const" version="opset1">
			<data offset="1094634" size="2048" shape="512,1,1,1" element_type="f32"/>
			<output>
				<port id="0" precision="FP32">
					<dim>512</dim>
					<dim>1</dim>
					<dim>1</dim>
					<dim>1</dim>
				</port>
			</output>
		</layer>
		<layer id="276" name="onnx::Conv_1597180315229/restored_convert/quantized1752725177" type="Const" version="opset1">
			<data offset="1096682" size="65536" shape="512,128,1,1" element_type="i8"/>
			<output>
				<port id="0" precision="I8">
					<dim>512</dim>
					<dim>128</dim>
					<dim>1</dim>
					<dim>1</dim>
				</port>
			</output>
		</layer>
		<layer id="277" name="onnx::Conv_1597180315229/restored_convert/quantized/to_f32" type="Convert" version="opset1">
			<data destination_type="f32"/>
			<input>
				<port id="0">
					<dim>512</dim>
					<dim>128</dim>
					<dim>1</dim>
					<dim>1</dim>
				</port>
			</input>
			<output>
				<port id="1" precision="FP32">
					<dim>512</dim>
					<dim>128</dim>
					<dim>1</dim>
					<dim>1</dim>
				</port>
			</output>
		</layer>
		<layer id="278" name="/backbone/layer2/layer2.0/conv3/Conv/WithoutBiases/fq_weights_1/mulpiply_by_scale" type="Multiply" version="opset1">
			<data auto_broadcast="numpy"/>
			<input>
				<port id="0">
					<dim>512</dim>
					<dim>128</dim>
					<dim>1</dim>
					<dim>1</dim>
				</port>
				<port id="1">
					<dim>512</dim>
					<dim>1</dim>
					<dim>1</dim>
					<dim>1</dim>
				</port>
			</input>
			<output>
				<port id="2" precision="FP32">
					<dim>512</dim>
					<dim>128</dim>
					<dim>1</dim>
					<dim>1</dim>
				</port>
			</output>
		</layer>
		<layer id="279" name="/backbone/layer2/layer2.0/conv3/Conv/WithoutBiases" type="Convolution" version="opset1">
			<data auto_pad="explicit" strides="1,1" dilations="1,1" pads_begin="0,0" pads_end="0,0"/>
			<input>
				<port id="0">
					<dim>1</dim>
					<dim>128</dim>
					<dim>80</dim>
					<dim>80</dim>
				</port>
				<port id="1">
					<dim>512</dim>
					<dim>128</dim>
					<dim>1</dim>
					<dim>1</dim>
				</port>
			</input>
			<output>
				<port id="2" precision="FP32">
					<dim>1</dim>
					<dim>512</dim>
					<dim>80</dim>
					<dim>80</dim>
				</port>
			</output>
		</layer>
		<layer id="280" name="Reshape_810180626383" type="Const" version="opset1">
			<data offset="1162218" size="1024" shape="1,512,1,1" element_type="f16"/>
			<output>
				<port id="0" precision="FP16">
					<dim>1</dim>
					<dim>512</dim>
					<dim>1</dim>
					<dim>1</dim>
				</port>
			</output>
		</layer>
		<layer id="281" name="Reshape_810180615230/restored_convert" type="Convert" version="opset1">
			<data destination_type="f32"/>
			<rt_info>
				<attribute name="decompression" version="0"/>
			</rt_info>
			<input>
				<port id="0">
					<dim>1</dim>
					<dim>512</dim>
					<dim>1</dim>
					<dim>1</dim>
				</port>
			</input>
			<output>
				<port id="1" precision="FP32">
					<dim>1</dim>
					<dim>512</dim>
					<dim>1</dim>
					<dim>1</dim>
				</port>
			</output>
		</layer>
		<layer id="282" name="/backbone/layer2/layer2.0/conv3/Conv" type="Add" version="opset1">
			<data auto_broadcast="numpy"/>
			<input>
				<port id="0">
					<dim>1</dim>
					<dim>512</dim>
					<dim>80</dim>
					<dim>80</dim>
				</port>
				<port id="1">
					<dim>1</dim>
					<dim>512</dim>
					<dim>1</dim>
					<dim>1</dim>
				</port>
			</input>
			<output>
				<port id="2" precision="FP32" names="/backbone/layer2/layer2.0/conv3/Conv_output_0">
					<dim>1</dim>
					<dim>512</dim>
					<dim>80</dim>
					<dim>80</dim>
				</port>
			</output>
		</layer>
		<layer id="283" name="/backbone/layer2/layer2.0/Add/fq_input_0" type="FakeQuantize" version="opset1">
			<data levels="256" auto_broadcast="numpy"/>
			<input>
				<port id="0">
					<dim>1</dim>
					<dim>512</dim>
					<dim>80</dim>
					<dim>80</dim>
				</port>
				<port id="1"/>
				<port id="2"/>
				<port id="3"/>
				<port id="4"/>
			</input>
			<output>
				<port id="5" precision="FP32">
					<dim>1</dim>
					<dim>512</dim>
					<dim>80</dim>
					<dim>80</dim>
				</port>
			</output>
		</layer>
		<layer id="284" name="8017802127457" type="Const" version="opset1">
			<data offset="1163242" size="4" shape="" element_type="f32"/>
			<output>
				<port id="0" precision="FP32"/>
			</output>
		</layer>
		<layer id="285" name="8018802226914" type="Const" version="opset1">
			<data offset="1163246" size="4" shape="" element_type="f32"/>
			<output>
				<port id="0" precision="FP32"/>
			</output>
		</layer>
		<layer id="286" name="8019802326650" type="Const" version="opset1">
			<data offset="1163242" size="4" shape="" element_type="f32"/>
			<output>
				<port id="0" precision="FP32"/>
			</output>
		</layer>
		<layer id="287" name="8020802425897" type="Const" version="opset1">
			<data offset="1163246" size="4" shape="" element_type="f32"/>
			<output>
				<port id="0" precision="FP32"/>
			</output>
		</layer>
		<layer id="288" name="/backbone/layer2/layer2.0/downsample/downsample.0/Conv/WithoutBiases/fq_weights_1/scale1813526380" type="Const" version="opset1">
			<data offset="1163250" size="2048" shape="512,1,1,1" element_type="f32"/>
			<output>
				<port id="0" precision="FP32">
					<dim>512</dim>
					<dim>1</dim>
					<dim>1</dim>
					<dim>1</dim>
				</port>
			</output>
		</layer>
		<layer id="289" name="onnx::Conv_1600180915231/restored_convert/quantized1812725678" type="Const" version="opset1">
			<data offset="1165298" size="131072" shape="512,256,1,1" element_type="i8"/>
			<output>
				<port id="0" precision="I8">
					<dim>512</dim>
					<dim>256</dim>
					<dim>1</dim>
					<dim>1</dim>
				</port>
			</output>
		</layer>
		<layer id="290" name="onnx::Conv_1600180915231/restored_convert/quantized/to_f32" type="Convert" version="opset1">
			<data destination_type="f32"/>
			<input>
				<port id="0">
					<dim>512</dim>
					<dim>256</dim>
					<dim>1</dim>
					<dim>1</dim>
				</port>
			</input>
			<output>
				<port id="1" precision="FP32">
					<dim>512</dim>
					<dim>256</dim>
					<dim>1</dim>
					<dim>1</dim>
				</port>
			</output>
		</layer>
		<layer id="291" name="/backbone/layer2/layer2.0/downsample/downsample.0/Conv/WithoutBiases/fq_weights_1/mulpiply_by_scale" type="Multiply" version="opset1">
			<data auto_broadcast="numpy"/>
			<input>
				<port id="0">
					<dim>512</dim>
					<dim>256</dim>
					<dim>1</dim>
					<dim>1</dim>
				</port>
				<port id="1">
					<dim>512</dim>
					<dim>1</dim>
					<dim>1</dim>
					<dim>1</dim>
				</port>
			</input>
			<output>
				<port id="2" precision="FP32">
					<dim>512</dim>
					<dim>256</dim>
					<dim>1</dim>
					<dim>1</dim>
				</port>
			</output>
		</layer>
		<layer id="292" name="/backbone/layer2/layer2.0/downsample/downsample.0/Conv/WithoutBiases" type="Convolution" version="opset1">
			<data auto_pad="explicit" strides="2,2" dilations="1,1" pads_begin="0,0" pads_end="0,0"/>
			<input>
				<port id="0">
					<dim>1</dim>
					<dim>256</dim>
					<dim>160</dim>
					<dim>160</dim>
				</port>
				<port id="1">
					<dim>512</dim>
					<dim>256</dim>
					<dim>1</dim>
					<dim>1</dim>
				</port>
			</input>
			<output>
				<port id="2" precision="FP32">
					<dim>1</dim>
					<dim>512</dim>
					<dim>80</dim>
					<dim>80</dim>
				</port>
			</output>
		</layer>
		<layer id="293" name="Reshape_858181227790" type="Const" version="opset1">
			<data offset="1296370" size="1024" shape="1,512,1,1" element_type="f16"/>
			<output>
				<port id="0" precision="FP16">
					<dim>1</dim>
					<dim>512</dim>
					<dim>1</dim>
					<dim>1</dim>
				</port>
			</output>
		</layer>
		<layer id="294" name="Reshape_858181215232/restored_convert" type="Convert" version="opset1">
			<data destination_type="f32"/>
			<rt_info>
				<attribute name="decompression" version="0"/>
			</rt_info>
			<input>
				<port id="0">
					<dim>1</dim>
					<dim>512</dim>
					<dim>1</dim>
					<dim>1</dim>
				</port>
			</input>
			<output>
				<port id="1" precision="FP32">
					<dim>1</dim>
					<dim>512</dim>
					<dim>1</dim>
					<dim>1</dim>
				</port>
			</output>
		</layer>
		<layer id="295" name="/backbone/layer2/layer2.0/downsample/downsample.0/Conv" type="Add" version="opset1">
			<data auto_broadcast="numpy"/>
			<input>
				<port id="0">
					<dim>1</dim>
					<dim>512</dim>
					<dim>80</dim>
					<dim>80</dim>
				</port>
				<port id="1">
					<dim>1</dim>
					<dim>512</dim>
					<dim>1</dim>
					<dim>1</dim>
				</port>
			</input>
			<output>
				<port id="2" precision="FP32" names="/backbone/layer2/layer2.0/downsample/downsample.0/Conv_output_0">
					<dim>1</dim>
					<dim>512</dim>
					<dim>80</dim>
					<dim>80</dim>
				</port>
			</output>
		</layer>
		<layer id="296" name="/backbone/layer2/layer2.0/Add/fq_input_1" type="FakeQuantize" version="opset1">
			<data levels="256" auto_broadcast="numpy"/>
			<input>
				<port id="0">
					<dim>1</dim>
					<dim>512</dim>
					<dim>80</dim>
					<dim>80</dim>
				</port>
				<port id="1"/>
				<port id="2"/>
				<port id="3"/>
				<port id="4"/>
			</input>
			<output>
				<port id="5" precision="FP32">
					<dim>1</dim>
					<dim>512</dim>
					<dim>80</dim>
					<dim>80</dim>
				</port>
			</output>
		</layer>
		<layer id="297" name="/backbone/layer2/layer2.0/Add" type="Add" version="opset1">
			<data auto_broadcast="numpy"/>
			<input>
				<port id="0">
					<dim>1</dim>
					<dim>512</dim>
					<dim>80</dim>
					<dim>80</dim>
				</port>
				<port id="1">
					<dim>1</dim>
					<dim>512</dim>
					<dim>80</dim>
					<dim>80</dim>
				</port>
			</input>
			<output>
				<port id="2" precision="FP32" names="/backbone/layer2/layer2.0/Add_output_0">
					<dim>1</dim>
					<dim>512</dim>
					<dim>80</dim>
					<dim>80</dim>
				</port>
			</output>
		</layer>
		<layer id="298" name="/backbone/layer2/layer2.0/relu_2/Relu" type="ReLU" version="opset1">
			<input>
				<port id="0">
					<dim>1</dim>
					<dim>512</dim>
					<dim>80</dim>
					<dim>80</dim>
				</port>
			</input>
			<output>
				<port id="1" precision="FP32" names="/backbone/layer2/layer2.0/relu_2/Relu_output_0">
					<dim>1</dim>
					<dim>512</dim>
					<dim>80</dim>
					<dim>80</dim>
				</port>
			</output>
		</layer>
		<layer id="299" name="/backbone/layer2/layer2.1/Add/fq_input_1" type="FakeQuantize" version="opset1">
			<data levels="256" auto_broadcast="numpy"/>
			<input>
				<port id="0">
					<dim>1</dim>
					<dim>512</dim>
					<dim>80</dim>
					<dim>80</dim>
				</port>
				<port id="1"/>
				<port id="2"/>
				<port id="3"/>
				<port id="4"/>
			</input>
			<output>
				<port id="5" precision="FP32">
					<dim>1</dim>
					<dim>512</dim>
					<dim>80</dim>
					<dim>80</dim>
				</port>
			</output>
		</layer>
		<layer id="300" name="/backbone/layer2/layer2.1/conv1/Conv/WithoutBiases/fq_weights_1/scale1864524694" type="Const" version="opset1">
			<data offset="1297394" size="512" shape="128,1,1,1" element_type="f32"/>
			<output>
				<port id="0" precision="FP32">
					<dim>128</dim>
					<dim>1</dim>
					<dim>1</dim>
					<dim>1</dim>
				</port>
			</output>
		</layer>
		<layer id="301" name="onnx::Conv_1603181715233/restored_convert/quantized1863726053" type="Const" version="opset1">
			<data offset="1297906" size="65536" shape="128,512,1,1" element_type="i8"/>
			<output>
				<port id="0" precision="I8">
					<dim>128</dim>
					<dim>512</dim>
					<dim>1</dim>
					<dim>1</dim>
				</port>
			</output>
		</layer>
		<layer id="302" name="onnx::Conv_1603181715233/restored_convert/quantized/to_f32" type="Convert" version="opset1">
			<data destination_type="f32"/>
			<input>
				<port id="0">
					<dim>128</dim>
					<dim>512</dim>
					<dim>1</dim>
					<dim>1</dim>
				</port>
			</input>
			<output>
				<port id="1" precision="FP32">
					<dim>128</dim>
					<dim>512</dim>
					<dim>1</dim>
					<dim>1</dim>
				</port>
			</output>
		</layer>
		<layer id="303" name="/backbone/layer2/layer2.1/conv1/Conv/WithoutBiases/fq_weights_1/mulpiply_by_scale" type="Multiply" version="opset1">
			<data auto_broadcast="numpy"/>
			<input>
				<port id="0">
					<dim>128</dim>
					<dim>512</dim>
					<dim>1</dim>
					<dim>1</dim>
				</port>
				<port id="1">
					<dim>128</dim>
					<dim>1</dim>
					<dim>1</dim>
					<dim>1</dim>
				</port>
			</input>
			<output>
				<port id="2" precision="FP32">
					<dim>128</dim>
					<dim>512</dim>
					<dim>1</dim>
					<dim>1</dim>
				</port>
			</output>
		</layer>
		<layer id="304" name="/backbone/layer2/layer2.1/conv1/Conv/WithoutBiases" type="Convolution" version="opset1">
			<data auto_pad="explicit" strides="1,1" dilations="1,1" pads_begin="0,0" pads_end="0,0"/>
			<input>
				<port id="0">
					<dim>1</dim>
					<dim>512</dim>
					<dim>80</dim>
					<dim>80</dim>
				</port>
				<port id="1">
					<dim>128</dim>
					<dim>512</dim>
					<dim>1</dim>
					<dim>1</dim>
				</port>
			</input>
			<output>
				<port id="2" precision="FP32">
					<dim>1</dim>
					<dim>128</dim>
					<dim>80</dim>
					<dim>80</dim>
				</port>
			</output>
		</layer>
		<layer id="305" name="Reshape_908182025369" type="Const" version="opset1">
			<data offset="1363442" size="256" shape="1,128,1,1" element_type="f16"/>
			<output>
				<port id="0" precision="FP16">
					<dim>1</dim>
					<dim>128</dim>
					<dim>1</dim>
					<dim>1</dim>
				</port>
			</output>
		</layer>
		<layer id="306" name="Reshape_908182015234/restored_convert" type="Convert" version="opset1">
			<data destination_type="f32"/>
			<rt_info>
				<attribute name="decompression" version="0"/>
			</rt_info>
			<input>
				<port id="0">
					<dim>1</dim>
					<dim>128</dim>
					<dim>1</dim>
					<dim>1</dim>
				</port>
			</input>
			<output>
				<port id="1" precision="FP32">
					<dim>1</dim>
					<dim>128</dim>
					<dim>1</dim>
					<dim>1</dim>
				</port>
			</output>
		</layer>
		<layer id="307" name="/backbone/layer2/layer2.1/conv1/Conv" type="Add" version="opset1">
			<data auto_broadcast="numpy"/>
			<input>
				<port id="0">
					<dim>1</dim>
					<dim>128</dim>
					<dim>80</dim>
					<dim>80</dim>
				</port>
				<port id="1">
					<dim>1</dim>
					<dim>128</dim>
					<dim>1</dim>
					<dim>1</dim>
				</port>
			</input>
			<output>
				<port id="2" precision="FP32" names="/backbone/layer2/layer2.1/conv1/Conv_output_0">
					<dim>1</dim>
					<dim>128</dim>
					<dim>80</dim>
					<dim>80</dim>
				</port>
			</output>
		</layer>
		<layer id="308" name="/backbone/layer2/layer2.1/relu/Relu" type="ReLU" version="opset1">
			<input>
				<port id="0">
					<dim>1</dim>
					<dim>128</dim>
					<dim>80</dim>
					<dim>80</dim>
				</port>
			</input>
			<output>
				<port id="1" precision="FP32" names="/backbone/layer2/layer2.1/relu/Relu_output_0">
					<dim>1</dim>
					<dim>128</dim>
					<dim>80</dim>
					<dim>80</dim>
				</port>
			</output>
		</layer>
		<layer id="309" name="/backbone/layer2/layer2.1/conv2/Conv/WithoutBiases/fq_input_0" type="FakeQuantize" version="opset1">
			<data levels="256" auto_broadcast="numpy"/>
			<input>
				<port id="0">
					<dim>1</dim>
					<dim>128</dim>
					<dim>80</dim>
					<dim>80</dim>
				</port>
				<port id="1"/>
				<port id="2"/>
				<port id="3"/>
				<port id="4"/>
			</input>
			<output>
				<port id="5" precision="FP32">
					<dim>1</dim>
					<dim>128</dim>
					<dim>80</dim>
					<dim>80</dim>
				</port>
			</output>
		</layer>
		<layer id="310" name="/backbone/layer2/layer2.1/conv2/Conv/WithoutBiases/fq_weights_1/scale1837525627" type="Const" version="opset1">
			<data offset="1363698" size="512" shape="128,1,1,1" element_type="f32"/>
			<output>
				<port id="0" precision="FP32">
					<dim>128</dim>
					<dim>1</dim>
					<dim>1</dim>
					<dim>1</dim>
				</port>
			</output>
		</layer>
		<layer id="311" name="onnx::Conv_1606182415235/restored_convert/quantized1836727583" type="Const" version="opset1">
			<data offset="1364210" size="147456" shape="128,128,3,3" element_type="i8"/>
			<output>
				<port id="0" precision="I8">
					<dim>128</dim>
					<dim>128</dim>
					<dim>3</dim>
					<dim>3</dim>
				</port>
			</output>
		</layer>
		<layer id="312" name="onnx::Conv_1606182415235/restored_convert/quantized/to_f32" type="Convert" version="opset1">
			<data destination_type="f32"/>
			<input>
				<port id="0">
					<dim>128</dim>
					<dim>128</dim>
					<dim>3</dim>
					<dim>3</dim>
				</port>
			</input>
			<output>
				<port id="1" precision="FP32">
					<dim>128</dim>
					<dim>128</dim>
					<dim>3</dim>
					<dim>3</dim>
				</port>
			</output>
		</layer>
		<layer id="313" name="/backbone/layer2/layer2.1/conv2/Conv/WithoutBiases/fq_weights_1/mulpiply_by_scale" type="Multiply" version="opset1">
			<data auto_broadcast="numpy"/>
			<input>
				<port id="0">
					<dim>128</dim>
					<dim>128</dim>
					<dim>3</dim>
					<dim>3</dim>
				</port>
				<port id="1">
					<dim>128</dim>
					<dim>1</dim>
					<dim>1</dim>
					<dim>1</dim>
				</port>
			</input>
			<output>
				<port id="2" precision="FP32">
					<dim>128</dim>
					<dim>128</dim>
					<dim>3</dim>
					<dim>3</dim>
				</port>
			</output>
		</layer>
		<layer id="314" name="/backbone/layer2/layer2.1/conv2/Conv/WithoutBiases" type="Convolution" version="opset1">
			<data auto_pad="explicit" strides="1,1" dilations="1,1" pads_begin="1,1" pads_end="1,1"/>
			<input>
				<port id="0">
					<dim>1</dim>
					<dim>128</dim>
					<dim>80</dim>
					<dim>80</dim>
				</port>
				<port id="1">
					<dim>128</dim>
					<dim>128</dim>
					<dim>3</dim>
					<dim>3</dim>
				</port>
			</input>
			<output>
				<port id="2" precision="FP32">
					<dim>1</dim>
					<dim>128</dim>
					<dim>80</dim>
					<dim>80</dim>
				</port>
			</output>
		</layer>
		<layer id="315" name="Reshape_957182727403" type="Const" version="opset1">
			<data offset="1511666" size="256" shape="1,128,1,1" element_type="f16"/>
			<output>
				<port id="0" precision="FP16">
					<dim>1</dim>
					<dim>128</dim>
					<dim>1</dim>
					<dim>1</dim>
				</port>
			</output>
		</layer>
		<layer id="316" name="Reshape_957182715236/restored_convert" type="Convert" version="opset1">
			<data destination_type="f32"/>
			<rt_info>
				<attribute name="decompression" version="0"/>
			</rt_info>
			<input>
				<port id="0">
					<dim>1</dim>
					<dim>128</dim>
					<dim>1</dim>
					<dim>1</dim>
				</port>
			</input>
			<output>
				<port id="1" precision="FP32">
					<dim>1</dim>
					<dim>128</dim>
					<dim>1</dim>
					<dim>1</dim>
				</port>
			</output>
		</layer>
		<layer id="317" name="/backbone/layer2/layer2.1/conv2/Conv" type="Add" version="opset1">
			<data auto_broadcast="numpy"/>
			<input>
				<port id="0">
					<dim>1</dim>
					<dim>128</dim>
					<dim>80</dim>
					<dim>80</dim>
				</port>
				<port id="1">
					<dim>1</dim>
					<dim>128</dim>
					<dim>1</dim>
					<dim>1</dim>
				</port>
			</input>
			<output>
				<port id="2" precision="FP32" names="/backbone/layer2/layer2.1/conv2/Conv_output_0">
					<dim>1</dim>
					<dim>128</dim>
					<dim>80</dim>
					<dim>80</dim>
				</port>
			</output>
		</layer>
		<layer id="318" name="/backbone/layer2/layer2.1/relu_1/Relu" type="ReLU" version="opset1">
			<input>
				<port id="0">
					<dim>1</dim>
					<dim>128</dim>
					<dim>80</dim>
					<dim>80</dim>
				</port>
			</input>
			<output>
				<port id="1" precision="FP32" names="/backbone/layer2/layer2.1/relu_1/Relu_output_0">
					<dim>1</dim>
					<dim>128</dim>
					<dim>80</dim>
					<dim>80</dim>
				</port>
			</output>
		</layer>
		<layer id="319" name="/backbone/layer2/layer2.1/conv3/Conv/WithoutBiases/fq_input_0" type="FakeQuantize" version="opset1">
			<data levels="256" auto_broadcast="numpy"/>
			<input>
				<port id="0">
					<dim>1</dim>
					<dim>128</dim>
					<dim>80</dim>
					<dim>80</dim>
				</port>
				<port id="1"/>
				<port id="2"/>
				<port id="3"/>
				<port id="4"/>
			</input>
			<output>
				<port id="5" precision="FP32">
					<dim>1</dim>
					<dim>128</dim>
					<dim>80</dim>
					<dim>80</dim>
				</port>
			</output>
		</layer>
		<layer id="320" name="/backbone/layer2/layer2.1/conv3/Conv/WithoutBiases/fq_weights_1/scale1759525981" type="Const" version="opset1">
			<data offset="1511922" size="2048" shape="512,1,1,1" element_type="f32"/>
			<output>
				<port id="0" precision="FP32">
					<dim>512</dim>
					<dim>1</dim>
					<dim>1</dim>
					<dim>1</dim>
				</port>
			</output>
		</layer>
		<layer id="321" name="onnx::Conv_1609183115237/restored_convert/quantized1758726821" type="Const" version="opset1">
			<data offset="1513970" size="65536" shape="512,128,1,1" element_type="i8"/>
			<output>
				<port id="0" precision="I8">
					<dim>512</dim>
					<dim>128</dim>
					<dim>1</dim>
					<dim>1</dim>
				</port>
			</output>
		</layer>
		<layer id="322" name="onnx::Conv_1609183115237/restored_convert/quantized/to_f32" type="Convert" version="opset1">
			<data destination_type="f32"/>
			<input>
				<port id="0">
					<dim>512</dim>
					<dim>128</dim>
					<dim>1</dim>
					<dim>1</dim>
				</port>
			</input>
			<output>
				<port id="1" precision="FP32">
					<dim>512</dim>
					<dim>128</dim>
					<dim>1</dim>
					<dim>1</dim>
				</port>
			</output>
		</layer>
		<layer id="323" name="/backbone/layer2/layer2.1/conv3/Conv/WithoutBiases/fq_weights_1/mulpiply_by_scale" type="Multiply" version="opset1">
			<data auto_broadcast="numpy"/>
			<input>
				<port id="0">
					<dim>512</dim>
					<dim>128</dim>
					<dim>1</dim>
					<dim>1</dim>
				</port>
				<port id="1">
					<dim>512</dim>
					<dim>1</dim>
					<dim>1</dim>
					<dim>1</dim>
				</port>
			</input>
			<output>
				<port id="2" precision="FP32">
					<dim>512</dim>
					<dim>128</dim>
					<dim>1</dim>
					<dim>1</dim>
				</port>
			</output>
		</layer>
		<layer id="324" name="/backbone/layer2/layer2.1/conv3/Conv/WithoutBiases" type="Convolution" version="opset1">
			<data auto_pad="explicit" strides="1,1" dilations="1,1" pads_begin="0,0" pads_end="0,0"/>
			<input>
				<port id="0">
					<dim>1</dim>
					<dim>128</dim>
					<dim>80</dim>
					<dim>80</dim>
				</port>
				<port id="1">
					<dim>512</dim>
					<dim>128</dim>
					<dim>1</dim>
					<dim>1</dim>
				</port>
			</input>
			<output>
				<port id="2" precision="FP32">
					<dim>1</dim>
					<dim>512</dim>
					<dim>80</dim>
					<dim>80</dim>
				</port>
			</output>
		</layer>
		<layer id="325" name="Reshape_1006183427655" type="Const" version="opset1">
			<data offset="1579506" size="1024" shape="1,512,1,1" element_type="f16"/>
			<output>
				<port id="0" precision="FP16">
					<dim>1</dim>
					<dim>512</dim>
					<dim>1</dim>
					<dim>1</dim>
				</port>
			</output>
		</layer>
		<layer id="326" name="Reshape_1006183415238/restored_convert" type="Convert" version="opset1">
			<data destination_type="f32"/>
			<rt_info>
				<attribute name="decompression" version="0"/>
			</rt_info>
			<input>
				<port id="0">
					<dim>1</dim>
					<dim>512</dim>
					<dim>1</dim>
					<dim>1</dim>
				</port>
			</input>
			<output>
				<port id="1" precision="FP32">
					<dim>1</dim>
					<dim>512</dim>
					<dim>1</dim>
					<dim>1</dim>
				</port>
			</output>
		</layer>
		<layer id="327" name="/backbone/layer2/layer2.1/conv3/Conv" type="Add" version="opset1">
			<data auto_broadcast="numpy"/>
			<input>
				<port id="0">
					<dim>1</dim>
					<dim>512</dim>
					<dim>80</dim>
					<dim>80</dim>
				</port>
				<port id="1">
					<dim>1</dim>
					<dim>512</dim>
					<dim>1</dim>
					<dim>1</dim>
				</port>
			</input>
			<output>
				<port id="2" precision="FP32" names="/backbone/layer2/layer2.1/conv3/Conv_output_0">
					<dim>1</dim>
					<dim>512</dim>
					<dim>80</dim>
					<dim>80</dim>
				</port>
			</output>
		</layer>
		<layer id="328" name="/backbone/layer2/layer2.1/Add/fq_input_0" type="FakeQuantize" version="opset1">
			<data levels="256" auto_broadcast="numpy"/>
			<input>
				<port id="0">
					<dim>1</dim>
					<dim>512</dim>
					<dim>80</dim>
					<dim>80</dim>
				</port>
				<port id="1"/>
				<port id="2"/>
				<port id="3"/>
				<port id="4"/>
			</input>
			<output>
				<port id="5" precision="FP32">
					<dim>1</dim>
					<dim>512</dim>
					<dim>80</dim>
					<dim>80</dim>
				</port>
			</output>
		</layer>
		<layer id="329" name="/backbone/layer2/layer2.1/Add" type="Add" version="opset1">
			<data auto_broadcast="numpy"/>
			<input>
				<port id="0">
					<dim>1</dim>
					<dim>512</dim>
					<dim>80</dim>
					<dim>80</dim>
				</port>
				<port id="1">
					<dim>1</dim>
					<dim>512</dim>
					<dim>80</dim>
					<dim>80</dim>
				</port>
			</input>
			<output>
				<port id="2" precision="FP32" names="/backbone/layer2/layer2.1/Add_output_0">
					<dim>1</dim>
					<dim>512</dim>
					<dim>80</dim>
					<dim>80</dim>
				</port>
			</output>
		</layer>
		<layer id="330" name="/backbone/layer2/layer2.1/relu_2/Relu" type="ReLU" version="opset1">
			<input>
				<port id="0">
					<dim>1</dim>
					<dim>512</dim>
					<dim>80</dim>
					<dim>80</dim>
				</port>
			</input>
			<output>
				<port id="1" precision="FP32" names="/backbone/layer2/layer2.1/relu_2/Relu_output_0">
					<dim>1</dim>
					<dim>512</dim>
					<dim>80</dim>
					<dim>80</dim>
				</port>
			</output>
		</layer>
		<layer id="331" name="/backbone/layer2/layer2.2/Add/fq_input_1" type="FakeQuantize" version="opset1">
			<data levels="256" auto_broadcast="numpy"/>
			<input>
				<port id="0">
					<dim>1</dim>
					<dim>512</dim>
					<dim>80</dim>
					<dim>80</dim>
				</port>
				<port id="1"/>
				<port id="2"/>
				<port id="3"/>
				<port id="4"/>
			</input>
			<output>
				<port id="5" precision="FP32">
					<dim>1</dim>
					<dim>512</dim>
					<dim>80</dim>
					<dim>80</dim>
				</port>
			</output>
		</layer>
		<layer id="332" name="/backbone/layer2/layer2.2/conv1/Conv/WithoutBiases/fq_weights_1/scale1825524799" type="Const" version="opset1">
			<data offset="1580530" size="512" shape="128,1,1,1" element_type="f32"/>
			<output>
				<port id="0" precision="FP32">
					<dim>128</dim>
					<dim>1</dim>
					<dim>1</dim>
					<dim>1</dim>
				</port>
			</output>
		</layer>
		<layer id="333" name="onnx::Conv_1612183915239/restored_convert/quantized1824725843" type="Const" version="opset1">
			<data offset="1581042" size="65536" shape="128,512,1,1" element_type="i8"/>
			<output>
				<port id="0" precision="I8">
					<dim>128</dim>
					<dim>512</dim>
					<dim>1</dim>
					<dim>1</dim>
				</port>
			</output>
		</layer>
		<layer id="334" name="onnx::Conv_1612183915239/restored_convert/quantized/to_f32" type="Convert" version="opset1">
			<data destination_type="f32"/>
			<input>
				<port id="0">
					<dim>128</dim>
					<dim>512</dim>
					<dim>1</dim>
					<dim>1</dim>
				</port>
			</input>
			<output>
				<port id="1" precision="FP32">
					<dim>128</dim>
					<dim>512</dim>
					<dim>1</dim>
					<dim>1</dim>
				</port>
			</output>
		</layer>
		<layer id="335" name="/backbone/layer2/layer2.2/conv1/Conv/WithoutBiases/fq_weights_1/mulpiply_by_scale" type="Multiply" version="opset1">
			<data auto_broadcast="numpy"/>
			<input>
				<port id="0">
					<dim>128</dim>
					<dim>512</dim>
					<dim>1</dim>
					<dim>1</dim>
				</port>
				<port id="1">
					<dim>128</dim>
					<dim>1</dim>
					<dim>1</dim>
					<dim>1</dim>
				</port>
			</input>
			<output>
				<port id="2" precision="FP32">
					<dim>128</dim>
					<dim>512</dim>
					<dim>1</dim>
					<dim>1</dim>
				</port>
			</output>
		</layer>
		<layer id="336" name="/backbone/layer2/layer2.2/conv1/Conv/WithoutBiases" type="Convolution" version="opset1">
			<data auto_pad="explicit" strides="1,1" dilations="1,1" pads_begin="0,0" pads_end="0,0"/>
			<input>
				<port id="0">
					<dim>1</dim>
					<dim>512</dim>
					<dim>80</dim>
					<dim>80</dim>
				</port>
				<port id="1">
					<dim>128</dim>
					<dim>512</dim>
					<dim>1</dim>
					<dim>1</dim>
				</port>
			</input>
			<output>
				<port id="2" precision="FP32">
					<dim>1</dim>
					<dim>128</dim>
					<dim>80</dim>
					<dim>80</dim>
				</port>
			</output>
		</layer>
		<layer id="337" name="Reshape_1056184225333" type="Const" version="opset1">
			<data offset="1646578" size="256" shape="1,128,1,1" element_type="f16"/>
			<output>
				<port id="0" precision="FP16">
					<dim>1</dim>
					<dim>128</dim>
					<dim>1</dim>
					<dim>1</dim>
				</port>
			</output>
		</layer>
		<layer id="338" name="Reshape_1056184215240/restored_convert" type="Convert" version="opset1">
			<data destination_type="f32"/>
			<rt_info>
				<attribute name="decompression" version="0"/>
			</rt_info>
			<input>
				<port id="0">
					<dim>1</dim>
					<dim>128</dim>
					<dim>1</dim>
					<dim>1</dim>
				</port>
			</input>
			<output>
				<port id="1" precision="FP32">
					<dim>1</dim>
					<dim>128</dim>
					<dim>1</dim>
					<dim>1</dim>
				</port>
			</output>
		</layer>
		<layer id="339" name="/backbone/layer2/layer2.2/conv1/Conv" type="Add" version="opset1">
			<data auto_broadcast="numpy"/>
			<input>
				<port id="0">
					<dim>1</dim>
					<dim>128</dim>
					<dim>80</dim>
					<dim>80</dim>
				</port>
				<port id="1">
					<dim>1</dim>
					<dim>128</dim>
					<dim>1</dim>
					<dim>1</dim>
				</port>
			</input>
			<output>
				<port id="2" precision="FP32" names="/backbone/layer2/layer2.2/conv1/Conv_output_0">
					<dim>1</dim>
					<dim>128</dim>
					<dim>80</dim>
					<dim>80</dim>
				</port>
			</output>
		</layer>
		<layer id="340" name="/backbone/layer2/layer2.2/relu/Relu" type="ReLU" version="opset1">
			<input>
				<port id="0">
					<dim>1</dim>
					<dim>128</dim>
					<dim>80</dim>
					<dim>80</dim>
				</port>
			</input>
			<output>
				<port id="1" precision="FP32" names="/backbone/layer2/layer2.2/relu/Relu_output_0">
					<dim>1</dim>
					<dim>128</dim>
					<dim>80</dim>
					<dim>80</dim>
				</port>
			</output>
		</layer>
		<layer id="341" name="/backbone/layer2/layer2.2/conv2/Conv/WithoutBiases/fq_input_0" type="FakeQuantize" version="opset1">
			<data levels="256" auto_broadcast="numpy"/>
			<input>
				<port id="0">
					<dim>1</dim>
					<dim>128</dim>
					<dim>80</dim>
					<dim>80</dim>
				</port>
				<port id="1"/>
				<port id="2"/>
				<port id="3"/>
				<port id="4"/>
			</input>
			<output>
				<port id="5" precision="FP32">
					<dim>1</dim>
					<dim>128</dim>
					<dim>80</dim>
					<dim>80</dim>
				</port>
			</output>
		</layer>
		<layer id="342" name="/backbone/layer2/layer2.2/conv2/Conv/WithoutBiases/fq_weights_1/scale1735526176" type="Const" version="opset1">
			<data offset="1646834" size="512" shape="128,1,1,1" element_type="f32"/>
			<output>
				<port id="0" precision="FP32">
					<dim>128</dim>
					<dim>1</dim>
					<dim>1</dim>
					<dim>1</dim>
				</port>
			</output>
		</layer>
		<layer id="343" name="onnx::Conv_1615184615241/restored_convert/quantized1734726575" type="Const" version="opset1">
			<data offset="1647346" size="147456" shape="128,128,3,3" element_type="i8"/>
			<output>
				<port id="0" precision="I8">
					<dim>128</dim>
					<dim>128</dim>
					<dim>3</dim>
					<dim>3</dim>
				</port>
			</output>
		</layer>
		<layer id="344" name="onnx::Conv_1615184615241/restored_convert/quantized/to_f32" type="Convert" version="opset1">
			<data destination_type="f32"/>
			<input>
				<port id="0">
					<dim>128</dim>
					<dim>128</dim>
					<dim>3</dim>
					<dim>3</dim>
				</port>
			</input>
			<output>
				<port id="1" precision="FP32">
					<dim>128</dim>
					<dim>128</dim>
					<dim>3</dim>
					<dim>3</dim>
				</port>
			</output>
		</layer>
		<layer id="345" name="/backbone/layer2/layer2.2/conv2/Conv/WithoutBiases/fq_weights_1/mulpiply_by_scale" type="Multiply" version="opset1">
			<data auto_broadcast="numpy"/>
			<input>
				<port id="0">
					<dim>128</dim>
					<dim>128</dim>
					<dim>3</dim>
					<dim>3</dim>
				</port>
				<port id="1">
					<dim>128</dim>
					<dim>1</dim>
					<dim>1</dim>
					<dim>1</dim>
				</port>
			</input>
			<output>
				<port id="2" precision="FP32">
					<dim>128</dim>
					<dim>128</dim>
					<dim>3</dim>
					<dim>3</dim>
				</port>
			</output>
		</layer>
		<layer id="346" name="/backbone/layer2/layer2.2/conv2/Conv/WithoutBiases" type="Convolution" version="opset1">
			<data auto_pad="explicit" strides="1,1" dilations="1,1" pads_begin="1,1" pads_end="1,1"/>
			<input>
				<port id="0">
					<dim>1</dim>
					<dim>128</dim>
					<dim>80</dim>
					<dim>80</dim>
				</port>
				<port id="1">
					<dim>128</dim>
					<dim>128</dim>
					<dim>3</dim>
					<dim>3</dim>
				</port>
			</input>
			<output>
				<port id="2" precision="FP32">
					<dim>1</dim>
					<dim>128</dim>
					<dim>80</dim>
					<dim>80</dim>
				</port>
			</output>
		</layer>
		<layer id="347" name="Reshape_1105184927595" type="Const" version="opset1">
			<data offset="1794802" size="256" shape="1,128,1,1" element_type="f16"/>
			<output>
				<port id="0" precision="FP16">
					<dim>1</dim>
					<dim>128</dim>
					<dim>1</dim>
					<dim>1</dim>
				</port>
			</output>
		</layer>
		<layer id="348" name="Reshape_1105184915242/restored_convert" type="Convert" version="opset1">
			<data destination_type="f32"/>
			<rt_info>
				<attribute name="decompression" version="0"/>
			</rt_info>
			<input>
				<port id="0">
					<dim>1</dim>
					<dim>128</dim>
					<dim>1</dim>
					<dim>1</dim>
				</port>
			</input>
			<output>
				<port id="1" precision="FP32">
					<dim>1</dim>
					<dim>128</dim>
					<dim>1</dim>
					<dim>1</dim>
				</port>
			</output>
		</layer>
		<layer id="349" name="/backbone/layer2/layer2.2/conv2/Conv" type="Add" version="opset1">
			<data auto_broadcast="numpy"/>
			<input>
				<port id="0">
					<dim>1</dim>
					<dim>128</dim>
					<dim>80</dim>
					<dim>80</dim>
				</port>
				<port id="1">
					<dim>1</dim>
					<dim>128</dim>
					<dim>1</dim>
					<dim>1</dim>
				</port>
			</input>
			<output>
				<port id="2" precision="FP32" names="/backbone/layer2/layer2.2/conv2/Conv_output_0">
					<dim>1</dim>
					<dim>128</dim>
					<dim>80</dim>
					<dim>80</dim>
				</port>
			</output>
		</layer>
		<layer id="350" name="/backbone/layer2/layer2.2/relu_1/Relu" type="ReLU" version="opset1">
			<input>
				<port id="0">
					<dim>1</dim>
					<dim>128</dim>
					<dim>80</dim>
					<dim>80</dim>
				</port>
			</input>
			<output>
				<port id="1" precision="FP32" names="/backbone/layer2/layer2.2/relu_1/Relu_output_0">
					<dim>1</dim>
					<dim>128</dim>
					<dim>80</dim>
					<dim>80</dim>
				</port>
			</output>
		</layer>
		<layer id="351" name="/backbone/layer2/layer2.2/conv3/Conv/WithoutBiases/fq_input_0" type="FakeQuantize" version="opset1">
			<data levels="256" auto_broadcast="numpy"/>
			<input>
				<port id="0">
					<dim>1</dim>
					<dim>128</dim>
					<dim>80</dim>
					<dim>80</dim>
				</port>
				<port id="1"/>
				<port id="2"/>
				<port id="3"/>
				<port id="4"/>
			</input>
			<output>
				<port id="5" precision="FP32">
					<dim>1</dim>
					<dim>128</dim>
					<dim>80</dim>
					<dim>80</dim>
				</port>
			</output>
		</layer>
		<layer id="352" name="/backbone/layer2/layer2.2/conv3/Conv/WithoutBiases/fq_weights_1/scale1828526818" type="Const" version="opset1">
			<data offset="1795058" size="2048" shape="512,1,1,1" element_type="f32"/>
			<output>
				<port id="0" precision="FP32">
					<dim>512</dim>
					<dim>1</dim>
					<dim>1</dim>
					<dim>1</dim>
				</port>
			</output>
		</layer>
		<layer id="353" name="onnx::Conv_1618185315243/restored_convert/quantized1827727769" type="Const" version="opset1">
			<data offset="1797106" size="65536" shape="512,128,1,1" element_type="i8"/>
			<output>
				<port id="0" precision="I8">
					<dim>512</dim>
					<dim>128</dim>
					<dim>1</dim>
					<dim>1</dim>
				</port>
			</output>
		</layer>
		<layer id="354" name="onnx::Conv_1618185315243/restored_convert/quantized/to_f32" type="Convert" version="opset1">
			<data destination_type="f32"/>
			<input>
				<port id="0">
					<dim>512</dim>
					<dim>128</dim>
					<dim>1</dim>
					<dim>1</dim>
				</port>
			</input>
			<output>
				<port id="1" precision="FP32">
					<dim>512</dim>
					<dim>128</dim>
					<dim>1</dim>
					<dim>1</dim>
				</port>
			</output>
		</layer>
		<layer id="355" name="/backbone/layer2/layer2.2/conv3/Conv/WithoutBiases/fq_weights_1/mulpiply_by_scale" type="Multiply" version="opset1">
			<data auto_broadcast="numpy"/>
			<input>
				<port id="0">
					<dim>512</dim>
					<dim>128</dim>
					<dim>1</dim>
					<dim>1</dim>
				</port>
				<port id="1">
					<dim>512</dim>
					<dim>1</dim>
					<dim>1</dim>
					<dim>1</dim>
				</port>
			</input>
			<output>
				<port id="2" precision="FP32">
					<dim>512</dim>
					<dim>128</dim>
					<dim>1</dim>
					<dim>1</dim>
				</port>
			</output>
		</layer>
		<layer id="356" name="/backbone/layer2/layer2.2/conv3/Conv/WithoutBiases" type="Convolution" version="opset1">
			<data auto_pad="explicit" strides="1,1" dilations="1,1" pads_begin="0,0" pads_end="0,0"/>
			<input>
				<port id="0">
					<dim>1</dim>
					<dim>128</dim>
					<dim>80</dim>
					<dim>80</dim>
				</port>
				<port id="1">
					<dim>512</dim>
					<dim>128</dim>
					<dim>1</dim>
					<dim>1</dim>
				</port>
			</input>
			<output>
				<port id="2" precision="FP32">
					<dim>1</dim>
					<dim>512</dim>
					<dim>80</dim>
					<dim>80</dim>
				</port>
			</output>
		</layer>
		<layer id="357" name="Reshape_1154185625804" type="Const" version="opset1">
			<data offset="1862642" size="1024" shape="1,512,1,1" element_type="f16"/>
			<output>
				<port id="0" precision="FP16">
					<dim>1</dim>
					<dim>512</dim>
					<dim>1</dim>
					<dim>1</dim>
				</port>
			</output>
		</layer>
		<layer id="358" name="Reshape_1154185615244/restored_convert" type="Convert" version="opset1">
			<data destination_type="f32"/>
			<rt_info>
				<attribute name="decompression" version="0"/>
			</rt_info>
			<input>
				<port id="0">
					<dim>1</dim>
					<dim>512</dim>
					<dim>1</dim>
					<dim>1</dim>
				</port>
			</input>
			<output>
				<port id="1" precision="FP32">
					<dim>1</dim>
					<dim>512</dim>
					<dim>1</dim>
					<dim>1</dim>
				</port>
			</output>
		</layer>
		<layer id="359" name="/backbone/layer2/layer2.2/conv3/Conv" type="Add" version="opset1">
			<data auto_broadcast="numpy"/>
			<input>
				<port id="0">
					<dim>1</dim>
					<dim>512</dim>
					<dim>80</dim>
					<dim>80</dim>
				</port>
				<port id="1">
					<dim>1</dim>
					<dim>512</dim>
					<dim>1</dim>
					<dim>1</dim>
				</port>
			</input>
			<output>
				<port id="2" precision="FP32" names="/backbone/layer2/layer2.2/conv3/Conv_output_0">
					<dim>1</dim>
					<dim>512</dim>
					<dim>80</dim>
					<dim>80</dim>
				</port>
			</output>
		</layer>
		<layer id="360" name="/backbone/layer2/layer2.2/Add/fq_input_0" type="FakeQuantize" version="opset1">
			<data levels="256" auto_broadcast="numpy"/>
			<input>
				<port id="0">
					<dim>1</dim>
					<dim>512</dim>
					<dim>80</dim>
					<dim>80</dim>
				</port>
				<port id="1"/>
				<port id="2"/>
				<port id="3"/>
				<port id="4"/>
			</input>
			<output>
				<port id="5" precision="FP32">
					<dim>1</dim>
					<dim>512</dim>
					<dim>80</dim>
					<dim>80</dim>
				</port>
			</output>
		</layer>
		<layer id="361" name="/backbone/layer2/layer2.2/Add" type="Add" version="opset1">
			<data auto_broadcast="numpy"/>
			<input>
				<port id="0">
					<dim>1</dim>
					<dim>512</dim>
					<dim>80</dim>
					<dim>80</dim>
				</port>
				<port id="1">
					<dim>1</dim>
					<dim>512</dim>
					<dim>80</dim>
					<dim>80</dim>
				</port>
			</input>
			<output>
				<port id="2" precision="FP32" names="/backbone/layer2/layer2.2/Add_output_0">
					<dim>1</dim>
					<dim>512</dim>
					<dim>80</dim>
					<dim>80</dim>
				</port>
			</output>
		</layer>
		<layer id="362" name="/backbone/layer2/layer2.2/relu_2/Relu" type="ReLU" version="opset1">
			<input>
				<port id="0">
					<dim>1</dim>
					<dim>512</dim>
					<dim>80</dim>
					<dim>80</dim>
				</port>
			</input>
			<output>
				<port id="1" precision="FP32" names="/backbone/layer2/layer2.2/relu_2/Relu_output_0">
					<dim>1</dim>
					<dim>512</dim>
					<dim>80</dim>
					<dim>80</dim>
				</port>
			</output>
		</layer>
		<layer id="363" name="/backbone/layer2/layer2.3/Add/fq_input_1" type="FakeQuantize" version="opset1">
			<data levels="256" auto_broadcast="numpy"/>
			<input>
				<port id="0">
					<dim>1</dim>
					<dim>512</dim>
					<dim>80</dim>
					<dim>80</dim>
				</port>
				<port id="1"/>
				<port id="2"/>
				<port id="3"/>
				<port id="4"/>
			</input>
			<output>
				<port id="5" precision="FP32">
					<dim>1</dim>
					<dim>512</dim>
					<dim>80</dim>
					<dim>80</dim>
				</port>
			</output>
		</layer>
		<layer id="364" name="/backbone/layer2/layer2.3/conv1/Conv/WithoutBiases/fq_weights_1/scale1687525612" type="Const" version="opset1">
			<data offset="1863666" size="512" shape="128,1,1,1" element_type="f32"/>
			<output>
				<port id="0" precision="FP32">
					<dim>128</dim>
					<dim>1</dim>
					<dim>1</dim>
					<dim>1</dim>
				</port>
			</output>
		</layer>
		<layer id="365" name="onnx::Conv_1621186115245/restored_convert/quantized1686725225" type="Const" version="opset1">
			<data offset="1864178" size="65536" shape="128,512,1,1" element_type="i8"/>
			<output>
				<port id="0" precision="I8">
					<dim>128</dim>
					<dim>512</dim>
					<dim>1</dim>
					<dim>1</dim>
				</port>
			</output>
		</layer>
		<layer id="366" name="onnx::Conv_1621186115245/restored_convert/quantized/to_f32" type="Convert" version="opset1">
			<data destination_type="f32"/>
			<input>
				<port id="0">
					<dim>128</dim>
					<dim>512</dim>
					<dim>1</dim>
					<dim>1</dim>
				</port>
			</input>
			<output>
				<port id="1" precision="FP32">
					<dim>128</dim>
					<dim>512</dim>
					<dim>1</dim>
					<dim>1</dim>
				</port>
			</output>
		</layer>
		<layer id="367" name="/backbone/layer2/layer2.3/conv1/Conv/WithoutBiases/fq_weights_1/mulpiply_by_scale" type="Multiply" version="opset1">
			<data auto_broadcast="numpy"/>
			<input>
				<port id="0">
					<dim>128</dim>
					<dim>512</dim>
					<dim>1</dim>
					<dim>1</dim>
				</port>
				<port id="1">
					<dim>128</dim>
					<dim>1</dim>
					<dim>1</dim>
					<dim>1</dim>
				</port>
			</input>
			<output>
				<port id="2" precision="FP32">
					<dim>128</dim>
					<dim>512</dim>
					<dim>1</dim>
					<dim>1</dim>
				</port>
			</output>
		</layer>
		<layer id="368" name="/backbone/layer2/layer2.3/conv1/Conv/WithoutBiases" type="Convolution" version="opset1">
			<data auto_pad="explicit" strides="1,1" dilations="1,1" pads_begin="0,0" pads_end="0,0"/>
			<input>
				<port id="0">
					<dim>1</dim>
					<dim>512</dim>
					<dim>80</dim>
					<dim>80</dim>
				</port>
				<port id="1">
					<dim>128</dim>
					<dim>512</dim>
					<dim>1</dim>
					<dim>1</dim>
				</port>
			</input>
			<output>
				<port id="2" precision="FP32">
					<dim>1</dim>
					<dim>128</dim>
					<dim>80</dim>
					<dim>80</dim>
				</port>
			</output>
		</layer>
		<layer id="369" name="Reshape_1204186427832" type="Const" version="opset1">
			<data offset="1929714" size="256" shape="1,128,1,1" element_type="f16"/>
			<output>
				<port id="0" precision="FP16">
					<dim>1</dim>
					<dim>128</dim>
					<dim>1</dim>
					<dim>1</dim>
				</port>
			</output>
		</layer>
		<layer id="370" name="Reshape_1204186415246/restored_convert" type="Convert" version="opset1">
			<data destination_type="f32"/>
			<rt_info>
				<attribute name="decompression" version="0"/>
			</rt_info>
			<input>
				<port id="0">
					<dim>1</dim>
					<dim>128</dim>
					<dim>1</dim>
					<dim>1</dim>
				</port>
			</input>
			<output>
				<port id="1" precision="FP32">
					<dim>1</dim>
					<dim>128</dim>
					<dim>1</dim>
					<dim>1</dim>
				</port>
			</output>
		</layer>
		<layer id="371" name="/backbone/layer2/layer2.3/conv1/Conv" type="Add" version="opset1">
			<data auto_broadcast="numpy"/>
			<input>
				<port id="0">
					<dim>1</dim>
					<dim>128</dim>
					<dim>80</dim>
					<dim>80</dim>
				</port>
				<port id="1">
					<dim>1</dim>
					<dim>128</dim>
					<dim>1</dim>
					<dim>1</dim>
				</port>
			</input>
			<output>
				<port id="2" precision="FP32" names="/backbone/layer2/layer2.3/conv1/Conv_output_0">
					<dim>1</dim>
					<dim>128</dim>
					<dim>80</dim>
					<dim>80</dim>
				</port>
			</output>
		</layer>
		<layer id="372" name="/backbone/layer2/layer2.3/relu/Relu" type="ReLU" version="opset1">
			<input>
				<port id="0">
					<dim>1</dim>
					<dim>128</dim>
					<dim>80</dim>
					<dim>80</dim>
				</port>
			</input>
			<output>
				<port id="1" precision="FP32" names="/backbone/layer2/layer2.3/relu/Relu_output_0">
					<dim>1</dim>
					<dim>128</dim>
					<dim>80</dim>
					<dim>80</dim>
				</port>
			</output>
		</layer>
		<layer id="373" name="/backbone/layer2/layer2.3/conv2/Conv/WithoutBiases/fq_input_0" type="FakeQuantize" version="opset1">
			<data levels="256" auto_broadcast="numpy"/>
			<input>
				<port id="0">
					<dim>1</dim>
					<dim>128</dim>
					<dim>80</dim>
					<dim>80</dim>
				</port>
				<port id="1"/>
				<port id="2"/>
				<port id="3"/>
				<port id="4"/>
			</input>
			<output>
				<port id="5" precision="FP32">
					<dim>1</dim>
					<dim>128</dim>
					<dim>80</dim>
					<dim>80</dim>
				</port>
			</output>
		</layer>
		<layer id="374" name="/backbone/layer2/layer2.3/conv2/Conv/WithoutBiases/fq_weights_1/scale1780526641" type="Const" version="opset1">
			<data offset="1929970" size="512" shape="128,1,1,1" element_type="f32"/>
			<output>
				<port id="0" precision="FP32">
					<dim>128</dim>
					<dim>1</dim>
					<dim>1</dim>
					<dim>1</dim>
				</port>
			</output>
		</layer>
		<layer id="375" name="onnx::Conv_1624186815247/restored_convert/quantized1779725708" type="Const" version="opset1">
			<data offset="1930482" size="147456" shape="128,128,3,3" element_type="i8"/>
			<output>
				<port id="0" precision="I8">
					<dim>128</dim>
					<dim>128</dim>
					<dim>3</dim>
					<dim>3</dim>
				</port>
			</output>
		</layer>
		<layer id="376" name="onnx::Conv_1624186815247/restored_convert/quantized/to_f32" type="Convert" version="opset1">
			<data destination_type="f32"/>
			<input>
				<port id="0">
					<dim>128</dim>
					<dim>128</dim>
					<dim>3</dim>
					<dim>3</dim>
				</port>
			</input>
			<output>
				<port id="1" precision="FP32">
					<dim>128</dim>
					<dim>128</dim>
					<dim>3</dim>
					<dim>3</dim>
				</port>
			</output>
		</layer>
		<layer id="377" name="/backbone/layer2/layer2.3/conv2/Conv/WithoutBiases/fq_weights_1/mulpiply_by_scale" type="Multiply" version="opset1">
			<data auto_broadcast="numpy"/>
			<input>
				<port id="0">
					<dim>128</dim>
					<dim>128</dim>
					<dim>3</dim>
					<dim>3</dim>
				</port>
				<port id="1">
					<dim>128</dim>
					<dim>1</dim>
					<dim>1</dim>
					<dim>1</dim>
				</port>
			</input>
			<output>
				<port id="2" precision="FP32">
					<dim>128</dim>
					<dim>128</dim>
					<dim>3</dim>
					<dim>3</dim>
				</port>
			</output>
		</layer>
		<layer id="378" name="/backbone/layer2/layer2.3/conv2/Conv/WithoutBiases" type="Convolution" version="opset1">
			<data auto_pad="explicit" strides="1,1" dilations="1,1" pads_begin="1,1" pads_end="1,1"/>
			<input>
				<port id="0">
					<dim>1</dim>
					<dim>128</dim>
					<dim>80</dim>
					<dim>80</dim>
				</port>
				<port id="1">
					<dim>128</dim>
					<dim>128</dim>
					<dim>3</dim>
					<dim>3</dim>
				</port>
			</input>
			<output>
				<port id="2" precision="FP32">
					<dim>1</dim>
					<dim>128</dim>
					<dim>80</dim>
					<dim>80</dim>
				</port>
			</output>
		</layer>
		<layer id="379" name="Reshape_1253187125402" type="Const" version="opset1">
			<data offset="2077938" size="256" shape="1,128,1,1" element_type="f16"/>
			<output>
				<port id="0" precision="FP16">
					<dim>1</dim>
					<dim>128</dim>
					<dim>1</dim>
					<dim>1</dim>
				</port>
			</output>
		</layer>
		<layer id="380" name="Reshape_1253187115248/restored_convert" type="Convert" version="opset1">
			<data destination_type="f32"/>
			<rt_info>
				<attribute name="decompression" version="0"/>
			</rt_info>
			<input>
				<port id="0">
					<dim>1</dim>
					<dim>128</dim>
					<dim>1</dim>
					<dim>1</dim>
				</port>
			</input>
			<output>
				<port id="1" precision="FP32">
					<dim>1</dim>
					<dim>128</dim>
					<dim>1</dim>
					<dim>1</dim>
				</port>
			</output>
		</layer>
		<layer id="381" name="/backbone/layer2/layer2.3/conv2/Conv" type="Add" version="opset1">
			<data auto_broadcast="numpy"/>
			<input>
				<port id="0">
					<dim>1</dim>
					<dim>128</dim>
					<dim>80</dim>
					<dim>80</dim>
				</port>
				<port id="1">
					<dim>1</dim>
					<dim>128</dim>
					<dim>1</dim>
					<dim>1</dim>
				</port>
			</input>
			<output>
				<port id="2" precision="FP32" names="/backbone/layer2/layer2.3/conv2/Conv_output_0">
					<dim>1</dim>
					<dim>128</dim>
					<dim>80</dim>
					<dim>80</dim>
				</port>
			</output>
		</layer>
		<layer id="382" name="/backbone/layer2/layer2.3/relu_1/Relu" type="ReLU" version="opset1">
			<input>
				<port id="0">
					<dim>1</dim>
					<dim>128</dim>
					<dim>80</dim>
					<dim>80</dim>
				</port>
			</input>
			<output>
				<port id="1" precision="FP32" names="/backbone/layer2/layer2.3/relu_1/Relu_output_0">
					<dim>1</dim>
					<dim>128</dim>
					<dim>80</dim>
					<dim>80</dim>
				</port>
			</output>
		</layer>
		<layer id="383" name="/backbone/layer2/layer2.3/conv3/Conv/WithoutBiases/fq_input_0" type="FakeQuantize" version="opset1">
			<data levels="256" auto_broadcast="numpy"/>
			<input>
				<port id="0">
					<dim>1</dim>
					<dim>128</dim>
					<dim>80</dim>
					<dim>80</dim>
				</port>
				<port id="1"/>
				<port id="2"/>
				<port id="3"/>
				<port id="4"/>
			</input>
			<output>
				<port id="5" precision="FP32">
					<dim>1</dim>
					<dim>128</dim>
					<dim>80</dim>
					<dim>80</dim>
				</port>
			</output>
		</layer>
		<layer id="384" name="/backbone/layer2/layer2.3/conv3/Conv/WithoutBiases/fq_weights_1/scale1723527511" type="Const" version="opset1">
			<data offset="2078194" size="2048" shape="512,1,1,1" element_type="f32"/>
			<output>
				<port id="0" precision="FP32">
					<dim>512</dim>
					<dim>1</dim>
					<dim>1</dim>
					<dim>1</dim>
				</port>
			</output>
		</layer>
		<layer id="385" name="onnx::Conv_1627187515249/restored_convert/quantized1722725936" type="Const" version="opset1">
			<data offset="2080242" size="65536" shape="512,128,1,1" element_type="i8"/>
			<output>
				<port id="0" precision="I8">
					<dim>512</dim>
					<dim>128</dim>
					<dim>1</dim>
					<dim>1</dim>
				</port>
			</output>
		</layer>
		<layer id="386" name="onnx::Conv_1627187515249/restored_convert/quantized/to_f32" type="Convert" version="opset1">
			<data destination_type="f32"/>
			<input>
				<port id="0">
					<dim>512</dim>
					<dim>128</dim>
					<dim>1</dim>
					<dim>1</dim>
				</port>
			</input>
			<output>
				<port id="1" precision="FP32">
					<dim>512</dim>
					<dim>128</dim>
					<dim>1</dim>
					<dim>1</dim>
				</port>
			</output>
		</layer>
		<layer id="387" name="/backbone/layer2/layer2.3/conv3/Conv/WithoutBiases/fq_weights_1/mulpiply_by_scale" type="Multiply" version="opset1">
			<data auto_broadcast="numpy"/>
			<input>
				<port id="0">
					<dim>512</dim>
					<dim>128</dim>
					<dim>1</dim>
					<dim>1</dim>
				</port>
				<port id="1">
					<dim>512</dim>
					<dim>1</dim>
					<dim>1</dim>
					<dim>1</dim>
				</port>
			</input>
			<output>
				<port id="2" precision="FP32">
					<dim>512</dim>
					<dim>128</dim>
					<dim>1</dim>
					<dim>1</dim>
				</port>
			</output>
		</layer>
		<layer id="388" name="/backbone/layer2/layer2.3/conv3/Conv/WithoutBiases" type="Convolution" version="opset1">
			<data auto_pad="explicit" strides="1,1" dilations="1,1" pads_begin="0,0" pads_end="0,0"/>
			<input>
				<port id="0">
					<dim>1</dim>
					<dim>128</dim>
					<dim>80</dim>
					<dim>80</dim>
				</port>
				<port id="1">
					<dim>512</dim>
					<dim>128</dim>
					<dim>1</dim>
					<dim>1</dim>
				</port>
			</input>
			<output>
				<port id="2" precision="FP32">
					<dim>1</dim>
					<dim>512</dim>
					<dim>80</dim>
					<dim>80</dim>
				</port>
			</output>
		</layer>
		<layer id="389" name="Reshape_1302187824925" type="Const" version="opset1">
			<data offset="2145778" size="1024" shape="1,512,1,1" element_type="f16"/>
			<output>
				<port id="0" precision="FP16">
					<dim>1</dim>
					<dim>512</dim>
					<dim>1</dim>
					<dim>1</dim>
				</port>
			</output>
		</layer>
		<layer id="390" name="Reshape_1302187815250/restored_convert" type="Convert" version="opset1">
			<data destination_type="f32"/>
			<rt_info>
				<attribute name="decompression" version="0"/>
			</rt_info>
			<input>
				<port id="0">
					<dim>1</dim>
					<dim>512</dim>
					<dim>1</dim>
					<dim>1</dim>
				</port>
			</input>
			<output>
				<port id="1" precision="FP32">
					<dim>1</dim>
					<dim>512</dim>
					<dim>1</dim>
					<dim>1</dim>
				</port>
			</output>
		</layer>
		<layer id="391" name="/backbone/layer2/layer2.3/conv3/Conv" type="Add" version="opset1">
…
		<edge from-layer="1645" from-port="1" to-layer="1647" to-port="1"/>
		<edge from-layer="1646" from-port="0" to-layer="1647" to-port="2"/>
		<edge from-layer="1644" from-port="3" to-layer="1648" to-port="0"/>
		<edge from-layer="1626" from-port="5" to-layer="1650" to-port="0"/>
		<edge from-layer="1648" from-port="1" to-layer="1650" to-port="1"/>
		<edge from-layer="1649" from-port="0" to-layer="1650" to-port="2"/>
		<edge from-layer="1650" from-port="3" to-layer="1652" to-port="0"/>
		<edge from-layer="1651" from-port="0" to-layer="1652" to-port="1"/>
		<edge from-layer="1653" from-port="0" to-layer="1654" to-port="0"/>
		<edge from-layer="1655" from-port="0" to-layer="1656" to-port="0"/>
		<edge from-layer="1647" from-port="3" to-layer="1658" to-port="0"/>
		<edge from-layer="1652" from-port="2" to-layer="1658" to-port="1"/>
		<edge from-layer="1657" from-port="0" to-layer="1658" to-port="2"/>
		<edge from-layer="1654" from-port="1" to-layer="1658" to-port="3"/>
		<edge from-layer="1656" from-port="1" to-layer="1658" to-port="4"/>
		<edge from-layer="1658" from-port="5" to-layer="1664" to-port="0"/>
		<edge from-layer="1662" from-port="0" to-layer="1664" to-port="1"/>
		<edge from-layer="1663" from-port="0" to-layer="1664" to-port="2"/>
		<edge from-layer="1664" from-port="3" to-layer="1665" to-port="0"/>
		<edge from-layer="1665" from-port="1" to-layer="1666" to-port="0"/>
		<edge from-layer="1647" from-port="3" to-layer="1668" to-port="0"/>
		<edge from-layer="1666" from-port="1" to-layer="1668" to-port="1"/>
		<edge from-layer="1667" from-port="0" to-layer="1668" to-port="2"/>
		<edge from-layer="1650" from-port="3" to-layer="1670" to-port="0"/>
		<edge from-layer="1669" from-port="0" to-layer="1670" to-port="1"/>
		<edge from-layer="1670" from-port="2" to-layer="1671" to-port="0"/>
		<edge from-layer="1671" from-port="1" to-layer="1675" to-port="0"/>
		<edge from-layer="1672" from-port="0" to-layer="1675" to-port="1"/>
		<edge from-layer="1673" from-port="0" to-layer="1675" to-port="2"/>
		<edge from-layer="1674" from-port="0" to-layer="1675" to-port="3"/>
		<edge from-layer="1675" from-port="4" to-layer="1677" to-port="0"/>
		<edge from-layer="1676" from-port="0" to-layer="1677" to-port="1"/>
		<edge from-layer="1677" from-port="2" to-layer="1679" to-port="0"/>
		<edge from-layer="1678" from-port="0" to-layer="1679" to-port="1"/>
		<edge from-layer="1670" from-port="2" to-layer="1680" to-port="0"/>
		<edge from-layer="1679" from-port="2" to-layer="1680" to-port="1"/>
		<edge from-layer="1658" from-port="5" to-layer="1683" to-port="0"/>
		<edge from-layer="1681" from-port="0" to-layer="1683" to-port="1"/>
		<edge from-layer="1682" from-port="0" to-layer="1683" to-port="2"/>
		<edge from-layer="1652" from-port="2" to-layer="1684" to-port="0"/>
		<edge from-layer="1684" from-port="1" to-layer="1687" to-port="0"/>
		<edge from-layer="1685" from-port="0" to-layer="1687" to-port="1"/>
		<edge from-layer="1686" from-port="0" to-layer="1687" to-port="2"/>
		<edge from-layer="1683" from-port="3" to-layer="1688" to-port="0"/>
		<edge from-layer="1687" from-port="3" to-layer="1688" to-port="1"/>
		<edge from-layer="1664" from-port="3" to-layer="1689" to-port="0"/>
		<edge from-layer="1688" from-port="2" to-layer="1689" to-port="1"/>
		<edge from-layer="1689" from-port="2" to-layer="1690" to-port="0"/>
		<edge from-layer="1680" from-port="2" to-layer="1692" to-port="0"/>
		<edge from-layer="1690" from-port="1" to-layer="1692" to-port="1"/>
		<edge from-layer="1691" from-port="0" to-layer="1692" to-port="2"/>
		<edge from-layer="1684" from-port="1" to-layer="1696" to-port="0"/>
		<edge from-layer="1694" from-port="0" to-layer="1696" to-port="1"/>
		<edge from-layer="1695" from-port="0" to-layer="1696" to-port="2"/>
		<edge from-layer="1693" from-port="0" to-layer="1697" to-port="0"/>
		<edge from-layer="1696" from-port="3" to-layer="1697" to-port="1"/>
		<edge from-layer="1692" from-port="3" to-layer="1698" to-port="0"/>
		<edge from-layer="1697" from-port="2" to-layer="1698" to-port="1"/>
		<edge from-layer="1698" from-port="2" to-layer="1700" to-port="0"/>
		<edge from-layer="1699" from-port="0" to-layer="1700" to-port="1"/>
		<edge from-layer="1689" from-port="2" to-layer="1701" to-port="0"/>
		<edge from-layer="1696" from-port="3" to-layer="1702" to-port="0"/>
		<edge from-layer="1701" from-port="1" to-layer="1702" to-port="1"/>
		<edge from-layer="1700" from-port="2" to-layer="1703" to-port="0"/>
		<edge from-layer="1702" from-port="2" to-layer="1703" to-port="1"/>
		<edge from-layer="1703" from-port="2" to-layer="1705" to-port="0"/>
		<edge from-layer="1704" from-port="0" to-layer="1705" to-port="1"/>
		<edge from-layer="1668" from-port="3" to-layer="1706" to-port="0"/>
		<edge from-layer="1705" from-port="2" to-layer="1706" to-port="1"/>
		<edge from-layer="1707" from-port="0" to-layer="1708" to-port="0"/>
		<edge from-layer="1706" from-port="2" to-layer="1709" to-port="0"/>
		<edge from-layer="1708" from-port="1" to-layer="1709" to-port="1"/>
		<edge from-layer="1709" from-port="2" to-layer="1712" to-port="0"/>
		<edge from-layer="1710" from-port="0" to-layer="1712" to-port="1"/>
		<edge from-layer="1711" from-port="0" to-layer="1712" to-port="2"/>
		<edge from-layer="1712" from-port="3" to-layer="1713" to-port="0"/>
		<edge from-layer="1713" from-port="1" to-layer="1716" to-port="0"/>
		<edge from-layer="1714" from-port="0" to-layer="1716" to-port="1"/>
		<edge from-layer="1715" from-port="0" to-layer="1716" to-port="2"/>
		<edge from-layer="1717" from-port="0" to-layer="1718" to-port="0"/>
		<edge from-layer="1716" from-port="3" to-layer="1718" to-port="1"/>
		<edge from-layer="1718" from-port="2" to-layer="1719" to-port="0"/>
		<edge from-layer="957" from-port="0" to-layer="1719" to-port="1"/>
		<edge from-layer="1716" from-port="3" to-layer="1719" to-port="2"/>
		<edge from-layer="1719" from-port="3" to-layer="1721" to-port="0"/>
		<edge from-layer="1720" from-port="0" to-layer="1721" to-port="1"/>
		<edge from-layer="1721" from-port="2" to-layer="1723" to-port="0"/>
		<edge from-layer="1722" from-port="0" to-layer="1723" to-port="1"/>
		<edge from-layer="1723" from-port="2" to-layer="1724" to-port="0"/>
		<edge from-layer="1712" from-port="3" to-layer="1725" to-port="0"/>
		<edge from-layer="1724" from-port="1" to-layer="1725" to-port="1"/>
		<edge from-layer="1725" from-port="3" to-layer="1727" to-port="0"/>
		<edge from-layer="1726" from-port="0" to-layer="1727" to-port="1"/>
		<edge from-layer="1727" from-port="2" to-layer="1728" to-port="0"/>
		<edge from-layer="1709" from-port="2" to-layer="1730" to-port="0"/>
		<edge from-layer="1728" from-port="1" to-layer="1730" to-port="1"/>
		<edge from-layer="1729" from-port="0" to-layer="1730" to-port="2"/>
		<edge from-layer="1730" from-port="3" to-layer="1731" to-port="0"/>
		<edge from-layer="1731" from-port="1" to-layer="1734" to-port="0"/>
		<edge from-layer="1732" from-port="0" to-layer="1734" to-port="1"/>
		<edge from-layer="1733" from-port="0" to-layer="1734" to-port="2"/>
		<edge from-layer="1661" from-port="0" to-layer="1736" to-port="0"/>
		<edge from-layer="1734" from-port="3" to-layer="1736" to-port="1"/>
		<edge from-layer="1735" from-port="0" to-layer="1736" to-port="2"/>
		<edge from-layer="1736" from-port="3" to-layer="1737" to-port="0"/>
		<edge from-layer="1737" from-port="1" to-layer="1739" to-port="0"/>
		<edge from-layer="1738" from-port="0" to-layer="1739" to-port="1"/>
		<edge from-layer="1731" from-port="1" to-layer="1742" to-port="0"/>
		<edge from-layer="1740" from-port="0" to-layer="1742" to-port="1"/>
		<edge from-layer="1741" from-port="0" to-layer="1742" to-port="2"/>
		<edge from-layer="1742" from-port="3" to-layer="1744" to-port="0"/>
		<edge from-layer="1743" from-port="0" to-layer="1744" to-port="1"/>
		<edge from-layer="1744" from-port="2" to-layer="1746" to-port="0"/>
		<edge from-layer="1745" from-port="0" to-layer="1746" to-port="1"/>
		<edge from-layer="1746" from-port="2" to-layer="1748" to-port="0"/>
		<edge from-layer="1747" from-port="0" to-layer="1748" to-port="1"/>
		<edge from-layer="1748" from-port="2" to-layer="1750" to-port="0"/>
		<edge from-layer="1749" from-port="0" to-layer="1750" to-port="1"/>
		<edge from-layer="1746" from-port="2" to-layer="1750" to-port="2"/>
		<edge from-layer="1739" from-port="2" to-layer="1751" to-port="0"/>
		<edge from-layer="1750" from-port="3" to-layer="1751" to-port="1"/>
		<edge from-layer="1730" from-port="3" to-layer="1755" to-port="0"/>
		<edge from-layer="1752" from-port="0" to-layer="1755" to-port="1"/>
		<edge from-layer="1753" from-port="0" to-layer="1755" to-port="2"/>
		<edge from-layer="1754" from-port="0" to-layer="1755" to-port="3"/>
		<edge from-layer="1751" from-port="2" to-layer="1756" to-port="0"/>
		<edge from-layer="1755" from-port="4" to-layer="1756" to-port="1"/>
		<edge from-layer="1756" from-port="2" to-layer="1758" to-port="0"/>
		<edge from-layer="1757" from-port="0" to-layer="1758" to-port="1"/>
		<edge from-layer="1756" from-port="2" to-layer="1759" to-port="0"/>
		<edge from-layer="1759" from-port="1" to-layer="1762" to-port="0"/>
		<edge from-layer="1760" from-port="0" to-layer="1762" to-port="1"/>
		<edge from-layer="1761" from-port="0" to-layer="1762" to-port="2"/>
		<edge from-layer="1758" from-port="2" to-layer="1764" to-port="0"/>
		<edge from-layer="1764" from-port="1" to-layer="1768" to-port="0"/>
		<edge from-layer="1765" from-port="0" to-layer="1768" to-port="1"/>
		<edge from-layer="1766" from-port="0" to-layer="1768" to-port="2"/>
		<edge from-layer="1767" from-port="0" to-layer="1768" to-port="3"/>
		<edge from-layer="1768" from-port="4" to-layer="1770" to-port="0"/>
		<edge from-layer="1769" from-port="0" to-layer="1770" to-port="1"/>
		<edge from-layer="1770" from-port="2" to-layer="1772" to-port="0"/>
		<edge from-layer="1771" from-port="0" to-layer="1772" to-port="1"/>
		<edge from-layer="1762" from-port="3" to-layer="1773" to-port="0"/>
		<edge from-layer="1763" from-port="0" to-layer="1773" to-port="1"/>
		<edge from-layer="1772" from-port="2" to-layer="1773" to-port="2"/>
		<edge from-layer="1758" from-port="2" to-layer="1774" to-port="0"/>
		<edge from-layer="1773" from-port="3" to-layer="1774" to-port="1"/>
		<edge from-layer="1774" from-port="2" to-layer="1778" to-port="0"/>
		<edge from-layer="1775" from-port="0" to-layer="1778" to-port="1"/>
		<edge from-layer="1776" from-port="0" to-layer="1778" to-port="2"/>
		<edge from-layer="1777" from-port="0" to-layer="1778" to-port="3"/>
		<edge from-layer="1778" from-port="4" to-layer="1780" to-port="0"/>
		<edge from-layer="1779" from-port="0" to-layer="1780" to-port="1"/>
		<edge from-layer="1780" from-port="2" to-layer="1784" to-port="0"/>
		<edge from-layer="1781" from-port="0" to-layer="1784" to-port="1"/>
		<edge from-layer="1782" from-port="0" to-layer="1784" to-port="2"/>
		<edge from-layer="1783" from-port="0" to-layer="1784" to-port="3"/>
		<edge from-layer="1780" from-port="2" to-layer="1788" to-port="0"/>
		<edge from-layer="1785" from-port="0" to-layer="1788" to-port="1"/>
		<edge from-layer="1786" from-port="0" to-layer="1788" to-port="2"/>
		<edge from-layer="1787" from-port="0" to-layer="1788" to-port="3"/>
		<edge from-layer="1784" from-port="4" to-layer="1789" to-port="0"/>
		<edge from-layer="1788" from-port="4" to-layer="1789" to-port="1"/>
		<edge from-layer="1790" from-port="0" to-layer="1791" to-port="0"/>
		<edge from-layer="1789" from-port="2" to-layer="1792" to-port="0"/>
		<edge from-layer="1791" from-port="1" to-layer="1792" to-port="1"/>
		<edge from-layer="1788" from-port="4" to-layer="1793" to-port="0"/>
		<edge from-layer="1784" from-port="4" to-layer="1793" to-port="1"/>
		<edge from-layer="1758" from-port="2" to-layer="1802" to-port="0"/>
		<edge from-layer="1799" from-port="0" to-layer="1802" to-port="1"/>
		<edge from-layer="1800" from-port="0" to-layer="1802" to-port="2"/>
		<edge from-layer="1801" from-port="0" to-layer="1802" to-port="3"/>
		<edge from-layer="1802" from-port="4" to-layer="1803" to-port="0"/>
		<edge from-layer="918" from-port="2" to-layer="1803" to-port="1"/>
		<edge from-layer="981" from-port="2" to-layer="1803" to-port="2"/>
		<edge from-layer="1038" from-port="2" to-layer="1803" to-port="3"/>
		<edge from-layer="1095" from-port="2" to-layer="1803" to-port="4"/>
		<edge from-layer="1803" from-port="5" to-layer="1804" to-port="0"/>
		<edge from-layer="1795" from-port="0" to-layer="1804" to-port="1"/>
		<edge from-layer="1796" from-port="0" to-layer="1804" to-port="2"/>
		<edge from-layer="1797" from-port="0" to-layer="1804" to-port="3"/>
		<edge from-layer="1798" from-port="0" to-layer="1804" to-port="4"/>
		<edge from-layer="1804" from-port="5" to-layer="1805" to-port="0"/>
		<edge from-layer="1794" from-port="0" to-layer="1805" to-port="1"/>
		<edge from-layer="1807" from-port="0" to-layer="1808" to-port="0"/>
		<edge from-layer="1808" from-port="1" to-layer="1809" to-port="0"/>
		<edge from-layer="1806" from-port="0" to-layer="1809" to-port="1"/>
		<edge from-layer="1805" from-port="2" to-layer="1810" to-port="0"/>
		<edge from-layer="1809" from-port="2" to-layer="1810" to-port="1"/>
		<edge from-layer="1811" from-port="0" to-layer="1812" to-port="0"/>
		<edge from-layer="1810" from-port="2" to-layer="1813" to-port="0"/>
		<edge from-layer="1812" from-port="1" to-layer="1813" to-port="1"/>
		<edge from-layer="1813" from-port="2" to-layer="1814" to-port="0"/>
		<edge from-layer="1815" from-port="0" to-layer="1816" to-port="0"/>
		<edge from-layer="1814" from-port="1" to-layer="1817" to-port="0"/>
		<edge from-layer="1816" from-port="1" to-layer="1817" to-port="1"/>
		<edge from-layer="1818" from-port="0" to-layer="1819" to-port="0"/>
		<edge from-layer="1817" from-port="2" to-layer="1820" to-port="0"/>
		<edge from-layer="1819" from-port="1" to-layer="1820" to-port="1"/>
		<edge from-layer="1820" from-port="2" to-layer="1821" to-port="0"/>
		<edge from-layer="1822" from-port="0" to-layer="1823" to-port="0"/>
		<edge from-layer="1821" from-port="1" to-layer="1824" to-port="0"/>
		<edge from-layer="1823" from-port="1" to-layer="1824" to-port="1"/>
		<edge from-layer="1825" from-port="0" to-layer="1826" to-port="0"/>
		<edge from-layer="1824" from-port="2" to-layer="1827" to-port="0"/>
		<edge from-layer="1826" from-port="1" to-layer="1827" to-port="1"/>
		<edge from-layer="1759" from-port="1" to-layer="1830" to-port="0"/>
		<edge from-layer="1828" from-port="0" to-layer="1830" to-port="1"/>
		<edge from-layer="1829" from-port="0" to-layer="1830" to-port="2"/>
		<edge from-layer="1827" from-port="2" to-layer="1832" to-port="0"/>
		<edge from-layer="1832" from-port="1" to-layer="1836" to-port="0"/>
		<edge from-layer="1833" from-port="0" to-layer="1836" to-port="1"/>
		<edge from-layer="1834" from-port="0" to-layer="1836" to-port="2"/>
		<edge from-layer="1835" from-port="0" to-layer="1836" to-port="3"/>
		<edge from-layer="1836" from-port="4" to-layer="1838" to-port="0"/>
		<edge from-layer="1837" from-port="0" to-layer="1838" to-port="1"/>
		<edge from-layer="1838" from-port="2" to-layer="1840" to-port="0"/>
		<edge from-layer="1839" from-port="0" to-layer="1840" to-port="1"/>
		<edge from-layer="1830" from-port="3" to-layer="1841" to-port="0"/>
		<edge from-layer="1831" from-port="0" to-layer="1841" to-port="1"/>
		<edge from-layer="1840" from-port="2" to-layer="1841" to-port="2"/>
		<edge from-layer="1827" from-port="2" to-layer="1842" to-port="0"/>
		<edge from-layer="1841" from-port="3" to-layer="1842" to-port="1"/>
		<edge from-layer="1842" from-port="2" to-layer="1844" to-port="0"/>
		<edge from-layer="1843" from-port="0" to-layer="1844" to-port="1"/>
		<edge from-layer="1845" from-port="0" to-layer="1846" to-port="0"/>
		<edge from-layer="1844" from-port="2" to-layer="1847" to-port="0"/>
		<edge from-layer="1846" from-port="1" to-layer="1847" to-port="1"/>
		<edge from-layer="1847" from-port="2" to-layer="1851" to-port="0"/>
		<edge from-layer="1848" from-port="0" to-layer="1851" to-port="1"/>
		<edge from-layer="1849" from-port="0" to-layer="1851" to-port="2"/>
		<edge from-layer="1850" from-port="0" to-layer="1851" to-port="3"/>
		<edge from-layer="1793" from-port="2" to-layer="1852" to-port="0"/>
		<edge from-layer="1851" from-port="4" to-layer="1852" to-port="1"/>
		<edge from-layer="1792" from-port="2" to-layer="1853" to-port="0"/>
		<edge from-layer="1852" from-port="2" to-layer="1853" to-port="1"/>
		<edge from-layer="1847" from-port="2" to-layer="1857" to-port="0"/>
		<edge from-layer="1854" from-port="0" to-layer="1857" to-port="1"/>
		<edge from-layer="1855" from-port="0" to-layer="1857" to-port="2"/>
		<edge from-layer="1856" from-port="0" to-layer="1857" to-port="3"/>
		<edge from-layer="1857" from-port="4" to-layer="1858" to-port="0"/>
		<edge from-layer="1858" from-port="1" to-layer="1859" to-port="0"/>
		<edge from-layer="1793" from-port="2" to-layer="1860" to-port="0"/>
		<edge from-layer="1859" from-port="1" to-layer="1860" to-port="1"/>
		<edge from-layer="1861" from-port="0" to-layer="1862" to-port="0"/>
		<edge from-layer="1860" from-port="2" to-layer="1863" to-port="0"/>
		<edge from-layer="1862" from-port="1" to-layer="1863" to-port="1"/>
		<edge from-layer="1853" from-port="2" to-layer="1864" to-port="0"/>
		<edge from-layer="1863" from-port="2" to-layer="1864" to-port="1"/>
		<edge from-layer="1864" from-port="2" to-layer="1867" to-port="0"/>
		<edge from-layer="1865" from-port="0" to-layer="1867" to-port="1"/>
		<edge from-layer="1866" from-port="0" to-layer="1867" to-port="2"/>
		<edge from-layer="1867" from-port="3" to-layer="1868" to-port="0"/>
		<edge from-layer="1868" from-port="1" to-layer="1870" to-port="0"/>
		<edge from-layer="1869" from-port="0" to-layer="1870" to-port="1"/>
		<edge from-layer="1864" from-port="2" to-layer="1873" to-port="0"/>
		<edge from-layer="1871" from-port="0" to-layer="1873" to-port="1"/>
		<edge from-layer="1872" from-port="0" to-layer="1873" to-port="2"/>
		<edge from-layer="1873" from-port="3" to-layer="1874" to-port="0"/>
		<edge from-layer="1874" from-port="1" to-layer="1876" to-port="0"/>
		<edge from-layer="1875" from-port="0" to-layer="1876" to-port="1"/>
		<edge from-layer="1853" from-port="2" to-layer="1877" to-port="0"/>
		<edge from-layer="1863" from-port="2" to-layer="1877" to-port="1"/>
		<edge from-layer="1877" from-port="2" to-layer="1880" to-port="0"/>
		<edge from-layer="1878" from-port="0" to-layer="1880" to-port="1"/>
		<edge from-layer="1879" from-port="0" to-layer="1880" to-port="2"/>
		<edge from-layer="1880" from-port="3" to-layer="1881" to-port="0"/>
		<edge from-layer="1881" from-port="1" to-layer="1883" to-port="0"/>
		<edge from-layer="1882" from-port="0" to-layer="1883" to-port="1"/>
		<edge from-layer="1877" from-port="2" to-layer="1886" to-port="0"/>
		<edge from-layer="1884" from-port="0" to-layer="1886" to-port="1"/>
		<edge from-layer="1885" from-port="0" to-layer="1886" to-port="2"/>
		<edge from-layer="1886" from-port="3" to-layer="1887" to-port="0"/>
		<edge from-layer="1887" from-port="1" to-layer="1889" to-port="0"/>
		<edge from-layer="1888" from-port="0" to-layer="1889" to-port="1"/>
		<edge from-layer="1870" from-port="2" to-layer="1890" to-port="0"/>
		<edge from-layer="1876" from-port="2" to-layer="1890" to-port="1"/>
		<edge from-layer="1883" from-port="2" to-layer="1890" to-port="2"/>
		<edge from-layer="1889" from-port="2" to-layer="1890" to-port="3"/>
		<edge from-layer="1842" from-port="2" to-layer="1891" to-port="0"/>
		<edge from-layer="1890" from-port="4" to-layer="1892" to-port="0"/>
		<edge from-layer="1891" from-port="1" to-layer="1892" to-port="1"/>
		<edge from-layer="1892" from-port="2" to-layer="1894" to-port="0"/>
		<edge from-layer="1893" from-port="0" to-layer="1894" to-port="1"/>
		<edge from-layer="1894" from-port="2" to-layer="1895" to-port="0"/>
		<edge from-layer="1895" from-port="1" to-layer="1899" to-port="0"/>
		<edge from-layer="1896" from-port="0" to-layer="1899" to-port="1"/>
		<edge from-layer="1897" from-port="0" to-layer="1899" to-port="2"/>
		<edge from-layer="1898" from-port="0" to-layer="1899" to-port="3"/>
		<edge from-layer="1899" from-port="4" to-layer="1901" to-port="0"/>
		<edge from-layer="1900" from-port="0" to-layer="1901" to-port="1"/>
		<edge from-layer="1901" from-port="2" to-layer="1903" to-port="0"/>
		<edge from-layer="1902" from-port="0" to-layer="1903" to-port="1"/>
		<edge from-layer="1894" from-port="2" to-layer="1904" to-port="0"/>
		<edge from-layer="1903" from-port="2" to-layer="1904" to-port="1"/>
		<edge from-layer="1905" from-port="0" to-layer="1906" to-port="0"/>
		<edge from-layer="1821" from-port="1" to-layer="1907" to-port="0"/>
		<edge from-layer="1906" from-port="1" to-layer="1907" to-port="1"/>
		<edge from-layer="1908" from-port="0" to-layer="1909" to-port="0"/>
		<edge from-layer="1907" from-port="2" to-layer="1910" to-port="0"/>
		<edge from-layer="1909" from-port="1" to-layer="1910" to-port="1"/>
		<edge from-layer="1759" from-port="1" to-layer="1913" to-port="0"/>
		<edge from-layer="1911" from-port="0" to-layer="1913" to-port="1"/>
		<edge from-layer="1912" from-port="0" to-layer="1913" to-port="2"/>
		<edge from-layer="1910" from-port="2" to-layer="1915" to-port="0"/>
		<edge from-layer="1915" from-port="1" to-layer="1919" to-port="0"/>
		<edge from-layer="1916" from-port="0" to-layer="1919" to-port="1"/>
		<edge from-layer="1917" from-port="0" to-layer="1919" to-port="2"/>
		<edge from-layer="1918" from-port="0" to-layer="1919" to-port="3"/>
		<edge from-layer="1919" from-port="4" to-layer="1921" to-port="0"/>
		<edge from-layer="1920" from-port="0" to-layer="1921" to-port="1"/>
		<edge from-layer="1921" from-port="2" to-layer="1923" to-port="0"/>
		<edge from-layer="1922" from-port="0" to-layer="1923" to-port="1"/>
		<edge from-layer="1913" from-port="3" to-layer="1924" to-port="0"/>
		<edge from-layer="1914" from-port="0" to-layer="1924" to-port="1"/>
		<edge from-layer="1923" from-port="2" to-layer="1924" to-port="2"/>
		<edge from-layer="1910" from-port="2" to-layer="1925" to-port="0"/>
		<edge from-layer="1924" from-port="3" to-layer="1925" to-port="1"/>
		<edge from-layer="1925" from-port="2" to-layer="1926" to-port="0"/>
		<edge from-layer="1926" from-port="1" to-layer="1930" to-port="0"/>
		<edge from-layer="1927" from-port="0" to-layer="1930" to-port="1"/>
		<edge from-layer="1928" from-port="0" to-layer="1930" to-port="2"/>
		<edge from-layer="1929" from-port="0" to-layer="1930" to-port="3"/>
		<edge from-layer="1930" from-port="4" to-layer="1932" to-port="0"/>
		<edge from-layer="1931" from-port="0" to-layer="1932" to-port="1"/>
		<edge from-layer="1932" from-port="2" to-layer="1934" to-port="0"/>
		<edge from-layer="1933" from-port="0" to-layer="1934" to-port="1"/>
		<edge from-layer="1934" from-port="3" to-layer="1935" to-port="0"/>
		<edge from-layer="1895" from-port="1" to-layer="1939" to-port="0"/>
		<edge from-layer="1937" from-port="0" to-layer="1939" to-port="1"/>
		<edge from-layer="1938" from-port="0" to-layer="1939" to-port="2"/>
		<edge from-layer="1936" from-port="0" to-layer="1941" to-port="0"/>
		<edge from-layer="1939" from-port="3" to-layer="1941" to-port="1"/>
		<edge from-layer="1940" from-port="0" to-layer="1941" to-port="2"/>
		<edge from-layer="1941" from-port="3" to-layer="1943" to-port="0"/>
		<edge from-layer="1942" from-port="0" to-layer="1943" to-port="1"/>
		<edge from-layer="1895" from-port="1" to-layer="1946" to-port="0"/>
		<edge from-layer="1944" from-port="0" to-layer="1946" to-port="1"/>
		<edge from-layer="1945" from-port="0" to-layer="1946" to-port="2"/>
		<edge from-layer="1943" from-port="2" to-layer="1947" to-port="0"/>
		<edge from-layer="1946" from-port="3" to-layer="1947" to-port="1"/>
		<edge from-layer="1935" from-port="1" to-layer="1948" to-port="0"/>
		<edge from-layer="1947" from-port="2" to-layer="1948" to-port="1"/>
		<edge from-layer="1948" from-port="2" to-layer="1949" to-port="0"/>
		<edge from-layer="1904" from-port="2" to-layer="1951" to-port="0"/>
		<edge from-layer="1949" from-port="1" to-layer="1951" to-port="1"/>
		<edge from-layer="1950" from-port="0" to-layer="1951" to-port="2"/>
		<edge from-layer="1895" from-port="1" to-layer="1955" to-port="0"/>
		<edge from-layer="1953" from-port="0" to-layer="1955" to-port="1"/>
		<edge from-layer="1954" from-port="0" to-layer="1955" to-port="2"/>
		<edge from-layer="1952" from-port="0" to-layer="1956" to-port="0"/>
		<edge from-layer="1955" from-port="3" to-layer="1956" to-port="1"/>
		<edge from-layer="1951" from-port="3" to-layer="1957" to-port="0"/>
		<edge from-layer="1956" from-port="2" to-layer="1957" to-port="1"/>
		<edge from-layer="1948" from-port="2" to-layer="1958" to-port="0"/>
		<edge from-layer="1958" from-port="1" to-layer="1959" to-port="0"/>
		<edge from-layer="1955" from-port="3" to-layer="1959" to-port="1"/>
		<edge from-layer="1957" from-port="2" to-layer="1960" to-port="0"/>
		<edge from-layer="1959" from-port="2" to-layer="1960" to-port="1"/>
		<edge from-layer="1926" from-port="1" to-layer="1961" to-port="0"/>
		<edge from-layer="1961" from-port="1" to-layer="1964" to-port="0"/>
		<edge from-layer="1962" from-port="0" to-layer="1964" to-port="1"/>
		<edge from-layer="1963" from-port="0" to-layer="1964" to-port="2"/>
		<edge from-layer="1964" from-port="3" to-layer="1967" to-port="0"/>
		<edge from-layer="1965" from-port="0" to-layer="1967" to-port="1"/>
		<edge from-layer="1966" from-port="0" to-layer="1967" to-port="2"/>
		<edge from-layer="1960" from-port="2" to-layer="1968" to-port="0"/>
		<edge from-layer="1967" from-port="3" to-layer="1968" to-port="1"/>
		<edge from-layer="1930" from-port="4" to-layer="1970" to-port="0"/>
		<edge from-layer="1969" from-port="0" to-layer="1970" to-port="1"/>
		<edge from-layer="1970" from-port="2" to-layer="1972" to-port="0"/>
		<edge from-layer="1971" from-port="0" to-layer="1972" to-port="1"/>
		<edge from-layer="1972" from-port="2" to-layer="1973" to-port="0"/>
		<edge from-layer="1973" from-port="1" to-layer="1976" to-port="0"/>
		<edge from-layer="1974" from-port="0" to-layer="1976" to-port="1"/>
		<edge from-layer="1975" from-port="0" to-layer="1976" to-port="2"/>
		<edge from-layer="1977" from-port="0" to-layer="1978" to-port="0"/>
		<edge from-layer="1976" from-port="3" to-layer="1978" to-port="1"/>
		<edge from-layer="1978" from-port="2" to-layer="1979" to-port="0"/>
		<edge from-layer="1637" from-port="0" to-layer="1979" to-port="1"/>
		<edge from-layer="1976" from-port="3" to-layer="1979" to-port="2"/>
		<edge from-layer="1979" from-port="3" to-layer="1981" to-port="0"/>
		<edge from-layer="1980" from-port="0" to-layer="1981" to-port="1"/>
		<edge from-layer="1981" from-port="2" to-layer="1983" to-port="0"/>
		<edge from-layer="1982" from-port="0" to-layer="1983" to-port="1"/>
		<edge from-layer="1983" from-port="2" to-layer="1984" to-port="0"/>
		<edge from-layer="1972" from-port="2" to-layer="1985" to-port="0"/>
		<edge from-layer="1984" from-port="1" to-layer="1985" to-port="1"/>
		<edge from-layer="1985" from-port="3" to-layer="1986" to-port="0"/>
		<edge from-layer="1968" from-port="2" to-layer="1988" to-port="0"/>
		<edge from-layer="1986" from-port="1" to-layer="1988" to-port="1"/>
		<edge from-layer="1987" from-port="0" to-layer="1988" to-port="2"/>
		<edge from-layer="1985" from-port="3" to-layer="1989" to-port="0"/>
		<edge from-layer="1930" from-port="4" to-layer="1991" to-port="0"/>
		<edge from-layer="1989" from-port="1" to-layer="1991" to-port="1"/>
		<edge from-layer="1990" from-port="0" to-layer="1991" to-port="2"/>
		<edge from-layer="1991" from-port="3" to-layer="1993" to-port="0"/>
		<edge from-layer="1992" from-port="0" to-layer="1993" to-port="1"/>
		<edge from-layer="1994" from-port="0" to-layer="1995" to-port="0"/>
		<edge from-layer="1996" from-port="0" to-layer="1997" to-port="0"/>
		<edge from-layer="1988" from-port="3" to-layer="1999" to-port="0"/>
		<edge from-layer="1993" from-port="2" to-layer="1999" to-port="1"/>
		<edge from-layer="1998" from-port="0" to-layer="1999" to-port="2"/>
		<edge from-layer="1995" from-port="1" to-layer="1999" to-port="3"/>
		<edge from-layer="1997" from-port="1" to-layer="1999" to-port="4"/>
		<edge from-layer="1999" from-port="5" to-layer="2012" to-port="0"/>
		<edge from-layer="2010" from-port="0" to-layer="2012" to-port="1"/>
		<edge from-layer="2011" from-port="0" to-layer="2012" to-port="2"/>
		<edge from-layer="2012" from-port="3" to-layer="2013" to-port="0"/>
		<edge from-layer="2013" from-port="1" to-layer="2014" to-port="0"/>
		<edge from-layer="1988" from-port="3" to-layer="2016" to-port="0"/>
		<edge from-layer="2014" from-port="1" to-layer="2016" to-port="1"/>
		<edge from-layer="2015" from-port="0" to-layer="2016" to-port="2"/>
		<edge from-layer="1991" from-port="3" to-layer="2017" to-port="0"/>
		<edge from-layer="2017" from-port="1" to-layer="2021" to-port="0"/>
		<edge from-layer="2018" from-port="0" to-layer="2021" to-port="1"/>
		<edge from-layer="2019" from-port="0" to-layer="2021" to-port="2"/>
		<edge from-layer="2020" from-port="0" to-layer="2021" to-port="3"/>
		<edge from-layer="2021" from-port="4" to-layer="2023" to-port="0"/>
		<edge from-layer="2022" from-port="0" to-layer="2023" to-port="1"/>
		<edge from-layer="2023" from-port="2" to-layer="2025" to-port="0"/>
		<edge from-layer="2024" from-port="0" to-layer="2025" to-port="1"/>
		<edge from-layer="1991" from-port="3" to-layer="2026" to-port="0"/>
		<edge from-layer="2025" from-port="2" to-layer="2026" to-port="1"/>
		<edge from-layer="1999" from-port="5" to-layer="2029" to-port="0"/>
		<edge from-layer="2027" from-port="0" to-layer="2029" to-port="1"/>
		<edge from-layer="2028" from-port="0" to-layer="2029" to-port="2"/>
		<edge from-layer="1993" from-port="2" to-layer="2030" to-port="0"/>
		<edge from-layer="2030" from-port="1" to-layer="2033" to-port="0"/>
		<edge from-layer="2031" from-port="0" to-layer="2033" to-port="1"/>
		<edge from-layer="2032" from-port="0" to-layer="2033" to-port="2"/>
		<edge from-layer="2029" from-port="3" to-layer="2034" to-port="0"/>
		<edge from-layer="2033" from-port="3" to-layer="2034" to-port="1"/>
		<edge from-layer="2012" from-port="3" to-layer="2035" to-port="0"/>
		<edge from-layer="2034" from-port="2" to-layer="2035" to-port="1"/>
		<edge from-layer="2035" from-port="2" to-layer="2036" to-port="0"/>
		<edge from-layer="2026" from-port="2" to-layer="2038" to-port="0"/>
		<edge from-layer="2036" from-port="1" to-layer="2038" to-port="1"/>
		<edge from-layer="2037" from-port="0" to-layer="2038" to-port="2"/>
		<edge from-layer="2030" from-port="1" to-layer="2042" to-port="0"/>
		<edge from-layer="2040" from-port="0" to-layer="2042" to-port="1"/>
		<edge from-layer="2041" from-port="0" to-layer="2042" to-port="2"/>
		<edge from-layer="2039" from-port="0" to-layer="2043" to-port="0"/>
		<edge from-layer="2042" from-port="3" to-layer="2043" to-port="1"/>
		<edge from-layer="2038" from-port="3" to-layer="2044" to-port="0"/>
		<edge from-layer="2043" from-port="2" to-layer="2044" to-port="1"/>
		<edge from-layer="2044" from-port="2" to-layer="2046" to-port="0"/>
		<edge from-layer="2045" from-port="0" to-layer="2046" to-port="1"/>
		<edge from-layer="2035" from-port="2" to-layer="2047" to-port="0"/>
		<edge from-layer="2042" from-port="3" to-layer="2048" to-port="0"/>
		<edge from-layer="2047" from-port="1" to-layer="2048" to-port="1"/>
		<edge from-layer="2046" from-port="2" to-layer="2049" to-port="0"/>
		<edge from-layer="2048" from-port="2" to-layer="2049" to-port="1"/>
		<edge from-layer="2049" from-port="2" to-layer="2051" to-port="0"/>
		<edge from-layer="2050" from-port="0" to-layer="2051" to-port="1"/>
		<edge from-layer="2016" from-port="3" to-layer="2052" to-port="0"/>
		<edge from-layer="2051" from-port="2" to-layer="2052" to-port="1"/>
		<edge from-layer="2053" from-port="0" to-layer="2054" to-port="0"/>
		<edge from-layer="2052" from-port="2" to-layer="2055" to-port="0"/>
		<edge from-layer="2054" from-port="1" to-layer="2055" to-port="1"/>
		<edge from-layer="2055" from-port="2" to-layer="2058" to-port="0"/>
		<edge from-layer="2056" from-port="0" to-layer="2058" to-port="1"/>
		<edge from-layer="2057" from-port="0" to-layer="2058" to-port="2"/>
		<edge from-layer="2058" from-port="3" to-layer="2059" to-port="0"/>
		<edge from-layer="2059" from-port="1" to-layer="2062" to-port="0"/>
		<edge from-layer="2060" from-port="0" to-layer="2062" to-port="1"/>
		<edge from-layer="2061" from-port="0" to-layer="2062" to-port="2"/>
		<edge from-layer="2063" from-port="0" to-layer="2064" to-port="0"/>
		<edge from-layer="2062" from-port="3" to-layer="2064" to-port="1"/>
		<edge from-layer="2064" from-port="2" to-layer="2066" to-port="0"/>
		<edge from-layer="2065" from-port="0" to-layer="2066" to-port="1"/>
		<edge from-layer="2062" from-port="3" to-layer="2066" to-port="2"/>
		<edge from-layer="2066" from-port="3" to-layer="2068" to-port="0"/>
		<edge from-layer="2067" from-port="0" to-layer="2068" to-port="1"/>
		<edge from-layer="2068" from-port="2" to-layer="2070" to-port="0"/>
		<edge from-layer="2069" from-port="0" to-layer="2070" to-port="1"/>
		<edge from-layer="2070" from-port="2" to-layer="2071" to-port="0"/>
		<edge from-layer="2058" from-port="3" to-layer="2072" to-port="0"/>
		<edge from-layer="2071" from-port="1" to-layer="2072" to-port="1"/>
		<edge from-layer="2072" from-port="3" to-layer="2078" to-port="0"/>
		<edge from-layer="2077" from-port="0" to-layer="2078" to-port="1"/>
		<edge from-layer="2078" from-port="2" to-layer="2079" to-port="0"/>
		<edge from-layer="2055" from-port="2" to-layer="2081" to-port="0"/>
		<edge from-layer="2079" from-port="1" to-layer="2081" to-port="1"/>
		<edge from-layer="2080" from-port="0" to-layer="2081" to-port="2"/>
		<edge from-layer="2082" from-port="0" to-layer="2083" to-port="0"/>
		<edge from-layer="2081" from-port="3" to-layer="2084" to-port="0"/>
		<edge from-layer="2084" from-port="1" to-layer="2087" to-port="0"/>
		<edge from-layer="2085" from-port="0" to-layer="2087" to-port="1"/>
		<edge from-layer="2086" from-port="0" to-layer="2087" to-port="2"/>
		<edge from-layer="2084" from-port="1" to-layer="2091" to-port="0"/>
		<edge from-layer="2089" from-port="0" to-layer="2091" to-port="1"/>
		<edge from-layer="2090" from-port="0" to-layer="2091" to-port="2"/>
		<edge from-layer="2087" from-port="3" to-layer="2092" to-port="0"/>
		<edge from-layer="2088" from-port="0" to-layer="2092" to-port="1"/>
		<edge from-layer="2091" from-port="3" to-layer="2092" to-port="2"/>
		<edge from-layer="2083" from-port="1" to-layer="2093" to-port="0"/>
		<edge from-layer="2092" from-port="3" to-layer="2093" to-port="1"/>
		<edge from-layer="2081" from-port="3" to-layer="2094" to-port="0"/>
		<edge from-layer="2093" from-port="2" to-layer="2094" to-port="1"/>
		<edge from-layer="2094" from-port="2" to-layer="2098" to-port="0"/>
		<edge from-layer="2095" from-port="0" to-layer="2098" to-port="1"/>
		<edge from-layer="2096" from-port="0" to-layer="2098" to-port="2"/>
		<edge from-layer="2097" from-port="0" to-layer="2098" to-port="3"/>
		<edge from-layer="2098" from-port="4" to-layer="2100" to-port="0"/>
		<edge from-layer="2100" from-port="1" to-layer="2103" to-port="0"/>
		<edge from-layer="2101" from-port="0" to-layer="2103" to-port="1"/>
		<edge from-layer="2102" from-port="0" to-layer="2103" to-port="2"/>
		<edge from-layer="2099" from-port="0" to-layer="2105" to-port="0"/>
		<edge from-layer="2103" from-port="3" to-layer="2105" to-port="1"/>
		<edge from-layer="2104" from-port="0" to-layer="2105" to-port="2"/>
		<edge from-layer="2105" from-port="3" to-layer="2106" to-port="0"/>
		<edge from-layer="2106" from-port="1" to-layer="2108" to-port="0"/>
		<edge from-layer="2107" from-port="0" to-layer="2108" to-port="1"/>
		<edge from-layer="2110" from-port="0" to-layer="2111" to-port="0"/>
		<edge from-layer="2100" from-port="1" to-layer="2114" to-port="0"/>
		<edge from-layer="2112" from-port="0" to-layer="2114" to-port="1"/>
		<edge from-layer="2113" from-port="0" to-layer="2114" to-port="2"/>
		<edge from-layer="2111" from-port="1" to-layer="2115" to-port="0"/>
		<edge from-layer="2114" from-port="3" to-layer="2115" to-port="1"/>
		<edge from-layer="2115" from-port="2" to-layer="2116" to-port="0"/>
		<edge from-layer="2109" from-port="0" to-layer="2116" to-port="1"/>
		<edge from-layer="2108" from-port="2" to-layer="2117" to-port="0"/>
		<edge from-layer="2116" from-port="2" to-layer="2117" to-port="1"/>
		<edge from-layer="2117" from-port="2" to-layer="2118" to-port="0"/>
		<edge from-layer="2098" from-port="4" to-layer="2118" to-port="1"/>
		<edge from-layer="2118" from-port="2" to-layer="2120" to-port="0"/>
		<edge from-layer="2119" from-port="0" to-layer="2120" to-port="1"/>
		<edge from-layer="2120" from-port="2" to-layer="2124" to-port="0"/>
		<edge from-layer="2121" from-port="0" to-layer="2124" to-port="1"/>
		<edge from-layer="2122" from-port="0" to-layer="2124" to-port="2"/>
		<edge from-layer="2123" from-port="0" to-layer="2124" to-port="3"/>
		<edge from-layer="2124" from-port="4" to-layer="2125" to-port="0"/>
		<edge from-layer="918" from-port="2" to-layer="2125" to-port="1"/>
		<edge from-layer="981" from-port="2" to-layer="2125" to-port="2"/>
		<edge from-layer="1038" from-port="2" to-layer="2125" to-port="3"/>
		<edge from-layer="1095" from-port="2" to-layer="2125" to-port="4"/>
		<edge from-layer="2029" from-port="3" to-layer="2131" to-port="0"/>
		<edge from-layer="2130" from-port="0" to-layer="2131" to-port="1"/>
		<edge from-layer="2131" from-port="2" to-layer="2133" to-port="0"/>
		<edge from-layer="2132" from-port="0" to-layer="2133" to-port="1"/>
		<edge from-layer="2078" from-port="2" to-layer="2134" to-port="0"/>
		<edge from-layer="2133" from-port="2" to-layer="2136" to-port="0"/>
		<edge from-layer="2134" from-port="1" to-layer="2136" to-port="1"/>
		<edge from-layer="2135" from-port="0" to-layer="2136" to-port="2"/>
		<edge from-layer="2136" from-port="3" to-layer="2137" to-port="0"/>
		<edge from-layer="2137" from-port="1" to-layer="2140" to-port="0"/>
		<edge from-layer="2138" from-port="0" to-layer="2140" to-port="1"/>
		<edge from-layer="2139" from-port="0" to-layer="2140" to-port="2"/>
		<edge from-layer="2140" from-port="3" to-layer="2142" to-port="0"/>
		<edge from-layer="2141" from-port="0" to-layer="2142" to-port="1"/>
		<edge from-layer="2129" from-port="0" to-layer="2143" to-port="0"/>
		<edge from-layer="2142" from-port="2" to-layer="2143" to-port="1"/>
		<edge from-layer="2136" from-port="3" to-layer="2144" to-port="0"/>
		<edge from-layer="2143" from-port="2" to-layer="2144" to-port="1"/>
		<edge from-layer="2125" from-port="5" to-layer="2170" to-port="0"/>
		<edge from-layer="2166" from-port="0" to-layer="2170" to-port="1"/>
		<edge from-layer="2167" from-port="0" to-layer="2170" to-port="2"/>
		<edge from-layer="2168" from-port="0" to-layer="2170" to-port="3"/>
		<edge from-layer="2169" from-port="0" to-layer="2170" to-port="4"/>
		<edge from-layer="2172" from-port="0" to-layer="2173" to-port="0"/>
		<edge from-layer="2173" from-port="1" to-layer="2174" to-port="0"/>
		<edge from-layer="2171" from-port="0" to-layer="2174" to-port="1"/>
		<edge from-layer="2170" from-port="5" to-layer="2175" to-port="0"/>
		<edge from-layer="2174" from-port="2" to-layer="2175" to-port="1"/>
		<edge from-layer="2176" from-port="0" to-layer="2177" to-port="0"/>
		<edge from-layer="2175" from-port="2" to-layer="2178" to-port="0"/>
		<edge from-layer="2177" from-port="1" to-layer="2178" to-port="1"/>
		<edge from-layer="2178" from-port="2" to-layer="2179" to-port="0"/>
		<edge from-layer="2179" from-port="1" to-layer="2180" to-port="0"/>
		<edge from-layer="2162" from-port="0" to-layer="2180" to-port="1"/>
		<edge from-layer="2163" from-port="0" to-layer="2180" to-port="2"/>
		<edge from-layer="2164" from-port="0" to-layer="2180" to-port="3"/>
		<edge from-layer="2165" from-port="0" to-layer="2180" to-port="4"/>
		<edge from-layer="2182" from-port="0" to-layer="2183" to-port="0"/>
		<edge from-layer="2183" from-port="1" to-layer="2184" to-port="0"/>
		<edge from-layer="2181" from-port="0" to-layer="2184" to-port="1"/>
		<edge from-layer="2180" from-port="5" to-layer="2185" to-port="0"/>
		<edge from-layer="2184" from-port="2" to-layer="2185" to-port="1"/>
		<edge from-layer="2186" from-port="0" to-layer="2187" to-port="0"/>
		<edge from-layer="2185" from-port="2" to-layer="2188" to-port="0"/>
		<edge from-layer="2187" from-port="1" to-layer="2188" to-port="1"/>
		<edge from-layer="2188" from-port="2" to-layer="2189" to-port="0"/>
		<edge from-layer="2189" from-port="1" to-layer="2190" to-port="0"/>
		<edge from-layer="2158" from-port="0" to-layer="2190" to-port="1"/>
		<edge from-layer="2159" from-port="0" to-layer="2190" to-port="2"/>
		<edge from-layer="2160" from-port="0" to-layer="2190" to-port="3"/>
		<edge from-layer="2161" from-port="0" to-layer="2190" to-port="4"/>
		<edge from-layer="2192" from-port="0" to-layer="2193" to-port="0"/>
		<edge from-layer="2193" from-port="1" to-layer="2194" to-port="0"/>
		<edge from-layer="2191" from-port="0" to-layer="2194" to-port="1"/>
		<edge from-layer="2190" from-port="5" to-layer="2195" to-port="0"/>
		<edge from-layer="2194" from-port="2" to-layer="2195" to-port="1"/>
		<edge from-layer="2196" from-port="0" to-layer="2197" to-port="0"/>
		<edge from-layer="2195" from-port="2" to-layer="2198" to-port="0"/>
		<edge from-layer="2197" from-port="1" to-layer="2198" to-port="1"/>
		<edge from-layer="2198" from-port="2" to-layer="2199" to-port="0"/>
		<edge from-layer="2199" from-port="1" to-layer="2200" to-port="0"/>
		<edge from-layer="2154" from-port="0" to-layer="2200" to-port="1"/>
		<edge from-layer="2155" from-port="0" to-layer="2200" to-port="2"/>
		<edge from-layer="2156" from-port="0" to-layer="2200" to-port="3"/>
		<edge from-layer="2157" from-port="0" to-layer="2200" to-port="4"/>
		<edge from-layer="2202" from-port="0" to-layer="2203" to-port="0"/>
		<edge from-layer="2203" from-port="1" to-layer="2204" to-port="0"/>
		<edge from-layer="2201" from-port="0" to-layer="2204" to-port="1"/>
		<edge from-layer="2200" from-port="5" to-layer="2205" to-port="0"/>
		<edge from-layer="2204" from-port="2" to-layer="2205" to-port="1"/>
		<edge from-layer="2206" from-port="0" to-layer="2207" to-port="0"/>
		<edge from-layer="2205" from-port="2" to-layer="2208" to-port="0"/>
		<edge from-layer="2207" from-port="1" to-layer="2208" to-port="1"/>
		<edge from-layer="2208" from-port="2" to-layer="2209" to-port="0"/>
		<edge from-layer="2209" from-port="1" to-layer="2210" to-port="0"/>
		<edge from-layer="2150" from-port="0" to-layer="2210" to-port="1"/>
		<edge from-layer="2151" from-port="0" to-layer="2210" to-port="2"/>
		<edge from-layer="2152" from-port="0" to-layer="2210" to-port="3"/>
		<edge from-layer="2153" from-port="0" to-layer="2210" to-port="4"/>
		<edge from-layer="2212" from-port="0" to-layer="2213" to-port="0"/>
		<edge from-layer="2213" from-port="1" to-layer="2214" to-port="0"/>
		<edge from-layer="2211" from-port="0" to-layer="2214" to-port="1"/>
		<edge from-layer="2210" from-port="5" to-layer="2215" to-port="0"/>
		<edge from-layer="2214" from-port="2" to-layer="2215" to-port="1"/>
		<edge from-layer="2216" from-port="0" to-layer="2217" to-port="0"/>
		<edge from-layer="2215" from-port="2" to-layer="2218" to-port="0"/>
		<edge from-layer="2217" from-port="1" to-layer="2218" to-port="1"/>
		<edge from-layer="2218" from-port="2" to-layer="2219" to-port="0"/>
		<edge from-layer="2219" from-port="1" to-layer="2220" to-port="0"/>
		<edge from-layer="2146" from-port="0" to-layer="2220" to-port="1"/>
		<edge from-layer="2147" from-port="0" to-layer="2220" to-port="2"/>
		<edge from-layer="2148" from-port="0" to-layer="2220" to-port="3"/>
		<edge from-layer="2149" from-port="0" to-layer="2220" to-port="4"/>
		<edge from-layer="2222" from-port="0" to-layer="2223" to-port="0"/>
		<edge from-layer="2223" from-port="1" to-layer="2224" to-port="0"/>
		<edge from-layer="2221" from-port="0" to-layer="2224" to-port="1"/>
		<edge from-layer="2220" from-port="5" to-layer="2225" to-port="0"/>
		<edge from-layer="2224" from-port="2" to-layer="2225" to-port="1"/>
		<edge from-layer="2226" from-port="0" to-layer="2227" to-port="0"/>
		<edge from-layer="2225" from-port="2" to-layer="2228" to-port="0"/>
		<edge from-layer="2227" from-port="1" to-layer="2228" to-port="1"/>
		<edge from-layer="2228" from-port="2" to-layer="2229" to-port="0"/>
		<edge from-layer="2229" from-port="1" to-layer="2230" to-port="0"/>
		<edge from-layer="2230" from-port="1" to-layer="2234" to-port="0"/>
		<edge from-layer="2231" from-port="0" to-layer="2234" to-port="1"/>
		<edge from-layer="2232" from-port="0" to-layer="2234" to-port="2"/>
		<edge from-layer="2233" from-port="0" to-layer="2234" to-port="3"/>
		<edge from-layer="2234" from-port="4" to-layer="2236" to-port="0"/>
		<edge from-layer="2235" from-port="0" to-layer="2236" to-port="1"/>
		<edge from-layer="2236" from-port="2" to-layer="2238" to-port="0"/>
		<edge from-layer="2237" from-port="0" to-layer="2238" to-port="1"/>
		<edge from-layer="2229" from-port="1" to-layer="2239" to-port="0"/>
		<edge from-layer="2238" from-port="2" to-layer="2239" to-port="1"/>
		<edge from-layer="2144" from-port="2" to-layer="2241" to-port="0"/>
		<edge from-layer="2240" from-port="0" to-layer="2241" to-port="1"/>
		<edge from-layer="2230" from-port="1" to-layer="2244" to-port="0"/>
		<edge from-layer="2242" from-port="0" to-layer="2244" to-port="1"/>
		<edge from-layer="2243" from-port="0" to-layer="2244" to-port="2"/>
		<edge from-layer="2230" from-port="1" to-layer="2248" to-port="0"/>
		<edge from-layer="2246" from-port="0" to-layer="2248" to-port="1"/>
		<edge from-layer="2247" from-port="0" to-layer="2248" to-port="2"/>
		<edge from-layer="2245" from-port="0" to-layer="2250" to-port="0"/>
		<edge from-layer="2248" from-port="3" to-layer="2250" to-port="1"/>
		<edge from-layer="2249" from-port="0" to-layer="2250" to-port="2"/>
		<edge from-layer="2250" from-port="3" to-layer="2251" to-port="0"/>
		<edge from-layer="2244" from-port="3" to-layer="2251" to-port="1"/>
		<edge from-layer="2241" from-port="2" to-layer="2252" to-port="0"/>
		<edge from-layer="2251" from-port="2" to-layer="2252" to-port="1"/>
		<edge from-layer="2252" from-port="2" to-layer="2253" to-port="0"/>
		<edge from-layer="2239" from-port="2" to-layer="2255" to-port="0"/>
		<edge from-layer="2253" from-port="1" to-layer="2255" to-port="1"/>
		<edge from-layer="2254" from-port="0" to-layer="2255" to-port="2"/>
		<edge from-layer="2230" from-port="1" to-layer="2259" to-port="0"/>
		<edge from-layer="2257" from-port="0" to-layer="2259" to-port="1"/>
		<edge from-layer="2258" from-port="0" to-layer="2259" to-port="2"/>
		<edge from-layer="2256" from-port="0" to-layer="2260" to-port="0"/>
		<edge from-layer="2259" from-port="3" to-layer="2260" to-port="1"/>
		<edge from-layer="2255" from-port="3" to-layer="2261" to-port="0"/>
		<edge from-layer="2260" from-port="2" to-layer="2261" to-port="1"/>
		<edge from-layer="2252" from-port="2" to-layer="2262" to-port="0"/>
		<edge from-layer="2230" from-port="1" to-layer="2265" to-port="0"/>
		<edge from-layer="2263" from-port="0" to-layer="2265" to-port="1"/>
		<edge from-layer="2264" from-port="0" to-layer="2265" to-port="2"/>
		<edge from-layer="2262" from-port="1" to-layer="2266" to-port="0"/>
		<edge from-layer="2265" from-port="3" to-layer="2266" to-port="1"/>
		<edge from-layer="2261" from-port="2" to-layer="2267" to-port="0"/>
		<edge from-layer="2266" from-port="2" to-layer="2267" to-port="1"/>
		<edge from-layer="2267" from-port="2" to-layer="2269" to-port="0"/>
		<edge from-layer="2268" from-port="0" to-layer="2269" to-port="1"/>
		<edge from-layer="2094" from-port="2" to-layer="2270" to-port="0"/>
		<edge from-layer="2270" from-port="1" to-layer="2273" to-port="0"/>
		<edge from-layer="2271" from-port="0" to-layer="2273" to-port="1"/>
		<edge from-layer="2272" from-port="0" to-layer="2273" to-port="2"/>
		<edge from-layer="2100" from-port="1" to-layer="2276" to-port="0"/>
		<edge from-layer="2274" from-port="0" to-layer="2276" to-port="1"/>
		<edge from-layer="2275" from-port="0" to-layer="2276" to-port="2"/>
		<edge from-layer="2273" from-port="3" to-layer="2278" to-port="0"/>
		<edge from-layer="2276" from-port="3" to-layer="2278" to-port="1"/>
		<edge from-layer="2277" from-port="0" to-layer="2278" to-port="2"/>
		<edge from-layer="2269" from-port="2" to-layer="2279" to-port="0"/>
		<edge from-layer="2278" from-port="3" to-layer="2279" to-port="1"/>
		<edge from-layer="2094" from-port="2" to-layer="2128" to-port="0"/>
		<edge from-layer="2144" from-port="2" to-layer="2145" to-port="0"/>
		<edge from-layer="2279" from-port="2" to-layer="2280" to-port="0"/>
	</edges>
	<rt_info>
		<MO_version value="2022.3.0-9038-b84161848ea-releases/2022/3"/>
		<Runtime_version value="2022.3.0-9038-b84161848ea-releases/2022/3"/>
		<conversion_parameters>
			<compress_to_fp16 value="True"/>
			<framework value="onnx"/>
			<input value="image"/>
			<input_model value="DIR/model_ready.onnx"/>
			<input_shape value="[1, 3, 640, 640]"/>
			<mean_values value="[123.675, 116.28, 103.53]"/>
			<model_name value="model"/>
			<output value="boxes,labels,masks"/>
			<output_dir value="DIR"/>
			<scale_values value="[58.395, 57.12, 57.375]"/>
		</conversion_parameters>
		<legacy_frontend value="False"/>
		<model_info>
			<confidence_threshold value="0.7000000000000001"/>
			<iou_threshold value="0.5"/>
			<labels value="pallets"/>
			<model_type value="MaskRCNN"/>
		</model_info>
		<quantization_parameters/>
	</rt_info>
	<quantization_parameters>
		<config/>
		<version value="{}"/>
		<cli_params value="{}"/>
	</quantization_parameters>
</net>
