<?xml version="1.0" ?>
<net name="torch_jit" version="11">
	<layers>
		<layer id="59" name="image" type="Parameter" version="opset1">
			<data shape="1,3,640,640" element_type="f32"/>
			<output>
				<port id="0" precision="FP32" names="image">
					<dim>1</dim>
					<dim>3</dim>
					<dim>640</dim>
					<dim>640</dim>
					<rt_info/>
				</port>
			</output>
		</layer>
		<layer id="0" name="/Flatten_2151824233" type="Const" version="opset1">
			<data offset="0" size="1228800" shape="76800,4" element_type="f32"/>
			<output>
				<port id="0" precision="FP32" names="/Flatten_2_output_0">
					<dim>76800</dim>
					<dim>4</dim>
				</port>
			</output>
		</layer>
		<layer id="1" name="/rpn_head/rpn_cls_4/Conv/WithoutBiases/fq_weights_15997" type="Const" version="opset1">
			<data offset="1228800" size="3072" shape="3,256,1,1" element_type="f32"/>
			<output>
				<port id="0" precision="FP32" names="rpn_head.rpn_cls.weight">
					<dim>3</dim>
					<dim>256</dim>
					<dim>1</dim>
					<dim>1</dim>
				</port>
			</output>
		</layer>
		<layer id="2" name="/rpn_head/rpn_conv_4/Conv/WithoutBiases/fq_weights_16367" type="Const" version="opset1">
			<data offset="1231872" size="2359296" shape="256,256,3,3" element_type="f32"/>
			<output>
				<port id="0" precision="FP32" names="rpn_head.rpn_conv.weight">
					<dim>256</dim>
					<dim>256</dim>
					<dim>3</dim>
					<dim>3</dim>
				</port>
			</output>
		</layer>
		<layer id="3" name="7529753325706" type="Const" version="opset1">
			<data offset="3591168" size="4" shape="" element_type="f32"/>
			<output>
				<port id="0" precision="FP32"/>
			</output>
		</layer>
		<layer id="4" name="7530753425664" type="Const" version="opset1">
			<data offset="3591172" size="4" shape="" element_type="f32"/>
			<output>
				<port id="0" precision="FP32"/>
			</output>
		</layer>
		<layer id="5" name="7531753525235" type="Const" version="opset1">
			<data offset="3591168" size="4" shape="" element_type="f32"/>
			<output>
				<port id="0" precision="FP32"/>
			</output>
		</layer>
		<layer id="6" name="7532753626810" type="Const" version="opset1">
			<data offset="3591172" size="4" shape="" element_type="f32"/>
			<output>
				<port id="0" precision="FP32"/>
			</output>
		</layer>
		<layer id="7" name="6789679326078" type="Const" version="opset1">
			<data offset="3591176" size="4" shape="" element_type="f32"/>
			<output>
				<port id="0" precision="FP32"/>
			</output>
		</layer>
		<layer id="8" name="6790679424743" type="Const" version="opset1">
			<data offset="3591180" size="4" shape="" element_type="f32"/>
			<output>
				<port id="0" precision="FP32"/>
			</output>
		</layer>
		<layer id="9" name="6791679525508" type="Const" version="opset1">
			<data offset="3591176" size="4" shape="" element_type="f32"/>
			<output>
				<port id="0" precision="FP32"/>
			</output>
		</layer>
		<layer id="10" name="6792679625229" type="Const" version="opset1">
			<data offset="3591180" size="4" shape="" element_type="f32"/>
			<output>
				<port id="0" precision="FP32"/>
			</output>
		</layer>
		<layer id="11" name="6719672326978" type="Const" version="opset1">
			<data offset="3591168" size="4" shape="" element_type="f32"/>
			<output>
				<port id="0" precision="FP32"/>
			</output>
		</layer>
		<layer id="12" name="6720672425916" type="Const" version="opset1">
			<data offset="3591184" size="4" shape="" element_type="f32"/>
			<output>
				<port id="0" precision="FP32"/>
			</output>
		</layer>
		<layer id="13" name="6721672526570" type="Const" version="opset1">
			<data offset="3591168" size="4" shape="" element_type="f32"/>
			<output>
				<port id="0" precision="FP32"/>
			</output>
		</layer>
		<layer id="14" name="6722672624026" type="Const" version="opset1">
			<data offset="3591184" size="4" shape="" element_type="f32"/>
			<output>
				<port id="0" precision="FP32"/>
			</output>
		</layer>
		<layer id="15" name="6059606326285" type="Const" version="opset1">
			<data offset="3591168" size="4" shape="" element_type="f32"/>
			<output>
				<port id="0" precision="FP32"/>
			</output>
		</layer>
		<layer id="16" name="6060606425499" type="Const" version="opset1">
			<data offset="3591188" size="4" shape="" element_type="f32"/>
			<output>
				<port id="0" precision="FP32"/>
			</output>
		</layer>
		<layer id="17" name="6061606525022" type="Const" version="opset1">
			<data offset="3591168" size="4" shape="" element_type="f32"/>
			<output>
				<port id="0" precision="FP32"/>
			</output>
		</layer>
		<layer id="18" name="6062606627095" type="Const" version="opset1">
			<data offset="3591188" size="4" shape="" element_type="f32"/>
			<output>
				<port id="0" precision="FP32"/>
			</output>
		</layer>
		<layer id="19" name="6799680326189" type="Const" version="opset1">
			<data offset="3591168" size="4" shape="" element_type="f32"/>
			<output>
				<port id="0" precision="FP32"/>
			</output>
		</layer>
		<layer id="20" name="6800680424152" type="Const" version="opset1">
			<data offset="3591192" size="4" shape="" element_type="f32"/>
			<output>
				<port id="0" precision="FP32"/>
			</output>
		</layer>
		<layer id="21" name="6801680524977" type="Const" version="opset1">
			<data offset="3591168" size="4" shape="" element_type="f32"/>
			<output>
				<port id="0" precision="FP32"/>
			</output>
		</layer>
		<layer id="22" name="6802680624338" type="Const" version="opset1">
			<data offset="3591192" size="4" shape="" element_type="f32"/>
			<output>
				<port id="0" precision="FP32"/>
			</output>
		</layer>
		<layer id="23" name="7179718326339" type="Const" version="opset1">
			<data offset="3591196" size="4" shape="" element_type="f32"/>
			<output>
				<port id="0" precision="FP32"/>
			</output>
		</layer>
		<layer id="24" name="7180718425715" type="Const" version="opset1">
			<data offset="3591200" size="4" shape="" element_type="f32"/>
			<output>
				<port id="0" precision="FP32"/>
			</output>
		</layer>
		<layer id="25" name="7181718526432" type="Const" version="opset1">
			<data offset="3591196" size="4" shape="" element_type="f32"/>
			<output>
				<port id="0" precision="FP32"/>
			</output>
		</layer>
		<layer id="26" name="7182718624635" type="Const" version="opset1">
			<data offset="3591200" size="4" shape="" element_type="f32"/>
			<output>
				<port id="0" precision="FP32"/>
			</output>
		</layer>
		<layer id="27" name="6329633324689" type="Const" version="opset1">
			<data offset="3591168" size="4" shape="" element_type="f32"/>
			<output>
				<port id="0" precision="FP32"/>
			</output>
		</layer>
		<layer id="28" name="6330633424557" type="Const" version="opset1">
			<data offset="3591204" size="4" shape="" element_type="f32"/>
			<output>
				<port id="0" precision="FP32"/>
			</output>
		</layer>
		<layer id="29" name="6331633525946" type="Const" version="opset1">
			<data offset="3591168" size="4" shape="" element_type="f32"/>
			<output>
				<port id="0" precision="FP32"/>
			</output>
		</layer>
		<layer id="30" name="6332633624125" type="Const" version="opset1">
			<data offset="3591204" size="4" shape="" element_type="f32"/>
			<output>
				<port id="0" precision="FP32"/>
			</output>
		</layer>
		<layer id="31" name="7219722325991" type="Const" version="opset1">
			<data offset="3591168" size="4" shape="" element_type="f32"/>
			<output>
				<port id="0" precision="FP32"/>
			</output>
		</layer>
		<layer id="32" name="7220722426651" type="Const" version="opset1">
			<data offset="3591208" size="4" shape="" element_type="f32"/>
			<output>
				<port id="0" precision="FP32"/>
			</output>
		</layer>
		<layer id="33" name="7221722524650" type="Const" version="opset1">
			<data offset="3591168" size="4" shape="" element_type="f32"/>
			<output>
				<port id="0" precision="FP32"/>
			</output>
		</layer>
		<layer id="34" name="7222722624467" type="Const" version="opset1">
			<data offset="3591208" size="4" shape="" element_type="f32"/>
			<output>
				<port id="0" precision="FP32"/>
			</output>
		</layer>
		<layer id="35" name="7189719325913" type="Const" version="opset1">
			<data offset="3591168" size="4" shape="" element_type="f32"/>
			<output>
				<port id="0" precision="FP32"/>
			</output>
		</layer>
		<layer id="36" name="7190719425202" type="Const" version="opset1">
			<data offset="3591212" size="4" shape="" element_type="f32"/>
			<output>
				<port id="0" precision="FP32"/>
			</output>
		</layer>
		<layer id="37" name="7191719526471" type="Const" version="opset1">
			<data offset="3591168" size="4" shape="" element_type="f32"/>
			<output>
				<port id="0" precision="FP32"/>
			</output>
		</layer>
		<layer id="38" name="7192719626024" type="Const" version="opset1">
			<data offset="3591212" size="4" shape="" element_type="f32"/>
			<output>
				<port id="0" precision="FP32"/>
			</output>
		</layer>
		<layer id="39" name="7369737323978" type="Const" version="opset1">
			<data offset="3591216" size="4" shape="" element_type="f32"/>
			<output>
				<port id="0" precision="FP32"/>
			</output>
		</layer>
		<layer id="40" name="7370737426549" type="Const" version="opset1">
			<data offset="3591220" size="4" shape="" element_type="f32"/>
			<output>
				<port id="0" precision="FP32"/>
			</output>
		</layer>
		<layer id="41" name="7371737524551" type="Const" version="opset1">
			<data offset="3591216" size="4" shape="" element_type="f32"/>
			<output>
				<port id="0" precision="FP32"/>
			</output>
		</layer>
		<layer id="42" name="7372737626972" type="Const" version="opset1">
			<data offset="3591220" size="4" shape="" element_type="f32"/>
			<output>
				<port id="0" precision="FP32"/>
			</output>
		</layer>
		<layer id="43" name="6999700324425" type="Const" version="opset1">
			<data offset="3591168" size="4" shape="" element_type="f32"/>
			<output>
				<port id="0" precision="FP32"/>
			</output>
		</layer>
		<layer id="44" name="7000700427014" type="Const" version="opset1">
			<data offset="3591224" size="4" shape="" element_type="f32"/>
			<output>
				<port id="0" precision="FP32"/>
			</output>
		</layer>
		<layer id="45" name="7001700525985" type="Const" version="opset1">
			<data offset="3591168" size="4" shape="" element_type="f32"/>
			<output>
				<port id="0" precision="FP32"/>
			</output>
		</layer>
		<layer id="46" name="7002700625829" type="Const" version="opset1">
			<data offset="3591224" size="4" shape="" element_type="f32"/>
			<output>
				<port id="0" precision="FP32"/>
			</output>
		</layer>
		<layer id="47" name="7629763324449" type="Const" version="opset1">
			<data offset="3591168" size="4" shape="" element_type="f32"/>
			<output>
				<port id="0" precision="FP32"/>
			</output>
		</layer>
		<layer id="48" name="7630763426264" type="Const" version="opset1">
			<data offset="3591228" size="4" shape="" element_type="f32"/>
			<output>
				<port id="0" precision="FP32"/>
			</output>
		</layer>
		<layer id="49" name="7631763525157" type="Const" version="opset1">
			<data offset="3591168" size="4" shape="" element_type="f32"/>
			<output>
				<port id="0" precision="FP32"/>
			</output>
		</layer>
		<layer id="50" name="7632763626141" type="Const" version="opset1">
			<data offset="3591228" size="4" shape="" element_type="f32"/>
			<output>
				<port id="0" precision="FP32"/>
			</output>
		</layer>
		<layer id="51" name="9476948024974" type="Const" version="opset1">
			<data offset="3591168" size="4" shape="" element_type="f32"/>
			<output>
				<port id="0" precision="FP32"/>
			</output>
		</layer>
		<layer id="52" name="9477948126387" type="Const" version="opset1">
			<data offset="3591232" size="4" shape="" element_type="f32"/>
			<output>
				<port id="0" precision="FP32"/>
			</output>
		</layer>
		<layer id="53" name="9478948225934" type="Const" version="opset1">
			<data offset="3591168" size="4" shape="" element_type="f32"/>
			<output>
				<port id="0" precision="FP32"/>
			</output>
		</layer>
		<layer id="54" name="9479948324914" type="Const" version="opset1">
			<data offset="3591232" size="4" shape="" element_type="f32"/>
			<output>
				<port id="0" precision="FP32"/>
			</output>
		</layer>
		<layer id="55" name="7809781324098" type="Const" version="opset1">
			<data offset="3591236" size="4" shape="" element_type="f32"/>
			<output>
				<port id="0" precision="FP32"/>
			</output>
		</layer>
		<layer id="56" name="7810781424224" type="Const" version="opset1">
			<data offset="3591240" size="4" shape="" element_type="f32"/>
			<output>
				<port id="0" precision="FP32"/>
			</output>
		</layer>
		<layer id="57" name="7811781525460" type="Const" version="opset1">
			<data offset="3591236" size="4" shape="" element_type="f32"/>
			<output>
				<port id="0" precision="FP32"/>
			</output>
		</layer>
		<layer id="58" name="7812781626087" type="Const" version="opset1">
			<data offset="3591240" size="4" shape="" element_type="f32"/>
			<output>
				<port id="0" precision="FP32"/>
			</output>
		</layer>
		<layer id="60" name="Constant_12077151924404" type="Const" version="opset1">
			<data offset="3591244" size="12" shape="1,3,1,1" element_type="f32"/>
			<output>
				<port id="0" precision="FP32">
					<dim>1</dim>
					<dim>3</dim>
					<dim>1</dim>
					<dim>1</dim>
				</port>
			</output>
		</layer>
		<layer id="61" name="Subtract_12078" type="Subtract" version="opset1">
			<data auto_broadcast="numpy"/>
			<rt_info>
				<attribute name="preprocessing" version="0"/>
			</rt_info>
			<input>
				<port id="0">
					<dim>1</dim>
					<dim>3</dim>
					<dim>640</dim>
					<dim>640</dim>
				</port>
				<port id="1">
					<dim>1</dim>
					<dim>3</dim>
					<dim>1</dim>
					<dim>1</dim>
				</port>
			</input>
			<output>
				<port id="2" precision="FP32">
					<dim>1</dim>
					<dim>3</dim>
					<dim>640</dim>
					<dim>640</dim>
				</port>
			</output>
		</layer>
		<layer id="62" name="/backbone/conv1/Conv/WithoutBiases/fq_input_0" type="FakeQuantize" version="opset1">
			<data levels="256" auto_broadcast="numpy"/>
			<input>
				<port id="0">
					<dim>1</dim>
					<dim>3</dim>
					<dim>640</dim>
					<dim>640</dim>
				</port>
				<port id="1"/>
				<port id="2"/>
				<port id="3"/>
				<port id="4"/>
			</input>
			<output>
				<port id="5" precision="FP32">
					<dim>1</dim>
					<dim>3</dim>
					<dim>640</dim>
					<dim>640</dim>
				</port>
			</output>
		</layer>
		<layer id="63" name="/backbone/conv1/Conv/WithoutBiases/fq_weights_1/scale1690923984" type="Const" version="opset1">
			<data offset="3591256" size="256" shape="64,1,1,1" element_type="f32"/>
			<output>
				<port id="0" precision="FP32">
					<dim>64</dim>
					<dim>1</dim>
					<dim>1</dim>
					<dim>1</dim>
				</port>
			</output>
		</layer>
		<layer id="64" name="Constant_89140152114843/quantized1690124614" type="Const" version="opset1">
			<data offset="3591512" size="9408" shape="64,3,7,7" element_type="i8"/>
			<output>
				<port id="0" precision="I8">
					<dim>64</dim>
					<dim>3</dim>
					<dim>7</dim>
					<dim>7</dim>
				</port>
			</output>
		</layer>
		<layer id="65" name="Constant_89140152114843/quantized/to_f32" type="Convert" version="opset1">
			<data destination_type="f32"/>
			<input>
				<port id="0">
					<dim>64</dim>
					<dim>3</dim>
					<dim>7</dim>
					<dim>7</dim>
				</port>
			</input>
			<output>
				<port id="1" precision="FP32">
					<dim>64</dim>
					<dim>3</dim>
					<dim>7</dim>
					<dim>7</dim>
				</port>
			</output>
		</layer>
		<layer id="66" name="/backbone/conv1/Conv/WithoutBiases/fq_weights_1/mulpiply_by_scale" type="Multiply" version="opset1">
			<data auto_broadcast="numpy"/>
			<input>
				<port id="0">
					<dim>64</dim>
					<dim>3</dim>
					<dim>7</dim>
					<dim>7</dim>
				</port>
				<port id="1">
					<dim>64</dim>
					<dim>1</dim>
					<dim>1</dim>
					<dim>1</dim>
				</port>
			</input>
			<output>
				<port id="2" precision="FP32">
					<dim>64</dim>
					<dim>3</dim>
					<dim>7</dim>
					<dim>7</dim>
				</port>
			</output>
		</layer>
		<layer id="67" name="/backbone/conv1/Conv/WithoutBiases" type="Convolution" version="opset1">
			<data auto_pad="explicit" strides="2,2" dilations="1,1" pads_begin="3,3" pads_end="3,3"/>
			<rt_info>
				<attribute name="preprocessing" version="0"/>
			</rt_info>
			<input>
				<port id="0">
					<dim>1</dim>
					<dim>3</dim>
					<dim>640</dim>
					<dim>640</dim>
				</port>
				<port id="1">
					<dim>64</dim>
					<dim>3</dim>
					<dim>7</dim>
					<dim>7</dim>
				</port>
			</input>
			<output>
				<port id="2" precision="FP32">
					<dim>1</dim>
					<dim>64</dim>
					<dim>320</dim>
					<dim>320</dim>
				</port>
			</output>
		</layer>
		<layer id="68" name="Reshape_170152324563" type="Const" version="opset1">
			<data offset="3600920" size="256" shape="1,64,1,1" element_type="f32"/>
			<output>
				<port id="0" precision="FP32">
					<dim>1</dim>
					<dim>64</dim>
					<dim>1</dim>
					<dim>1</dim>
				</port>
			</output>
		</layer>
		<layer id="69" name="/backbone/conv1/Conv" type="Add" version="opset1">
			<data auto_broadcast="numpy"/>
			<input>
				<port id="0">
					<dim>1</dim>
					<dim>64</dim>
					<dim>320</dim>
					<dim>320</dim>
				</port>
				<port id="1">
					<dim>1</dim>
					<dim>64</dim>
					<dim>1</dim>
					<dim>1</dim>
				</port>
			</input>
			<output>
				<port id="2" precision="FP32" names="/backbone/conv1/Conv_output_0">
					<dim>1</dim>
					<dim>64</dim>
					<dim>320</dim>
					<dim>320</dim>
				</port>
			</output>
		</layer>
		<layer id="70" name="/backbone/relu/Relu" type="ReLU" version="opset1">
			<input>
				<port id="0">
					<dim>1</dim>
					<dim>64</dim>
					<dim>320</dim>
					<dim>320</dim>
				</port>
			</input>
			<output>
				<port id="1" precision="FP32" names="/backbone/relu/Relu_output_0">
					<dim>1</dim>
					<dim>64</dim>
					<dim>320</dim>
					<dim>320</dim>
				</port>
			</output>
		</layer>
		<layer id="71" name="/backbone/maxpool/MaxPool/fq_input_0" type="FakeQuantize" version="opset1">
			<data levels="256" auto_broadcast="numpy"/>
			<input>
				<port id="0">
					<dim>1</dim>
					<dim>64</dim>
					<dim>320</dim>
					<dim>320</dim>
				</port>
				<port id="1"/>
				<port id="2"/>
				<port id="3"/>
				<port id="4"/>
			</input>
			<output>
				<port id="5" precision="FP32">
					<dim>1</dim>
					<dim>64</dim>
					<dim>320</dim>
					<dim>320</dim>
				</port>
			</output>
		</layer>
		<layer id="72" name="/backbone/maxpool/MaxPool" type="MaxPool" version="opset8">
			<data strides="2,2" kernel="3,3" pads_begin="1,1" pads_end="1,1" rounding_type="floor" auto_pad="explicit" dilations="1,1" axis="0" index_element_type="i64"/>
			<input>
				<port id="0">
					<dim>1</dim>
					<dim>64</dim>
					<dim>320</dim>
					<dim>320</dim>
				</port>
			</input>
			<output>
				<port id="1" precision="FP32" names="/backbone/maxpool/MaxPool_output_0">
					<dim>1</dim>
					<dim>64</dim>
					<dim>160</dim>
					<dim>160</dim>
				</port>
				<port id="2" precision="FP32">
					<dim>1</dim>
					<dim>64</dim>
					<dim>160</dim>
					<dim>160</dim>
					<rt_info/>
				</port>
			</output>
		</layer>
		<layer id="73" name="/backbone/layer1/layer1.0/conv1/Conv/WithoutBiases/fq_weights_1/scale1741925061" type="Const" version="opset1">
			<data offset="3601176" size="256" shape="64,1,1,1" element_type="f32"/>
			<output>
				<port id="0" precision="FP32">
					<dim>64</dim>
					<dim>1</dim>
					<dim>1</dim>
					<dim>1</dim>
				</port>
			</output>
		</layer>
		<layer id="74" name="onnx::Conv_1561152714845/quantized1741125484" type="Const" version="opset1">
			<data offset="3601432" size="4096" shape="64,64,1,1" element_type="i8"/>
			<output>
				<port id="0" precision="I8">
					<dim>64</dim>
					<dim>64</dim>
					<dim>1</dim>
					<dim>1</dim>
				</port>
			</output>
		</layer>
		<layer id="75" name="onnx::Conv_1561152714845/quantized/to_f32" type="Convert" version="opset1">
			<data destination_type="f32"/>
			<input>
				<port id="0">
					<dim>64</dim>
					<dim>64</dim>
					<dim>1</dim>
					<dim>1</dim>
				</port>
			</input>
			<output>
				<port id="1" precision="FP32">
					<dim>64</dim>
					<dim>64</dim>
					<dim>1</dim>
					<dim>1</dim>
				</port>
			</output>
		</layer>
		<layer id="76" name="/backbone/layer1/layer1.0/conv1/Conv/WithoutBiases/fq_weights_1/mulpiply_by_scale" type="Multiply" version="opset1">
			<data auto_broadcast="numpy"/>
			<input>
				<port id="0">
					<dim>64</dim>
					<dim>64</dim>
					<dim>1</dim>
					<dim>1</dim>
				</port>
				<port id="1">
					<dim>64</dim>
					<dim>1</dim>
					<dim>1</dim>
					<dim>1</dim>
				</port>
			</input>
			<output>
				<port id="2" precision="FP32">
					<dim>64</dim>
					<dim>64</dim>
					<dim>1</dim>
					<dim>1</dim>
				</port>
			</output>
		</layer>
		<layer id="77" name="/backbone/layer1/layer1.0/conv1/Conv/WithoutBiases" type="Convolution" version="opset1">
			<data auto_pad="explicit" strides="1,1" dilations="1,1" pads_begin="0,0" pads_end="0,0"/>
			<input>
				<port id="0">
					<dim>1</dim>
					<dim>64</dim>
					<dim>160</dim>
					<dim>160</dim>
				</port>
				<port id="1">
					<dim>64</dim>
					<dim>64</dim>
					<dim>1</dim>
					<dim>1</dim>
				</port>
			</input>
			<output>
				<port id="2" precision="FP32">
					<dim>1</dim>
					<dim>64</dim>
					<dim>160</dim>
					<dim>160</dim>
				</port>
			</output>
		</layer>
		<layer id="78" name="Reshape_220152926282" type="Const" version="opset1">
			<data offset="3605528" size="256" shape="1,64,1,1" element_type="f32"/>
			<output>
				<port id="0" precision="FP32">
					<dim>1</dim>
					<dim>64</dim>
					<dim>1</dim>
					<dim>1</dim>
				</port>
			</output>
		</layer>
		<layer id="79" name="/backbone/layer1/layer1.0/conv1/Conv" type="Add" version="opset1">
			<data auto_broadcast="numpy"/>
			<input>
				<port id="0">
					<dim>1</dim>
					<dim>64</dim>
					<dim>160</dim>
					<dim>160</dim>
				</port>
				<port id="1">
					<dim>1</dim>
					<dim>64</dim>
					<dim>1</dim>
					<dim>1</dim>
				</port>
			</input>
			<output>
				<port id="2" precision="FP32" names="/backbone/layer1/layer1.0/conv1/Conv_output_0">
					<dim>1</dim>
					<dim>64</dim>
					<dim>160</dim>
					<dim>160</dim>
				</port>
			</output>
		</layer>
		<layer id="80" name="/backbone/layer1/layer1.0/relu/Relu" type="ReLU" version="opset1">
			<input>
				<port id="0">
					<dim>1</dim>
					<dim>64</dim>
					<dim>160</dim>
					<dim>160</dim>
				</port>
			</input>
			<output>
				<port id="1" precision="FP32" names="/backbone/layer1/layer1.0/relu/Relu_output_0">
					<dim>1</dim>
					<dim>64</dim>
					<dim>160</dim>
					<dim>160</dim>
				</port>
			</output>
		</layer>
		<layer id="81" name="/backbone/layer1/layer1.0/conv2/Conv/WithoutBiases/fq_input_0" type="FakeQuantize" version="opset1">
			<data levels="256" auto_broadcast="numpy"/>
			<input>
				<port id="0">
					<dim>1</dim>
					<dim>64</dim>
					<dim>160</dim>
					<dim>160</dim>
				</port>
				<port id="1"/>
				<port id="2"/>
				<port id="3"/>
				<port id="4"/>
			</input>
			<output>
				<port id="5" precision="FP32">
					<dim>1</dim>
					<dim>64</dim>
					<dim>160</dim>
					<dim>160</dim>
				</port>
			</output>
		</layer>
		<layer id="82" name="/backbone/layer1/layer1.0/conv2/Conv/WithoutBiases/fq_weights_1/scale1726926306" type="Const" version="opset1">
			<data offset="3605784" size="256" shape="64,1,1,1" element_type="f32"/>
			<output>
				<port id="0" precision="FP32">
					<dim>64</dim>
					<dim>1</dim>
					<dim>1</dim>
					<dim>1</dim>
				</port>
			</output>
		</layer>
		<layer id="83" name="onnx::Conv_1564153214847/quantized1726124047" type="Const" version="opset1">
			<data offset="3606040" size="36864" shape="64,64,3,3" element_type="i8"/>
			<output>
				<port id="0" precision="I8">
					<dim>64</dim>
					<dim>64</dim>
					<dim>3</dim>
					<dim>3</dim>
				</port>
			</output>
		</layer>
		<layer id="84" name="onnx::Conv_1564153214847/quantized/to_f32" type="Convert" version="opset1">
			<data destination_type="f32"/>
			<input>
				<port id="0">
					<dim>64</dim>
					<dim>64</dim>
					<dim>3</dim>
					<dim>3</dim>
				</port>
			</input>
			<output>
				<port id="1" precision="FP32">
					<dim>64</dim>
					<dim>64</dim>
					<dim>3</dim>
					<dim>3</dim>
				</port>
			</output>
		</layer>
		<layer id="85" name="/backbone/layer1/layer1.0/conv2/Conv/WithoutBiases/fq_weights_1/mulpiply_by_scale" type="Multiply" version="opset1">
			<data auto_broadcast="numpy"/>
			<input>
				<port id="0">
					<dim>64</dim>
					<dim>64</dim>
					<dim>3</dim>
					<dim>3</dim>
				</port>
				<port id="1">
					<dim>64</dim>
					<dim>1</dim>
					<dim>1</dim>
					<dim>1</dim>
				</port>
			</input>
			<output>
				<port id="2" precision="FP32">
					<dim>64</dim>
					<dim>64</dim>
					<dim>3</dim>
					<dim>3</dim>
				</port>
			</output>
		</layer>
		<layer id="86" name="/backbone/layer1/layer1.0/conv2/Conv/WithoutBiases" type="Convolution" version="opset1">
			<data auto_pad="explicit" strides="1,1" dilations="1,1" pads_begin="1,1" pads_end="1,1"/>
			<input>
				<port id="0">
					<dim>1</dim>
					<dim>64</dim>
					<dim>160</dim>
					<dim>160</dim>
				</port>
				<port id="1">
					<dim>64</dim>
					<dim>64</dim>
					<dim>3</dim>
					<dim>3</dim>
				</port>
			</input>
			<output>
				<port id="2" precision="FP32">
					<dim>1</dim>
					<dim>64</dim>
					<dim>160</dim>
					<dim>160</dim>
				</port>
			</output>
		</layer>
		<layer id="87" name="Reshape_269153427083" type="Const" version="opset1">
			<data offset="3642904" size="256" shape="1,64,1,1" element_type="f32"/>
			<output>
				<port id="0" precision="FP32">
					<dim>1</dim>
					<dim>64</dim>
					<dim>1</dim>
					<dim>1</dim>
				</port>
			</output>
		</layer>
		<layer id="88" name="/backbone/layer1/layer1.0/conv2/Conv" type="Add" version="opset1">
			<data auto_broadcast="numpy"/>
			<input>
				<port id="0">
					<dim>1</dim>
					<dim>64</dim>
					<dim>160</dim>
					<dim>160</dim>
				</port>
				<port id="1">
					<dim>1</dim>
					<dim>64</dim>
					<dim>1</dim>
					<dim>1</dim>
				</port>
			</input>
			<output>
				<port id="2" precision="FP32" names="/backbone/layer1/layer1.0/conv2/Conv_output_0">
					<dim>1</dim>
					<dim>64</dim>
					<dim>160</dim>
					<dim>160</dim>
				</port>
			</output>
		</layer>
		<layer id="89" name="/backbone/layer1/layer1.0/relu_1/Relu" type="ReLU" version="opset1">
			<input>
				<port id="0">
					<dim>1</dim>
					<dim>64</dim>
					<dim>160</dim>
					<dim>160</dim>
				</port>
			</input>
			<output>
				<port id="1" precision="FP32" names="/backbone/layer1/layer1.0/relu_1/Relu_output_0">
					<dim>1</dim>
					<dim>64</dim>
					<dim>160</dim>
					<dim>160</dim>
				</port>
			</output>
		</layer>
		<layer id="90" name="/backbone/layer1/layer1.0/conv3/Conv/WithoutBiases/fq_input_0" type="FakeQuantize" version="opset1">
			<data levels="256" auto_broadcast="numpy"/>
			<input>
				<port id="0">
					<dim>1</dim>
					<dim>64</dim>
					<dim>160</dim>
					<dim>160</dim>
				</port>
				<port id="1"/>
				<port id="2"/>
				<port id="3"/>
				<port id="4"/>
			</input>
			<output>
				<port id="5" precision="FP32">
					<dim>1</dim>
					<dim>64</dim>
					<dim>160</dim>
					<dim>160</dim>
				</port>
			</output>
		</layer>
		<layer id="91" name="/backbone/layer1/layer1.0/conv3/Conv/WithoutBiases/fq_weights_1/scale1759924770" type="Const" version="opset1">
			<data offset="3643160" size="1024" shape="256,1,1,1" element_type="f32"/>
			<output>
				<port id="0" precision="FP32">
					<dim>256</dim>
					<dim>1</dim>
					<dim>1</dim>
					<dim>1</dim>
				</port>
			</output>
		</layer>
		<layer id="92" name="onnx::Conv_1567153714849/quantized1759125853" type="Const" version="opset1">
			<data offset="3644184" size="16384" shape="256,64,1,1" element_type="i8"/>
			<output>
				<port id="0" precision="I8">
					<dim>256</dim>
					<dim>64</dim>
					<dim>1</dim>
					<dim>1</dim>
				</port>
			</output>
		</layer>
		<layer id="93" name="onnx::Conv_1567153714849/quantized/to_f32" type="Convert" version="opset1">
			<data destination_type="f32"/>
			<input>
				<port id="0">
					<dim>256</dim>
					<dim>64</dim>
					<dim>1</dim>
					<dim>1</dim>
				</port>
			</input>
			<output>
				<port id="1" precision="FP32">
					<dim>256</dim>
					<dim>64</dim>
					<dim>1</dim>
					<dim>1</dim>
				</port>
			</output>
		</layer>
		<layer id="94" name="/backbone/layer1/layer1.0/conv3/Conv/WithoutBiases/fq_weights_1/mulpiply_by_scale" type="Multiply" version="opset1">
			<data auto_broadcast="numpy"/>
			<input>
				<port id="0">
					<dim>256</dim>
					<dim>64</dim>
					<dim>1</dim>
					<dim>1</dim>
				</port>
				<port id="1">
					<dim>256</dim>
					<dim>1</dim>
					<dim>1</dim>
					<dim>1</dim>
				</port>
			</input>
			<output>
				<port id="2" precision="FP32">
					<dim>256</dim>
					<dim>64</dim>
					<dim>1</dim>
					<dim>1</dim>
				</port>
			</output>
		</layer>
		<layer id="95" name="/backbone/layer1/layer1.0/conv3/Conv/WithoutBiases" type="Convolution" version="opset1">
			<data auto_pad="explicit" strides="1,1" dilations="1,1" pads_begin="0,0" pads_end="0,0"/>
			<input>
				<port id="0">
					<dim>1</dim>
					<dim>64</dim>
					<dim>160</dim>
					<dim>160</dim>
				</port>
				<port id="1">
					<dim>256</dim>
					<dim>64</dim>
					<dim>1</dim>
					<dim>1</dim>
				</port>
			</input>
			<output>
				<port id="2" precision="FP32">
					<dim>1</dim>
					<dim>256</dim>
					<dim>160</dim>
					<dim>160</dim>
				</port>
			</output>
		</layer>
		<layer id="96" name="Reshape_318153926684" type="Const" version="opset1">
			<data offset="3660568" size="1024" shape="1,256,1,1" element_type="f32"/>
			<output>
				<port id="0" precision="FP32">
					<dim>1</dim>
					<dim>256</dim>
					<dim>1</dim>
					<dim>1</dim>
				</port>
			</output>
		</layer>
		<layer id="97" name="/backbone/layer1/layer1.0/conv3/Conv" type="Add" version="opset1">
			<data auto_broadcast="numpy"/>
			<input>
				<port id="0">
					<dim>1</dim>
					<dim>256</dim>
					<dim>160</dim>
					<dim>160</dim>
				</port>
				<port id="1">
					<dim>1</dim>
					<dim>256</dim>
					<dim>1</dim>
					<dim>1</dim>
				</port>
			</input>
			<output>
				<port id="2" precision="FP32" names="/backbone/layer1/layer1.0/conv3/Conv_output_0">
					<dim>1</dim>
					<dim>256</dim>
					<dim>160</dim>
					<dim>160</dim>
				</port>
			</output>
		</layer>
		<layer id="98" name="/backbone/layer1/layer1.0/Add/fq_input_0" type="FakeQuantize" version="opset1">
			<data levels="256" auto_broadcast="numpy"/>
			<input>
				<port id="0">
					<dim>1</dim>
					<dim>256</dim>
					<dim>160</dim>
					<dim>160</dim>
				</port>
				<port id="1"/>
				<port id="2"/>
				<port id="3"/>
				<port id="4"/>
			</input>
			<output>
				<port id="5" precision="FP32">
					<dim>1</dim>
					<dim>256</dim>
					<dim>160</dim>
					<dim>160</dim>
				</port>
			</output>
		</layer>
		<layer id="99" name="7379738326093" type="Const" version="opset1">
			<data offset="3661592" size="4" shape="" element_type="f32"/>
			<output>
				<port id="0" precision="FP32"/>
			</output>
		</layer>
		<layer id="100" name="7380738424320" type="Const" version="opset1">
			<data offset="3661596" size="4" shape="" element_type="f32"/>
			<output>
				<port id="0" precision="FP32"/>
			</output>
		</layer>
		<layer id="101" name="7381738526522" type="Const" version="opset1">
			<data offset="3661592" size="4" shape="" element_type="f32"/>
			<output>
				<port id="0" precision="FP32"/>
			</output>
		</layer>
		<layer id="102" name="7382738624587" type="Const" version="opset1">
			<data offset="3661596" size="4" shape="" element_type="f32"/>
			<output>
				<port id="0" precision="FP32"/>
			</output>
		</layer>
		<layer id="103" name="/backbone/layer1/layer1.0/downsample/downsample.0/Conv/WithoutBiases/fq_weights_1/scale1684927077" type="Const" version="opset1">
			<data offset="3661600" size="1024" shape="256,1,1,1" element_type="f32"/>
			<output>
				<port id="0" precision="FP32">
					<dim>256</dim>
					<dim>1</dim>
					<dim>1</dim>
					<dim>1</dim>
				</port>
			</output>
		</layer>
		<layer id="104" name="onnx::Conv_1570154114851/quantized1684125364" type="Const" version="opset1">
			<data offset="3662624" size="16384" shape="256,64,1,1" element_type="i8"/>
			<output>
				<port id="0" precision="I8">
					<dim>256</dim>
					<dim>64</dim>
					<dim>1</dim>
					<dim>1</dim>
				</port>
			</output>
		</layer>
		<layer id="105" name="onnx::Conv_1570154114851/quantized/to_f32" type="Convert" version="opset1">
			<data destination_type="f32"/>
			<input>
				<port id="0">
					<dim>256</dim>
					<dim>64</dim>
					<dim>1</dim>
					<dim>1</dim>
				</port>
			</input>
			<output>
				<port id="1" precision="FP32">
					<dim>256</dim>
					<dim>64</dim>
					<dim>1</dim>
					<dim>1</dim>
				</port>
			</output>
		</layer>
		<layer id="106" name="/backbone/layer1/layer1.0/downsample/downsample.0/Conv/WithoutBiases/fq_weights_1/mulpiply_by_scale" type="Multiply" version="opset1">
			<data auto_broadcast="numpy"/>
			<input>
				<port id="0">
					<dim>256</dim>
					<dim>64</dim>
					<dim>1</dim>
					<dim>1</dim>
				</port>
				<port id="1">
					<dim>256</dim>
					<dim>1</dim>
					<dim>1</dim>
					<dim>1</dim>
				</port>
			</input>
			<output>
				<port id="2" precision="FP32">
					<dim>256</dim>
					<dim>64</dim>
					<dim>1</dim>
					<dim>1</dim>
				</port>
			</output>
		</layer>
		<layer id="107" name="/backbone/layer1/layer1.0/downsample/downsample.0/Conv/WithoutBiases" type="Convolution" version="opset1">
			<data auto_pad="explicit" strides="1,1" dilations="1,1" pads_begin="0,0" pads_end="0,0"/>
			<input>
				<port id="0">
					<dim>1</dim>
					<dim>64</dim>
					<dim>160</dim>
					<dim>160</dim>
				</port>
				<port id="1">
					<dim>256</dim>
					<dim>64</dim>
					<dim>1</dim>
					<dim>1</dim>
				</port>
			</input>
			<output>
				<port id="2" precision="FP32">
					<dim>1</dim>
					<dim>256</dim>
					<dim>160</dim>
					<dim>160</dim>
				</port>
			</output>
		</layer>
		<layer id="108" name="Reshape_366154326939" type="Const" version="opset1">
			<data offset="3679008" size="1024" shape="1,256,1,1" element_type="f32"/>
			<output>
				<port id="0" precision="FP32">
					<dim>1</dim>
					<dim>256</dim>
					<dim>1</dim>
					<dim>1</dim>
				</port>
			</output>
		</layer>
		<layer id="109" name="/backbone/layer1/layer1.0/downsample/downsample.0/Conv" type="Add" version="opset1">
			<data auto_broadcast="numpy"/>
			<input>
				<port id="0">
					<dim>1</dim>
					<dim>256</dim>
					<dim>160</dim>
					<dim>160</dim>
				</port>
				<port id="1">
					<dim>1</dim>
					<dim>256</dim>
					<dim>1</dim>
					<dim>1</dim>
				</port>
			</input>
			<output>
				<port id="2" precision="FP32" names="/backbone/layer1/layer1.0/downsample/downsample.0/Conv_output_0">
					<dim>1</dim>
					<dim>256</dim>
					<dim>160</dim>
					<dim>160</dim>
				</port>
			</output>
		</layer>
		<layer id="110" name="/backbone/layer1/layer1.0/Add/fq_input_1" type="FakeQuantize" version="opset1">
			<data levels="256" auto_broadcast="numpy"/>
			<input>
				<port id="0">
					<dim>1</dim>
					<dim>256</dim>
					<dim>160</dim>
					<dim>160</dim>
				</port>
				<port id="1"/>
				<port id="2"/>
				<port id="3"/>
				<port id="4"/>
			</input>
			<output>
				<port id="5" precision="FP32">
					<dim>1</dim>
					<dim>256</dim>
					<dim>160</dim>
					<dim>160</dim>
				</port>
			</output>
		</layer>
		<layer id="111" name="/backbone/layer1/layer1.0/Add" type="Add" version="opset1">
			<data auto_broadcast="numpy"/>
			<input>
				<port id="0">
					<dim>1</dim>
					<dim>256</dim>
					<dim>160</dim>
					<dim>160</dim>
				</port>
				<port id="1">
					<dim>1</dim>
					<dim>256</dim>
					<dim>160</dim>
					<dim>160</dim>
				</port>
			</input>
			<output>
				<port id="2" precision="FP32" names="/backbone/layer1/layer1.0/Add_output_0">
					<dim>1</dim>
					<dim>256</dim>
					<dim>160</dim>
					<dim>160</dim>
				</port>
			</output>
		</layer>
		<layer id="112" name="/backbone/layer1/layer1.0/relu_2/Relu" type="ReLU" version="opset1">
			<input>
				<port id="0">
					<dim>1</dim>
					<dim>256</dim>
					<dim>160</dim>
					<dim>160</dim>
				</port>
			</input>
			<output>
				<port id="1" precision="FP32" names="/backbone/layer1/layer1.0/relu_2/Relu_output_0">
					<dim>1</dim>
					<dim>256</dim>
					<dim>160</dim>
					<dim>160</dim>
				</port>
			</output>
		</layer>
		<layer id="113" name="/backbone/layer1/layer1.1/Add/fq_input_1" type="FakeQuantize" version="opset1">
			<data levels="256" auto_broadcast="numpy"/>
			<input>
				<port id="0">
					<dim>1</dim>
					<dim>256</dim>
					<dim>160</dim>
					<dim>160</dim>
				</port>
				<port id="1"/>
				<port id="2"/>
				<port id="3"/>
				<port id="4"/>
			</input>
			<output>
				<port id="5" precision="FP32">
					<dim>1</dim>
					<dim>256</dim>
					<dim>160</dim>
					<dim>160</dim>
				</port>
			</output>
		</layer>
		<layer id="114" name="/backbone/layer1/layer1.1/conv1/Conv/WithoutBiases/fq_weights_1/scale1648924704" type="Const" version="opset1">
			<data offset="3680032" size="256" shape="64,1,1,1" element_type="f32"/>
			<output>
				<port id="0" precision="FP32">
					<dim>64</dim>
					<dim>1</dim>
					<dim>1</dim>
					<dim>1</dim>
				</port>
			</output>
		</layer>
		<layer id="115" name="onnx::Conv_1573154714853/quantized1648124494" type="Const" version="opset1">
			<data offset="3680288" size="16384" shape="64,256,1,1" element_type="i8"/>
			<output>
				<port id="0" precision="I8">
					<dim>64</dim>
					<dim>256</dim>
					<dim>1</dim>
					<dim>1</dim>
				</port>
			</output>
		</layer>
		<layer id="116" name="onnx::Conv_1573154714853/quantized/to_f32" type="Convert" version="opset1">
			<data destination_type="f32"/>
			<input>
				<port id="0">
					<dim>64</dim>
					<dim>256</dim>
					<dim>1</dim>
					<dim>1</dim>
				</port>
			</input>
			<output>
				<port id="1" precision="FP32">
					<dim>64</dim>
					<dim>256</dim>
					<dim>1</dim>
					<dim>1</dim>
				</port>
			</output>
		</layer>
		<layer id="117" name="/backbone/layer1/layer1.1/conv1/Conv/WithoutBiases/fq_weights_1/mulpiply_by_scale" type="Multiply" version="opset1">
			<data auto_broadcast="numpy"/>
			<input>
				<port id="0">
					<dim>64</dim>
					<dim>256</dim>
					<dim>1</dim>
					<dim>1</dim>
				</port>
				<port id="1">
					<dim>64</dim>
					<dim>1</dim>
					<dim>1</dim>
					<dim>1</dim>
				</port>
			</input>
			<output>
				<port id="2" precision="FP32">
					<dim>64</dim>
					<dim>256</dim>
					<dim>1</dim>
					<dim>1</dim>
				</port>
			</output>
		</layer>
		<layer id="118" name="/backbone/layer1/layer1.1/conv1/Conv/WithoutBiases" type="Convolution" version="opset1">
			<data auto_pad="explicit" strides="1,1" dilations="1,1" pads_begin="0,0" pads_end="0,0"/>
			<input>
				<port id="0">
					<dim>1</dim>
					<dim>256</dim>
					<dim>160</dim>
					<dim>160</dim>
				</port>
				<port id="1">
					<dim>64</dim>
					<dim>256</dim>
					<dim>1</dim>
					<dim>1</dim>
				</port>
			</input>
			<output>
				<port id="2" precision="FP32">
					<dim>1</dim>
					<dim>64</dim>
					<dim>160</dim>
					<dim>160</dim>
				</port>
			</output>
		</layer>
		<layer id="119" name="Reshape_416154924653" type="Const" version="opset1">
			<data offset="3696672" size="256" shape="1,64,1,1" element_type="f32"/>
			<output>
				<port id="0" precision="FP32">
					<dim>1</dim>
					<dim>64</dim>
					<dim>1</dim>
					<dim>1</dim>
				</port>
			</output>
		</layer>
		<layer id="120" name="/backbone/layer1/layer1.1/conv1/Conv" type="Add" version="opset1">
			<data auto_broadcast="numpy"/>
			<input>
				<port id="0">
					<dim>1</dim>
					<dim>64</dim>
					<dim>160</dim>
					<dim>160</dim>
				</port>
				<port id="1">
					<dim>1</dim>
					<dim>64</dim>
					<dim>1</dim>
					<dim>1</dim>
				</port>
			</input>
			<output>
				<port id="2" precision="FP32" names="/backbone/layer1/layer1.1/conv1/Conv_output_0">
					<dim>1</dim>
					<dim>64</dim>
					<dim>160</dim>
					<dim>160</dim>
				</port>
			</output>
		</layer>
		<layer id="121" name="/backbone/layer1/layer1.1/relu/Relu" type="ReLU" version="opset1">
			<input>
				<port id="0">
					<dim>1</dim>
					<dim>64</dim>
					<dim>160</dim>
					<dim>160</dim>
				</port>
			</input>
			<output>
				<port id="1" precision="FP32" names="/backbone/layer1/layer1.1/relu/Relu_output_0">
					<dim>1</dim>
					<dim>64</dim>
					<dim>160</dim>
					<dim>160</dim>
				</port>
			</output>
		</layer>
		<layer id="122" name="/backbone/layer1/layer1.1/conv2/Conv/WithoutBiases/fq_input_0" type="FakeQuantize" version="opset1">
			<data levels="256" auto_broadcast="numpy"/>
			<input>
				<port id="0">
					<dim>1</dim>
					<dim>64</dim>
					<dim>160</dim>
					<dim>160</dim>
				</port>
				<port id="1"/>
				<port id="2"/>
				<port id="3"/>
				<port id="4"/>
			</input>
			<output>
				<port id="5" precision="FP32">
					<dim>1</dim>
					<dim>64</dim>
					<dim>160</dim>
					<dim>160</dim>
				</port>
			</output>
		</layer>
		<layer id="123" name="/backbone/layer1/layer1.1/conv2/Conv/WithoutBiases/fq_weights_1/scale1669924908" type="Const" version="opset1">
			<data offset="3696928" size="256" shape="64,1,1,1" element_type="f32"/>
			<output>
				<port id="0" precision="FP32">
					<dim>64</dim>
					<dim>1</dim>
					<dim>1</dim>
					<dim>1</dim>
				</port>
			</output>
		</layer>
		<layer id="124" name="onnx::Conv_1576155214855/quantized1669123999" type="Const" version="opset1">
			<data offset="3697184" size="36864" shape="64,64,3,3" element_type="i8"/>
			<output>
				<port id="0" precision="I8">
					<dim>64</dim>
					<dim>64</dim>
					<dim>3</dim>
					<dim>3</dim>
				</port>
			</output>
		</layer>
		<layer id="125" name="onnx::Conv_1576155214855/quantized/to_f32" type="Convert" version="opset1">
			<data destination_type="f32"/>
			<input>
				<port id="0">
					<dim>64</dim>
					<dim>64</dim>
					<dim>3</dim>
					<dim>3</dim>
				</port>
			</input>
			<output>
				<port id="1" precision="FP32">
					<dim>64</dim>
					<dim>64</dim>
					<dim>3</dim>
					<dim>3</dim>
				</port>
			</output>
		</layer>
		<layer id="126" name="/backbone/layer1/layer1.1/conv2/Conv/WithoutBiases/fq_weights_1/mulpiply_by_scale" type="Multiply" version="opset1">
			<data auto_broadcast="numpy"/>
			<input>
				<port id="0">
					<dim>64</dim>
					<dim>64</dim>
					<dim>3</dim>
					<dim>3</dim>
				</port>
				<port id="1">
					<dim>64</dim>
					<dim>1</dim>
					<dim>1</dim>
					<dim>1</dim>
				</port>
			</input>
			<output>
				<port id="2" precision="FP32">
					<dim>64</dim>
					<dim>64</dim>
					<dim>3</dim>
					<dim>3</dim>
				</port>
			</output>
		</layer>
		<layer id="127" name="/backbone/layer1/layer1.1/conv2/Conv/WithoutBiases" type="Convolution" version="opset1">
			<data auto_pad="explicit" strides="1,1" dilations="1,1" pads_begin="1,1" pads_end="1,1"/>
			<input>
				<port id="0">
					<dim>1</dim>
					<dim>64</dim>
					<dim>160</dim>
					<dim>160</dim>
				</port>
				<port id="1">
					<dim>64</dim>
					<dim>64</dim>
					<dim>3</dim>
					<dim>3</dim>
				</port>
			</input>
			<output>
				<port id="2" precision="FP32">
					<dim>1</dim>
					<dim>64</dim>
					<dim>160</dim>
					<dim>160</dim>
				</port>
			</output>
		</layer>
		<layer id="128" name="Reshape_465155424584" type="Const" version="opset1">
			<data offset="3734048" size="256" shape="1,64,1,1" element_type="f32"/>
			<output>
				<port id="0" precision="FP32">
					<dim>1</dim>
					<dim>64</dim>
					<dim>1</dim>
					<dim>1</dim>
				</port>
			</output>
		</layer>
		<layer id="129" name="/backbone/layer1/layer1.1/conv2/Conv" type="Add" version="opset1">
			<data auto_broadcast="numpy"/>
			<input>
				<port id="0">
					<dim>1</dim>
					<dim>64</dim>
					<dim>160</dim>
					<dim>160</dim>
				</port>
				<port id="1">
					<dim>1</dim>
					<dim>64</dim>
					<dim>1</dim>
					<dim>1</dim>
				</port>
			</input>
			<output>
				<port id="2" precision="FP32" names="/backbone/layer1/layer1.1/conv2/Conv_output_0">
					<dim>1</dim>
					<dim>64</dim>
					<dim>160</dim>
					<dim>160</dim>
				</port>
			</output>
		</layer>
		<layer id="130" name="/backbone/layer1/layer1.1/relu_1/Relu" type="ReLU" version="opset1">
			<input>
				<port id="0">
					<dim>1</dim>
					<dim>64</dim>
					<dim>160</dim>
					<dim>160</dim>
				</port>
			</input>
			<output>
				<port id="1" precision="FP32" names="/backbone/layer1/layer1.1/relu_1/Relu_output_0">
					<dim>1</dim>
					<dim>64</dim>
					<dim>160</dim>
					<dim>160</dim>
				</port>
			</output>
		</layer>
		<layer id="131" name="/backbone/layer1/layer1.1/conv3/Conv/WithoutBiases/fq_input_0" type="FakeQuantize" version="opset1">
			<data levels="256" auto_broadcast="numpy"/>
			<input>
				<port id="0">
					<dim>1</dim>
					<dim>64</dim>
					<dim>160</dim>
					<dim>160</dim>
				</port>
				<port id="1"/>
				<port id="2"/>
				<port id="3"/>
				<port id="4"/>
			</input>
			<output>
				<port id="5" precision="FP32">
					<dim>1</dim>
					<dim>64</dim>
					<dim>160</dim>
					<dim>160</dim>
				</port>
			</output>
		</layer>
		<layer id="132" name="/backbone/layer1/layer1.1/conv3/Conv/WithoutBiases/fq_weights_1/scale1756925529" type="Const" version="opset1">
			<data offset="3734304" size="1024" shape="256,1,1,1" element_type="f32"/>
			<output>
				<port id="0" precision="FP32">
					<dim>256</dim>
					<dim>1</dim>
					<dim>1</dim>
					<dim>1</dim>
				</port>
			</output>
		</layer>
		<layer id="133" name="onnx::Conv_1579155714857/quantized1756126429" type="Const" version="opset1">
			<data offset="3735328" size="16384" shape="256,64,1,1" element_type="i8"/>
			<output>
				<port id="0" precision="I8">
					<dim>256</dim>
					<dim>64</dim>
					<dim>1</dim>
					<dim>1</dim>
				</port>
			</output>
		</layer>
		<layer id="134" name="onnx::Conv_1579155714857/quantized/to_f32" type="Convert" version="opset1">
			<data destination_type="f32"/>
			<input>
				<port id="0">
					<dim>256</dim>
					<dim>64</dim>
					<dim>1</dim>
					<dim>1</dim>
				</port>
			</input>
			<output>
				<port id="1" precision="FP32">
					<dim>256</dim>
					<dim>64</dim>
					<dim>1</dim>
					<dim>1</dim>
				</port>
			</output>
		</layer>
		<layer id="135" name="/backbone/layer1/layer1.1/conv3/Conv/WithoutBiases/fq_weights_1/mulpiply_by_scale" type="Multiply" version="opset1">
			<data auto_broadcast="numpy"/>
			<input>
				<port id="0">
					<dim>256</dim>
					<dim>64</dim>
					<dim>1</dim>
					<dim>1</dim>
				</port>
				<port id="1">
					<dim>256</dim>
					<dim>1</dim>
					<dim>1</dim>
					<dim>1</dim>
				</port>
			</input>
			<output>
				<port id="2" precision="FP32">
					<dim>256</dim>
					<dim>64</dim>
					<dim>1</dim>
					<dim>1</dim>
				</port>
			</output>
		</layer>
		<layer id="136" name="/backbone/layer1/layer1.1/conv3/Conv/WithoutBiases" type="Convolution" version="opset1">
			<data auto_pad="explicit" strides="1,1" dilations="1,1" pads_begin="0,0" pads_end="0,0"/>
			<input>
				<port id="0">
					<dim>1</dim>
					<dim>64</dim>
					<dim>160</dim>
					<dim>160</dim>
				</port>
				<port id="1">
					<dim>256</dim>
					<dim>64</dim>
					<dim>1</dim>
					<dim>1</dim>
				</port>
			</input>
			<output>
				<port id="2" precision="FP32">
					<dim>1</dim>
					<dim>256</dim>
					<dim>160</dim>
					<dim>160</dim>
				</port>
			</output>
		</layer>
		<layer id="137" name="Reshape_514155925784" type="Const" version="opset1">
			<data offset="3751712" size="1024" shape="1,256,1,1" element_type="f32"/>
			<output>
				<port id="0" precision="FP32">
					<dim>1</dim>
					<dim>256</dim>
					<dim>1</dim>
					<dim>1</dim>
				</port>
			</output>
		</layer>
		<layer id="138" name="/backbone/layer1/layer1.1/conv3/Conv" type="Add" version="opset1">
			<data auto_broadcast="numpy"/>
			<input>
				<port id="0">
					<dim>1</dim>
					<dim>256</dim>
					<dim>160</dim>
					<dim>160</dim>
				</port>
				<port id="1">
					<dim>1</dim>
					<dim>256</dim>
					<dim>1</dim>
					<dim>1</dim>
				</port>
			</input>
			<output>
				<port id="2" precision="FP32" names="/backbone/layer1/layer1.1/conv3/Conv_output_0">
					<dim>1</dim>
					<dim>256</dim>
					<dim>160</dim>
					<dim>160</dim>
				</port>
			</output>
		</layer>
		<layer id="139" name="/backbone/layer1/layer1.1/Add/fq_input_0" type="FakeQuantize" version="opset1">
			<data levels="256" auto_broadcast="numpy"/>
			<input>
				<port id="0">
					<dim>1</dim>
					<dim>256</dim>
					<dim>160</dim>
					<dim>160</dim>
				</port>
				<port id="1"/>
				<port id="2"/>
				<port id="3"/>
				<port id="4"/>
			</input>
			<output>
				<port id="5" precision="FP32">
					<dim>1</dim>
					<dim>256</dim>
					<dim>160</dim>
					<dim>160</dim>
				</port>
			</output>
		</layer>
		<layer id="140" name="/backbone/layer1/layer1.1/Add" type="Add" version="opset1">
			<data auto_broadcast="numpy"/>
			<input>
				<port id="0">
					<dim>1</dim>
					<dim>256</dim>
					<dim>160</dim>
					<dim>160</dim>
				</port>
				<port id="1">
					<dim>1</dim>
					<dim>256</dim>
					<dim>160</dim>
					<dim>160</dim>
				</port>
			</input>
			<output>
				<port id="2" precision="FP32" names="/backbone/layer1/layer1.1/Add_output_0">
					<dim>1</dim>
					<dim>256</dim>
					<dim>160</dim>
					<dim>160</dim>
				</port>
			</output>
		</layer>
		<layer id="141" name="/backbone/layer1/layer1.1/relu_2/Relu" type="ReLU" version="opset1">
			<input>
				<port id="0">
					<dim>1</dim>
					<dim>256</dim>
					<dim>160</dim>
					<dim>160</dim>
				</port>
			</input>
			<output>
				<port id="1" precision="FP32" names="/backbone/layer1/layer1.1/relu_2/Relu_output_0">
					<dim>1</dim>
					<dim>256</dim>
					<dim>160</dim>
					<dim>160</dim>
				</port>
			</output>
		</layer>
		<layer id="142" name="/backbone/layer1/layer1.2/Add/fq_input_1" type="FakeQuantize" version="opset1">
			<data levels="256" auto_broadcast="numpy"/>
			<input>
				<port id="0">
					<dim>1</dim>
					<dim>256</dim>
					<dim>160</dim>
					<dim>160</dim>
				</port>
				<port id="1"/>
				<port id="2"/>
				<port id="3"/>
				<port id="4"/>
			</input>
			<output>
				<port id="5" precision="FP32">
					<dim>1</dim>
					<dim>256</dim>
					<dim>160</dim>
					<dim>160</dim>
				</port>
			</output>
		</layer>
		<layer id="143" name="/backbone/layer1/layer1.2/conv1/Conv/WithoutBiases/fq_weights_1/scale1789925799" type="Const" version="opset1">
			<data offset="3752736" size="256" shape="64,1,1,1" element_type="f32"/>
			<output>
				<port id="0" precision="FP32">
					<dim>64</dim>
					<dim>1</dim>
					<dim>1</dim>
					<dim>1</dim>
				</port>
			</output>
		</layer>
		<layer id="144" name="onnx::Conv_1582156314859/quantized1789126912" type="Const" version="opset1">
			<data offset="3752992" size="16384" shape="64,256,1,1" element_type="i8"/>
			<output>
				<port id="0" precision="I8">
					<dim>64</dim>
					<dim>256</dim>
					<dim>1</dim>
					<dim>1</dim>
				</port>
			</output>
		</layer>
		<layer id="145" name="onnx::Conv_1582156314859/quantized/to_f32" type="Convert" version="opset1">
			<data destination_type="f32"/>
			<input>
				<port id="0">
					<dim>64</dim>
					<dim>256</dim>
					<dim>1</dim>
					<dim>1</dim>
				</port>
			</input>
			<output>
				<port id="1" precision="FP32">
					<dim>64</dim>
					<dim>256</dim>
					<dim>1</dim>
					<dim>1</dim>
				</port>
			</output>
		</layer>
		<layer id="146" name="/backbone/layer1/layer1.2/conv1/Conv/WithoutBiases/fq_weights_1/mulpiply_by_scale" type="Multiply" version="opset1">
			<data auto_broadcast="numpy"/>
			<input>
				<port id="0">
					<dim>64</dim>
					<dim>256</dim>
					<dim>1</dim>
					<dim>1</dim>
				</port>
				<port id="1">
					<dim>64</dim>
					<dim>1</dim>
					<dim>1</dim>
					<dim>1</dim>
				</port>
			</input>
			<output>
				<port id="2" precision="FP32">
					<dim>64</dim>
					<dim>256</dim>
					<dim>1</dim>
					<dim>1</dim>
				</port>
			</output>
		</layer>
		<layer id="147" name="/backbone/layer1/layer1.2/conv1/Conv/WithoutBiases" type="Convolution" version="opset1">
			<data auto_pad="explicit" strides="1,1" dilations="1,1" pads_begin="0,0" pads_end="0,0"/>
			<input>
				<port id="0">
					<dim>1</dim>
					<dim>256</dim>
					<dim>160</dim>
					<dim>160</dim>
				</port>
				<port id="1">
					<dim>64</dim>
					<dim>256</dim>
					<dim>1</dim>
					<dim>1</dim>
				</port>
			</input>
			<output>
				<port id="2" precision="FP32">
					<dim>1</dim>
					<dim>64</dim>
					<dim>160</dim>
					<dim>160</dim>
				</port>
			</output>
		</layer>
		<layer id="148" name="Reshape_564156526060" type="Const" version="opset1">
			<data offset="3769376" size="256" shape="1,64,1,1" element_type="f32"/>
			<output>
				<port id="0" precision="FP32">
					<dim>1</dim>
					<dim>64</dim>
					<dim>1</dim>
					<dim>1</dim>
				</port>
			</output>
		</layer>
		<layer id="149" name="/backbone/layer1/layer1.2/conv1/Conv" type="Add" version="opset1">
			<data auto_broadcast="numpy"/>
			<input>
				<port id="0">
					<dim>1</dim>
					<dim>64</dim>
					<dim>160</dim>
					<dim>160</dim>
				</port>
				<port id="1">
					<dim>1</dim>
					<dim>64</dim>
					<dim>1</dim>
					<dim>1</dim>
				</port>
			</input>
			<output>
				<port id="2" precision="FP32" names="/backbone/layer1/layer1.2/conv1/Conv_output_0">
					<dim>1</dim>
					<dim>64</dim>
					<dim>160</dim>
					<dim>160</dim>
				</port>
			</output>
		</layer>
		<layer id="150" name="/backbone/layer1/layer1.2/relu/Relu" type="ReLU" version="opset1">
			<input>
				<port id="0">
					<dim>1</dim>
					<dim>64</dim>
					<dim>160</dim>
					<dim>160</dim>
				</port>
			</input>
			<output>
				<port id="1" precision="FP32" names="/backbone/layer1/layer1.2/relu/Relu_output_0">
					<dim>1</dim>
					<dim>64</dim>
					<dim>160</dim>
					<dim>160</dim>
				</port>
			</output>
		</layer>
		<layer id="151" name="/backbone/layer1/layer1.2/conv2/Conv/WithoutBiases/fq_input_0" type="FakeQuantize" version="opset1">
			<data levels="256" auto_broadcast="numpy"/>
			<input>
				<port id="0">
					<dim>1</dim>
					<dim>64</dim>
					<dim>160</dim>
					<dim>160</dim>
				</port>
				<port id="1"/>
				<port id="2"/>
				<port id="3"/>
				<port id="4"/>
			</input>
			<output>
				<port id="5" precision="FP32">
					<dim>1</dim>
					<dim>64</dim>
					<dim>160</dim>
					<dim>160</dim>
				</port>
			</output>
		</layer>
		<layer id="152" name="/backbone/layer1/layer1.2/conv2/Conv/WithoutBiases/fq_weights_1/scale1645926297" type="Const" version="opset1">
			<data offset="3769632" size="256" shape="64,1,1,1" element_type="f32"/>
			<output>
				<port id="0" precision="FP32">
					<dim>64</dim>
					<dim>1</dim>
					<dim>1</dim>
					<dim>1</dim>
				</port>
			</output>
		</layer>
		<layer id="153" name="onnx::Conv_1585156814861/quantized1645126840" type="Const" version="opset1">
			<data offset="3769888" size="36864" shape="64,64,3,3" element_type="i8"/>
			<output>
				<port id="0" precision="I8">
					<dim>64</dim>
					<dim>64</dim>
					<dim>3</dim>
					<dim>3</dim>
				</port>
			</output>
		</layer>
		<layer id="154" name="onnx::Conv_1585156814861/quantized/to_f32" type="Convert" version="opset1">
			<data destination_type="f32"/>
			<input>
				<port id="0">
					<dim>64</dim>
					<dim>64</dim>
					<dim>3</dim>
					<dim>3</dim>
				</port>
			</input>
			<output>
				<port id="1" precision="FP32">
					<dim>64</dim>
					<dim>64</dim>
					<dim>3</dim>
					<dim>3</dim>
				</port>
			</output>
		</layer>
		<layer id="155" name="/backbone/layer1/layer1.2/conv2/Conv/WithoutBiases/fq_weights_1/mulpiply_by_scale" type="Multiply" version="opset1">
			<data auto_broadcast="numpy"/>
			<input>
				<port id="0">
					<dim>64</dim>
					<dim>64</dim>
					<dim>3</dim>
					<dim>3</dim>
				</port>
				<port id="1">
					<dim>64</dim>
					<dim>1</dim>
					<dim>1</dim>
					<dim>1</dim>
				</port>
			</input>
			<output>
				<port id="2" precision="FP32">
					<dim>64</dim>
					<dim>64</dim>
					<dim>3</dim>
					<dim>3</dim>
				</port>
			</output>
		</layer>
		<layer id="156" name="/backbone/layer1/layer1.2/conv2/Conv/WithoutBiases" type="Convolution" version="opset1">
			<data auto_pad="explicit" strides="1,1" dilations="1,1" pads_begin="1,1" pads_end="1,1"/>
			<input>
				<port id="0">
					<dim>1</dim>
					<dim>64</dim>
					<dim>160</dim>
					<dim>160</dim>
				</port>
				<port id="1">
					<dim>64</dim>
					<dim>64</dim>
					<dim>3</dim>
					<dim>3</dim>
				</port>
			</input>
			<output>
				<port id="2" precision="FP32">
					<dim>1</dim>
					<dim>64</dim>
					<dim>160</dim>
					<dim>160</dim>
				</port>
			</output>
		</layer>
		<layer id="157" name="Reshape_613157027023" type="Const" version="opset1">
			<data offset="3806752" size="256" shape="1,64,1,1" element_type="f32"/>
			<output>
				<port id="0" precision="FP32">
					<dim>1</dim>
					<dim>64</dim>
					<dim>1</dim>
					<dim>1</dim>
				</port>
			</output>
		</layer>
		<layer id="158" name="/backbone/layer1/layer1.2/conv2/Conv" type="Add" version="opset1">
			<data auto_broadcast="numpy"/>
			<input>
				<port id="0">
					<dim>1</dim>
					<dim>64</dim>
					<dim>160</dim>
					<dim>160</dim>
				</port>
				<port id="1">
					<dim>1</dim>
					<dim>64</dim>
					<dim>1</dim>
					<dim>1</dim>
				</port>
			</input>
			<output>
				<port id="2" precision="FP32" names="/backbone/layer1/layer1.2/conv2/Conv_output_0">
					<dim>1</dim>
					<dim>64</dim>
					<dim>160</dim>
					<dim>160</dim>
				</port>
			</output>
		</layer>
		<layer id="159" name="/backbone/layer1/layer1.2/relu_1/Relu" type="ReLU" version="opset1">
			<input>
				<port id="0">
					<dim>1</dim>
					<dim>64</dim>
					<dim>160</dim>
					<dim>160</dim>
				</port>
			</input>
			<output>
				<port id="1" precision="FP32" names="/backbone/layer1/layer1.2/relu_1/Relu_output_0">
					<dim>1</dim>
					<dim>64</dim>
					<dim>160</dim>
					<dim>160</dim>
				</port>
			</output>
		</layer>
		<layer id="160" name="/backbone/layer1/layer1.2/conv3/Conv/WithoutBiases/fq_input_0" type="FakeQuantize" version="opset1">
			<data levels="256" auto_broadcast="numpy"/>
			<input>
				<port id="0">
					<dim>1</dim>
					<dim>64</dim>
					<dim>160</dim>
					<dim>160</dim>
				</port>
				<port id="1"/>
				<port id="2"/>
				<port id="3"/>
				<port id="4"/>
			</input>
			<output>
				<port id="5" precision="FP32">
					<dim>1</dim>
					<dim>64</dim>
					<dim>160</dim>
					<dim>160</dim>
				</port>
			</output>
		</layer>
		<layer id="161" name="/backbone/layer1/layer1.2/conv3/Conv/WithoutBiases/fq_weights_1/scale1642926174" type="Const" version="opset1">
			<data offset="3807008" size="1024" shape="256,1,1,1" element_type="f32"/>
			<output>
				<port id="0" precision="FP32">
					<dim>256</dim>
					<dim>1</dim>
					<dim>1</dim>
					<dim>1</dim>
				</port>
			</output>
		</layer>
		<layer id="162" name="onnx::Conv_1588157314863/quantized1642124263" type="Const" version="opset1">
			<data offset="3808032" size="16384" shape="256,64,1,1" element_type="i8"/>
			<output>
				<port id="0" precision="I8">
					<dim>256</dim>
					<dim>64</dim>
					<dim>1</dim>
					<dim>1</dim>
				</port>
			</output>
		</layer>
		<layer id="163" name="onnx::Conv_1588157314863/quantized/to_f32" type="Convert" version="opset1">
			<data destination_type="f32"/>
			<input>
				<port id="0">
					<dim>256</dim>
					<dim>64</dim>
					<dim>1</dim>
					<dim>1</dim>
				</port>
			</input>
			<output>
				<port id="1" precision="FP32">
					<dim>256</dim>
					<dim>64</dim>
					<dim>1</dim>
					<dim>1</dim>
				</port>
			</output>
		</layer>
		<layer id="164" name="/backbone/layer1/layer1.2/conv3/Conv/WithoutBiases/fq_weights_1/mulpiply_by_scale" type="Multiply" version="opset1">
			<data auto_broadcast="numpy"/>
			<input>
				<port id="0">
					<dim>256</dim>
					<dim>64</dim>
					<dim>1</dim>
					<dim>1</dim>
				</port>
				<port id="1">
					<dim>256</dim>
					<dim>1</dim>
					<dim>1</dim>
					<dim>1</dim>
				</port>
			</input>
			<output>
				<port id="2" precision="FP32">
					<dim>256</dim>
					<dim>64</dim>
					<dim>1</dim>
					<dim>1</dim>
				</port>
			</output>
		</layer>
		<layer id="165" name="/backbone/layer1/layer1.2/conv3/Conv/WithoutBiases" type="Convolution" version="opset1">
			<data auto_pad="explicit" strides="1,1" dilations="1,1" pads_begin="0,0" pads_end="0,0"/>
			<input>
				<port id="0">
					<dim>1</dim>
					<dim>64</dim>
					<dim>160</dim>
					<dim>160</dim>
				</port>
				<port id="1">
					<dim>256</dim>
					<dim>64</dim>
					<dim>1</dim>
					<dim>1</dim>
				</port>
			</input>
			<output>
				<port id="2" precision="FP32">
					<dim>1</dim>
					<dim>256</dim>
					<dim>160</dim>
					<dim>160</dim>
				</port>
			</output>
		</layer>
		<layer id="166" name="Reshape_662157526156" type="Const" version="opset1">
			<data offset="3824416" size="1024" shape="1,256,1,1" element_type="f32"/>
			<output>
				<port id="0" precision="FP32">
					<dim>1</dim>
					<dim>256</dim>
					<dim>1</dim>
					<dim>1</dim>
				</port>
			</output>
		</layer>
		<layer id="167" name="/backbone/layer1/layer1.2/conv3/Conv" type="Add" version="opset1">
			<data auto_broadcast="numpy"/>
			<input>
				<port id="0">
					<dim>1</dim>
					<dim>256</dim>
					<dim>160</dim>
					<dim>160</dim>
				</port>
				<port id="1">
					<dim>1</dim>
					<dim>256</dim>
					<dim>1</dim>
					<dim>1</dim>
				</port>
			</input>
			<output>
				<port id="2" precision="FP32" names="/backbone/layer1/layer1.2/conv3/Conv_output_0">
					<dim>1</dim>
					<dim>256</dim>
					<dim>160</dim>
					<dim>160</dim>
				</port>
			</output>
		</layer>
		<layer id="168" name="/backbone/layer1/layer1.2/Add/fq_input_0" type="FakeQuantize" version="opset1">
			<data levels="256" auto_broadcast="numpy"/>
			<input>
				<port id="0">
					<dim>1</dim>
					<dim>256</dim>
					<dim>160</dim>
					<dim>160</dim>
				</port>
				<port id="1"/>
				<port id="2"/>
				<port id="3"/>
				<port id="4"/>
			</input>
			<output>
				<port id="5" precision="FP32">
					<dim>1</dim>
					<dim>256</dim>
					<dim>160</dim>
					<dim>160</dim>
				</port>
			</output>
		</layer>
		<layer id="169" name="/backbone/layer1/layer1.2/Add" type="Add" version="opset1">
			<data auto_broadcast="numpy"/>
			<input>
				<port id="0">
					<dim>1</dim>
					<dim>256</dim>
					<dim>160</dim>
					<dim>160</dim>
				</port>
				<port id="1">
					<dim>1</dim>
					<dim>256</dim>
					<dim>160</dim>
					<dim>160</dim>
				</port>
			</input>
			<output>
				<port id="2" precision="FP32" names="/backbone/layer1/layer1.2/Add_output_0">
					<dim>1</dim>
					<dim>256</dim>
					<dim>160</dim>
					<dim>160</dim>
				</port>
			</output>
		</layer>
		<layer id="170" name="/backbone/layer1/layer1.2/relu_2/Relu" type="ReLU" version="opset1">
			<input>
				<port id="0">
					<dim>1</dim>
					<dim>256</dim>
					<dim>160</dim>
					<dim>160</dim>
				</port>
			</input>
			<output>
				<port id="1" precision="FP32" names="/backbone/layer1/layer1.2/relu_2/Relu_output_0">
					<dim>1</dim>
					<dim>256</dim>
					<dim>160</dim>
					<dim>160</dim>
				</port>
			</output>
		</layer>
		<layer id="171" name="/backbone/layer2/layer2.0/conv1/Conv/WithoutBiases/fq_input_0" type="FakeQuantize" version="opset1">
			<data levels="256" auto_broadcast="numpy"/>
			<input>
				<port id="0">
					<dim>1</dim>
					<dim>256</dim>
					<dim>160</dim>
					<dim>160</dim>
				</port>
				<port id="1"/>
				<port id="2"/>
				<port id="3"/>
				<port id="4"/>
			</input>
			<output>
				<port id="5" precision="FP32">
					<dim>1</dim>
					<dim>256</dim>
					<dim>160</dim>
					<dim>160</dim>
				</port>
			</output>
		</layer>
		<layer id="172" name="/neck/lateral_convs.0/conv/Conv/WithoutBiases/fq_weights_1/scale1720924242" type="Const" version="opset1">
			<data offset="3825440" size="1024" shape="256,1,1,1" element_type="f32"/>
			<output>
				<port id="0" precision="FP32">
					<dim>256</dim>
					<dim>1</dim>
					<dim>1</dim>
					<dim>1</dim>
				</port>
			</output>
		</layer>
		<layer id="173" name="neck.lateral_convs.0.conv.weight157914865/quantized1720126999" type="Const" version="opset1">
			<data offset="3826464" size="65536" shape="256,256,1,1" element_type="i8"/>
			<output>
				<port id="0" precision="I8">
					<dim>256</dim>
					<dim>256</dim>
					<dim>1</dim>
					<dim>1</dim>
				</port>
			</output>
		</layer>
		<layer id="174" name="neck.lateral_convs.0.conv.weight157914865/quantized/to_f32" type="Convert" version="opset1">
			<data destination_type="f32"/>
			<input>
				<port id="0">
					<dim>256</dim>
					<dim>256</dim>
					<dim>1</dim>
					<dim>1</dim>
				</port>
			</input>
			<output>
				<port id="1" precision="FP32">
					<dim>256</dim>
					<dim>256</dim>
					<dim>1</dim>
					<dim>1</dim>
				</port>
			</output>
		</layer>
		<layer id="175" name="/neck/lateral_convs.0/conv/Conv/WithoutBiases/fq_weights_1/mulpiply_by_scale" type="Multiply" version="opset1">
			<data auto_broadcast="numpy"/>
			<input>
				<port id="0">
					<dim>256</dim>
					<dim>256</dim>
					<dim>1</dim>
					<dim>1</dim>
				</port>
				<port id="1">
					<dim>256</dim>
					<dim>1</dim>
					<dim>1</dim>
					<dim>1</dim>
				</port>
			</input>
			<output>
				<port id="2" precision="FP32">
					<dim>256</dim>
					<dim>256</dim>
					<dim>1</dim>
					<dim>1</dim>
				</port>
			</output>
		</layer>
		<layer id="176" name="/neck/lateral_convs.0/conv/Conv/WithoutBiases" type="Convolution" version="opset1">
			<data auto_pad="explicit" strides="1,1" dilations="1,1" pads_begin="0,0" pads_end="0,0"/>
			<input>
				<port id="0">
					<dim>1</dim>
					<dim>256</dim>
					<dim>160</dim>
					<dim>160</dim>
				</port>
				<port id="1">
					<dim>256</dim>
					<dim>256</dim>
					<dim>1</dim>
					<dim>1</dim>
				</port>
			</input>
			<output>
				<port id="2" precision="FP32">
					<dim>1</dim>
					<dim>256</dim>
					<dim>160</dim>
					<dim>160</dim>
				</port>
			</output>
		</layer>
		<layer id="177" name="Reshape_2780158126300" type="Const" version="opset1">
			<data offset="3892000" size="1024" shape="1,256,1,1" element_type="f32"/>
			<output>
				<port id="0" precision="FP32">
					<dim>1</dim>
					<dim>256</dim>
					<dim>1</dim>
					<dim>1</dim>
				</port>
			</output>
		</layer>
		<layer id="178" name="/neck/lateral_convs.0/conv/Conv" type="Add" version="opset1">
			<data auto_broadcast="numpy"/>
			<input>
				<port id="0">
					<dim>1</dim>
					<dim>256</dim>
					<dim>160</dim>
					<dim>160</dim>
				</port>
				<port id="1">
					<dim>1</dim>
					<dim>256</dim>
					<dim>1</dim>
					<dim>1</dim>
				</port>
			</input>
			<output>
				<port id="2" precision="FP32" names="/neck/lateral_convs.0/conv/Conv_output_0">
					<dim>1</dim>
					<dim>256</dim>
					<dim>160</dim>
					<dim>160</dim>
				</port>
			</output>
		</layer>
		<layer id="179" name="6269627324461" type="Const" version="opset1">
			<data offset="3591168" size="4" shape="" element_type="f32"/>
			<output>
				<port id="0" precision="FP32"/>
			</output>
		</layer>
		<layer id="180" name="6270627426417" type="Const" version="opset1">
			<data offset="3893024" size="4" shape="" element_type="f32"/>
			<output>
				<port id="0" precision="FP32"/>
			</output>
		</layer>
		<layer id="181" name="6271627525727" type="Const" version="opset1">
			<data offset="3591168" size="4" shape="" element_type="f32"/>
			<output>
				<port id="0" precision="FP32"/>
			</output>
		</layer>
		<layer id="182" name="6272627624830" type="Const" version="opset1">
			<data offset="3893024" size="4" shape="" element_type="f32"/>
			<output>
				<port id="0" precision="FP32"/>
			</output>
		</layer>
		<layer id="183" name="6899690326618" type="Const" version="opset1">
			<data offset="3893028" size="4" shape="" element_type="f32"/>
			<output>
				<port id="0" precision="FP32"/>
			</output>
		</layer>
		<layer id="184" name="6900690426468" type="Const" version="opset1">
			<data offset="3893032" size="4" shape="" element_type="f32"/>
			<output>
				<port id="0" precision="FP32"/>
			</output>
		</layer>
		<layer id="185" name="6901690525271" type="Const" version="opset1">
			<data offset="3893028" size="4" shape="" element_type="f32"/>
			<output>
				<port id="0" precision="FP32"/>
			</output>
		</layer>
		<layer id="186" name="6902690624968" type="Const" version="opset1">
			<data offset="3893032" size="4" shape="" element_type="f32"/>
			<output>
				<port id="0" precision="FP32"/>
			</output>
		</layer>
		<layer id="187" name="7489749326960" type="Const" version="opset1">
			<data offset="3591168" size="4" shape="" element_type="f32"/>
			<output>
				<port id="0" precision="FP32"/>
			</output>
		</layer>
		<layer id="188" name="7490749424344" type="Const" version="opset1">
			<data offset="3893036" size="4" shape="" element_type="f32"/>
			<output>
				<port id="0" precision="FP32"/>
			</output>
		</layer>
		<layer id="189" name="7491749525502" type="Const" version="opset1">
			<data offset="3591168" size="4" shape="" element_type="f32"/>
			<output>
				<port id="0" precision="FP32"/>
			</output>
		</layer>
		<layer id="190" name="7492749626774" type="Const" version="opset1">
			<data offset="3893036" size="4" shape="" element_type="f32"/>
			<output>
				<port id="0" precision="FP32"/>
			</output>
		</layer>
		<layer id="191" name="5999600325919" type="Const" version="opset1">
			<data offset="3591168" size="4" shape="" element_type="f32"/>
			<output>
				<port id="0" precision="FP32"/>
			</output>
		</layer>
		<layer id="192" name="6000600425256" type="Const" version="opset1">
			<data offset="3893040" size="4" shape="" element_type="f32"/>
			<output>
				<port id="0" precision="FP32"/>
			</output>
		</layer>
		<layer id="193" name="6001600524860" type="Const" version="opset1">
			<data offset="3591168" size="4" shape="" element_type="f32"/>
			<output>
				<port id="0" precision="FP32"/>
			</output>
		</layer>
		<layer id="194" name="6002600626261" type="Const" version="opset1">
			<data offset="3893040" size="4" shape="" element_type="f32"/>
			<output>
				<port id="0" precision="FP32"/>
			</output>
		</layer>
		<layer id="195" name="6909691326138" type="Const" version="opset1">
			<data offset="3591168" size="4" shape="" element_type="f32"/>
			<output>
				<port id="0" precision="FP32"/>
			</output>
		</layer>
		<layer id="196" name="6910691425862" type="Const" version="opset1">
			<data offset="3893044" size="4" shape="" element_type="f32"/>
			<output>
				<port id="0" precision="FP32"/>
			</output>
		</layer>
		<layer id="197" name="6911691524254" type="Const" version="opset1">
			<data offset="3591168" size="4" shape="" element_type="f32"/>
			<output>
				<port id="0" precision="FP32"/>
			</output>
		</layer>
		<layer id="198" name="6912691624245" type="Const" version="opset1">
			<data offset="3893044" size="4" shape="" element_type="f32"/>
			<output>
				<port id="0" precision="FP32"/>
			</output>
		</layer>
		<layer id="199" name="7769777326843" type="Const" version="opset1">
			<data offset="3893048" size="4" shape="" element_type="f32"/>
			<output>
				<port id="0" precision="FP32"/>
			</output>
		</layer>
		<layer id="200" name="7770777426648" type="Const" version="opset1">
			<data offset="3893052" size="4" shape="" element_type="f32"/>
			<output>
				<port id="0" precision="FP32"/>
			</output>
		</layer>
		<layer id="201" name="7771777525316" type="Const" version="opset1">
			<data offset="3893048" size="4" shape="" element_type="f32"/>
			<output>
				<port id="0" precision="FP32"/>
			</output>
		</layer>
		<layer id="202" name="7772777625514" type="Const" version="opset1">
			<data offset="3893052" size="4" shape="" element_type="f32"/>
			<output>
				<port id="0" precision="FP32"/>
			</output>
		</layer>
		<layer id="203" name="6109611325970" type="Const" version="opset1">
			<data offset="3591168" size="4" shape="" element_type="f32"/>
			<output>
				<port id="0" precision="FP32"/>
			</output>
		</layer>
		<layer id="204" name="6110611426588" type="Const" version="opset1">
			<data offset="3893056" size="4" shape="" element_type="f32"/>
			<output>
				<port id="0" precision="FP32"/>
			</output>
		</layer>
		<layer id="205" name="6111611525469" type="Const" version="opset1">
			<data offset="3591168" size="4" shape="" element_type="f32"/>
			<output>
				<port id="0" precision="FP32"/>
			</output>
		</layer>
		<layer id="206" name="6112611625415" type="Const" version="opset1">
			<data offset="3893056" size="4" shape="" element_type="f32"/>
			<output>
				<port id="0" precision="FP32"/>
			</output>
		</layer>
		<layer id="207" name="6699670325313" type="Const" version="opset1">
			<data offset="3591168" size="4" shape="" element_type="f32"/>
			<output>
				<port id="0" precision="FP32"/>
			</output>
		</layer>
		<layer id="208" name="6700670425880" type="Const" version="opset1">
			<data offset="3893060" size="4" shape="" element_type="f32"/>
			<output>
				<port id="0" precision="FP32"/>
			</output>
		</layer>
		<layer id="209" name="6701670526795" type="Const" version="opset1">
			<data offset="3591168" size="4" shape="" element_type="f32"/>
			<output>
				<port id="0" precision="FP32"/>
			</output>
		</layer>
		<layer id="210" name="6702670625097" type="Const" version="opset1">
			<data offset="3893060" size="4" shape="" element_type="f32"/>
			<output>
				<port id="0" precision="FP32"/>
			</output>
		</layer>
		<layer id="211" name="7779778325004" type="Const" version="opset1">
			<data offset="3591168" size="4" shape="" element_type="f32"/>
			<output>
				<port id="0" precision="FP32"/>
			</output>
		</layer>
		<layer id="212" name="7780778424389" type="Const" version="opset1">
			<data offset="3893064" size="4" shape="" element_type="f32"/>
			<output>
				<port id="0" precision="FP32"/>
			</output>
		</layer>
		<layer id="213" name="7781778524257" type="Const" version="opset1">
			<data offset="3591168" size="4" shape="" element_type="f32"/>
			<output>
				<port id="0" precision="FP32"/>
			</output>
		</layer>
		<layer id="214" name="7782778624791" type="Const" version="opset1">
			<data offset="3893064" size="4" shape="" element_type="f32"/>
			<output>
				<port id="0" precision="FP32"/>
			</output>
		</layer>
		<layer id="215" name="7259726325406" type="Const" version="opset1">
			<data offset="3893068" size="4" shape="" element_type="f32"/>
			<output>
				<port id="0" precision="FP32"/>
			</output>
		</layer>
		<layer id="216" name="7260726425904" type="Const" version="opset1">
			<data offset="3893072" size="4" shape="" element_type="f32"/>
			<output>
				<port id="0" precision="FP32"/>
			</output>
		</layer>
		<layer id="217" name="7261726527092" type="Const" version="opset1">
			<data offset="3893068" size="4" shape="" element_type="f32"/>
			<output>
				<port id="0" precision="FP32"/>
			</output>
		</layer>
		<layer id="218" name="7262726624170" type="Const" version="opset1">
			<data offset="3893072" size="4" shape="" element_type="f32"/>
			<output>
				<port id="0" precision="FP32"/>
			</output>
		</layer>
		<layer id="219" name="6519652324476" type="Const" version="opset1">
			<data offset="3591168" size="4" shape="" element_type="f32"/>
			<output>
				<port id="0" precision="FP32"/>
			</output>
		</layer>
		<layer id="220" name="6520652426759" type="Const" version="opset1">
			<data offset="3893076" size="4" shape="" element_type="f32"/>
			<output>
				<port id="0" precision="FP32"/>
			</output>
		</layer>
		<layer id="221" name="6521652524938" type="Const" version="opset1">
			<data offset="3591168" size="4" shape="" element_type="f32"/>
			<output>
				<port id="0" precision="FP32"/>
			</output>
		</layer>
		<layer id="222" name="6522652625658" type="Const" version="opset1">
			<data offset="3893076" size="4" shape="" element_type="f32"/>
			<output>
				<port id="0" precision="FP32"/>
			</output>
		</layer>
		<layer id="223" name="6579658326906" type="Const" version="opset1">
			<data offset="3591168" size="4" shape="" element_type="f32"/>
			<output>
				<port id="0" precision="FP32"/>
			</output>
		</layer>
		<layer id="224" name="6580658425949" type="Const" version="opset1">
			<data offset="3893080" size="4" shape="" element_type="f32"/>
			<output>
				<port id="0" precision="FP32"/>
			</output>
		</layer>
		<layer id="225" name="6581658526123" type="Const" version="opset1">
			<data offset="3591168" size="4" shape="" element_type="f32"/>
			<output>
				<port id="0" precision="FP32"/>
			</output>
		</layer>
		<layer id="226" name="6582658626045" type="Const" version="opset1">
			<data offset="3893080" size="4" shape="" element_type="f32"/>
			<output>
				<port id="0" precision="FP32"/>
			</output>
		</layer>
		<layer id="227" name="7269727325865" type="Const" version="opset1">
			<data offset="3591168" size="4" shape="" element_type="f32"/>
			<output>
				<port id="0" precision="FP32"/>
			</output>
		</layer>
		<layer id="228" name="7270727426558" type="Const" version="opset1">
			<data offset="3893084" size="4" shape="" element_type="f32"/>
			<output>
				<port id="0" precision="FP32"/>
			</output>
		</layer>
		<layer id="229" name="7271727525994" type="Const" version="opset1">
			<data offset="3591168" size="4" shape="" element_type="f32"/>
			<output>
				<port id="0" precision="FP32"/>
			</output>
		</layer>
		<layer id="230" name="7272727626753" type="Const" version="opset1">
			<data offset="3893084" size="4" shape="" element_type="f32"/>
			<output>
				<port id="0" precision="FP32"/>
			</output>
		</layer>
		<layer id="231" name="6399640324101" type="Const" version="opset1">
			<data offset="3893088" size="4" shape="" element_type="f32"/>
			<output>
				<port id="0" precision="FP32"/>
			</output>
		</layer>
		<layer id="232" name="6400640424725" type="Const" version="opset1">
			<data offset="3893092" size="4" shape="" element_type="f32"/>
			<output>
				<port id="0" precision="FP32"/>
			</output>
		</layer>
		<layer id="233" name="6401640524833" type="Const" version="opset1">
			<data offset="3893088" size="4" shape="" element_type="f32"/>
			<output>
				<port id="0" precision="FP32"/>
			</output>
		</layer>
		<layer id="234" name="6402640626267" type="Const" version="opset1">
			<data offset="3893092" size="4" shape="" element_type="f32"/>
			<output>
				<port id="0" precision="FP32"/>
			</output>
		</layer>
		<layer id="235" name="5819582324884" type="Const" version="opset1">
			<data offset="3591168" size="4" shape="" element_type="f32"/>
			<output>
				<port id="0" precision="FP32"/>
			</output>
		</layer>
		<layer id="236" name="5820582425034" type="Const" version="opset1">
			<data offset="3893096" size="4" shape="" element_type="f32"/>
			<output>
				<port id="0" precision="FP32"/>
			</output>
		</layer>
		<layer id="237" name="5821582524776" type="Const" version="opset1">
			<data offset="3591168" size="4" shape="" element_type="f32"/>
			<output>
				<port id="0" precision="FP32"/>
			</output>
		</layer>
		<layer id="238" name="5822582626345" type="Const" version="opset1">
			<data offset="3893096" size="4" shape="" element_type="f32"/>
			<output>
				<port id="0" precision="FP32"/>
			</output>
		</layer>
		<layer id="239" name="5859586325892" type="Const" version="opset1">
			<data offset="3591168" size="4" shape="" element_type="f32"/>
			<output>
				<port id="0" precision="FP32"/>
			</output>
		</layer>
		<layer id="240" name="5860586426348" type="Const" version="opset1">
			<data offset="3893100" size="4" shape="" element_type="f32"/>
			<output>
				<port id="0" precision="FP32"/>
			</output>
		</layer>
		<layer id="241" name="5861586526732" type="Const" version="opset1">
			<data offset="3591168" size="4" shape="" element_type="f32"/>
			<output>
				<port id="0" precision="FP32"/>
			</output>
		</layer>
		<layer id="242" name="5862586624434" type="Const" version="opset1">
			<data offset="3893100" size="4" shape="" element_type="f32"/>
			<output>
				<port id="0" precision="FP32"/>
			</output>
		</layer>
		<layer id="243" name="/backbone/layer2/layer2.0/conv1/Conv/WithoutBiases/fq_weights_1/scale1615925049" type="Const" version="opset1">
			<data offset="3893104" size="512" shape="128,1,1,1" element_type="f32"/>
			<output>
				<port id="0" precision="FP32">
					<dim>128</dim>
					<dim>1</dim>
					<dim>1</dim>
					<dim>1</dim>
				</port>
			</output>
		</layer>
		<layer id="244" name="onnx::Conv_1591158314867/quantized1615124311" type="Const" version="opset1">
			<data offset="3893616" size="32768" shape="128,256,1,1" element_type="i8"/>
			<output>
				<port id="0" precision="I8">
					<dim>128</dim>
					<dim>256</dim>
					<dim>1</dim>
					<dim>1</dim>
				</port>
			</output>
		</layer>
		<layer id="245" name="onnx::Conv_1591158314867/quantized/to_f32" type="Convert" version="opset1">
			<data destination_type="f32"/>
			<input>
				<port id="0">
					<dim>128</dim>
					<dim>256</dim>
					<dim>1</dim>
					<dim>1</dim>
				</port>
			</input>
			<output>
				<port id="1" precision="FP32">
					<dim>128</dim>
					<dim>256</dim>
					<dim>1</dim>
					<dim>1</dim>
				</port>
			</output>
		</layer>
		<layer id="246" name="/backbone/layer2/layer2.0/conv1/Conv/WithoutBiases/fq_weights_1/mulpiply_by_scale" type="Multiply" version="opset1">
			<data auto_broadcast="numpy"/>
			<input>
				<port id="0">
					<dim>128</dim>
					<dim>256</dim>
					<dim>1</dim>
					<dim>1</dim>
				</port>
				<port id="1">
					<dim>128</dim>
					<dim>1</dim>
					<dim>1</dim>
					<dim>1</dim>
				</port>
			</input>
			<output>
				<port id="2" precision="FP32">
					<dim>128</dim>
					<dim>256</dim>
					<dim>1</dim>
					<dim>1</dim>
				</port>
			</output>
		</layer>
		<layer id="247" name="/backbone/layer2/layer2.0/conv1/Conv/WithoutBiases" type="Convolution" version="opset1">
			<data auto_pad="explicit" strides="1,1" dilations="1,1" pads_begin="0,0" pads_end="0,0"/>
			<input>
				<port id="0">
					<dim>1</dim>
					<dim>256</dim>
					<dim>160</dim>
					<dim>160</dim>
				</port>
				<port id="1">
					<dim>128</dim>
					<dim>256</dim>
					<dim>1</dim>
					<dim>1</dim>
				</port>
			</input>
			<output>
				<port id="2" precision="FP32">
					<dim>1</dim>
					<dim>128</dim>
					<dim>160</dim>
					<dim>160</dim>
				</port>
			</output>
		</layer>
		<layer id="248" name="Reshape_712158525220" type="Const" version="opset1">
			<data offset="3926384" size="512" shape="1,128,1,1" element_type="f32"/>
			<output>
				<port id="0" precision="FP32">
					<dim>1</dim>
					<dim>128</dim>
					<dim>1</dim>
					<dim>1</dim>
				</port>
			</output>
		</layer>
		<layer id="249" name="/backbone/layer2/layer2.0/conv1/Conv" type="Add" version="opset1">
			<data auto_broadcast="numpy"/>
			<input>
				<port id="0">
					<dim>1</dim>
					<dim>128</dim>
					<dim>160</dim>
					<dim>160</dim>
				</port>
				<port id="1">
					<dim>1</dim>
					<dim>128</dim>
					<dim>1</dim>
					<dim>1</dim>
				</port>
			</input>
			<output>
				<port id="2" precision="FP32" names="/backbone/layer2/layer2.0/conv1/Conv_output_0">
					<dim>1</dim>
					<dim>128</dim>
					<dim>160</dim>
					<dim>160</dim>
				</port>
			</output>
		</layer>
		<layer id="250" name="/backbone/layer2/layer2.0/relu/Relu" type="ReLU" version="opset1">
			<input>
				<port id="0">
					<dim>1</dim>
					<dim>128</dim>
					<dim>160</dim>
					<dim>160</dim>
				</port>
			</input>
			<output>
				<port id="1" precision="FP32" names="/backbone/layer2/layer2.0/relu/Relu_output_0">
					<dim>1</dim>
					<dim>128</dim>
					<dim>160</dim>
					<dim>160</dim>
				</port>
			</output>
		</layer>
		<layer id="251" name="/backbone/layer2/layer2.0/conv2/Conv/WithoutBiases/fq_input_0" type="FakeQuantize" version="opset1">
			<data levels="256" auto_broadcast="numpy"/>
			<input>
				<port id="0">
					<dim>1</dim>
					<dim>128</dim>
					<dim>160</dim>
					<dim>160</dim>
				</port>
				<port id="1"/>
				<port id="2"/>
				<port id="3"/>
				<port id="4"/>
			</input>
			<output>
				<port id="5" precision="FP32">
					<dim>1</dim>
					<dim>128</dim>
					<dim>160</dim>
					<dim>160</dim>
				</port>
			</output>
		</layer>
		<layer id="252" name="/backbone/layer2/layer2.0/conv2/Conv/WithoutBiases/fq_weights_1/scale1705926591" type="Const" version="opset1">
			<data offset="3926896" size="512" shape="128,1,1,1" element_type="f32"/>
			<output>
				<port id="0" precision="FP32">
					<dim>128</dim>
					<dim>1</dim>
					<dim>1</dim>
					<dim>1</dim>
				</port>
			</output>
		</layer>
		<layer id="253" name="onnx::Conv_1594158814869/quantized1705124572" type="Const" version="opset1">
			<data offset="3927408" size="147456" shape="128,128,3,3" element_type="i8"/>
			<output>
				<port id="0" precision="I8">
					<dim>128</dim>
					<dim>128</dim>
					<dim>3</dim>
					<dim>3</dim>
				</port>
			</output>
		</layer>
		<layer id="254" name="onnx::Conv_1594158814869/quantized/to_f32" type="Convert" version="opset1">
			<data destination_type="f32"/>
			<input>
				<port id="0">
					<dim>128</dim>
					<dim>128</dim>
					<dim>3</dim>
					<dim>3</dim>
				</port>
			</input>
			<output>
				<port id="1" precision="FP32">
					<dim>128</dim>
					<dim>128</dim>
					<dim>3</dim>
					<dim>3</dim>
				</port>
			</output>
		</layer>
		<layer id="255" name="/backbone/layer2/layer2.0/conv2/Conv/WithoutBiases/fq_weights_1/mulpiply_by_scale" type="Multiply" version="opset1">
			<data auto_broadcast="numpy"/>
			<input>
				<port id="0">
					<dim>128</dim>
					<dim>128</dim>
					<dim>3</dim>
					<dim>3</dim>
				</port>
				<port id="1">
					<dim>128</dim>
					<dim>1</dim>
					<dim>1</dim>
					<dim>1</dim>
				</port>
			</input>
			<output>
				<port id="2" precision="FP32">
					<dim>128</dim>
					<dim>128</dim>
					<dim>3</dim>
					<dim>3</dim>
				</port>
			</output>
		</layer>
		<layer id="256" name="/backbone/layer2/layer2.0/conv2/Conv/WithoutBiases" type="Convolution" version="opset1">
			<data auto_pad="explicit" strides="2,2" dilations="1,1" pads_begin="1,1" pads_end="1,1"/>
			<input>
				<port id="0">
					<dim>1</dim>
					<dim>128</dim>
					<dim>160</dim>
					<dim>160</dim>
				</port>
				<port id="1">
					<dim>128</dim>
					<dim>128</dim>
					<dim>3</dim>
					<dim>3</dim>
				</port>
			</input>
			<output>
				<port id="2" precision="FP32">
					<dim>1</dim>
					<dim>128</dim>
					<dim>80</dim>
					<dim>80</dim>
				</port>
			</output>
		</layer>
		<layer id="257" name="Reshape_761159024896" type="Const" version="opset1">
			<data offset="4074864" size="512" shape="1,128,1,1" element_type="f32"/>
			<output>
				<port id="0" precision="FP32">
					<dim>1</dim>
					<dim>128</dim>
					<dim>1</dim>
					<dim>1</dim>
				</port>
			</output>
		</layer>
		<layer id="258" name="/backbone/layer2/layer2.0/conv2/Conv" type="Add" version="opset1">
			<data auto_broadcast="numpy"/>
			<input>
				<port id="0">
					<dim>1</dim>
					<dim>128</dim>
					<dim>80</dim>
					<dim>80</dim>
				</port>
				<port id="1">
					<dim>1</dim>
					<dim>128</dim>
					<dim>1</dim>
					<dim>1</dim>
				</port>
			</input>
			<output>
				<port id="2" precision="FP32" names="/backbone/layer2/layer2.0/conv2/Conv_output_0">
					<dim>1</dim>
					<dim>128</dim>
					<dim>80</dim>
					<dim>80</dim>
				</port>
			</output>
		</layer>
		<layer id="259" name="/backbone/layer2/layer2.0/relu_1/Relu" type="ReLU" version="opset1">
			<input>
				<port id="0">
					<dim>1</dim>
					<dim>128</dim>
					<dim>80</dim>
					<dim>80</dim>
				</port>
			</input>
			<output>
				<port id="1" precision="FP32" names="/backbone/layer2/layer2.0/relu_1/Relu_output_0">
					<dim>1</dim>
					<dim>128</dim>
					<dim>80</dim>
					<dim>80</dim>
				</port>
			</output>
		</layer>
		<layer id="260" name="/backbone/layer2/layer2.0/conv3/Conv/WithoutBiases/fq_input_0" type="FakeQuantize" version="opset1">
			<data levels="256" auto_broadcast="numpy"/>
			<input>
				<port id="0">
					<dim>1</dim>
					<dim>128</dim>
					<dim>80</dim>
					<dim>80</dim>
				</port>
				<port id="1"/>
				<port id="2"/>
				<port id="3"/>
				<port id="4"/>
			</input>
			<output>
				<port id="5" precision="FP32">
					<dim>1</dim>
					<dim>128</dim>
					<dim>80</dim>
					<dim>80</dim>
				</port>
			</output>
		</layer>
		<layer id="261" name="/backbone/layer2/layer2.0/conv3/Conv/WithoutBiases/fq_weights_1/scale1768926177" type="Const" version="opset1">
			<data offset="4075376" size="2048" shape="512,1,1,1" element_type="f32"/>
			<output>
				<port id="0" precision="FP32">
					<dim>512</dim>
					<dim>1</dim>
					<dim>1</dim>
					<dim>1</dim>
				</port>
			</output>
		</layer>
		<layer id="262" name="onnx::Conv_1597159314871/quantized1768124140" type="Const" version="opset1">
			<data offset="4077424" size="65536" shape="512,128,1,1" element_type="i8"/>
			<output>
				<port id="0" precision="I8">
					<dim>512</dim>
					<dim>128</dim>
					<dim>1</dim>
					<dim>1</dim>
				</port>
			</output>
		</layer>
		<layer id="263" name="onnx::Conv_1597159314871/quantized/to_f32" type="Convert" version="opset1">
			<data destination_type="f32"/>
			<input>
				<port id="0">
					<dim>512</dim>
					<dim>128</dim>
					<dim>1</dim>
					<dim>1</dim>
				</port>
			</input>
			<output>
				<port id="1" precision="FP32">
					<dim>512</dim>
					<dim>128</dim>
					<dim>1</dim>
					<dim>1</dim>
				</port>
			</output>
		</layer>
		<layer id="264" name="/backbone/layer2/layer2.0/conv3/Conv/WithoutBiases/fq_weights_1/mulpiply_by_scale" type="Multiply" version="opset1">
			<data auto_broadcast="numpy"/>
			<input>
				<port id="0">
					<dim>512</dim>
					<dim>128</dim>
					<dim>1</dim>
					<dim>1</dim>
				</port>
				<port id="1">
					<dim>512</dim>
					<dim>1</dim>
					<dim>1</dim>
					<dim>1</dim>
				</port>
			</input>
			<output>
				<port id="2" precision="FP32">
					<dim>512</dim>
					<dim>128</dim>
					<dim>1</dim>
					<dim>1</dim>
				</port>
			</output>
		</layer>
		<layer id="265" name="/backbone/layer2/layer2.0/conv3/Conv/WithoutBiases" type="Convolution" version="opset1">
			<data auto_pad="explicit" strides="1,1" dilations="1,1" pads_begin="0,0" pads_end="0,0"/>
			<input>
				<port id="0">
					<dim>1</dim>
					<dim>128</dim>
					<dim>80</dim>
					<dim>80</dim>
				</port>
				<port id="1">
					<dim>512</dim>
					<dim>128</dim>
					<dim>1</dim>
					<dim>1</dim>
				</port>
			</input>
			<output>
				<port id="2" precision="FP32">
					<dim>1</dim>
					<dim>512</dim>
					<dim>80</dim>
					<dim>80</dim>
				</port>
			</output>
		</layer>
		<layer id="266" name="Reshape_810159525151" type="Const" version="opset1">
			<data offset="4142960" size="2048" shape="1,512,1,1" element_type="f32"/>
			<output>
				<port id="0" precision="FP32">
					<dim>1</dim>
					<dim>512</dim>
					<dim>1</dim>
					<dim>1</dim>
				</port>
			</output>
		</layer>
		<layer id="267" name="/backbone/layer2/layer2.0/conv3/Conv" type="Add" version="opset1">
			<data auto_broadcast="numpy"/>
			<input>
				<port id="0">
					<dim>1</dim>
					<dim>512</dim>
					<dim>80</dim>
					<dim>80</dim>
				</port>
				<port id="1">
					<dim>1</dim>
					<dim>512</dim>
					<dim>1</dim>
					<dim>1</dim>
				</port>
			</input>
			<output>
				<port id="2" precision="FP32" names="/backbone/layer2/layer2.0/conv3/Conv_output_0">
					<dim>1</dim>
					<dim>512</dim>
					<dim>80</dim>
					<dim>80</dim>
				</port>
			</output>
		</layer>
		<layer id="268" name="/backbone/layer2/layer2.0/Add/fq_input_0" type="FakeQuantize" version="opset1">
			<data levels="256" auto_broadcast="numpy"/>
			<input>
				<port id="0">
					<dim>1</dim>
					<dim>512</dim>
					<dim>80</dim>
					<dim>80</dim>
				</port>
				<port id="1"/>
				<port id="2"/>
				<port id="3"/>
				<port id="4"/>
			</input>
			<output>
				<port id="5" precision="FP32">
					<dim>1</dim>
					<dim>512</dim>
					<dim>80</dim>
					<dim>80</dim>
				</port>
			</output>
		</layer>
		<layer id="269" name="6409641326198" type="Const" version="opset1">
			<data offset="4145008" size="4" shape="" element_type="f32"/>
			<output>
				<port id="0" precision="FP32"/>
			</output>
		</layer>
		<layer id="270" name="6410641426546" type="Const" version="opset1">
			<data offset="4145012" size="4" shape="" element_type="f32"/>
			<output>
				<port id="0" precision="FP32"/>
			</output>
		</layer>
		<layer id="271" name="6411641524044" type="Const" version="opset1">
			<data offset="4145008" size="4" shape="" element_type="f32"/>
			<output>
				<port id="0" precision="FP32"/>
			</output>
		</layer>
		<layer id="272" name="6412641625373" type="Const" version="opset1">
			<data offset="4145012" size="4" shape="" element_type="f32"/>
			<output>
				<port id="0" precision="FP32"/>
			</output>
		</layer>
		<layer id="273" name="/backbone/layer2/layer2.0/downsample/downsample.0/Conv/WithoutBiases/fq_weights_1/scale1627925259" type="Const" version="opset1">
			<data offset="4145016" size="2048" shape="512,1,1,1" element_type="f32"/>
			<output>
				<port id="0" precision="FP32">
					<dim>512</dim>
					<dim>1</dim>
					<dim>1</dim>
					<dim>1</dim>
				</port>
			</output>
		</layer>
		<layer id="274" name="onnx::Conv_1600159714873/quantized1627124500" type="Const" version="opset1">
			<data offset="4147064" size="131072" shape="512,256,1,1" element_type="i8"/>
			<output>
				<port id="0" precision="I8">
					<dim>512</dim>
					<dim>256</dim>
					<dim>1</dim>
					<dim>1</dim>
				</port>
			</output>
		</layer>
		<layer id="275" name="onnx::Conv_1600159714873/quantized/to_f32" type="Convert" version="opset1">
			<data destination_type="f32"/>
			<input>
				<port id="0">
					<dim>512</dim>
					<dim>256</dim>
					<dim>1</dim>
					<dim>1</dim>
				</port>
			</input>
			<output>
				<port id="1" precision="FP32">
					<dim>512</dim>
					<dim>256</dim>
					<dim>1</dim>
					<dim>1</dim>
				</port>
			</output>
		</layer>
		<layer id="276" name="/backbone/layer2/layer2.0/downsample/downsample.0/Conv/WithoutBiases/fq_weights_1/mulpiply_by_scale" type="Multiply" version="opset1">
			<data auto_broadcast="numpy"/>
			<input>
				<port id="0">
					<dim>512</dim>
					<dim>256</dim>
					<dim>1</dim>
					<dim>1</dim>
				</port>
				<port id="1">
					<dim>512</dim>
					<dim>1</dim>
					<dim>1</dim>
					<dim>1</dim>
				</port>
			</input>
			<output>
				<port id="2" precision="FP32">
					<dim>512</dim>
					<dim>256</dim>
					<dim>1</dim>
					<dim>1</dim>
				</port>
			</output>
		</layer>
		<layer id="277" name="/backbone/layer2/layer2.0/downsample/downsample.0/Conv/WithoutBiases" type="Convolution" version="opset1">
			<data auto_pad="explicit" strides="2,2" dilations="1,1" pads_begin="0,0" pads_end="0,0"/>
			<input>
				<port id="0">
					<dim>1</dim>
					<dim>256</dim>
					<dim>160</dim>
					<dim>160</dim>
				</port>
				<port id="1">
					<dim>512</dim>
					<dim>256</dim>
					<dim>1</dim>
					<dim>1</dim>
				</port>
			</input>
			<output>
				<port id="2" precision="FP32">
					<dim>1</dim>
					<dim>512</dim>
					<dim>80</dim>
					<dim>80</dim>
				</port>
			</output>
		</layer>
		<layer id="278" name="Reshape_858159925772" type="Const" version="opset1">
			<data offset="4278136" size="2048" shape="1,512,1,1" element_type="f32"/>
			<output>
				<port id="0" precision="FP32">
					<dim>1</dim>
					<dim>512</dim>
					<dim>1</dim>
					<dim>1</dim>
				</port>
			</output>
		</layer>
		<layer id="279" name="/backbone/layer2/layer2.0/downsample/downsample.0/Conv" type="Add" version="opset1">
			<data auto_broadcast="numpy"/>
			<input>
				<port id="0">
					<dim>1</dim>
					<dim>512</dim>
					<dim>80</dim>
					<dim>80</dim>
				</port>
				<port id="1">
					<dim>1</dim>
					<dim>512</dim>
					<dim>1</dim>
					<dim>1</dim>
				</port>
			</input>
			<output>
				<port id="2" precision="FP32" names="/backbone/layer2/layer2.0/downsample/downsample.0/Conv_output_0">
					<dim>1</dim>
					<dim>512</dim>
					<dim>80</dim>
					<dim>80</dim>
				</port>
			</output>
		</layer>
		<layer id="280" name="/backbone/layer2/layer2.0/Add/fq_input_1" type="FakeQuantize" version="opset1">
			<data levels="256" auto_broadcast="numpy"/>
			<input>
				<port id="0">
					<dim>1</dim>
					<dim>512</dim>
					<dim>80</dim>
					<dim>80</dim>
				</port>
				<port id="1"/>
				<port id="2"/>
				<port id="3"/>
				<port id="4"/>
			</input>
			<output>
				<port id="5" precision="FP32">
					<dim>1</dim>
					<dim>512</dim>
					<dim>80</dim>
					<dim>80</dim>
				</port>
			</output>
		</layer>
		<layer id="281" name="/backbone/layer2/layer2.0/Add" type="Add" version="opset1">
			<data auto_broadcast="numpy"/>
			<input>
				<port id="0">
					<dim>1</dim>
					<dim>512</dim>
					<dim>80</dim>
					<dim>80</dim>
				</port>
				<port id="1">
					<dim>1</dim>
					<dim>512</dim>
					<dim>80</dim>
					<dim>80</dim>
				</port>
			</input>
			<output>
				<port id="2" precision="FP32" names="/backbone/layer2/layer2.0/Add_output_0">
					<dim>1</dim>
					<dim>512</dim>
					<dim>80</dim>
					<dim>80</dim>
				</port>
			</output>
		</layer>
		<layer id="282" name="/backbone/layer2/layer2.0/relu_2/Relu" type="ReLU" version="opset1">
			<input>
				<port id="0">
					<dim>1</dim>
					<dim>512</dim>
					<dim>80</dim>
					<dim>80</dim>
				</port>
			</input>
			<output>
				<port id="1" precision="FP32" names="/backbone/layer2/layer2.0/relu_2/Relu_output_0">
					<dim>1</dim>
					<dim>512</dim>
					<dim>80</dim>
					<dim>80</dim>
				</port>
			</output>
		</layer>
		<layer id="283" name="/backbone/layer2/layer2.1/Add/fq_input_1" type="FakeQuantize" version="opset1">
			<data levels="256" auto_broadcast="numpy"/>
			<input>
				<port id="0">
					<dim>1</dim>
					<dim>512</dim>
					<dim>80</dim>
					<dim>80</dim>
				</port>
				<port id="1"/>
				<port id="2"/>
				<port id="3"/>
				<port id="4"/>
			</input>
			<output>
				<port id="5" precision="FP32">
					<dim>1</dim>
					<dim>512</dim>
					<dim>80</dim>
					<dim>80</dim>
				</port>
			</output>
		</layer>
		<layer id="284" name="/backbone/layer2/layer2.1/conv1/Conv/WithoutBiases/fq_weights_1/scale1630926120" type="Const" version="opset1">
			<data offset="4280184" size="512" shape="128,1,1,1" element_type="f32"/>
			<output>
				<port id="0" precision="FP32">
					<dim>128</dim>
					<dim>1</dim>
					<dim>1</dim>
					<dim>1</dim>
				</port>
			</output>
		</layer>
		<layer id="285" name="onnx::Conv_1603160314875/quantized1630124278" type="Const" version="opset1">
			<data offset="4280696" size="65536" shape="128,512,1,1" element_type="i8"/>
			<output>
				<port id="0" precision="I8">
					<dim>128</dim>
					<dim>512</dim>
					<dim>1</dim>
					<dim>1</dim>
				</port>
			</output>
		</layer>
		<layer id="286" name="onnx::Conv_1603160314875/quantized/to_f32" type="Convert" version="opset1">
			<data destination_type="f32"/>
			<input>
				<port id="0">
					<dim>128</dim>
					<dim>512</dim>
					<dim>1</dim>
					<dim>1</dim>
				</port>
			</input>
			<output>
				<port id="1" precision="FP32">
					<dim>128</dim>
					<dim>512</dim>
					<dim>1</dim>
					<dim>1</dim>
				</port>
			</output>
		</layer>
		<layer id="287" name="/backbone/layer2/layer2.1/conv1/Conv/WithoutBiases/fq_weights_1/mulpiply_by_scale" type="Multiply" version="opset1">
			<data auto_broadcast="numpy"/>
			<input>
				<port id="0">
					<dim>128</dim>
					<dim>512</dim>
					<dim>1</dim>
					<dim>1</dim>
				</port>
				<port id="1">
					<dim>128</dim>
					<dim>1</dim>
					<dim>1</dim>
					<dim>1</dim>
				</port>
			</input>
			<output>
				<port id="2" precision="FP32">
					<dim>128</dim>
					<dim>512</dim>
					<dim>1</dim>
					<dim>1</dim>
				</port>
			</output>
		</layer>
		<layer id="288" name="/backbone/layer2/layer2.1/conv1/Conv/WithoutBiases" type="Convolution" version="opset1">
			<data auto_pad="explicit" strides="1,1" dilations="1,1" pads_begin="0,0" pads_end="0,0"/>
			<input>
				<port id="0">
					<dim>1</dim>
					<dim>512</dim>
					<dim>80</dim>
					<dim>80</dim>
				</port>
				<port id="1">
					<dim>128</dim>
					<dim>512</dim>
					<dim>1</dim>
					<dim>1</dim>
				</port>
			</input>
			<output>
				<port id="2" precision="FP32">
					<dim>1</dim>
					<dim>128</dim>
					<dim>80</dim>
					<dim>80</dim>
				</port>
			</output>
		</layer>
		<layer id="289" name="Reshape_908160525856" type="Const" version="opset1">
			<data offset="4346232" size="512" shape="1,128,1,1" element_type="f32"/>
			<output>
				<port id="0" precision="FP32">
					<dim>1</dim>
					<dim>128</dim>
					<dim>1</dim>
					<dim>1</dim>
				</port>
			</output>
		</layer>
		<layer id="290" name="/backbone/layer2/layer2.1/conv1/Conv" type="Add" version="opset1">
			<data auto_broadcast="numpy"/>
			<input>
				<port id="0">
					<dim>1</dim>
					<dim>128</dim>
					<dim>80</dim>
					<dim>80</dim>
				</port>
				<port id="1">
					<dim>1</dim>
					<dim>128</dim>
					<dim>1</dim>
					<dim>1</dim>
				</port>
			</input>
			<output>
				<port id="2" precision="FP32" names="/backbone/layer2/layer2.1/conv1/Conv_output_0">
					<dim>1</dim>
					<dim>128</dim>
					<dim>80</dim>
					<dim>80</dim>
				</port>
			</output>
		</layer>
		<layer id="291" name="/backbone/layer2/layer2.1/relu/Relu" type="ReLU" version="opset1">
			<input>
				<port id="0">
					<dim>1</dim>
					<dim>128</dim>
					<dim>80</dim>
					<dim>80</dim>
				</port>
			</input>
			<output>
				<port id="1" precision="FP32" names="/backbone/layer2/layer2.1/relu/Relu_output_0">
					<dim>1</dim>
					<dim>128</dim>
					<dim>80</dim>
					<dim>80</dim>
				</port>
			</output>
		</layer>
		<layer id="292" name="/backbone/layer2/layer2.1/conv2/Conv/WithoutBiases/fq_input_0" type="FakeQuantize" version="opset1">
			<data levels="256" auto_broadcast="numpy"/>
			<input>
				<port id="0">
					<dim>1</dim>
					<dim>128</dim>
					<dim>80</dim>
					<dim>80</dim>
				</port>
				<port id="1"/>
				<port id="2"/>
				<port id="3"/>
				<port id="4"/>
			</input>
			<output>
				<port id="5" precision="FP32">
					<dim>1</dim>
					<dim>128</dim>
					<dim>80</dim>
					<dim>80</dim>
				</port>
			</output>
		</layer>
		<layer id="293" name="/backbone/layer2/layer2.1/conv2/Conv/WithoutBiases/fq_weights_1/scale1663924479" type="Const" version="opset1">
			<data offset="4346744" size="512" shape="128,1,1,1" element_type="f32"/>
			<output>
				<port id="0" precision="FP32">
					<dim>128</dim>
					<dim>1</dim>
					<dim>1</dim>
					<dim>1</dim>
				</port>
			</output>
		</layer>
		<layer id="294" name="onnx::Conv_1606160814877/quantized1663126207" type="Const" version="opset1">
			<data offset="4347256" size="147456" shape="128,128,3,3" element_type="i8"/>
			<output>
				<port id="0" precision="I8">
					<dim>128</dim>
					<dim>128</dim>
					<dim>3</dim>
					<dim>3</dim>
				</port>
			</output>
		</layer>
		<layer id="295" name="onnx::Conv_1606160814877/quantized/to_f32" type="Convert" version="opset1">
			<data destination_type="f32"/>
			<input>
				<port id="0">
					<dim>128</dim>
					<dim>128</dim>
					<dim>3</dim>
					<dim>3</dim>
				</port>
			</input>
			<output>
				<port id="1" precision="FP32">
					<dim>128</dim>
					<dim>128</dim>
					<dim>3</dim>
					<dim>3</dim>
				</port>
			</output>
		</layer>
		<layer id="296" name="/backbone/layer2/layer2.1/conv2/Conv/WithoutBiases/fq_weights_1/mulpiply_by_scale" type="Multiply" version="opset1">
			<data auto_broadcast="numpy"/>
			<input>
				<port id="0">
					<dim>128</dim>
					<dim>128</dim>
					<dim>3</dim>
					<dim>3</dim>
				</port>
				<port id="1">
					<dim>128</dim>
					<dim>1</dim>
					<dim>1</dim>
					<dim>1</dim>
				</port>
			</input>
			<output>
				<port id="2" precision="FP32">
					<dim>128</dim>
					<dim>128</dim>
					<dim>3</dim>
					<dim>3</dim>
				</port>
			</output>
		</layer>
		<layer id="297" name="/backbone/layer2/layer2.1/conv2/Conv/WithoutBiases" type="Convolution" version="opset1">
			<data auto_pad="explicit" strides="1,1" dilations="1,1" pads_begin="1,1" pads_end="1,1"/>
			<input>
				<port id="0">
					<dim>1</dim>
					<dim>128</dim>
					<dim>80</dim>
					<dim>80</dim>
				</port>
				<port id="1">
					<dim>128</dim>
					<dim>128</dim>
					<dim>3</dim>
					<dim>3</dim>
				</port>
			</input>
			<output>
				<port id="2" precision="FP32">
					<dim>1</dim>
					<dim>128</dim>
					<dim>80</dim>
					<dim>80</dim>
				</port>
			</output>
		</layer>
		<layer id="298" name="Reshape_957161024854" type="Const" version="opset1">
			<data offset="4494712" size="512" shape="1,128,1,1" element_type="f32"/>
			<output>
				<port id="0" precision="FP32">
					<dim>1</dim>
					<dim>128</dim>
					<dim>1</dim>
					<dim>1</dim>
				</port>
			</output>
		</layer>
		<layer id="299" name="/backbone/layer2/layer2.1/conv2/Conv" type="Add" version="opset1">
			<data auto_broadcast="numpy"/>
			<input>
				<port id="0">
					<dim>1</dim>
					<dim>128</dim>
					<dim>80</dim>
					<dim>80</dim>
				</port>
				<port id="1">
					<dim>1</dim>
					<dim>128</dim>
					<dim>1</dim>
					<dim>1</dim>
				</port>
			</input>
			<output>
				<port id="2" precision="FP32" names="/backbone/layer2/layer2.1/conv2/Conv_output_0">
					<dim>1</dim>
					<dim>128</dim>
					<dim>80</dim>
					<dim>80</dim>
				</port>
			</output>
		</layer>
		<layer id="300" name="/backbone/layer2/layer2.1/relu_1/Relu" type="ReLU" version="opset1">
			<input>
				<port id="0">
					<dim>1</dim>
					<dim>128</dim>
					<dim>80</dim>
					<dim>80</dim>
				</port>
			</input>
			<output>
				<port id="1" precision="FP32" names="/backbone/layer2/layer2.1/relu_1/Relu_output_0">
					<dim>1</dim>
					<dim>128</dim>
					<dim>80</dim>
					<dim>80</dim>
				</port>
			</output>
		</layer>
		<layer id="301" name="/backbone/layer2/layer2.1/conv3/Conv/WithoutBiases/fq_input_0" type="FakeQuantize" version="opset1">
			<data levels="256" auto_broadcast="numpy"/>
			<input>
				<port id="0">
					<dim>1</dim>
					<dim>128</dim>
					<dim>80</dim>
					<dim>80</dim>
				</port>
				<port id="1"/>
				<port id="2"/>
				<port id="3"/>
				<port id="4"/>
			</input>
			<output>
				<port id="5" precision="FP32">
					<dim>1</dim>
					<dim>128</dim>
					<dim>80</dim>
					<dim>80</dim>
				</port>
			</output>
		</layer>
		<layer id="302" name="/backbone/layer2/layer2.1/conv3/Conv/WithoutBiases/fq_weights_1/scale1708925121" type="Const" version="opset1">
			<data offset="4495224" size="2048" shape="512,1,1,1" element_type="f32"/>
			<output>
				<port id="0" precision="FP32">
					<dim>512</dim>
					<dim>1</dim>
					<dim>1</dim>
					<dim>1</dim>
				</port>
			</output>
		</layer>
		<layer id="303" name="onnx::Conv_1609161314879/quantized1708126531" type="Const" version="opset1">
			<data offset="4497272" size="65536" shape="512,128,1,1" element_type="i8"/>
			<output>
				<port id="0" precision="I8">
					<dim>512</dim>
					<dim>128</dim>
					<dim>1</dim>
					<dim>1</dim>
				</port>
			</output>
		</layer>
		<layer id="304" name="onnx::Conv_1609161314879/quantized/to_f32" type="Convert" version="opset1">
			<data destination_type="f32"/>
			<input>
				<port id="0">
					<dim>512</dim>
					<dim>128</dim>
					<dim>1</dim>
					<dim>1</dim>
				</port>
			</input>
			<output>
				<port id="1" precision="FP32">
					<dim>512</dim>
					<dim>128</dim>
					<dim>1</dim>
					<dim>1</dim>
				</port>
			</output>
		</layer>
		<layer id="305" name="/backbone/layer2/layer2.1/conv3/Conv/WithoutBiases/fq_weights_1/mulpiply_by_scale" type="Multiply" version="opset1">
			<data auto_broadcast="numpy"/>
			<input>
				<port id="0">
					<dim>512</dim>
					<dim>128</dim>
					<dim>1</dim>
					<dim>1</dim>
				</port>
				<port id="1">
					<dim>512</dim>
					<dim>1</dim>
					<dim>1</dim>
					<dim>1</dim>
				</port>
			</input>
			<output>
				<port id="2" precision="FP32">
					<dim>512</dim>
					<dim>128</dim>
					<dim>1</dim>
					<dim>1</dim>
				</port>
			</output>
		</layer>
		<layer id="306" name="/backbone/layer2/layer2.1/conv3/Conv/WithoutBiases" type="Convolution" version="opset1">
			<data auto_pad="explicit" strides="1,1" dilations="1,1" pads_begin="0,0" pads_end="0,0"/>
			<input>
				<port id="0">
					<dim>1</dim>
					<dim>128</dim>
					<dim>80</dim>
					<dim>80</dim>
				</port>
				<port id="1">
					<dim>512</dim>
					<dim>128</dim>
					<dim>1</dim>
					<dim>1</dim>
				</port>
			</input>
			<output>
				<port id="2" precision="FP32">
					<dim>1</dim>
					<dim>512</dim>
					<dim>80</dim>
					<dim>80</dim>
				</port>
			</output>
		</layer>
		<layer id="307" name="Reshape_1006161524236" type="Const" version="opset1">
			<data offset="4562808" size="2048" shape="1,512,1,1" element_type="f32"/>
			<output>
				<port id="0" precision="FP32">
					<dim>1</dim>
					<dim>512</dim>
					<dim>1</dim>
					<dim>1</dim>
				</port>
			</output>
		</layer>
		<layer id="308" name="/backbone/layer2/layer2.1/conv3/Conv" type="Add" version="opset1">
			<data auto_broadcast="numpy"/>
			<input>
				<port id="0">
					<dim>1</dim>
					<dim>512</dim>
					<dim>80</dim>
					<dim>80</dim>
				</port>
				<port id="1">
					<dim>1</dim>
					<dim>512</dim>
					<dim>1</dim>
					<dim>1</dim>
				</port>
			</input>
			<output>
				<port id="2" precision="FP32" names="/backbone/layer2/layer2.1/conv3/Conv_output_0">
					<dim>1</dim>
					<dim>512</dim>
					<dim>80</dim>
					<dim>80</dim>
				</port>
			</output>
		</layer>
		<layer id="309" name="/backbone/layer2/layer2.1/Add/fq_input_0" type="FakeQuantize" version="opset1">
			<data levels="256" auto_broadcast="numpy"/>
			<input>
				<port id="0">
					<dim>1</dim>
					<dim>512</dim>
					<dim>80</dim>
					<dim>80</dim>
				</port>
				<port id="1"/>
				<port id="2"/>
				<port id="3"/>
				<port id="4"/>
			</input>
			<output>
				<port id="5" precision="FP32">
					<dim>1</dim>
					<dim>512</dim>
					<dim>80</dim>
					<dim>80</dim>
				</port>
			</output>
		</layer>
		<layer id="310" name="/backbone/layer2/layer2.1/Add" type="Add" version="opset1">
			<data auto_broadcast="numpy"/>
			<input>
				<port id="0">
					<dim>1</dim>
					<dim>512</dim>
					<dim>80</dim>
					<dim>80</dim>
				</port>
				<port id="1">
					<dim>1</dim>
					<dim>512</dim>
					<dim>80</dim>
					<dim>80</dim>
				</port>
			</input>
			<output>
				<port id="2" precision="FP32" names="/backbone/layer2/layer2.1/Add_output_0">
					<dim>1</dim>
					<dim>512</dim>
					<dim>80</dim>
					<dim>80</dim>
				</port>
			</output>
		</layer>
		<layer id="311" name="/backbone/layer2/layer2.1/relu_2/Relu" type="ReLU" version="opset1">
			<input>
				<port id="0">
					<dim>1</dim>
					<dim>512</dim>
					<dim>80</dim>
					<dim>80</dim>
				</port>
			</input>
			<output>
				<port id="1" precision="FP32" names="/backbone/layer2/layer2.1/relu_2/Relu_output_0">
					<dim>1</dim>
					<dim>512</dim>
					<dim>80</dim>
					<dim>80</dim>
				</port>
			</output>
		</layer>
		<layer id="312" name="/backbone/layer2/layer2.2/Add/fq_input_1" type="FakeQuantize" version="opset1">
			<data levels="256" auto_broadcast="numpy"/>
			<input>
				<port id="0">
					<dim>1</dim>
					<dim>512</dim>
					<dim>80</dim>
					<dim>80</dim>
				</port>
				<port id="1"/>
				<port id="2"/>
				<port id="3"/>
				<port id="4"/>
			</input>
			<output>
				<port id="5" precision="FP32">
					<dim>1</dim>
					<dim>512</dim>
					<dim>80</dim>
					<dim>80</dim>
				</port>
			</output>
		</layer>
		<layer id="313" name="/backbone/layer2/layer2.2/conv1/Conv/WithoutBiases/fq_weights_1/scale1717924920" type="Const" version="opset1">
			<data offset="4564856" size="512" shape="128,1,1,1" element_type="f32"/>
			<output>
				<port id="0" precision="FP32">
					<dim>128</dim>
					<dim>1</dim>
					<dim>1</dim>
					<dim>1</dim>
				</port>
			</output>
		</layer>
		<layer id="314" name="onnx::Conv_1612161914881/quantized1717124899" type="Const" version="opset1">
			<data offset="4565368" size="65536" shape="128,512,1,1" element_type="i8"/>
			<output>
				<port id="0" precision="I8">
					<dim>128</dim>
					<dim>512</dim>
					<dim>1</dim>
					<dim>1</dim>
				</port>
			</output>
		</layer>
		<layer id="315" name="onnx::Conv_1612161914881/quantized/to_f32" type="Convert" version="opset1">
			<data destination_type="f32"/>
			<input>
				<port id="0">
					<dim>128</dim>
					<dim>512</dim>
					<dim>1</dim>
					<dim>1</dim>
				</port>
			</input>
			<output>
				<port id="1" precision="FP32">
					<dim>128</dim>
					<dim>512</dim>
					<dim>1</dim>
					<dim>1</dim>
				</port>
			</output>
		</layer>
		<layer id="316" name="/backbone/layer2/layer2.2/conv1/Conv/WithoutBiases/fq_weights_1/mulpiply_by_scale" type="Multiply" version="opset1">
			<data auto_broadcast="numpy"/>
			<input>
				<port id="0">
					<dim>128</dim>
					<dim>512</dim>
					<dim>1</dim>
					<dim>1</dim>
				</port>
				<port id="1">
					<dim>128</dim>
					<dim>1</dim>
					<dim>1</dim>
					<dim>1</dim>
				</port>
			</input>
			<output>
				<port id="2" precision="FP32">
					<dim>128</dim>
					<dim>512</dim>
					<dim>1</dim>
					<dim>1</dim>
				</port>
			</output>
		</layer>
		<layer id="317" name="/backbone/layer2/layer2.2/conv1/Conv/WithoutBiases" type="Convolution" version="opset1">
			<data auto_pad="explicit" strides="1,1" dilations="1,1" pads_begin="0,0" pads_end="0,0"/>
			<input>
				<port id="0">
					<dim>1</dim>
					<dim>512</dim>
					<dim>80</dim>
					<dim>80</dim>
				</port>
				<port id="1">
					<dim>128</dim>
					<dim>512</dim>
					<dim>1</dim>
					<dim>1</dim>
				</port>
			</input>
			<output>
				<port id="2" precision="FP32">
					<dim>1</dim>
					<dim>128</dim>
					<dim>80</dim>
					<dim>80</dim>
				</port>
			</output>
		</layer>
		<layer id="318" name="Reshape_1056162124941" type="Const" version="opset1">
			<data offset="4630904" size="512" shape="1,128,1,1" element_type="f32"/>
			<output>
				<port id="0" precision="FP32">
					<dim>1</dim>
					<dim>128</dim>
					<dim>1</dim>
					<dim>1</dim>
				</port>
			</output>
		</layer>
		<layer id="319" name="/backbone/layer2/layer2.2/conv1/Conv" type="Add" version="opset1">
			<data auto_broadcast="numpy"/>
			<input>
				<port id="0">
					<dim>1</dim>
					<dim>128</dim>
					<dim>80</dim>
					<dim>80</dim>
				</port>
				<port id="1">
					<dim>1</dim>
					<dim>128</dim>
					<dim>1</dim>
					<dim>1</dim>
				</port>
			</input>
			<output>
				<port id="2" precision="FP32" names="/backbone/layer2/layer2.2/conv1/Conv_output_0">
					<dim>1</dim>
					<dim>128</dim>
					<dim>80</dim>
					<dim>80</dim>
				</port>
			</output>
		</layer>
		<layer id="320" name="/backbone/layer2/layer2.2/relu/Relu" type="ReLU" version="opset1">
			<input>
				<port id="0">
					<dim>1</dim>
					<dim>128</dim>
					<dim>80</dim>
					<dim>80</dim>
				</port>
			</input>
			<output>
				<port id="1" precision="FP32" names="/backbone/layer2/layer2.2/relu/Relu_output_0">
					<dim>1</dim>
					<dim>128</dim>
					<dim>80</dim>
					<dim>80</dim>
				</port>
			</output>
		</layer>
		<layer id="321" name="/backbone/layer2/layer2.2/conv2/Conv/WithoutBiases/fq_input_0" type="FakeQuantize" version="opset1">
			<data levels="256" auto_broadcast="numpy"/>
			<input>
				<port id="0">
					<dim>1</dim>
					<dim>128</dim>
					<dim>80</dim>
					<dim>80</dim>
				</port>
				<port id="1"/>
				<port id="2"/>
				<port id="3"/>
				<port id="4"/>
			</input>
			<output>
				<port id="5" precision="FP32">
					<dim>1</dim>
					<dim>128</dim>
					<dim>80</dim>
					<dim>80</dim>
				</port>
			</output>
		</layer>
		<layer id="322" name="/backbone/layer2/layer2.2/conv2/Conv/WithoutBiases/fq_weights_1/scale1696924032" type="Const" version="opset1">
			<data offset="4631416" size="512" shape="128,1,1,1" element_type="f32"/>
			<output>
				<port id="0" precision="FP32">
					<dim>128</dim>
					<dim>1</dim>
					<dim>1</dim>
					<dim>1</dim>
				</port>
			</output>
		</layer>
		<layer id="323" name="onnx::Conv_1615162414883/quantized1696125703" type="Const" version="opset1">
			<data offset="4631928" size="147456" shape="128,128,3,3" element_type="i8"/>
			<output>
				<port id="0" precision="I8">
					<dim>128</dim>
					<dim>128</dim>
					<dim>3</dim>
					<dim>3</dim>
				</port>
			</output>
		</layer>
		<layer id="324" name="onnx::Conv_1615162414883/quantized/to_f32" type="Convert" version="opset1">
			<data destination_type="f32"/>
			<input>
				<port id="0">
					<dim>128</dim>
					<dim>128</dim>
					<dim>3</dim>
					<dim>3</dim>
				</port>
			</input>
			<output>
				<port id="1" precision="FP32">
					<dim>128</dim>
					<dim>128</dim>
					<dim>3</dim>
					<dim>3</dim>
				</port>
			</output>
		</layer>
		<layer id="325" name="/backbone/layer2/layer2.2/conv2/Conv/WithoutBiases/fq_weights_1/mulpiply_by_scale" type="Multiply" version="opset1">
			<data auto_broadcast="numpy"/>
			<input>
				<port id="0">
					<dim>128</dim>
					<dim>128</dim>
					<dim>3</dim>
					<dim>3</dim>
				</port>
				<port id="1">
					<dim>128</dim>
					<dim>1</dim>
					<dim>1</dim>
					<dim>1</dim>
				</port>
			</input>
			<output>
				<port id="2" precision="FP32">
					<dim>128</dim>
					<dim>128</dim>
					<dim>3</dim>
					<dim>3</dim>
				</port>
			</output>
		</layer>
		<layer id="326" name="/backbone/layer2/layer2.2/conv2/Conv/WithoutBiases" type="Convolution" version="opset1">
			<data auto_pad="explicit" strides="1,1" dilations="1,1" pads_begin="1,1" pads_end="1,1"/>
			<input>
				<port id="0">
					<dim>1</dim>
					<dim>128</dim>
					<dim>80</dim>
					<dim>80</dim>
				</port>
				<port id="1">
					<dim>128</dim>
					<dim>128</dim>
					<dim>3</dim>
					<dim>3</dim>
				</port>
			</input>
			<output>
				<port id="2" precision="FP32">
					<dim>1</dim>
					<dim>128</dim>
					<dim>80</dim>
					<dim>80</dim>
				</port>
			</output>
		</layer>
		<layer id="327" name="Reshape_1105162624800" type="Const" version="opset1">
			<data offset="4779384" size="512" shape="1,128,1,1" element_type="f32"/>
			<output>
				<port id="0" precision="FP32">
					<dim>1</dim>
					<dim>128</dim>
					<dim>1</dim>
					<dim>1</dim>
				</port>
			</output>
		</layer>
		<layer id="328" name="/backbone/layer2/layer2.2/conv2/Conv" type="Add" version="opset1">
			<data auto_broadcast="numpy"/>
			<input>
				<port id="0">
					<dim>1</dim>
					<dim>128</dim>
					<dim>80</dim>
					<dim>80</dim>
				</port>
				<port id="1">
					<dim>1</dim>
					<dim>128</dim>
					<dim>1</dim>
					<dim>1</dim>
				</port>
			</input>
			<output>
				<port id="2" precision="FP32" names="/backbone/layer2/layer2.2/conv2/Conv_output_0">
					<dim>1</dim>
					<dim>128</dim>
					<dim>80</dim>
					<dim>80</dim>
				</port>
			</output>
		</layer>
		<layer id="329" name="/backbone/layer2/layer2.2/relu_1/Relu" type="ReLU" version="opset1">
			<input>
				<port id="0">
					<dim>1</dim>
					<dim>128</dim>
					<dim>80</dim>
					<dim>80</dim>
				</port>
			</input>
			<output>
				<port id="1" precision="FP32" names="/backbone/layer2/layer2.2/relu_1/Relu_output_0">
					<dim>1</dim>
					<dim>128</dim>
					<dim>80</dim>
					<dim>80</dim>
				</port>
			</output>
		</layer>
		<layer id="330" name="/backbone/layer2/layer2.2/conv3/Conv/WithoutBiases/fq_input_0" type="FakeQuantize" version="opset1">
			<data levels="256" auto_broadcast="numpy"/>
			<input>
				<port id="0">
					<dim>1</dim>
					<dim>128</dim>
					<dim>80</dim>
					<dim>80</dim>
				</port>
				<port id="1"/>
				<port id="2"/>
				<port id="3"/>
				<port id="4"/>
			</input>
			<output>
				<port id="5" precision="FP32">
					<dim>1</dim>
					<dim>128</dim>
					<dim>80</dim>
					<dim>80</dim>
				</port>
			</output>
		</layer>
		<layer id="331" name="/backbone/layer2/layer2.2/conv3/Conv/WithoutBiases/fq_weights_1/scale1606925670" type="Const" version="opset1">
			<data offset="4779896" size="2048" shape="512,1,1,1" element_type="f32"/>
			<output>
				<port id="0" precision="FP32">
					<dim>512</dim>
					<dim>1</dim>
					<dim>1</dim>
					<dim>1</dim>
				</port>
			</output>
		</layer>
		<layer id="332" name="onnx::Conv_1618162914885/quantized1606124185" type="Const" version="opset1">
			<data offset="4781944" size="65536" shape="512,128,1,1" element_type="i8"/>
			<output>
				<port id="0" precision="I8">
					<dim>512</dim>
					<dim>128</dim>
					<dim>1</dim>
					<dim>1</dim>
				</port>
			</output>
		</layer>
		<layer id="333" name="onnx::Conv_1618162914885/quantized/to_f32" type="Convert" version="opset1">
			<data destination_type="f32"/>
			<input>
				<port id="0">
					<dim>512</dim>
					<dim>128</dim>
					<dim>1</dim>
					<dim>1</dim>
				</port>
			</input>
			<output>
				<port id="1" precision="FP32">
					<dim>512</dim>
					<dim>128</dim>
					<dim>1</dim>
					<dim>1</dim>
				</port>
			</output>
		</layer>
		<layer id="334" name="/backbone/layer2/layer2.2/conv3/Conv/WithoutBiases/fq_weights_1/mulpiply_by_scale" type="Multiply" version="opset1">
			<data auto_broadcast="numpy"/>
			<input>
				<port id="0">
					<dim>512</dim>
					<dim>128</dim>
					<dim>1</dim>
					<dim>1</dim>
				</port>
				<port id="1">
					<dim>512</dim>
					<dim>1</dim>
					<dim>1</dim>
					<dim>1</dim>
				</port>
			</input>
			<output>
				<port id="2" precision="FP32">
					<dim>512</dim>
					<dim>128</dim>
					<dim>1</dim>
					<dim>1</dim>
				</port>
			</output>
		</layer>
		<layer id="335" name="/backbone/layer2/layer2.2/conv3/Conv/WithoutBiases" type="Convolution" version="opset1">
			<data auto_pad="explicit" strides="1,1" dilations="1,1" pads_begin="0,0" pads_end="0,0"/>
			<input>
				<port id="0">
					<dim>1</dim>
					<dim>128</dim>
					<dim>80</dim>
					<dim>80</dim>
				</port>
				<port id="1">
					<dim>512</dim>
					<dim>128</dim>
					<dim>1</dim>
					<dim>1</dim>
				</port>
			</input>
			<output>
				<port id="2" precision="FP32">
					<dim>1</dim>
					<dim>512</dim>
					<dim>80</dim>
					<dim>80</dim>
				</port>
			</output>
		</layer>
		<layer id="336" name="Reshape_1154163125814" type="Const" version="opset1">
			<data offset="4847480" size="2048" shape="1,512,1,1" element_type="f32"/>
			<output>
				<port id="0" precision="FP32">
					<dim>1</dim>
					<dim>512</dim>
					<dim>1</dim>
					<dim>1</dim>
				</port>
			</output>
		</layer>
		<layer id="337" name="/backbone/layer2/layer2.2/conv3/Conv" type="Add" version="opset1">
			<data auto_broadcast="numpy"/>
			<input>
				<port id="0">
					<dim>1</dim>
					<dim>512</dim>
					<dim>80</dim>
					<dim>80</dim>
				</port>
				<port id="1">
					<dim>1</dim>
					<dim>512</dim>
					<dim>1</dim>
					<dim>1</dim>
				</port>
			</input>
			<output>
				<port id="2" precision="FP32" names="/backbone/layer2/layer2.2/conv3/Conv_output_0">
					<dim>1</dim>
					<dim>512</dim>
					<dim>80</dim>
					<dim>80</dim>
				</port>
			</output>
		</layer>
		<layer id="338" name="/backbone/layer2/layer2.2/Add/fq_input_0" type="FakeQuantize" version="opset1">
			<data levels="256" auto_broadcast="numpy"/>
			<input>
				<port id="0">
					<dim>1</dim>
					<dim>512</dim>
					<dim>80</dim>
					<dim>80</dim>
				</port>
				<port id="1"/>
				<port id="2"/>
				<port id="3"/>
				<port id="4"/>
			</input>
			<output>
				<port id="5" precision="FP32">
					<dim>1</dim>
					<dim>512</dim>
					<dim>80</dim>
					<dim>80</dim>
				</port>
			</output>
		</layer>
		<layer id="339" name="/backbone/layer2/layer2.2/Add" type="Add" version="opset1">
			<data auto_broadcast="numpy"/>
			<input>
				<port id="0">
					<dim>1</dim>
					<dim>512</dim>
					<dim>80</dim>
					<dim>80</dim>
				</port>
				<port id="1">
					<dim>1</dim>
					<dim>512</dim>
					<dim>80</dim>
					<dim>80</dim>
				</port>
			</input>
			<output>
				<port id="2" precision="FP32" names="/backbone/layer2/layer2.2/Add_output_0">
					<dim>1</dim>
					<dim>512</dim>
					<dim>80</dim>
					<dim>80</dim>
				</port>
			</output>
		</layer>
		<layer id="340" name="/backbone/layer2/layer2.2/relu_2/Relu" type="ReLU" version="opset1">
			<input>
				<port id="0">
					<dim>1</dim>
					<dim>512</dim>
					<dim>80</dim>
					<dim>80</dim>
				</port>
			</input>
			<output>
				<port id="1" precision="FP32" names="/backbone/layer2/layer2.2/relu_2/Relu_output_0">
					<dim>1</dim>
					<dim>512</dim>
					<dim>80</dim>
					<dim>80</dim>
				</port>
			</output>
		</layer>
		<layer id="341" name="/backbone/layer2/layer2.3/Add/fq_input_1" type="FakeQuantize" version="opset1">
			<data levels="256" auto_broadcast="numpy"/>
			<input>
				<port id="0">
					<dim>1</dim>
					<dim>512</dim>
					<dim>80</dim>
					<dim>80</dim>
				</port>
				<port id="1"/>
				<port id="2"/>
				<port id="3"/>
				<port id="4"/>
			</input>
			<output>
				<port id="5" precision="FP32">
					<dim>1</dim>
					<dim>512</dim>
					<dim>80</dim>
					<dim>80</dim>
				</port>
			</output>
		</layer>
		<layer id="342" name="/backbone/layer2/layer2.3/conv1/Conv/WithoutBiases/fq_weights_1/scale1624924695" type="Const" version="opset1">
			<data offset="4849528" size="512" shape="128,1,1,1" element_type="f32"/>
			<output>
				<port id="0" precision="FP32">
					<dim>128</dim>
					<dim>1</dim>
					<dim>1</dim>
					<dim>1</dim>
				</port>
			</output>
		</layer>
		<layer id="343" name="onnx::Conv_1621163514887/quantized1624126408" type="Const" version="opset1">
			<data offset="4850040" size="65536" shape="128,512,1,1" element_type="i8"/>
			<output>
				<port id="0" precision="I8">
					<dim>128</dim>
					<dim>512</dim>
					<dim>1</dim>
					<dim>1</dim>
				</port>
			</output>
		</layer>
		<layer id="344" name="onnx::Conv_1621163514887/quantized/to_f32" type="Convert" version="opset1">
			<data destination_type="f32"/>
			<input>
				<port id="0">
					<dim>128</dim>
					<dim>512</dim>
					<dim>1</dim>
					<dim>1</dim>
				</port>
			</input>
			<output>
				<port id="1" precision="FP32">
					<dim>128</dim>
					<dim>512</dim>
					<dim>1</dim>
					<dim>1</dim>
				</port>
			</output>
		</layer>
		<layer id="345" name="/backbone/layer2/layer2.3/conv1/Conv/WithoutBiases/fq_weights_1/mulpiply_by_scale" type="Multiply" version="opset1">
			<data auto_broadcast="numpy"/>
			<input>
				<port id="0">
					<dim>128</dim>
					<dim>512</dim>
					<dim>1</dim>
					<dim>1</dim>
				</port>
				<port id="1">
					<dim>128</dim>
					<dim>1</dim>
					<dim>1</dim>
					<dim>1</dim>
				</port>
			</input>
			<output>
				<port id="2" precision="FP32">
					<dim>128</dim>
					<dim>512</dim>
					<dim>1</dim>
					<dim>1</dim>
				</port>
			</output>
		</layer>
		<layer id="346" name="/backbone/layer2/layer2.3/conv1/Conv/WithoutBiases" type="Convolution" version="opset1">
			<data auto_pad="explicit" strides="1,1" dilations="1,1" pads_begin="0,0" pads_end="0,0"/>
			<input>
				<port id="0">
					<dim>1</dim>
					<dim>512</dim>
					<dim>80</dim>
					<dim>80</dim>
				</port>
				<port id="1">
					<dim>128</dim>
					<dim>512</dim>
					<dim>1</dim>
					<dim>1</dim>
				</port>
			</input>
			<output>
				<port id="2" precision="FP32">
					<dim>1</dim>
					<dim>128</dim>
					<dim>80</dim>
					<dim>80</dim>
				</port>
			</output>
		</layer>
		<layer id="347" name="Reshape_1204163726210" type="Const" version="opset1">
			<data offset="4915576" size="512" shape="1,128,1,1" element_type="f32"/>
			<output>
				<port id="0" precision="FP32">
					<dim>1</dim>
					<dim>128</dim>
					<dim>1</dim>
					<dim>1</dim>
				</port>
			</output>
		</layer>
		<layer id="348" name="/backbone/layer2/layer2.3/conv1/Conv" type="Add" version="opset1">
			<data auto_broadcast="numpy"/>
			<input>
				<port id="0">
					<dim>1</dim>
					<dim>128</dim>
					<dim>80</dim>
					<dim>80</dim>
				</port>
				<port id="1">
					<dim>1</dim>
					<dim>128</dim>
					<dim>1</dim>
					<dim>1</dim>
				</port>
			</input>
			<output>
				<port id="2" precision="FP32" names="/backbone/layer2/layer2.3/conv1/Conv_output_0">
					<dim>1</dim>
					<dim>128</dim>
					<dim>80</dim>
					<dim>80</dim>
				</port>
			</output>
		</layer>
		<layer id="349" name="/backbone/layer2/layer2.3/relu/Relu" type="ReLU" version="opset1">
			<input>
				<port id="0">
					<dim>1</dim>
					<dim>128</dim>
					<dim>80</dim>
					<dim>80</dim>
				</port>
			</input>
			<output>
				<port id="1" precision="FP32" names="/backbone/layer2/layer2.3/relu/Relu_output_0">
					<dim>1</dim>
					<dim>128</dim>
					<dim>80</dim>
					<dim>80</dim>
				</port>
			</output>
		</layer>
		<layer id="350" name="/backbone/layer2/layer2.3/conv2/Conv/WithoutBiases/fq_input_0" type="FakeQuantize" version="opset1">
			<data levels="256" auto_broadcast="numpy"/>
			<input>
				<port id="0">
					<dim>1</dim>
					<dim>128</dim>
					<dim>80</dim>
					<dim>80</dim>
				</port>
				<port id="1"/>
				<port id="2"/>
				<port id="3"/>
				<port id="4"/>
			</input>
			<output>
				<port id="5" precision="FP32">
					<dim>1</dim>
					<dim>128</dim>
					<dim>80</dim>
					<dim>80</dim>
				</port>
			</output>
		</layer>
		<layer id="351" name="/backbone/layer2/layer2.3/conv2/Conv/WithoutBiases/fq_weights_1/scale1735925463" type="Const" version="opset1">
			<data offset="4916088" size="512" shape="128,1,1,1" element_type="f32"/>
			<output>
				<port id="0" precision="FP32">
					<dim>128</dim>
					<dim>1</dim>
					<dim>1</dim>
					<dim>1</dim>
				</port>
			</output>
		</layer>
		<layer id="352" name="onnx::Conv_1624164014889/quantized1735124326" type="Const" version="opset1">
			<data offset="4916600" size="147456" shape="128,128,3,3" element_type="i8"/>
			<output>
				<port id="0" precision="I8">
					<dim>128</dim>
					<dim>128</dim>
					<dim>3</dim>
					<dim>3</dim>
				</port>
			</output>
		</layer>
		<layer id="353" name="onnx::Conv_1624164014889/quantized/to_f32" type="Convert" version="opset1">
			<data destination_type="f32"/>
			<input>
				<port id="0">
					<dim>128</dim>
					<dim>128</dim>
					<dim>3</dim>
					<dim>3</dim>
				</port>
			</input>
			<output>
				<port id="1" precision="FP32">
					<dim>128</dim>
					<dim>128</dim>
					<dim>3</dim>
					<dim>3</dim>
				</port>
			</output>
		</layer>
		<layer id="354" name="/backbone/layer2/layer2.3/conv2/Conv/WithoutBiases/fq_weights_1/mulpiply_by_scale" type="Multiply" version="opset1">
			<data auto_broadcast="numpy"/>
			<input>
				<port id="0">
					<dim>128</dim>
					<dim>128</dim>
					<dim>3</dim>
					<dim>3</dim>
				</port>
				<port id="1">
					<dim>128</dim>
					<dim>1</dim>
					<dim>1</dim>
					<dim>1</dim>
				</port>
			</input>
			<output>
				<port id="2" precision="FP32">
					<dim>128</dim>
					<dim>128</dim>
					<dim>3</dim>
					<dim>3</dim>
				</port>
			</output>
		</layer>
		<layer id="355" name="/backbone/layer2/layer2.3/conv2/Conv/WithoutBiases" type="Convolution" version="opset1">
			<data auto_pad="explicit" strides="1,1" dilations="1,1" pads_begin="1,1" pads_end="1,1"/>
			<input>
				<port id="0">
					<dim>1</dim>
					<dim>128</dim>
					<dim>80</dim>
					<dim>80</dim>
				</port>
				<port id="1">
					<dim>128</dim>
					<dim>128</dim>
					<dim>3</dim>
					<dim>3</dim>
				</port>
			</input>
			<output>
				<port id="2" precision="FP32">
					<dim>1</dim>
					<dim>128</dim>
					<dim>80</dim>
					<dim>80</dim>
				</port>
			</output>
		</layer>
		<layer id="356" name="Reshape_1253164224341" type="Const" version="opset1">
			<data offset="5064056" size="512" shape="1,128,1,1" element_type="f32"/>
			<output>
				<port id="0" precision="FP32">
					<dim>1</dim>
					<dim>128</dim>
					<dim>1</dim>
					<dim>1</dim>
				</port>
			</output>
		</layer>
		<layer id="357" name="/backbone/layer2/layer2.3/conv2/Conv" type="Add" version="opset1">
			<data auto_broadcast="numpy"/>
			<input>
				<port id="0">
					<dim>1</dim>
					<dim>128</dim>
					<dim>80</dim>
					<dim>80</dim>
				</port>
				<port id="1">
					<dim>1</dim>
					<dim>128</dim>
					<dim>1</dim>
					<dim>1</dim>
				</port>
			</input>
			<output>
				<port id="2" precision="FP32" names="/backbone/layer2/layer2.3/conv2/Conv_output_0">
					<dim>1</dim>
					<dim>128</dim>
					<dim>80</dim>
					<dim>80</dim>
				</port>
			</output>
		</layer>
		<layer id="358" name="/backbone/layer2/layer2.3/relu_1/Relu" type="ReLU" version="opset1">
			<input>
				<port id="0">
					<dim>1</dim>
					<dim>128</dim>
					<dim>80</dim>
					<dim>80</dim>
				</port>
			</input>
			<output>
				<port id="1" precision="FP32" names="/backbone/layer2/layer2.3/relu_1/Relu_output_0">
					<dim>1</dim>
					<dim>128</dim>
					<dim>80</dim>
					<dim>80</dim>
				</port>
			</output>
		</layer>
		<layer id="359" name="/backbone/layer2/layer2.3/conv3/Conv/WithoutBiases/fq_input_0" type="FakeQuantize" version="opset1">
			<data levels="256" auto_broadcast="numpy"/>
			<input>
				<port id="0">
					<dim>1</dim>
					<dim>128</dim>
					<dim>80</dim>
					<dim>80</dim>
				</port>
				<port id="1"/>
				<port id="2"/>
				<port id="3"/>
				<port id="4"/>
			</input>
			<output>
				<port id="5" precision="FP32">
					<dim>1</dim>
					<dim>128</dim>
					<dim>80</dim>
					<dim>80</dim>
				</port>
			</output>
		</layer>
		<layer id="360" name="/backbone/layer2/layer2.3/conv3/Conv/WithoutBiases/fq_weights_1/scale1618926333" type="Const" version="opset1">
			<data offset="5064568" size="2048" shape="512,1,1,1" element_type="f32"/>
			<output>
				<port id="0" precision="FP32">
					<dim>512</dim>
					<dim>1</dim>
					<dim>1</dim>
					<dim>1</dim>
				</port>
			</output>
		</layer>
		<layer id="361" name="onnx::Conv_1627164514891/quantized1618124845" type="Const" version="opset1">
			<data offset="5066616" size="65536" shape="512,128,1,1" element_type="i8"/>
			<output>
				<port id="0" precision="I8">
					<dim>512</dim>
					<dim>128</dim>
					<dim>1</dim>
					<dim>1</dim>
				</port>
			</output>
		</layer>
		<layer id="362" name="onnx::Conv_1627164514891/quantized/to_f32" type="Convert" version="opset1">
			<data destination_type="f32"/>
			<input>
				<port id="0">
					<dim>512</dim>
					<dim>128</dim>
					<dim>1</dim>
					<dim>1</dim>
				</port>
			</input>
			<output>
				<port id="1" precision="FP32">
					<dim>512</dim>
					<dim>128</dim>
					<dim>1</dim>
					<dim>1</dim>
				</port>
			</output>
		</layer>
		<layer id="363" name="/backbone/layer2/layer2.3/conv3/Conv/WithoutBiases/fq_weights_1/mulpiply_by_scale" type="Multiply" version="opset1">
			<data auto_broadcast="numpy"/>
			<input>
				<port id="0">
					<dim>512</dim>
					<dim>128</dim>
					<dim>1</dim>
					<dim>1</dim>
				</port>
				<port id="1">
					<dim>512</dim>
					<dim>1</dim>
					<dim>1</dim>
					<dim>1</dim>
				</port>
			</input>
			<output>
				<port id="2" precision="FP32">
					<dim>512</dim>
					<dim>128</dim>
					<dim>1</dim>
					<dim>1</dim>
				</port>
			</output>
		</layer>
		<layer id="364" name="/backbone/layer2/layer2.3/conv3/Conv/WithoutBiases" type="Convolution" version="opset1">
			<data auto_pad="explicit" strides="1,1" dilations="1,1" pads_begin="0,0" pads_end="0,0"/>
			<input>
				<port id="0">
					<dim>1</dim>
					<dim>128</dim>
					<dim>80</dim>
					<dim>80</dim>
				</port>
				<port id="1">
					<dim>512</dim>
					<dim>128</dim>
					<dim>1</dim>
					<dim>1</dim>
				</port>
			</input>
			<output>
				<port id="2" precision="FP32">
					<dim>1</dim>
					<dim>512</dim>
					<dim>80</dim>
					<dim>80</dim>
				</port>
			</output>
		</layer>
		<layer id="365" name="Reshape_1302164725628" type="Const" version="opset1">
			<data offset="5132152" size="2048" shape="1,512,1,1" element_type="f32"/>
			<output>
				<port id="0" precision="FP32">
					<dim>1</dim>
					<dim>512</dim>
					<dim>1</dim>
					<dim>1</dim>
				</port>
			</output>
		</layer>
		<layer id="366" name="/backbone/layer2/layer2.3/conv3/Conv" type="Add" version="opset1">
			<data auto_broadcast="numpy"/>
			<input>
				<port id="0">
					<dim>1</dim>
					<dim>512</dim>
					<dim>80</dim>
					<dim>80</dim>
				</port>
				<port id="1">
					<dim>1</dim>
					<dim>512</dim>
					<dim>1</dim>
					<dim>1</dim>
				</port>
			</input>
			<output>
				<port id="2" precision="FP32" names="/backbone/layer2/layer2.3/conv3/Conv_output_0">
					<dim>1</dim>
					<dim>512</dim>
					<dim>80</dim>
					<dim>80</dim>
				</port>
			</output>
		</layer>
		<layer id="367" name="/backbone/layer2/layer2.3/Add/fq_input_0" type="FakeQuantize" version="opset1">
			<data levels="256" auto_broadcast="numpy"/>
			<input>
				<port id="0">
					<dim>1</dim>
					<dim>512</dim>
					<dim>80</dim>
					<dim>80</dim>
				</port>
				<port id="1"/>
				<port id="2"/>
				<port id="3"/>
				<port id="4"/>
			</input>
			<output>
				<port id="5" precision="FP32">
					<dim>1</dim>
					<dim>512</dim>
					<dim>80</dim>
					<dim>80</dim>
				</port>
			</output>
		</layer>
		<layer id="368" name="/backbone/layer2/layer2.3/Add" type="Add" version="opset1">
			<data auto_broadcast="numpy"/>
			<input>
				<port id="0">
					<dim>1</dim>
					<dim>512</dim>
					<dim>80</dim>
					<dim>80</dim>
				</port>
				<port id="1">
					<dim>1</dim>
					<dim>512</dim>
					<dim>80</dim>
					<dim>80</dim>
				</port>
			</input>
			<output>
				<port id="2" precision="FP32" names="/backbone/layer2/layer2.3/Add_output_0">
					<dim>1</dim>
					<dim>512</dim>
					<dim>80</dim>
					<dim>80</dim>
				</port>
			</output>
		</layer>
		<layer id="369" name="/backbone/layer2/layer2.3/relu_2/Relu" type="ReLU" version="opset1">
			<input>
				<port id="0">
					<dim>1</dim>
					<dim>512</dim>
					<dim>80</dim>
					<dim>80</dim>
				</port>
			</input>
			<output>
				<port id="1" precision="FP32" names="/backbone/layer2/layer2.3/relu_2/Relu_output_0">
					<dim>1</dim>
					<dim>512</dim>
					<dim>80</dim>
					<dim>80</dim>
				</port>
			</output>
		</layer>
		<layer id="370" name="/backbone/layer3/layer3.0/conv1/Conv/WithoutBiases/fq_input_0" type="FakeQuantize" version="opset1">
			<data levels="256" auto_broadcast="numpy"/>
			<input>
				<port id="0">
					<dim>1</dim>
					<dim>512</dim>
					<dim>80</dim>
					<dim>80</dim>
				</port>
				<port id="1"/>
				<port id="2"/>
				<port id="3"/>
				<port id="4"/>
			</input>
			<output>
				<port id="5" precision="FP32">
					<dim>1</dim>
					<dim>512</dim>
					<dim>80</dim>
					<dim>80</dim>
				</port>
			</output>
		</layer>
		<layer id="371" name="/neck/lateral_convs.1/conv/Conv/WithoutBiases/fq_weights_1/scale1621927101" type="Const" version="opset1">
			<data offset="5134200" size="1024" shape="256,1,1,1" element_type="f32"/>
			<output>
				<port id="0" precision="FP32">
					<dim>256</dim>
					<dim>1</dim>
					<dim>1</dim>
					<dim>1</dim>
				</port>
			</output>
		</layer>
		<layer id="372" name="neck.lateral_convs.1.conv.weight165114893/quantized1621124683" type="Const" version="opset1">
			<data offset="5135224" size="131072" shape="256,512,1,1" element_type="i8"/>
			<output>
				<port id="0" precision="I8">
					<dim>256</dim>
					<dim>512</dim>
					<dim>1</dim>
					<dim>1</dim>
				</port>
			</output>
		</layer>
		<layer id="373" name="neck.lateral_convs.1.conv.weight165114893/quantized/to_f32" type="Convert" version="opset1">
			<data destination_type="f32"/>
			<input>
				<port id="0">
					<dim>256</dim>
					<dim>512</dim>
					<dim>1</dim>
					<dim>1</dim>
				</port>
			</input>
			<output>
				<port id="1" precision="FP32">
					<dim>256</dim>
					<dim>512</dim>
					<dim>1</dim>
					<dim>1</dim>
				</port>
			</output>
		</layer>
		<layer id="374" name="/neck/lateral_convs.1/conv/Conv/WithoutBiases/fq_weights_1/mulpiply_by_scale" type="Multiply" version="opset1">
			<data auto_broadcast="numpy"/>
			<input>
				<port id="0">
					<dim>256</dim>
					<dim>512</dim>
					<dim>1</dim>
					<dim>1</dim>
				</port>
				<port id="1">
					<dim>256</dim>
					<dim>1</dim>
					<dim>1</dim>
					<dim>1</dim>
				</port>
			</input>
			<output>
				<port id="2" precision="FP32">
					<dim>256</dim>
					<dim>512</dim>
					<dim>1</dim>
					<dim>1</dim>
				</port>
			</output>
		</layer>
		<layer id="375" name="/neck/lateral_convs.1/conv/Conv/WithoutBiases" type="Convolution" version="opset1">
			<data auto_pad="explicit" strides="1,1" dilations="1,1" pads_begin="0,0" pads_end="0,0"/>
			<input>
				<port id="0">
					<dim>1</dim>
					<dim>512</dim>
					<dim>80</dim>
					<dim>80</dim>
				</port>
				<port id="1">
					<dim>256</dim>
					<dim>512</dim>
					<dim>1</dim>
					<dim>1</dim>
				</port>
			</input>
			<output>
				<port id="2" precision="FP32">
					<dim>1</dim>
					<dim>256</dim>
					<dim>80</dim>
					<dim>80</dim>
				</port>
			</output>
		</layer>
		<layer id="376" name="Reshape_2828165326009" type="Const" version="opset1">
			<data offset="5266296" size="1024" shape="1,256,1,1" element_type="f32"/>
			<output>
				<port id="0" precision="FP32">
					<dim>1</dim>
					<dim>256</dim>
					<dim>1</dim>
					<dim>1</dim>
				</port>
			</output>
		</layer>
		<layer id="377" name="/neck/lateral_convs.1/conv/Conv" type="Add" version="opset1">
			<data auto_broadcast="numpy"/>
			<input>
				<port id="0">
					<dim>1</dim>
					<dim>256</dim>
					<dim>80</dim>
					<dim>80</dim>
				</port>
				<port id="1">
					<dim>1</dim>
					<dim>256</dim>
					<dim>1</dim>
					<dim>1</dim>
				</port>
			</input>
			<output>
				<port id="2" precision="FP32" names="/neck/lateral_convs.1/conv/Conv_output_0">
					<dim>1</dim>
					<dim>256</dim>
					<dim>80</dim>
					<dim>80</dim>
				</port>
			</output>
		</layer>
		<layer id="378" name="6249625326054" type="Const" version="opset1">
			<data offset="3591168" size="4" shape="" element_type="f32"/>
			<output>
				<port id="0" precision="FP32"/>
			</output>
		</layer>
		<layer id="379" name="6250625425433" type="Const" version="opset1">
			<data offset="5267320" size="4" shape="" element_type="f32"/>
			<output>
				<port id="0" precision="FP32"/>
			</output>
		</layer>
		<layer id="380" name="6251625526936" type="Const" version="opset1">
			<data offset="3591168" size="4" shape="" element_type="f32"/>
			<output>
				<port id="0" precision="FP32"/>
			</output>
		</layer>
		<layer id="381" name="6252625626438" type="Const" version="opset1">
			<data offset="5267320" size="4" shape="" element_type="f32"/>
			<output>
				<port id="0" precision="FP32"/>
			</output>
		</layer>
		<layer id="382" name="5779578326354" type="Const" version="opset1">
			<data offset="5267324" size="4" shape="" element_type="f32"/>
			<output>
				<port id="0" precision="FP32"/>
			</output>
		</layer>
		<layer id="383" name="5780578426147" type="Const" version="opset1">
			<data offset="5267328" size="4" shape="" element_type="f32"/>
			<output>
				<port id="0" precision="FP32"/>
			</output>
		</layer>
		<layer id="384" name="5781578526444" type="Const" version="opset1">
			<data offset="5267324" size="4" shape="" element_type="f32"/>
			<output>
				<port id="0" precision="FP32"/>
			</output>
		</layer>
		<layer id="385" name="5782578624356" type="Const" version="opset1">
			<data offset="5267328" size="4" shape="" element_type="f32"/>
			<output>
				<port id="0" precision="FP32"/>
			</output>
		</layer>
		<layer id="386" name="6749675324197" type="Const" version="opset1">
			<data offset="3591168" size="4" shape="" element_type="f32"/>
			<output>
				<port id="0" precision="FP32"/>
			</output>
		</layer>
		<layer id="387" name="6750675425532" type="Const" version="opset1">
			<data offset="5267332" size="4" shape="" element_type="f32"/>
			<output>
				<port id="0" precision="FP32"/>
			</output>
		</layer>
		<layer id="388" name="6751675524719" type="Const" version="opset1">
			<data offset="3591168" size="4" shape="" element_type="f32"/>
			<output>
				<port id="0" precision="FP32"/>
			</output>
		</layer>
		<layer id="389" name="6752675625607" type="Const" version="opset1">
			<data offset="5267332" size="4" shape="" element_type="f32"/>
			<output>
				<port id="0" precision="FP32"/>
			</output>
		</layer>
		<layer id="390" name="7749775326825" type="Const" version="opset1">
			<data offset="3591168" size="4" shape="" element_type="f32"/>
			<output>
				<port id="0" precision="FP32"/>
			</output>
		</layer>
		<layer id="391" name="7750775426504" type="Const" version="opset1">
			<data offset="5267336" size="4" shape="" element_type="f32"/>
			<output>
				<port id="0" precision="FP32"/>
			</output>
		</layer>
		<layer id="392" name="7751775524599" type="Const" version="opset1">
			<data offset="3591168" size="4" shape="" element_type="f32"/>
			<output>
				<port id="0" precision="FP32"/>
			</output>
		</layer>
		<layer id="393" name="7752775625106" type="Const" version="opset1">
			<data offset="5267336" size="4" shape="" element_type="f32"/>
			<output>
				<port id="0" precision="FP32"/>
			</output>
		</layer>
		<layer id="394" name="5789579325028" type="Const" version="opset1">
			<data offset="3591168" size="4" shape="" element_type="f32"/>
			<output>
				<port id="0" precision="FP32"/>
			</output>
		</layer>
		<layer id="395" name="5790579426993" type="Const" version="opset1">
			<data offset="5267340" size="4" shape="" element_type="f32"/>
			<output>
				<port id="0" precision="FP32"/>
			</output>
		</layer>
		<layer id="396" name="5791579524713" type="Const" version="opset1">
			<data offset="3591168" size="4" shape="" element_type="f32"/>
			<output>
				<port id="0" precision="FP32"/>
			</output>
		</layer>
		<layer id="397" name="5792579625244" type="Const" version="opset1">
			<data offset="5267340" size="4" shape="" element_type="f32"/>
			<output>
				<port id="0" precision="FP32"/>
			</output>
		</layer>
		<layer id="398" name="6659666325145" type="Const" version="opset1">
			<data offset="5267344" size="4" shape="" element_type="f32"/>
			<output>
				<port id="0" precision="FP32"/>
			</output>
		</layer>
		<layer id="399" name="6660666425838" type="Const" version="opset1">
			<data offset="5267348" size="4" shape="" element_type="f32"/>
			<output>
				<port id="0" precision="FP32"/>
			</output>
		</layer>
		<layer id="400" name="6661666526003" type="Const" version="opset1">
			<data offset="5267344" size="4" shape="" element_type="f32"/>
			<output>
				<port id="0" precision="FP32"/>
			</output>
		</layer>
		<layer id="401" name="6662666626945" type="Const" version="opset1">
			<data offset="5267348" size="4" shape="" element_type="f32"/>
			<output>
				<port id="0" precision="FP32"/>
			</output>
		</layer>
		<layer id="402" name="7849785325439" type="Const" version="opset1">
			<data offset="3591168" size="4" shape="" element_type="f32"/>
			<output>
				<port id="0" precision="FP32"/>
			</output>
		</layer>
		<layer id="403" name="7850785425844" type="Const" version="opset1">
			<data offset="5267352" size="4" shape="" element_type="f32"/>
			<output>
				<port id="0" precision="FP32"/>
			</output>
		</layer>
		<layer id="404" name="7851785525493" type="Const" version="opset1">
			<data offset="3591168" size="4" shape="" element_type="f32"/>
			<output>
				<port id="0" precision="FP32"/>
			</output>
		</layer>
		<layer id="405" name="7852785624035" type="Const" version="opset1">
			<data offset="5267352" size="4" shape="" element_type="f32"/>
			<output>
				<port id="0" precision="FP32"/>
			</output>
		</layer>
		<layer id="406" name="6169617324935" type="Const" version="opset1">
			<data offset="3591168" size="4" shape="" element_type="f32"/>
			<output>
				<port id="0" precision="FP32"/>
			</output>
		</layer>
		<layer id="407" name="6170617425223" type="Const" version="opset1">
			<data offset="5267356" size="4" shape="" element_type="f32"/>
			<output>
				<port id="0" precision="FP32"/>
			</output>
		</layer>
		<layer id="408" name="6171617523996" type="Const" version="opset1">
			<data offset="3591168" size="4" shape="" element_type="f32"/>
			<output>
				<port id="0" precision="FP32"/>
			</output>
		</layer>
		<layer id="409" name="6172617624308" type="Const" version="opset1">
			<data offset="5267356" size="4" shape="" element_type="f32"/>
			<output>
				<port id="0" precision="FP32"/>
			</output>
		</layer>
		<layer id="410" name="6669667325580" type="Const" version="opset1">
			<data offset="3591168" size="4" shape="" element_type="f32"/>
			<output>
				<port id="0" precision="FP32"/>
			</output>
		</layer>
		<layer id="411" name="6670667425190" type="Const" version="opset1">
			<data offset="5267360" size="4" shape="" element_type="f32"/>
			<output>
				<port id="0" precision="FP32"/>
			</output>
		</layer>
		<layer id="412" name="6671667527008" type="Const" version="opset1">
			<data offset="3591168" size="4" shape="" element_type="f32"/>
			<output>
				<port id="0" precision="FP32"/>
			</output>
		</layer>
		<layer id="413" name="6672667627029" type="Const" version="opset1">
			<data offset="5267360" size="4" shape="" element_type="f32"/>
			<output>
				<port id="0" precision="FP32"/>
			</output>
		</layer>
…
		<edge from-layer="1506" from-port="2" to-layer="1534" to-port="3"/>
		<edge from-layer="1533" from-port="2" to-layer="1534" to-port="4"/>
		<edge from-layer="1534" from-port="5" to-layer="1536" to-port="0"/>
		<edge from-layer="1535" from-port="0" to-layer="1536" to-port="1"/>
		<edge from-layer="1536" from-port="2" to-layer="1538" to-port="0"/>
		<edge from-layer="1537" from-port="0" to-layer="1538" to-port="1"/>
		<edge from-layer="1538" from-port="2" to-layer="1539" to-port="0"/>
		<edge from-layer="1539" from-port="1" to-layer="1542" to-port="0"/>
		<edge from-layer="1540" from-port="0" to-layer="1542" to-port="1"/>
		<edge from-layer="1541" from-port="0" to-layer="1542" to-port="2"/>
		<edge from-layer="1543" from-port="0" to-layer="1544" to-port="0"/>
		<edge from-layer="1542" from-port="3" to-layer="1544" to-port="1"/>
		<edge from-layer="1544" from-port="2" to-layer="1546" to-port="0"/>
		<edge from-layer="1545" from-port="0" to-layer="1546" to-port="1"/>
		<edge from-layer="1542" from-port="3" to-layer="1546" to-port="2"/>
		<edge from-layer="1546" from-port="3" to-layer="1548" to-port="0"/>
		<edge from-layer="1547" from-port="0" to-layer="1548" to-port="1"/>
		<edge from-layer="1548" from-port="2" to-layer="1550" to-port="0"/>
		<edge from-layer="1549" from-port="0" to-layer="1550" to-port="1"/>
		<edge from-layer="1550" from-port="2" to-layer="1551" to-port="0"/>
		<edge from-layer="1538" from-port="2" to-layer="1552" to-port="0"/>
		<edge from-layer="1551" from-port="1" to-layer="1552" to-port="1"/>
		<edge from-layer="1552" from-port="3" to-layer="1553" to-port="0"/>
		<edge from-layer="1398" from-port="2" to-layer="1555" to-port="0"/>
		<edge from-layer="1553" from-port="1" to-layer="1555" to-port="1"/>
		<edge from-layer="1554" from-port="0" to-layer="1555" to-port="2"/>
		<edge from-layer="1552" from-port="3" to-layer="1556" to-port="0"/>
		<edge from-layer="1534" from-port="5" to-layer="1558" to-port="0"/>
		<edge from-layer="1556" from-port="1" to-layer="1558" to-port="1"/>
		<edge from-layer="1557" from-port="0" to-layer="1558" to-port="2"/>
		<edge from-layer="1558" from-port="3" to-layer="1560" to-port="0"/>
		<edge from-layer="1559" from-port="0" to-layer="1560" to-port="1"/>
		<edge from-layer="1555" from-port="3" to-layer="1564" to-port="0"/>
		<edge from-layer="1560" from-port="2" to-layer="1564" to-port="1"/>
		<edge from-layer="1563" from-port="0" to-layer="1564" to-port="2"/>
		<edge from-layer="1561" from-port="0" to-layer="1564" to-port="3"/>
		<edge from-layer="1562" from-port="0" to-layer="1564" to-port="4"/>
		<edge from-layer="1564" from-port="5" to-layer="1570" to-port="0"/>
		<edge from-layer="1568" from-port="0" to-layer="1570" to-port="1"/>
		<edge from-layer="1569" from-port="0" to-layer="1570" to-port="2"/>
		<edge from-layer="1570" from-port="3" to-layer="1571" to-port="0"/>
		<edge from-layer="1571" from-port="1" to-layer="1572" to-port="0"/>
		<edge from-layer="1555" from-port="3" to-layer="1574" to-port="0"/>
		<edge from-layer="1572" from-port="1" to-layer="1574" to-port="1"/>
		<edge from-layer="1573" from-port="0" to-layer="1574" to-port="2"/>
		<edge from-layer="1558" from-port="3" to-layer="1576" to-port="0"/>
		<edge from-layer="1575" from-port="0" to-layer="1576" to-port="1"/>
		<edge from-layer="1576" from-port="2" to-layer="1577" to-port="0"/>
		<edge from-layer="1577" from-port="1" to-layer="1581" to-port="0"/>
		<edge from-layer="1578" from-port="0" to-layer="1581" to-port="1"/>
		<edge from-layer="1579" from-port="0" to-layer="1581" to-port="2"/>
		<edge from-layer="1580" from-port="0" to-layer="1581" to-port="3"/>
		<edge from-layer="1581" from-port="4" to-layer="1583" to-port="0"/>
		<edge from-layer="1582" from-port="0" to-layer="1583" to-port="1"/>
		<edge from-layer="1583" from-port="2" to-layer="1585" to-port="0"/>
		<edge from-layer="1584" from-port="0" to-layer="1585" to-port="1"/>
		<edge from-layer="1576" from-port="2" to-layer="1586" to-port="0"/>
		<edge from-layer="1585" from-port="2" to-layer="1586" to-port="1"/>
		<edge from-layer="1564" from-port="5" to-layer="1589" to-port="0"/>
		<edge from-layer="1587" from-port="0" to-layer="1589" to-port="1"/>
		<edge from-layer="1588" from-port="0" to-layer="1589" to-port="2"/>
		<edge from-layer="1560" from-port="2" to-layer="1590" to-port="0"/>
		<edge from-layer="1590" from-port="1" to-layer="1593" to-port="0"/>
		<edge from-layer="1591" from-port="0" to-layer="1593" to-port="1"/>
		<edge from-layer="1592" from-port="0" to-layer="1593" to-port="2"/>
		<edge from-layer="1589" from-port="3" to-layer="1594" to-port="0"/>
		<edge from-layer="1593" from-port="3" to-layer="1594" to-port="1"/>
		<edge from-layer="1570" from-port="3" to-layer="1595" to-port="0"/>
		<edge from-layer="1594" from-port="2" to-layer="1595" to-port="1"/>
		<edge from-layer="1595" from-port="2" to-layer="1596" to-port="0"/>
		<edge from-layer="1586" from-port="2" to-layer="1598" to-port="0"/>
		<edge from-layer="1596" from-port="1" to-layer="1598" to-port="1"/>
		<edge from-layer="1597" from-port="0" to-layer="1598" to-port="2"/>
		<edge from-layer="1590" from-port="1" to-layer="1602" to-port="0"/>
		<edge from-layer="1600" from-port="0" to-layer="1602" to-port="1"/>
		<edge from-layer="1601" from-port="0" to-layer="1602" to-port="2"/>
		<edge from-layer="1599" from-port="0" to-layer="1603" to-port="0"/>
		<edge from-layer="1602" from-port="3" to-layer="1603" to-port="1"/>
		<edge from-layer="1598" from-port="3" to-layer="1604" to-port="0"/>
		<edge from-layer="1603" from-port="2" to-layer="1604" to-port="1"/>
		<edge from-layer="1604" from-port="2" to-layer="1606" to-port="0"/>
		<edge from-layer="1605" from-port="0" to-layer="1606" to-port="1"/>
		<edge from-layer="1595" from-port="2" to-layer="1607" to-port="0"/>
		<edge from-layer="1602" from-port="3" to-layer="1608" to-port="0"/>
		<edge from-layer="1607" from-port="1" to-layer="1608" to-port="1"/>
		<edge from-layer="1606" from-port="2" to-layer="1609" to-port="0"/>
		<edge from-layer="1608" from-port="2" to-layer="1609" to-port="1"/>
		<edge from-layer="1609" from-port="2" to-layer="1611" to-port="0"/>
		<edge from-layer="1610" from-port="0" to-layer="1611" to-port="1"/>
		<edge from-layer="1574" from-port="3" to-layer="1612" to-port="0"/>
		<edge from-layer="1611" from-port="2" to-layer="1612" to-port="1"/>
		<edge from-layer="1612" from-port="2" to-layer="1614" to-port="0"/>
		<edge from-layer="1613" from-port="0" to-layer="1614" to-port="1"/>
		<edge from-layer="1614" from-port="2" to-layer="1617" to-port="0"/>
		<edge from-layer="1615" from-port="0" to-layer="1617" to-port="1"/>
		<edge from-layer="1616" from-port="0" to-layer="1617" to-port="2"/>
		<edge from-layer="1617" from-port="3" to-layer="1618" to-port="0"/>
		<edge from-layer="1618" from-port="1" to-layer="1621" to-port="0"/>
		<edge from-layer="1619" from-port="0" to-layer="1621" to-port="1"/>
		<edge from-layer="1620" from-port="0" to-layer="1621" to-port="2"/>
		<edge from-layer="1622" from-port="0" to-layer="1623" to-port="0"/>
		<edge from-layer="1621" from-port="3" to-layer="1623" to-port="1"/>
		<edge from-layer="1623" from-port="2" to-layer="1624" to-port="0"/>
		<edge from-layer="891" from-port="0" to-layer="1624" to-port="1"/>
		<edge from-layer="1621" from-port="3" to-layer="1624" to-port="2"/>
		<edge from-layer="1624" from-port="3" to-layer="1626" to-port="0"/>
		<edge from-layer="1625" from-port="0" to-layer="1626" to-port="1"/>
		<edge from-layer="1626" from-port="2" to-layer="1628" to-port="0"/>
		<edge from-layer="1627" from-port="0" to-layer="1628" to-port="1"/>
		<edge from-layer="1628" from-port="2" to-layer="1629" to-port="0"/>
		<edge from-layer="1617" from-port="3" to-layer="1630" to-port="0"/>
		<edge from-layer="1629" from-port="1" to-layer="1630" to-port="1"/>
		<edge from-layer="1630" from-port="3" to-layer="1632" to-port="0"/>
		<edge from-layer="1631" from-port="0" to-layer="1632" to-port="1"/>
		<edge from-layer="1632" from-port="2" to-layer="1633" to-port="0"/>
		<edge from-layer="1614" from-port="2" to-layer="1635" to-port="0"/>
		<edge from-layer="1633" from-port="1" to-layer="1635" to-port="1"/>
		<edge from-layer="1634" from-port="0" to-layer="1635" to-port="2"/>
		<edge from-layer="1635" from-port="3" to-layer="1636" to-port="0"/>
		<edge from-layer="1636" from-port="1" to-layer="1639" to-port="0"/>
		<edge from-layer="1637" from-port="0" to-layer="1639" to-port="1"/>
		<edge from-layer="1638" from-port="0" to-layer="1639" to-port="2"/>
		<edge from-layer="1567" from-port="0" to-layer="1641" to-port="0"/>
		<edge from-layer="1639" from-port="3" to-layer="1641" to-port="1"/>
		<edge from-layer="1640" from-port="0" to-layer="1641" to-port="2"/>
		<edge from-layer="1641" from-port="3" to-layer="1642" to-port="0"/>
		<edge from-layer="1642" from-port="1" to-layer="1644" to-port="0"/>
		<edge from-layer="1643" from-port="0" to-layer="1644" to-port="1"/>
		<edge from-layer="1636" from-port="1" to-layer="1647" to-port="0"/>
		<edge from-layer="1645" from-port="0" to-layer="1647" to-port="1"/>
		<edge from-layer="1646" from-port="0" to-layer="1647" to-port="2"/>
		<edge from-layer="1647" from-port="3" to-layer="1649" to-port="0"/>
		<edge from-layer="1648" from-port="0" to-layer="1649" to-port="1"/>
		<edge from-layer="1649" from-port="2" to-layer="1651" to-port="0"/>
		<edge from-layer="1650" from-port="0" to-layer="1651" to-port="1"/>
		<edge from-layer="1651" from-port="2" to-layer="1653" to-port="0"/>
		<edge from-layer="1652" from-port="0" to-layer="1653" to-port="1"/>
		<edge from-layer="1653" from-port="2" to-layer="1655" to-port="0"/>
		<edge from-layer="1654" from-port="0" to-layer="1655" to-port="1"/>
		<edge from-layer="1651" from-port="2" to-layer="1655" to-port="2"/>
		<edge from-layer="1644" from-port="2" to-layer="1656" to-port="0"/>
		<edge from-layer="1655" from-port="3" to-layer="1656" to-port="1"/>
		<edge from-layer="1635" from-port="3" to-layer="1660" to-port="0"/>
		<edge from-layer="1657" from-port="0" to-layer="1660" to-port="1"/>
		<edge from-layer="1658" from-port="0" to-layer="1660" to-port="2"/>
		<edge from-layer="1659" from-port="0" to-layer="1660" to-port="3"/>
		<edge from-layer="1656" from-port="2" to-layer="1661" to-port="0"/>
		<edge from-layer="1660" from-port="4" to-layer="1661" to-port="1"/>
		<edge from-layer="1661" from-port="2" to-layer="1663" to-port="0"/>
		<edge from-layer="1662" from-port="0" to-layer="1663" to-port="1"/>
		<edge from-layer="1661" from-port="2" to-layer="1664" to-port="0"/>
		<edge from-layer="1664" from-port="1" to-layer="1667" to-port="0"/>
		<edge from-layer="1665" from-port="0" to-layer="1667" to-port="1"/>
		<edge from-layer="1666" from-port="0" to-layer="1667" to-port="2"/>
		<edge from-layer="1663" from-port="2" to-layer="1669" to-port="0"/>
		<edge from-layer="1669" from-port="1" to-layer="1673" to-port="0"/>
		<edge from-layer="1670" from-port="0" to-layer="1673" to-port="1"/>
		<edge from-layer="1671" from-port="0" to-layer="1673" to-port="2"/>
		<edge from-layer="1672" from-port="0" to-layer="1673" to-port="3"/>
		<edge from-layer="1673" from-port="4" to-layer="1675" to-port="0"/>
		<edge from-layer="1674" from-port="0" to-layer="1675" to-port="1"/>
		<edge from-layer="1675" from-port="2" to-layer="1677" to-port="0"/>
		<edge from-layer="1676" from-port="0" to-layer="1677" to-port="1"/>
		<edge from-layer="1667" from-port="3" to-layer="1678" to-port="0"/>
		<edge from-layer="1668" from-port="0" to-layer="1678" to-port="1"/>
		<edge from-layer="1677" from-port="2" to-layer="1678" to-port="2"/>
		<edge from-layer="1663" from-port="2" to-layer="1679" to-port="0"/>
		<edge from-layer="1678" from-port="3" to-layer="1679" to-port="1"/>
		<edge from-layer="1679" from-port="2" to-layer="1683" to-port="0"/>
		<edge from-layer="1680" from-port="0" to-layer="1683" to-port="1"/>
		<edge from-layer="1681" from-port="0" to-layer="1683" to-port="2"/>
		<edge from-layer="1682" from-port="0" to-layer="1683" to-port="3"/>
		<edge from-layer="1683" from-port="4" to-layer="1685" to-port="0"/>
		<edge from-layer="1684" from-port="0" to-layer="1685" to-port="1"/>
		<edge from-layer="1685" from-port="2" to-layer="1689" to-port="0"/>
		<edge from-layer="1686" from-port="0" to-layer="1689" to-port="1"/>
		<edge from-layer="1687" from-port="0" to-layer="1689" to-port="2"/>
		<edge from-layer="1688" from-port="0" to-layer="1689" to-port="3"/>
		<edge from-layer="1685" from-port="2" to-layer="1693" to-port="0"/>
		<edge from-layer="1690" from-port="0" to-layer="1693" to-port="1"/>
		<edge from-layer="1691" from-port="0" to-layer="1693" to-port="2"/>
		<edge from-layer="1692" from-port="0" to-layer="1693" to-port="3"/>
		<edge from-layer="1689" from-port="4" to-layer="1694" to-port="0"/>
		<edge from-layer="1693" from-port="4" to-layer="1694" to-port="1"/>
		<edge from-layer="1694" from-port="2" to-layer="1696" to-port="0"/>
		<edge from-layer="1695" from-port="0" to-layer="1696" to-port="1"/>
		<edge from-layer="1693" from-port="4" to-layer="1697" to-port="0"/>
		<edge from-layer="1689" from-port="4" to-layer="1697" to-port="1"/>
		<edge from-layer="1663" from-port="2" to-layer="1706" to-port="0"/>
		<edge from-layer="1703" from-port="0" to-layer="1706" to-port="1"/>
		<edge from-layer="1704" from-port="0" to-layer="1706" to-port="2"/>
		<edge from-layer="1705" from-port="0" to-layer="1706" to-port="3"/>
		<edge from-layer="1706" from-port="4" to-layer="1707" to-port="0"/>
		<edge from-layer="858" from-port="2" to-layer="1707" to-port="1"/>
		<edge from-layer="912" from-port="2" to-layer="1707" to-port="2"/>
		<edge from-layer="964" from-port="2" to-layer="1707" to-port="3"/>
		<edge from-layer="1016" from-port="2" to-layer="1707" to-port="4"/>
		<edge from-layer="1707" from-port="5" to-layer="1708" to-port="0"/>
		<edge from-layer="1699" from-port="0" to-layer="1708" to-port="1"/>
		<edge from-layer="1700" from-port="0" to-layer="1708" to-port="2"/>
		<edge from-layer="1701" from-port="0" to-layer="1708" to-port="3"/>
		<edge from-layer="1702" from-port="0" to-layer="1708" to-port="4"/>
		<edge from-layer="1708" from-port="5" to-layer="1709" to-port="0"/>
		<edge from-layer="1698" from-port="0" to-layer="1709" to-port="1"/>
		<edge from-layer="1711" from-port="0" to-layer="1712" to-port="0"/>
		<edge from-layer="1712" from-port="1" to-layer="1713" to-port="0"/>
		<edge from-layer="1710" from-port="0" to-layer="1713" to-port="1"/>
		<edge from-layer="1709" from-port="2" to-layer="1714" to-port="0"/>
		<edge from-layer="1713" from-port="2" to-layer="1714" to-port="1"/>
		<edge from-layer="1714" from-port="2" to-layer="1716" to-port="0"/>
		<edge from-layer="1715" from-port="0" to-layer="1716" to-port="1"/>
		<edge from-layer="1716" from-port="2" to-layer="1717" to-port="0"/>
		<edge from-layer="1717" from-port="1" to-layer="1719" to-port="0"/>
		<edge from-layer="1718" from-port="0" to-layer="1719" to-port="1"/>
		<edge from-layer="1719" from-port="2" to-layer="1721" to-port="0"/>
		<edge from-layer="1720" from-port="0" to-layer="1721" to-port="1"/>
		<edge from-layer="1721" from-port="2" to-layer="1722" to-port="0"/>
		<edge from-layer="1722" from-port="1" to-layer="1724" to-port="0"/>
		<edge from-layer="1723" from-port="0" to-layer="1724" to-port="1"/>
		<edge from-layer="1724" from-port="2" to-layer="1726" to-port="0"/>
		<edge from-layer="1725" from-port="0" to-layer="1726" to-port="1"/>
		<edge from-layer="1664" from-port="1" to-layer="1729" to-port="0"/>
		<edge from-layer="1727" from-port="0" to-layer="1729" to-port="1"/>
		<edge from-layer="1728" from-port="0" to-layer="1729" to-port="2"/>
		<edge from-layer="1726" from-port="2" to-layer="1731" to-port="0"/>
		<edge from-layer="1731" from-port="1" to-layer="1735" to-port="0"/>
		<edge from-layer="1732" from-port="0" to-layer="1735" to-port="1"/>
		<edge from-layer="1733" from-port="0" to-layer="1735" to-port="2"/>
		<edge from-layer="1734" from-port="0" to-layer="1735" to-port="3"/>
		<edge from-layer="1735" from-port="4" to-layer="1737" to-port="0"/>
		<edge from-layer="1736" from-port="0" to-layer="1737" to-port="1"/>
		<edge from-layer="1737" from-port="2" to-layer="1739" to-port="0"/>
		<edge from-layer="1738" from-port="0" to-layer="1739" to-port="1"/>
		<edge from-layer="1729" from-port="3" to-layer="1740" to-port="0"/>
		<edge from-layer="1730" from-port="0" to-layer="1740" to-port="1"/>
		<edge from-layer="1739" from-port="2" to-layer="1740" to-port="2"/>
		<edge from-layer="1726" from-port="2" to-layer="1741" to-port="0"/>
		<edge from-layer="1740" from-port="3" to-layer="1741" to-port="1"/>
		<edge from-layer="1741" from-port="2" to-layer="1743" to-port="0"/>
		<edge from-layer="1742" from-port="0" to-layer="1743" to-port="1"/>
		<edge from-layer="1743" from-port="2" to-layer="1745" to-port="0"/>
		<edge from-layer="1744" from-port="0" to-layer="1745" to-port="1"/>
		<edge from-layer="1745" from-port="2" to-layer="1749" to-port="0"/>
		<edge from-layer="1746" from-port="0" to-layer="1749" to-port="1"/>
		<edge from-layer="1747" from-port="0" to-layer="1749" to-port="2"/>
		<edge from-layer="1748" from-port="0" to-layer="1749" to-port="3"/>
		<edge from-layer="1697" from-port="2" to-layer="1750" to-port="0"/>
		<edge from-layer="1749" from-port="4" to-layer="1750" to-port="1"/>
		<edge from-layer="1696" from-port="2" to-layer="1751" to-port="0"/>
		<edge from-layer="1750" from-port="2" to-layer="1751" to-port="1"/>
		<edge from-layer="1745" from-port="2" to-layer="1755" to-port="0"/>
		<edge from-layer="1752" from-port="0" to-layer="1755" to-port="1"/>
		<edge from-layer="1753" from-port="0" to-layer="1755" to-port="2"/>
		<edge from-layer="1754" from-port="0" to-layer="1755" to-port="3"/>
		<edge from-layer="1755" from-port="4" to-layer="1756" to-port="0"/>
		<edge from-layer="1756" from-port="1" to-layer="1757" to-port="0"/>
		<edge from-layer="1697" from-port="2" to-layer="1758" to-port="0"/>
		<edge from-layer="1757" from-port="1" to-layer="1758" to-port="1"/>
		<edge from-layer="1758" from-port="2" to-layer="1760" to-port="0"/>
		<edge from-layer="1759" from-port="0" to-layer="1760" to-port="1"/>
		<edge from-layer="1751" from-port="2" to-layer="1761" to-port="0"/>
		<edge from-layer="1760" from-port="2" to-layer="1761" to-port="1"/>
		<edge from-layer="1761" from-port="2" to-layer="1764" to-port="0"/>
		<edge from-layer="1762" from-port="0" to-layer="1764" to-port="1"/>
		<edge from-layer="1763" from-port="0" to-layer="1764" to-port="2"/>
		<edge from-layer="1764" from-port="3" to-layer="1765" to-port="0"/>
		<edge from-layer="1765" from-port="1" to-layer="1767" to-port="0"/>
		<edge from-layer="1766" from-port="0" to-layer="1767" to-port="1"/>
		<edge from-layer="1761" from-port="2" to-layer="1770" to-port="0"/>
		<edge from-layer="1768" from-port="0" to-layer="1770" to-port="1"/>
		<edge from-layer="1769" from-port="0" to-layer="1770" to-port="2"/>
		<edge from-layer="1770" from-port="3" to-layer="1771" to-port="0"/>
		<edge from-layer="1771" from-port="1" to-layer="1773" to-port="0"/>
		<edge from-layer="1772" from-port="0" to-layer="1773" to-port="1"/>
		<edge from-layer="1751" from-port="2" to-layer="1774" to-port="0"/>
		<edge from-layer="1760" from-port="2" to-layer="1774" to-port="1"/>
		<edge from-layer="1774" from-port="2" to-layer="1777" to-port="0"/>
		<edge from-layer="1775" from-port="0" to-layer="1777" to-port="1"/>
		<edge from-layer="1776" from-port="0" to-layer="1777" to-port="2"/>
		<edge from-layer="1777" from-port="3" to-layer="1778" to-port="0"/>
		<edge from-layer="1778" from-port="1" to-layer="1780" to-port="0"/>
		<edge from-layer="1779" from-port="0" to-layer="1780" to-port="1"/>
		<edge from-layer="1774" from-port="2" to-layer="1783" to-port="0"/>
		<edge from-layer="1781" from-port="0" to-layer="1783" to-port="1"/>
		<edge from-layer="1782" from-port="0" to-layer="1783" to-port="2"/>
		<edge from-layer="1783" from-port="3" to-layer="1784" to-port="0"/>
		<edge from-layer="1784" from-port="1" to-layer="1786" to-port="0"/>
		<edge from-layer="1785" from-port="0" to-layer="1786" to-port="1"/>
		<edge from-layer="1767" from-port="2" to-layer="1787" to-port="0"/>
		<edge from-layer="1773" from-port="2" to-layer="1787" to-port="1"/>
		<edge from-layer="1780" from-port="2" to-layer="1787" to-port="2"/>
		<edge from-layer="1786" from-port="2" to-layer="1787" to-port="3"/>
		<edge from-layer="1741" from-port="2" to-layer="1788" to-port="0"/>
		<edge from-layer="1787" from-port="4" to-layer="1789" to-port="0"/>
		<edge from-layer="1788" from-port="1" to-layer="1789" to-port="1"/>
		<edge from-layer="1789" from-port="2" to-layer="1791" to-port="0"/>
		<edge from-layer="1790" from-port="0" to-layer="1791" to-port="1"/>
		<edge from-layer="1791" from-port="2" to-layer="1792" to-port="0"/>
		<edge from-layer="1792" from-port="1" to-layer="1796" to-port="0"/>
		<edge from-layer="1793" from-port="0" to-layer="1796" to-port="1"/>
		<edge from-layer="1794" from-port="0" to-layer="1796" to-port="2"/>
		<edge from-layer="1795" from-port="0" to-layer="1796" to-port="3"/>
		<edge from-layer="1796" from-port="4" to-layer="1798" to-port="0"/>
		<edge from-layer="1797" from-port="0" to-layer="1798" to-port="1"/>
		<edge from-layer="1798" from-port="2" to-layer="1800" to-port="0"/>
		<edge from-layer="1799" from-port="0" to-layer="1800" to-port="1"/>
		<edge from-layer="1791" from-port="2" to-layer="1801" to-port="0"/>
		<edge from-layer="1800" from-port="2" to-layer="1801" to-port="1"/>
		<edge from-layer="1722" from-port="1" to-layer="1803" to-port="0"/>
		<edge from-layer="1802" from-port="0" to-layer="1803" to-port="1"/>
		<edge from-layer="1803" from-port="2" to-layer="1805" to-port="0"/>
		<edge from-layer="1804" from-port="0" to-layer="1805" to-port="1"/>
		<edge from-layer="1664" from-port="1" to-layer="1808" to-port="0"/>
		<edge from-layer="1806" from-port="0" to-layer="1808" to-port="1"/>
		<edge from-layer="1807" from-port="0" to-layer="1808" to-port="2"/>
		<edge from-layer="1805" from-port="2" to-layer="1810" to-port="0"/>
		<edge from-layer="1810" from-port="1" to-layer="1814" to-port="0"/>
		<edge from-layer="1811" from-port="0" to-layer="1814" to-port="1"/>
		<edge from-layer="1812" from-port="0" to-layer="1814" to-port="2"/>
		<edge from-layer="1813" from-port="0" to-layer="1814" to-port="3"/>
		<edge from-layer="1814" from-port="4" to-layer="1816" to-port="0"/>
		<edge from-layer="1815" from-port="0" to-layer="1816" to-port="1"/>
		<edge from-layer="1816" from-port="2" to-layer="1818" to-port="0"/>
		<edge from-layer="1817" from-port="0" to-layer="1818" to-port="1"/>
		<edge from-layer="1808" from-port="3" to-layer="1819" to-port="0"/>
		<edge from-layer="1809" from-port="0" to-layer="1819" to-port="1"/>
		<edge from-layer="1818" from-port="2" to-layer="1819" to-port="2"/>
		<edge from-layer="1805" from-port="2" to-layer="1820" to-port="0"/>
		<edge from-layer="1819" from-port="3" to-layer="1820" to-port="1"/>
		<edge from-layer="1820" from-port="2" to-layer="1821" to-port="0"/>
		<edge from-layer="1821" from-port="1" to-layer="1825" to-port="0"/>
		<edge from-layer="1822" from-port="0" to-layer="1825" to-port="1"/>
		<edge from-layer="1823" from-port="0" to-layer="1825" to-port="2"/>
		<edge from-layer="1824" from-port="0" to-layer="1825" to-port="3"/>
		<edge from-layer="1825" from-port="4" to-layer="1827" to-port="0"/>
		<edge from-layer="1826" from-port="0" to-layer="1827" to-port="1"/>
		<edge from-layer="1827" from-port="2" to-layer="1829" to-port="0"/>
		<edge from-layer="1828" from-port="0" to-layer="1829" to-port="1"/>
		<edge from-layer="1829" from-port="3" to-layer="1830" to-port="0"/>
		<edge from-layer="1792" from-port="1" to-layer="1834" to-port="0"/>
		<edge from-layer="1832" from-port="0" to-layer="1834" to-port="1"/>
		<edge from-layer="1833" from-port="0" to-layer="1834" to-port="2"/>
		<edge from-layer="1831" from-port="0" to-layer="1836" to-port="0"/>
		<edge from-layer="1834" from-port="3" to-layer="1836" to-port="1"/>
		<edge from-layer="1835" from-port="0" to-layer="1836" to-port="2"/>
		<edge from-layer="1836" from-port="3" to-layer="1838" to-port="0"/>
		<edge from-layer="1837" from-port="0" to-layer="1838" to-port="1"/>
		<edge from-layer="1792" from-port="1" to-layer="1841" to-port="0"/>
		<edge from-layer="1839" from-port="0" to-layer="1841" to-port="1"/>
		<edge from-layer="1840" from-port="0" to-layer="1841" to-port="2"/>
		<edge from-layer="1838" from-port="2" to-layer="1842" to-port="0"/>
		<edge from-layer="1841" from-port="3" to-layer="1842" to-port="1"/>
		<edge from-layer="1830" from-port="1" to-layer="1843" to-port="0"/>
		<edge from-layer="1842" from-port="2" to-layer="1843" to-port="1"/>
		<edge from-layer="1843" from-port="2" to-layer="1844" to-port="0"/>
		<edge from-layer="1801" from-port="2" to-layer="1846" to-port="0"/>
		<edge from-layer="1844" from-port="1" to-layer="1846" to-port="1"/>
		<edge from-layer="1845" from-port="0" to-layer="1846" to-port="2"/>
		<edge from-layer="1792" from-port="1" to-layer="1850" to-port="0"/>
		<edge from-layer="1848" from-port="0" to-layer="1850" to-port="1"/>
		<edge from-layer="1849" from-port="0" to-layer="1850" to-port="2"/>
		<edge from-layer="1847" from-port="0" to-layer="1851" to-port="0"/>
		<edge from-layer="1850" from-port="3" to-layer="1851" to-port="1"/>
		<edge from-layer="1846" from-port="3" to-layer="1852" to-port="0"/>
		<edge from-layer="1851" from-port="2" to-layer="1852" to-port="1"/>
		<edge from-layer="1843" from-port="2" to-layer="1853" to-port="0"/>
		<edge from-layer="1853" from-port="1" to-layer="1854" to-port="0"/>
		<edge from-layer="1850" from-port="3" to-layer="1854" to-port="1"/>
		<edge from-layer="1852" from-port="2" to-layer="1855" to-port="0"/>
		<edge from-layer="1854" from-port="2" to-layer="1855" to-port="1"/>
		<edge from-layer="1821" from-port="1" to-layer="1856" to-port="0"/>
		<edge from-layer="1856" from-port="1" to-layer="1859" to-port="0"/>
		<edge from-layer="1857" from-port="0" to-layer="1859" to-port="1"/>
		<edge from-layer="1858" from-port="0" to-layer="1859" to-port="2"/>
		<edge from-layer="1859" from-port="3" to-layer="1862" to-port="0"/>
		<edge from-layer="1860" from-port="0" to-layer="1862" to-port="1"/>
		<edge from-layer="1861" from-port="0" to-layer="1862" to-port="2"/>
		<edge from-layer="1855" from-port="2" to-layer="1863" to-port="0"/>
		<edge from-layer="1862" from-port="3" to-layer="1863" to-port="1"/>
		<edge from-layer="1825" from-port="4" to-layer="1865" to-port="0"/>
		<edge from-layer="1864" from-port="0" to-layer="1865" to-port="1"/>
		<edge from-layer="1865" from-port="2" to-layer="1867" to-port="0"/>
		<edge from-layer="1866" from-port="0" to-layer="1867" to-port="1"/>
		<edge from-layer="1867" from-port="2" to-layer="1868" to-port="0"/>
		<edge from-layer="1868" from-port="1" to-layer="1871" to-port="0"/>
		<edge from-layer="1869" from-port="0" to-layer="1871" to-port="1"/>
		<edge from-layer="1870" from-port="0" to-layer="1871" to-port="2"/>
		<edge from-layer="1872" from-port="0" to-layer="1873" to-port="0"/>
		<edge from-layer="1871" from-port="3" to-layer="1873" to-port="1"/>
		<edge from-layer="1873" from-port="2" to-layer="1874" to-port="0"/>
		<edge from-layer="1545" from-port="0" to-layer="1874" to-port="1"/>
		<edge from-layer="1871" from-port="3" to-layer="1874" to-port="2"/>
		<edge from-layer="1874" from-port="3" to-layer="1876" to-port="0"/>
		<edge from-layer="1875" from-port="0" to-layer="1876" to-port="1"/>
		<edge from-layer="1876" from-port="2" to-layer="1878" to-port="0"/>
		<edge from-layer="1877" from-port="0" to-layer="1878" to-port="1"/>
		<edge from-layer="1878" from-port="2" to-layer="1879" to-port="0"/>
		<edge from-layer="1867" from-port="2" to-layer="1880" to-port="0"/>
		<edge from-layer="1879" from-port="1" to-layer="1880" to-port="1"/>
		<edge from-layer="1880" from-port="3" to-layer="1881" to-port="0"/>
		<edge from-layer="1863" from-port="2" to-layer="1883" to-port="0"/>
		<edge from-layer="1881" from-port="1" to-layer="1883" to-port="1"/>
		<edge from-layer="1882" from-port="0" to-layer="1883" to-port="2"/>
		<edge from-layer="1880" from-port="3" to-layer="1884" to-port="0"/>
		<edge from-layer="1825" from-port="4" to-layer="1886" to-port="0"/>
		<edge from-layer="1884" from-port="1" to-layer="1886" to-port="1"/>
		<edge from-layer="1885" from-port="0" to-layer="1886" to-port="2"/>
		<edge from-layer="1886" from-port="3" to-layer="1888" to-port="0"/>
		<edge from-layer="1887" from-port="0" to-layer="1888" to-port="1"/>
		<edge from-layer="1883" from-port="3" to-layer="1892" to-port="0"/>
		<edge from-layer="1888" from-port="2" to-layer="1892" to-port="1"/>
		<edge from-layer="1891" from-port="0" to-layer="1892" to-port="2"/>
		<edge from-layer="1889" from-port="0" to-layer="1892" to-port="3"/>
		<edge from-layer="1890" from-port="0" to-layer="1892" to-port="4"/>
		<edge from-layer="1892" from-port="5" to-layer="1905" to-port="0"/>
		<edge from-layer="1903" from-port="0" to-layer="1905" to-port="1"/>
		<edge from-layer="1904" from-port="0" to-layer="1905" to-port="2"/>
		<edge from-layer="1905" from-port="3" to-layer="1906" to-port="0"/>
		<edge from-layer="1906" from-port="1" to-layer="1907" to-port="0"/>
		<edge from-layer="1883" from-port="3" to-layer="1909" to-port="0"/>
		<edge from-layer="1907" from-port="1" to-layer="1909" to-port="1"/>
		<edge from-layer="1908" from-port="0" to-layer="1909" to-port="2"/>
		<edge from-layer="1886" from-port="3" to-layer="1910" to-port="0"/>
		<edge from-layer="1910" from-port="1" to-layer="1914" to-port="0"/>
		<edge from-layer="1911" from-port="0" to-layer="1914" to-port="1"/>
		<edge from-layer="1912" from-port="0" to-layer="1914" to-port="2"/>
		<edge from-layer="1913" from-port="0" to-layer="1914" to-port="3"/>
		<edge from-layer="1914" from-port="4" to-layer="1916" to-port="0"/>
		<edge from-layer="1915" from-port="0" to-layer="1916" to-port="1"/>
		<edge from-layer="1916" from-port="2" to-layer="1918" to-port="0"/>
		<edge from-layer="1917" from-port="0" to-layer="1918" to-port="1"/>
		<edge from-layer="1886" from-port="3" to-layer="1919" to-port="0"/>
		<edge from-layer="1918" from-port="2" to-layer="1919" to-port="1"/>
		<edge from-layer="1892" from-port="5" to-layer="1922" to-port="0"/>
		<edge from-layer="1920" from-port="0" to-layer="1922" to-port="1"/>
		<edge from-layer="1921" from-port="0" to-layer="1922" to-port="2"/>
		<edge from-layer="1888" from-port="2" to-layer="1923" to-port="0"/>
		<edge from-layer="1923" from-port="1" to-layer="1926" to-port="0"/>
		<edge from-layer="1924" from-port="0" to-layer="1926" to-port="1"/>
		<edge from-layer="1925" from-port="0" to-layer="1926" to-port="2"/>
		<edge from-layer="1922" from-port="3" to-layer="1927" to-port="0"/>
		<edge from-layer="1926" from-port="3" to-layer="1927" to-port="1"/>
		<edge from-layer="1905" from-port="3" to-layer="1928" to-port="0"/>
		<edge from-layer="1927" from-port="2" to-layer="1928" to-port="1"/>
		<edge from-layer="1928" from-port="2" to-layer="1929" to-port="0"/>
		<edge from-layer="1919" from-port="2" to-layer="1931" to-port="0"/>
		<edge from-layer="1929" from-port="1" to-layer="1931" to-port="1"/>
		<edge from-layer="1930" from-port="0" to-layer="1931" to-port="2"/>
		<edge from-layer="1923" from-port="1" to-layer="1935" to-port="0"/>
		<edge from-layer="1933" from-port="0" to-layer="1935" to-port="1"/>
		<edge from-layer="1934" from-port="0" to-layer="1935" to-port="2"/>
		<edge from-layer="1932" from-port="0" to-layer="1936" to-port="0"/>
		<edge from-layer="1935" from-port="3" to-layer="1936" to-port="1"/>
		<edge from-layer="1931" from-port="3" to-layer="1937" to-port="0"/>
		<edge from-layer="1936" from-port="2" to-layer="1937" to-port="1"/>
		<edge from-layer="1937" from-port="2" to-layer="1939" to-port="0"/>
		<edge from-layer="1938" from-port="0" to-layer="1939" to-port="1"/>
		<edge from-layer="1928" from-port="2" to-layer="1940" to-port="0"/>
		<edge from-layer="1935" from-port="3" to-layer="1941" to-port="0"/>
		<edge from-layer="1940" from-port="1" to-layer="1941" to-port="1"/>
		<edge from-layer="1939" from-port="2" to-layer="1942" to-port="0"/>
		<edge from-layer="1941" from-port="2" to-layer="1942" to-port="1"/>
		<edge from-layer="1942" from-port="2" to-layer="1944" to-port="0"/>
		<edge from-layer="1943" from-port="0" to-layer="1944" to-port="1"/>
		<edge from-layer="1909" from-port="3" to-layer="1945" to-port="0"/>
		<edge from-layer="1944" from-port="2" to-layer="1945" to-port="1"/>
		<edge from-layer="1945" from-port="2" to-layer="1947" to-port="0"/>
		<edge from-layer="1946" from-port="0" to-layer="1947" to-port="1"/>
		<edge from-layer="1947" from-port="2" to-layer="1950" to-port="0"/>
		<edge from-layer="1948" from-port="0" to-layer="1950" to-port="1"/>
		<edge from-layer="1949" from-port="0" to-layer="1950" to-port="2"/>
		<edge from-layer="1950" from-port="3" to-layer="1951" to-port="0"/>
		<edge from-layer="1951" from-port="1" to-layer="1954" to-port="0"/>
		<edge from-layer="1952" from-port="0" to-layer="1954" to-port="1"/>
		<edge from-layer="1953" from-port="0" to-layer="1954" to-port="2"/>
		<edge from-layer="1955" from-port="0" to-layer="1956" to-port="0"/>
		<edge from-layer="1954" from-port="3" to-layer="1956" to-port="1"/>
		<edge from-layer="1956" from-port="2" to-layer="1958" to-port="0"/>
		<edge from-layer="1957" from-port="0" to-layer="1958" to-port="1"/>
		<edge from-layer="1954" from-port="3" to-layer="1958" to-port="2"/>
		<edge from-layer="1958" from-port="3" to-layer="1960" to-port="0"/>
		<edge from-layer="1959" from-port="0" to-layer="1960" to-port="1"/>
		<edge from-layer="1960" from-port="2" to-layer="1962" to-port="0"/>
		<edge from-layer="1961" from-port="0" to-layer="1962" to-port="1"/>
		<edge from-layer="1962" from-port="2" to-layer="1963" to-port="0"/>
		<edge from-layer="1950" from-port="3" to-layer="1964" to-port="0"/>
		<edge from-layer="1963" from-port="1" to-layer="1964" to-port="1"/>
		<edge from-layer="1964" from-port="3" to-layer="1970" to-port="0"/>
		<edge from-layer="1969" from-port="0" to-layer="1970" to-port="1"/>
		<edge from-layer="1970" from-port="2" to-layer="1971" to-port="0"/>
		<edge from-layer="1947" from-port="2" to-layer="1973" to-port="0"/>
		<edge from-layer="1971" from-port="1" to-layer="1973" to-port="1"/>
		<edge from-layer="1972" from-port="0" to-layer="1973" to-port="2"/>
		<edge from-layer="1973" from-port="3" to-layer="1975" to-port="0"/>
		<edge from-layer="1975" from-port="1" to-layer="1978" to-port="0"/>
		<edge from-layer="1976" from-port="0" to-layer="1978" to-port="1"/>
		<edge from-layer="1977" from-port="0" to-layer="1978" to-port="2"/>
		<edge from-layer="1975" from-port="1" to-layer="1982" to-port="0"/>
		<edge from-layer="1980" from-port="0" to-layer="1982" to-port="1"/>
		<edge from-layer="1981" from-port="0" to-layer="1982" to-port="2"/>
		<edge from-layer="1978" from-port="3" to-layer="1983" to-port="0"/>
		<edge from-layer="1979" from-port="0" to-layer="1983" to-port="1"/>
		<edge from-layer="1982" from-port="3" to-layer="1983" to-port="2"/>
		<edge from-layer="1974" from-port="0" to-layer="1984" to-port="0"/>
		<edge from-layer="1983" from-port="3" to-layer="1984" to-port="1"/>
		<edge from-layer="1973" from-port="3" to-layer="1985" to-port="0"/>
		<edge from-layer="1984" from-port="2" to-layer="1985" to-port="1"/>
		<edge from-layer="1985" from-port="2" to-layer="1989" to-port="0"/>
		<edge from-layer="1986" from-port="0" to-layer="1989" to-port="1"/>
		<edge from-layer="1987" from-port="0" to-layer="1989" to-port="2"/>
		<edge from-layer="1988" from-port="0" to-layer="1989" to-port="3"/>
		<edge from-layer="1989" from-port="4" to-layer="1991" to-port="0"/>
		<edge from-layer="1991" from-port="1" to-layer="1994" to-port="0"/>
		<edge from-layer="1992" from-port="0" to-layer="1994" to-port="1"/>
		<edge from-layer="1993" from-port="0" to-layer="1994" to-port="2"/>
		<edge from-layer="1990" from-port="0" to-layer="1996" to-port="0"/>
		<edge from-layer="1994" from-port="3" to-layer="1996" to-port="1"/>
		<edge from-layer="1995" from-port="0" to-layer="1996" to-port="2"/>
		<edge from-layer="1996" from-port="3" to-layer="1997" to-port="0"/>
		<edge from-layer="1997" from-port="1" to-layer="1999" to-port="0"/>
		<edge from-layer="1998" from-port="0" to-layer="1999" to-port="1"/>
		<edge from-layer="1991" from-port="1" to-layer="2004" to-port="0"/>
		<edge from-layer="2002" from-port="0" to-layer="2004" to-port="1"/>
		<edge from-layer="2003" from-port="0" to-layer="2004" to-port="2"/>
		<edge from-layer="2001" from-port="0" to-layer="2005" to-port="0"/>
		<edge from-layer="2004" from-port="3" to-layer="2005" to-port="1"/>
		<edge from-layer="2005" from-port="2" to-layer="2006" to-port="0"/>
		<edge from-layer="2000" from-port="0" to-layer="2006" to-port="1"/>
		<edge from-layer="1999" from-port="2" to-layer="2007" to-port="0"/>
		<edge from-layer="2006" from-port="2" to-layer="2007" to-port="1"/>
		<edge from-layer="2007" from-port="2" to-layer="2008" to-port="0"/>
		<edge from-layer="1989" from-port="4" to-layer="2008" to-port="1"/>
		<edge from-layer="2008" from-port="2" to-layer="2010" to-port="0"/>
		<edge from-layer="2009" from-port="0" to-layer="2010" to-port="1"/>
		<edge from-layer="2010" from-port="2" to-layer="2014" to-port="0"/>
		<edge from-layer="2011" from-port="0" to-layer="2014" to-port="1"/>
		<edge from-layer="2012" from-port="0" to-layer="2014" to-port="2"/>
		<edge from-layer="2013" from-port="0" to-layer="2014" to-port="3"/>
		<edge from-layer="2014" from-port="4" to-layer="2015" to-port="0"/>
		<edge from-layer="858" from-port="2" to-layer="2015" to-port="1"/>
		<edge from-layer="912" from-port="2" to-layer="2015" to-port="2"/>
		<edge from-layer="964" from-port="2" to-layer="2015" to-port="3"/>
		<edge from-layer="1016" from-port="2" to-layer="2015" to-port="4"/>
		<edge from-layer="1922" from-port="3" to-layer="2021" to-port="0"/>
		<edge from-layer="2020" from-port="0" to-layer="2021" to-port="1"/>
		<edge from-layer="2021" from-port="2" to-layer="2023" to-port="0"/>
		<edge from-layer="2022" from-port="0" to-layer="2023" to-port="1"/>
		<edge from-layer="1970" from-port="2" to-layer="2024" to-port="0"/>
		<edge from-layer="2023" from-port="2" to-layer="2026" to-port="0"/>
		<edge from-layer="2024" from-port="1" to-layer="2026" to-port="1"/>
		<edge from-layer="2025" from-port="0" to-layer="2026" to-port="2"/>
		<edge from-layer="2026" from-port="3" to-layer="2027" to-port="0"/>
		<edge from-layer="2027" from-port="1" to-layer="2030" to-port="0"/>
		<edge from-layer="2028" from-port="0" to-layer="2030" to-port="1"/>
		<edge from-layer="2029" from-port="0" to-layer="2030" to-port="2"/>
		<edge from-layer="2030" from-port="3" to-layer="2032" to-port="0"/>
		<edge from-layer="2031" from-port="0" to-layer="2032" to-port="1"/>
		<edge from-layer="2019" from-port="0" to-layer="2033" to-port="0"/>
		<edge from-layer="2032" from-port="2" to-layer="2033" to-port="1"/>
		<edge from-layer="2026" from-port="3" to-layer="2034" to-port="0"/>
		<edge from-layer="2033" from-port="2" to-layer="2034" to-port="1"/>
		<edge from-layer="2015" from-port="5" to-layer="2060" to-port="0"/>
		<edge from-layer="2056" from-port="0" to-layer="2060" to-port="1"/>
		<edge from-layer="2057" from-port="0" to-layer="2060" to-port="2"/>
		<edge from-layer="2058" from-port="0" to-layer="2060" to-port="3"/>
		<edge from-layer="2059" from-port="0" to-layer="2060" to-port="4"/>
		<edge from-layer="2062" from-port="0" to-layer="2063" to-port="0"/>
		<edge from-layer="2063" from-port="1" to-layer="2064" to-port="0"/>
		<edge from-layer="2061" from-port="0" to-layer="2064" to-port="1"/>
		<edge from-layer="2060" from-port="5" to-layer="2065" to-port="0"/>
		<edge from-layer="2064" from-port="2" to-layer="2065" to-port="1"/>
		<edge from-layer="2065" from-port="2" to-layer="2067" to-port="0"/>
		<edge from-layer="2066" from-port="0" to-layer="2067" to-port="1"/>
		<edge from-layer="2067" from-port="2" to-layer="2068" to-port="0"/>
		<edge from-layer="2068" from-port="1" to-layer="2069" to-port="0"/>
		<edge from-layer="2052" from-port="0" to-layer="2069" to-port="1"/>
		<edge from-layer="2053" from-port="0" to-layer="2069" to-port="2"/>
		<edge from-layer="2054" from-port="0" to-layer="2069" to-port="3"/>
		<edge from-layer="2055" from-port="0" to-layer="2069" to-port="4"/>
		<edge from-layer="2071" from-port="0" to-layer="2072" to-port="0"/>
		<edge from-layer="2072" from-port="1" to-layer="2073" to-port="0"/>
		<edge from-layer="2070" from-port="0" to-layer="2073" to-port="1"/>
		<edge from-layer="2069" from-port="5" to-layer="2074" to-port="0"/>
		<edge from-layer="2073" from-port="2" to-layer="2074" to-port="1"/>
		<edge from-layer="2074" from-port="2" to-layer="2076" to-port="0"/>
		<edge from-layer="2075" from-port="0" to-layer="2076" to-port="1"/>
		<edge from-layer="2076" from-port="2" to-layer="2077" to-port="0"/>
		<edge from-layer="2077" from-port="1" to-layer="2078" to-port="0"/>
		<edge from-layer="2048" from-port="0" to-layer="2078" to-port="1"/>
		<edge from-layer="2049" from-port="0" to-layer="2078" to-port="2"/>
		<edge from-layer="2050" from-port="0" to-layer="2078" to-port="3"/>
		<edge from-layer="2051" from-port="0" to-layer="2078" to-port="4"/>
		<edge from-layer="2080" from-port="0" to-layer="2081" to-port="0"/>
		<edge from-layer="2081" from-port="1" to-layer="2082" to-port="0"/>
		<edge from-layer="2079" from-port="0" to-layer="2082" to-port="1"/>
		<edge from-layer="2078" from-port="5" to-layer="2083" to-port="0"/>
		<edge from-layer="2082" from-port="2" to-layer="2083" to-port="1"/>
		<edge from-layer="2083" from-port="2" to-layer="2085" to-port="0"/>
		<edge from-layer="2084" from-port="0" to-layer="2085" to-port="1"/>
		<edge from-layer="2085" from-port="2" to-layer="2086" to-port="0"/>
		<edge from-layer="2086" from-port="1" to-layer="2087" to-port="0"/>
		<edge from-layer="2044" from-port="0" to-layer="2087" to-port="1"/>
		<edge from-layer="2045" from-port="0" to-layer="2087" to-port="2"/>
		<edge from-layer="2046" from-port="0" to-layer="2087" to-port="3"/>
		<edge from-layer="2047" from-port="0" to-layer="2087" to-port="4"/>
		<edge from-layer="2089" from-port="0" to-layer="2090" to-port="0"/>
		<edge from-layer="2090" from-port="1" to-layer="2091" to-port="0"/>
		<edge from-layer="2088" from-port="0" to-layer="2091" to-port="1"/>
		<edge from-layer="2087" from-port="5" to-layer="2092" to-port="0"/>
		<edge from-layer="2091" from-port="2" to-layer="2092" to-port="1"/>
		<edge from-layer="2092" from-port="2" to-layer="2094" to-port="0"/>
		<edge from-layer="2093" from-port="0" to-layer="2094" to-port="1"/>
		<edge from-layer="2094" from-port="2" to-layer="2095" to-port="0"/>
		<edge from-layer="2095" from-port="1" to-layer="2096" to-port="0"/>
		<edge from-layer="2040" from-port="0" to-layer="2096" to-port="1"/>
		<edge from-layer="2041" from-port="0" to-layer="2096" to-port="2"/>
		<edge from-layer="2042" from-port="0" to-layer="2096" to-port="3"/>
		<edge from-layer="2043" from-port="0" to-layer="2096" to-port="4"/>
		<edge from-layer="2098" from-port="0" to-layer="2099" to-port="0"/>
		<edge from-layer="2099" from-port="1" to-layer="2100" to-port="0"/>
		<edge from-layer="2097" from-port="0" to-layer="2100" to-port="1"/>
		<edge from-layer="2096" from-port="5" to-layer="2101" to-port="0"/>
		<edge from-layer="2100" from-port="2" to-layer="2101" to-port="1"/>
		<edge from-layer="2101" from-port="2" to-layer="2103" to-port="0"/>
		<edge from-layer="2102" from-port="0" to-layer="2103" to-port="1"/>
		<edge from-layer="2103" from-port="2" to-layer="2104" to-port="0"/>
		<edge from-layer="2104" from-port="1" to-layer="2105" to-port="0"/>
		<edge from-layer="2036" from-port="0" to-layer="2105" to-port="1"/>
		<edge from-layer="2037" from-port="0" to-layer="2105" to-port="2"/>
		<edge from-layer="2038" from-port="0" to-layer="2105" to-port="3"/>
		<edge from-layer="2039" from-port="0" to-layer="2105" to-port="4"/>
		<edge from-layer="2107" from-port="0" to-layer="2108" to-port="0"/>
		<edge from-layer="2108" from-port="1" to-layer="2109" to-port="0"/>
		<edge from-layer="2106" from-port="0" to-layer="2109" to-port="1"/>
		<edge from-layer="2105" from-port="5" to-layer="2110" to-port="0"/>
		<edge from-layer="2109" from-port="2" to-layer="2110" to-port="1"/>
		<edge from-layer="2110" from-port="2" to-layer="2112" to-port="0"/>
		<edge from-layer="2111" from-port="0" to-layer="2112" to-port="1"/>
		<edge from-layer="2112" from-port="2" to-layer="2113" to-port="0"/>
		<edge from-layer="2113" from-port="1" to-layer="2114" to-port="0"/>
		<edge from-layer="2114" from-port="1" to-layer="2118" to-port="0"/>
		<edge from-layer="2115" from-port="0" to-layer="2118" to-port="1"/>
		<edge from-layer="2116" from-port="0" to-layer="2118" to-port="2"/>
		<edge from-layer="2117" from-port="0" to-layer="2118" to-port="3"/>
		<edge from-layer="2118" from-port="4" to-layer="2120" to-port="0"/>
		<edge from-layer="2119" from-port="0" to-layer="2120" to-port="1"/>
		<edge from-layer="2120" from-port="2" to-layer="2122" to-port="0"/>
		<edge from-layer="2121" from-port="0" to-layer="2122" to-port="1"/>
		<edge from-layer="2113" from-port="1" to-layer="2123" to-port="0"/>
		<edge from-layer="2122" from-port="2" to-layer="2123" to-port="1"/>
		<edge from-layer="2034" from-port="2" to-layer="2125" to-port="0"/>
		<edge from-layer="2124" from-port="0" to-layer="2125" to-port="1"/>
		<edge from-layer="2114" from-port="1" to-layer="2128" to-port="0"/>
		<edge from-layer="2126" from-port="0" to-layer="2128" to-port="1"/>
		<edge from-layer="2127" from-port="0" to-layer="2128" to-port="2"/>
		<edge from-layer="2114" from-port="1" to-layer="2132" to-port="0"/>
		<edge from-layer="2130" from-port="0" to-layer="2132" to-port="1"/>
		<edge from-layer="2131" from-port="0" to-layer="2132" to-port="2"/>
		<edge from-layer="2129" from-port="0" to-layer="2134" to-port="0"/>
		<edge from-layer="2132" from-port="3" to-layer="2134" to-port="1"/>
		<edge from-layer="2133" from-port="0" to-layer="2134" to-port="2"/>
		<edge from-layer="2134" from-port="3" to-layer="2135" to-port="0"/>
		<edge from-layer="2128" from-port="3" to-layer="2135" to-port="1"/>
		<edge from-layer="2125" from-port="2" to-layer="2136" to-port="0"/>
		<edge from-layer="2135" from-port="2" to-layer="2136" to-port="1"/>
		<edge from-layer="2136" from-port="2" to-layer="2137" to-port="0"/>
		<edge from-layer="2123" from-port="2" to-layer="2139" to-port="0"/>
		<edge from-layer="2137" from-port="1" to-layer="2139" to-port="1"/>
		<edge from-layer="2138" from-port="0" to-layer="2139" to-port="2"/>
		<edge from-layer="2114" from-port="1" to-layer="2143" to-port="0"/>
		<edge from-layer="2141" from-port="0" to-layer="2143" to-port="1"/>
		<edge from-layer="2142" from-port="0" to-layer="2143" to-port="2"/>
		<edge from-layer="2140" from-port="0" to-layer="2144" to-port="0"/>
		<edge from-layer="2143" from-port="3" to-layer="2144" to-port="1"/>
		<edge from-layer="2139" from-port="3" to-layer="2145" to-port="0"/>
		<edge from-layer="2144" from-port="2" to-layer="2145" to-port="1"/>
		<edge from-layer="2136" from-port="2" to-layer="2146" to-port="0"/>
		<edge from-layer="2114" from-port="1" to-layer="2149" to-port="0"/>
		<edge from-layer="2147" from-port="0" to-layer="2149" to-port="1"/>
		<edge from-layer="2148" from-port="0" to-layer="2149" to-port="2"/>
		<edge from-layer="2146" from-port="1" to-layer="2150" to-port="0"/>
		<edge from-layer="2149" from-port="3" to-layer="2150" to-port="1"/>
		<edge from-layer="2145" from-port="2" to-layer="2151" to-port="0"/>
		<edge from-layer="2150" from-port="2" to-layer="2151" to-port="1"/>
		<edge from-layer="2151" from-port="2" to-layer="2153" to-port="0"/>
		<edge from-layer="2152" from-port="0" to-layer="2153" to-port="1"/>
		<edge from-layer="1985" from-port="2" to-layer="2154" to-port="0"/>
		<edge from-layer="2154" from-port="1" to-layer="2157" to-port="0"/>
		<edge from-layer="2155" from-port="0" to-layer="2157" to-port="1"/>
		<edge from-layer="2156" from-port="0" to-layer="2157" to-port="2"/>
		<edge from-layer="1991" from-port="1" to-layer="2160" to-port="0"/>
		<edge from-layer="2158" from-port="0" to-layer="2160" to-port="1"/>
		<edge from-layer="2159" from-port="0" to-layer="2160" to-port="2"/>
		<edge from-layer="2157" from-port="3" to-layer="2162" to-port="0"/>
		<edge from-layer="2160" from-port="3" to-layer="2162" to-port="1"/>
		<edge from-layer="2161" from-port="0" to-layer="2162" to-port="2"/>
		<edge from-layer="2153" from-port="2" to-layer="2163" to-port="0"/>
		<edge from-layer="2162" from-port="3" to-layer="2163" to-port="1"/>
		<edge from-layer="1985" from-port="2" to-layer="2018" to-port="0"/>
		<edge from-layer="2034" from-port="2" to-layer="2035" to-port="0"/>
		<edge from-layer="2163" from-port="2" to-layer="2164" to-port="0"/>
	</edges>
	<rt_info>
		<MO_version value="2022.3.0-9038-b84161848ea-releases/2022/3"/>
		<Runtime_version value="2022.3.0-9038-b84161848ea-releases/2022/3"/>
		<conversion_parameters>
			<framework value="onnx"/>
			<input value="image"/>
			<input_model value="DIR/model_ready.onnx"/>
			<input_shape value="[1, 3, 640, 640]"/>
			<mean_values value="[123.675, 116.28, 103.53]"/>
			<model_name value="model"/>
			<output value="boxes,labels,masks"/>
			<output_dir value="DIR"/>
			<scale_values value="[58.395, 57.12, 57.375]"/>
		</conversion_parameters>
		<legacy_frontend value="False"/>
		<model_info>
			<confidence_threshold value="0.6250000000000001"/>
			<iou_threshold value="0.5"/>
			<labels value="pallets"/>
			<model_type value="MaskRCNN"/>
		</model_info>
		<quantization_parameters/>
	</rt_info>
	<quantization_parameters>
		<config/>
		<version value="{}"/>
		<cli_params value="{}"/>
	</quantization_parameters>
</net>
