<?xml version="1.0"?>
<net name="torch_jit" version="11">
	<layers>
		<layer id="0" name="image" type="Parameter" version="opset1">
			<data shape="1,3,640,640" element_type="f32" />
			<rt_info>
				<attribute name="old_api_map_element_type" version="0" value="f16" />
			</rt_info>
			<output>
				<port id="0" precision="FP32" names="image">
					<dim>1</dim>
					<dim>3</dim>
					<dim>640</dim>
					<dim>640</dim>
				</port>
			</output>
		</layer>
		<layer id="1" name="Constant_9493_compressed" type="Const" version="opset1">
			<data element_type="f16" shape="" offset="0" size="2" />
			<output>
				<port id="0" precision="FP16" />
			</output>
		</layer>
		<layer id="2" name="Constant_9493" type="Convert" version="opset1">
			<data destination_type="f32" />
			<rt_info>
				<attribute name="decompression" version="0" />
			</rt_info>
			<input>
				<port id="0" precision="FP16" />
			</input>
			<output>
				<port id="1" precision="FP32" />
			</output>
		</layer>
		<layer id="3" name="/nncf_module/Constant_152" type="Const" version="opset1">
			<data element_type="i64" shape="" offset="2" size="8" />
			<output>
				<port id="0" precision="I64" names="/nncf_module/Constant_152_output_0" />
			</output>
		</layer>
		<layer id="4" name="/nncf_module/Flatten_2_compressed" type="Const" version="opset1">
			<data element_type="f16" shape="76800, 4" offset="10" size="614400" />
			<output>
				<port id="0" precision="FP16">
					<dim>76800</dim>
					<dim>4</dim>
				</port>
			</output>
		</layer>
		<layer id="5" name="/nncf_module/Flatten_2" type="Convert" version="opset1">
			<data destination_type="f32" />
			<rt_info>
				<attribute name="decompression" version="0" />
			</rt_info>
			<input>
				<port id="0" precision="FP16">
					<dim>76800</dim>
					<dim>4</dim>
				</port>
			</input>
			<output>
				<port id="1" precision="FP32" names="/nncf_module/Flatten_2_output_0">
					<dim>76800</dim>
					<dim>4</dim>
				</port>
			</output>
		</layer>
		<layer id="6" name="Constant_10485_compressed" type="Const" version="opset1">
			<data element_type="f16" shape="1, 3, 1, 1" offset="614410" size="6" />
			<output>
				<port id="0" precision="FP16">
					<dim>1</dim>
					<dim>3</dim>
					<dim>1</dim>
					<dim>1</dim>
				</port>
			</output>
		</layer>
		<layer id="7" name="Constant_10485" type="Convert" version="opset1">
			<data destination_type="f32" />
			<rt_info>
				<attribute name="decompression" version="0" />
			</rt_info>
			<input>
				<port id="0" precision="FP16">
					<dim>1</dim>
					<dim>3</dim>
					<dim>1</dim>
					<dim>1</dim>
				</port>
			</input>
			<output>
				<port id="1" precision="FP32">
					<dim>1</dim>
					<dim>3</dim>
					<dim>1</dim>
					<dim>1</dim>
				</port>
			</output>
		</layer>
		<layer id="8" name="Subtract_10486" type="Subtract" version="opset1">
			<data auto_broadcast="numpy" />
			<rt_info>
				<attribute name="preprocessing" version="0" />
			</rt_info>
			<input>
				<port id="0" precision="FP32">
					<dim>1</dim>
					<dim>3</dim>
					<dim>640</dim>
					<dim>640</dim>
				</port>
				<port id="1" precision="FP32">
					<dim>1</dim>
					<dim>3</dim>
					<dim>1</dim>
					<dim>1</dim>
				</port>
			</input>
			<output>
				<port id="2" precision="FP32">
					<dim>1</dim>
					<dim>3</dim>
					<dim>640</dim>
					<dim>640</dim>
				</port>
			</output>
		</layer>
		<layer id="9" name="Constant_90665_compressed" type="Const" version="opset1">
			<data element_type="f16" shape="1, 3, 1, 1" offset="614416" size="6" />
			<output>
				<port id="0" precision="FP16">
					<dim>1</dim>
					<dim>3</dim>
					<dim>1</dim>
					<dim>1</dim>
				</port>
			</output>
		</layer>
		<layer id="10" name="Constant_90665" type="Convert" version="opset1">
			<data destination_type="f32" />
			<rt_info>
				<attribute name="decompression" version="0" />
				<attribute name="preprocessing" version="0" />
			</rt_info>
			<input>
				<port id="0" precision="FP16">
					<dim>1</dim>
					<dim>3</dim>
					<dim>1</dim>
					<dim>1</dim>
				</port>
			</input>
			<output>
				<port id="1" precision="FP32">
					<dim>1</dim>
					<dim>3</dim>
					<dim>1</dim>
					<dim>1</dim>
				</port>
			</output>
		</layer>
		<layer id="11" name="Constant_90693_compressed" type="Const" version="opset1">
			<data element_type="f16" shape="1, 3, 1, 1" offset="614422" size="6" />
			<output>
				<port id="0" precision="FP16">
					<dim>1</dim>
					<dim>3</dim>
					<dim>1</dim>
					<dim>1</dim>
				</port>
			</output>
		</layer>
		<layer id="12" name="Constant_90693" type="Convert" version="opset1">
			<data destination_type="f32" />
			<rt_info>
				<attribute name="decompression" version="0" />
				<attribute name="preprocessing" version="0" />
			</rt_info>
			<input>
				<port id="0" precision="FP16">
					<dim>1</dim>
					<dim>3</dim>
					<dim>1</dim>
					<dim>1</dim>
				</port>
			</input>
			<output>
				<port id="1" precision="FP32">
					<dim>1</dim>
					<dim>3</dim>
					<dim>1</dim>
					<dim>1</dim>
				</port>
			</output>
		</layer>
		<layer id="13" name="Constant_91095_compressed" type="Const" version="opset1">
			<data element_type="f16" shape="1, 1, 1, 1" offset="614428" size="2" />
			<output>
				<port id="0" precision="FP16">
					<dim>1</dim>
					<dim>1</dim>
					<dim>1</dim>
					<dim>1</dim>
				</port>
			</output>
		</layer>
		<layer id="14" name="Constant_91095" type="Convert" version="opset1">
			<data destination_type="f32" />
			<rt_info>
				<attribute name="decompression" version="0" />
			</rt_info>
			<input>
				<port id="0" precision="FP16">
					<dim>1</dim>
					<dim>1</dim>
					<dim>1</dim>
					<dim>1</dim>
				</port>
			</input>
			<output>
				<port id="1" precision="FP32">
					<dim>1</dim>
					<dim>1</dim>
					<dim>1</dim>
					<dim>1</dim>
				</port>
			</output>
		</layer>
		<layer id="15" name="Constant_91096_compressed" type="Const" version="opset1">
			<data element_type="f16" shape="1, 1, 1, 1" offset="614430" size="2" />
			<output>
				<port id="0" precision="FP16">
					<dim>1</dim>
					<dim>1</dim>
					<dim>1</dim>
					<dim>1</dim>
				</port>
			</output>
		</layer>
		<layer id="16" name="Constant_91096" type="Convert" version="opset1">
			<data destination_type="f32" />
			<rt_info>
				<attribute name="decompression" version="0" />
			</rt_info>
			<input>
				<port id="0" precision="FP16">
					<dim>1</dim>
					<dim>1</dim>
					<dim>1</dim>
					<dim>1</dim>
				</port>
			</input>
			<output>
				<port id="1" precision="FP32">
					<dim>1</dim>
					<dim>1</dim>
					<dim>1</dim>
					<dim>1</dim>
				</port>
			</output>
		</layer>
		<layer id="17" name="//nncf_model_input_0|OUTPUT/FakeQuantize" type="FakeQuantize" version="opset1">
			<data levels="256" auto_broadcast="numpy" />
			<rt_info>
				<attribute name="preprocessing" version="0" />
			</rt_info>
			<input>
				<port id="0" precision="FP32">
					<dim>1</dim>
					<dim>3</dim>
					<dim>640</dim>
					<dim>640</dim>
				</port>
				<port id="1" precision="FP32">
					<dim>1</dim>
					<dim>3</dim>
					<dim>1</dim>
					<dim>1</dim>
				</port>
				<port id="2" precision="FP32">
					<dim>1</dim>
					<dim>3</dim>
					<dim>1</dim>
					<dim>1</dim>
				</port>
				<port id="3" precision="FP32">
					<dim>1</dim>
					<dim>1</dim>
					<dim>1</dim>
					<dim>1</dim>
				</port>
				<port id="4" precision="FP32">
					<dim>1</dim>
					<dim>1</dim>
					<dim>1</dim>
					<dim>1</dim>
				</port>
			</input>
			<output>
				<port id="5" precision="FP32" names="//nncf_model_input_0|OUTPUT/FakeQuantize_output_0">
					<dim>1</dim>
					<dim>3</dim>
					<dim>640</dim>
					<dim>640</dim>
				</port>
			</output>
		</layer>
		<layer id="18" name="/nncf_module/backbone/conv1/pre_ops.0/op/Constant" type="Const" version="opset1">
			<data element_type="i8" shape="64, 3, 7, 7" offset="614432" size="9408" />
			<output>
				<port id="0" precision="I8">
					<dim>64</dim>
					<dim>3</dim>
					<dim>7</dim>
					<dim>7</dim>
				</port>
			</output>
		</layer>
		<layer id="19" name="Convert_95452" type="Convert" version="opset1">
			<data destination_type="f32" />
			<input>
				<port id="0" precision="I8">
					<dim>64</dim>
					<dim>3</dim>
					<dim>7</dim>
					<dim>7</dim>
				</port>
			</input>
			<output>
				<port id="1" precision="FP32">
					<dim>64</dim>
					<dim>3</dim>
					<dim>7</dim>
					<dim>7</dim>
				</port>
			</output>
		</layer>
		<layer id="20" name="Constant_95389_compressed" type="Const" version="opset1">
			<data element_type="f16" shape="64, 1, 1, 1" offset="623840" size="128" />
			<output>
				<port id="0" precision="FP16">
					<dim>64</dim>
					<dim>1</dim>
					<dim>1</dim>
					<dim>1</dim>
				</port>
			</output>
		</layer>
		<layer id="21" name="Constant_95389" type="Convert" version="opset1">
			<data destination_type="f32" />
			<rt_info>
				<attribute name="decompression" version="0" />
			</rt_info>
			<input>
				<port id="0" precision="FP16">
					<dim>64</dim>
					<dim>1</dim>
					<dim>1</dim>
					<dim>1</dim>
				</port>
			</input>
			<output>
				<port id="1" precision="FP32">
					<dim>64</dim>
					<dim>1</dim>
					<dim>1</dim>
					<dim>1</dim>
				</port>
			</output>
		</layer>
		<layer id="22" name="Multiply_87618" type="Multiply" version="opset1">
			<data auto_broadcast="numpy" />
			<input>
				<port id="0" precision="FP32">
					<dim>64</dim>
					<dim>3</dim>
					<dim>7</dim>
					<dim>7</dim>
				</port>
				<port id="1" precision="FP32">
					<dim>64</dim>
					<dim>1</dim>
					<dim>1</dim>
					<dim>1</dim>
				</port>
			</input>
			<output>
				<port id="2" precision="FP32">
					<dim>64</dim>
					<dim>3</dim>
					<dim>7</dim>
					<dim>7</dim>
				</port>
			</output>
		</layer>
		<layer id="23" name="Multiply_87240" type="Convolution" version="opset1">
			<data strides="2, 2" dilations="1, 1" pads_begin="3, 3" pads_end="3, 3" auto_pad="explicit" />
			<input>
				<port id="0" precision="FP32">
					<dim>1</dim>
					<dim>3</dim>
					<dim>640</dim>
					<dim>640</dim>
				</port>
				<port id="1" precision="FP32">
					<dim>64</dim>
					<dim>3</dim>
					<dim>7</dim>
					<dim>7</dim>
				</port>
			</input>
			<output>
				<port id="2" precision="FP32">
					<dim>1</dim>
					<dim>64</dim>
					<dim>320</dim>
					<dim>320</dim>
				</port>
			</output>
		</layer>
		<layer id="24" name="Constant_87245_compressed" type="Const" version="opset1">
			<data element_type="f16" shape="1, 64, 1, 1" offset="623968" size="128" />
			<output>
				<port id="0" precision="FP16">
					<dim>1</dim>
					<dim>64</dim>
					<dim>1</dim>
					<dim>1</dim>
				</port>
			</output>
		</layer>
		<layer id="25" name="Constant_87245" type="Convert" version="opset1">
			<data destination_type="f32" />
			<rt_info>
				<attribute name="decompression" version="0" />
			</rt_info>
			<input>
				<port id="0" precision="FP16">
					<dim>1</dim>
					<dim>64</dim>
					<dim>1</dim>
					<dim>1</dim>
				</port>
			</input>
			<output>
				<port id="1" precision="FP32">
					<dim>1</dim>
					<dim>64</dim>
					<dim>1</dim>
					<dim>1</dim>
				</port>
			</output>
		</layer>
		<layer id="26" name="/nncf_module/backbone/bn1/BatchNormalization" type="Add" version="opset1">
			<data auto_broadcast="numpy" />
			<input>
				<port id="0" precision="FP32">
					<dim>1</dim>
					<dim>64</dim>
					<dim>320</dim>
					<dim>320</dim>
				</port>
				<port id="1" precision="FP32">
					<dim>1</dim>
					<dim>64</dim>
					<dim>1</dim>
					<dim>1</dim>
				</port>
			</input>
			<output>
				<port id="2" precision="FP32" names="/nncf_module/backbone/bn1/BatchNormalization_output_0">
					<dim>1</dim>
					<dim>64</dim>
					<dim>320</dim>
					<dim>320</dim>
				</port>
			</output>
		</layer>
		<layer id="27" name="Constant_91097_compressed" type="Const" version="opset1">
			<data element_type="f16" shape="1, 1, 1, 1" offset="0" size="2" />
			<output>
				<port id="0" precision="FP16">
					<dim>1</dim>
					<dim>1</dim>
					<dim>1</dim>
					<dim>1</dim>
				</port>
			</output>
		</layer>
		<layer id="28" name="Constant_91097" type="Convert" version="opset1">
			<data destination_type="f32" />
			<rt_info>
				<attribute name="decompression" version="0" />
			</rt_info>
			<input>
				<port id="0" precision="FP16">
					<dim>1</dim>
					<dim>1</dim>
					<dim>1</dim>
					<dim>1</dim>
				</port>
			</input>
			<output>
				<port id="1" precision="FP32">
					<dim>1</dim>
					<dim>1</dim>
					<dim>1</dim>
					<dim>1</dim>
				</port>
			</output>
		</layer>
		<layer id="29" name="Constant_91098_compressed" type="Const" version="opset1">
			<data element_type="f16" shape="1, 1, 1, 1" offset="624096" size="2" />
			<output>
				<port id="0" precision="FP16">
					<dim>1</dim>
					<dim>1</dim>
					<dim>1</dim>
					<dim>1</dim>
				</port>
			</output>
		</layer>
		<layer id="30" name="Constant_91098" type="Convert" version="opset1">
			<data destination_type="f32" />
			<rt_info>
				<attribute name="decompression" version="0" />
			</rt_info>
			<input>
				<port id="0" precision="FP16">
					<dim>1</dim>
					<dim>1</dim>
					<dim>1</dim>
					<dim>1</dim>
				</port>
			</input>
			<output>
				<port id="1" precision="FP32">
					<dim>1</dim>
					<dim>1</dim>
					<dim>1</dim>
					<dim>1</dim>
				</port>
			</output>
		</layer>
		<layer id="31" name="Constant_91099_compressed" type="Const" version="opset1">
			<data element_type="f16" shape="1, 1, 1, 1" offset="0" size="2" />
			<output>
				<port id="0" precision="FP16">
					<dim>1</dim>
					<dim>1</dim>
					<dim>1</dim>
					<dim>1</dim>
				</port>
			</output>
		</layer>
		<layer id="32" name="Constant_91099" type="Convert" version="opset1">
			<data destination_type="f32" />
			<rt_info>
				<attribute name="decompression" version="0" />
			</rt_info>
			<input>
				<port id="0" precision="FP16">
					<dim>1</dim>
					<dim>1</dim>
					<dim>1</dim>
					<dim>1</dim>
				</port>
			</input>
			<output>
				<port id="1" precision="FP32">
					<dim>1</dim>
					<dim>1</dim>
					<dim>1</dim>
					<dim>1</dim>
				</port>
			</output>
		</layer>
		<layer id="33" name="Constant_91100_compressed" type="Const" version="opset1">
			<data element_type="f16" shape="1, 1, 1, 1" offset="624096" size="2" />
			<output>
				<port id="0" precision="FP16">
					<dim>1</dim>
					<dim>1</dim>
					<dim>1</dim>
					<dim>1</dim>
				</port>
			</output>
		</layer>
		<layer id="34" name="Constant_91100" type="Convert" version="opset1">
			<data destination_type="f32" />
			<rt_info>
				<attribute name="decompression" version="0" />
			</rt_info>
			<input>
				<port id="0" precision="FP16">
					<dim>1</dim>
					<dim>1</dim>
					<dim>1</dim>
					<dim>1</dim>
				</port>
			</input>
			<output>
				<port id="1" precision="FP32">
					<dim>1</dim>
					<dim>1</dim>
					<dim>1</dim>
					<dim>1</dim>
				</port>
			</output>
		</layer>
		<layer id="35" name="/nncf_module/backbone/relu/CustomMaskRCNN/ResNet[backbone]/ReLU[relu]/relu__0|OUTPUT/FakeQuantize" type="FakeQuantize" version="opset1">
			<data levels="256" auto_broadcast="numpy" />
			<input>
				<port id="0" precision="FP32">
					<dim>1</dim>
					<dim>64</dim>
					<dim>320</dim>
					<dim>320</dim>
				</port>
				<port id="1" precision="FP32">
					<dim>1</dim>
					<dim>1</dim>
					<dim>1</dim>
					<dim>1</dim>
				</port>
				<port id="2" precision="FP32">
					<dim>1</dim>
					<dim>1</dim>
					<dim>1</dim>
					<dim>1</dim>
				</port>
				<port id="3" precision="FP32">
					<dim>1</dim>
					<dim>1</dim>
					<dim>1</dim>
					<dim>1</dim>
				</port>
				<port id="4" precision="FP32">
					<dim>1</dim>
					<dim>1</dim>
					<dim>1</dim>
					<dim>1</dim>
				</port>
			</input>
			<output>
				<port id="5" precision="FP32" names="/nncf_module/backbone/relu/CustomMaskRCNN/ResNet[backbone]/ReLU[relu]/relu__0|OUTPUT/FakeQuantize_output_0">
					<dim>1</dim>
					<dim>64</dim>
					<dim>320</dim>
					<dim>320</dim>
				</port>
			</output>
		</layer>
		<layer id="36" name="/nncf_module/backbone/maxpool/MaxPool" type="MaxPool" version="opset8">
			<data strides="2, 2" dilations="1, 1" pads_begin="1, 1" pads_end="1, 1" kernel="3, 3" rounding_type="floor" auto_pad="explicit" index_element_type="i64" axis="0" />
			<input>
				<port id="0" precision="FP32">
					<dim>1</dim>
					<dim>64</dim>
					<dim>320</dim>
					<dim>320</dim>
				</port>
			</input>
			<output>
				<port id="1" precision="FP32" names="/nncf_module/backbone/maxpool/MaxPool_output_0">
					<dim>1</dim>
					<dim>64</dim>
					<dim>160</dim>
					<dim>160</dim>
				</port>
				<port id="2" precision="I64">
					<dim>1</dim>
					<dim>64</dim>
					<dim>160</dim>
					<dim>160</dim>
				</port>
			</output>
		</layer>
		<layer id="37" name="/nncf_module/backbone/layer1/layer1.0/conv1/pre_ops.0/op/Constant" type="Const" version="opset1">
			<data element_type="i8" shape="64, 64, 1, 1" offset="624098" size="4096" />
			<output>
				<port id="0" precision="I8">
					<dim>64</dim>
					<dim>64</dim>
					<dim>1</dim>
					<dim>1</dim>
				</port>
			</output>
		</layer>
		<layer id="38" name="Convert_95573" type="Convert" version="opset1">
			<data destination_type="f32" />
			<input>
				<port id="0" precision="I8">
					<dim>64</dim>
					<dim>64</dim>
					<dim>1</dim>
					<dim>1</dim>
				</port>
			</input>
			<output>
				<port id="1" precision="FP32">
					<dim>64</dim>
					<dim>64</dim>
					<dim>1</dim>
					<dim>1</dim>
				</port>
			</output>
		</layer>
		<layer id="39" name="Constant_95510_compressed" type="Const" version="opset1">
			<data element_type="f16" shape="64, 1, 1, 1" offset="628194" size="128" />
			<output>
				<port id="0" precision="FP16">
					<dim>64</dim>
					<dim>1</dim>
					<dim>1</dim>
					<dim>1</dim>
				</port>
			</output>
		</layer>
		<layer id="40" name="Constant_95510" type="Convert" version="opset1">
			<data destination_type="f32" />
			<rt_info>
				<attribute name="decompression" version="0" />
			</rt_info>
			<input>
				<port id="0" precision="FP16">
					<dim>64</dim>
					<dim>1</dim>
					<dim>1</dim>
					<dim>1</dim>
				</port>
			</input>
			<output>
				<port id="1" precision="FP32">
					<dim>64</dim>
					<dim>1</dim>
					<dim>1</dim>
					<dim>1</dim>
				</port>
			</output>
		</layer>
		<layer id="41" name="Multiply_87627" type="Multiply" version="opset1">
			<data auto_broadcast="numpy" />
			<input>
				<port id="0" precision="FP32">
					<dim>64</dim>
					<dim>64</dim>
					<dim>1</dim>
					<dim>1</dim>
				</port>
				<port id="1" precision="FP32">
					<dim>64</dim>
					<dim>1</dim>
					<dim>1</dim>
					<dim>1</dim>
				</port>
			</input>
			<output>
				<port id="2" precision="FP32">
					<dim>64</dim>
					<dim>64</dim>
					<dim>1</dim>
					<dim>1</dim>
				</port>
			</output>
		</layer>
		<layer id="42" name="Multiply_87247" type="Convolution" version="opset1">
			<data strides="1, 1" dilations="1, 1" pads_begin="0, 0" pads_end="0, 0" auto_pad="explicit" />
			<input>
				<port id="0" precision="FP32">
					<dim>1</dim>
					<dim>64</dim>
					<dim>160</dim>
					<dim>160</dim>
				</port>
				<port id="1" precision="FP32">
					<dim>64</dim>
					<dim>64</dim>
					<dim>1</dim>
					<dim>1</dim>
				</port>
			</input>
			<output>
				<port id="2" precision="FP32">
					<dim>1</dim>
					<dim>64</dim>
					<dim>160</dim>
					<dim>160</dim>
				</port>
			</output>
		</layer>
		<layer id="43" name="Constant_87252_compressed" type="Const" version="opset1">
			<data element_type="f16" shape="1, 64, 1, 1" offset="628322" size="128" />
			<output>
				<port id="0" precision="FP16">
					<dim>1</dim>
					<dim>64</dim>
					<dim>1</dim>
					<dim>1</dim>
				</port>
			</output>
		</layer>
		<layer id="44" name="Constant_87252" type="Convert" version="opset1">
			<data destination_type="f32" />
			<rt_info>
				<attribute name="decompression" version="0" />
			</rt_info>
			<input>
				<port id="0" precision="FP16">
					<dim>1</dim>
					<dim>64</dim>
					<dim>1</dim>
					<dim>1</dim>
				</port>
			</input>
			<output>
				<port id="1" precision="FP32">
					<dim>1</dim>
					<dim>64</dim>
					<dim>1</dim>
					<dim>1</dim>
				</port>
			</output>
		</layer>
		<layer id="45" name="/nncf_module/backbone/layer1/layer1.0/bn1/BatchNormalization" type="Add" version="opset1">
			<data auto_broadcast="numpy" />
			<input>
				<port id="0" precision="FP32">
					<dim>1</dim>
					<dim>64</dim>
					<dim>160</dim>
					<dim>160</dim>
				</port>
				<port id="1" precision="FP32">
					<dim>1</dim>
					<dim>64</dim>
					<dim>1</dim>
					<dim>1</dim>
				</port>
			</input>
			<output>
				<port id="2" precision="FP32" names="/nncf_module/backbone/layer1/layer1.0/bn1/BatchNormalization_output_0">
					<dim>1</dim>
					<dim>64</dim>
					<dim>160</dim>
					<dim>160</dim>
				</port>
			</output>
		</layer>
		<layer id="46" name="Constant_91101_compressed" type="Const" version="opset1">
			<data element_type="f16" shape="1, 1, 1, 1" offset="0" size="2" />
			<output>
				<port id="0" precision="FP16">
					<dim>1</dim>
					<dim>1</dim>
					<dim>1</dim>
					<dim>1</dim>
				</port>
			</output>
		</layer>
		<layer id="47" name="Constant_91101" type="Convert" version="opset1">
			<data destination_type="f32" />
			<rt_info>
				<attribute name="decompression" version="0" />
			</rt_info>
			<input>
				<port id="0" precision="FP16">
					<dim>1</dim>
					<dim>1</dim>
					<dim>1</dim>
					<dim>1</dim>
				</port>
			</input>
			<output>
				<port id="1" precision="FP32">
					<dim>1</dim>
					<dim>1</dim>
					<dim>1</dim>
					<dim>1</dim>
				</port>
			</output>
		</layer>
		<layer id="48" name="Constant_91102_compressed" type="Const" version="opset1">
			<data element_type="f16" shape="1, 1, 1, 1" offset="628450" size="2" />
			<output>
				<port id="0" precision="FP16">
					<dim>1</dim>
					<dim>1</dim>
					<dim>1</dim>
					<dim>1</dim>
				</port>
			</output>
		</layer>
		<layer id="49" name="Constant_91102" type="Convert" version="opset1">
			<data destination_type="f32" />
			<rt_info>
				<attribute name="decompression" version="0" />
			</rt_info>
			<input>
				<port id="0" precision="FP16">
					<dim>1</dim>
					<dim>1</dim>
					<dim>1</dim>
					<dim>1</dim>
				</port>
			</input>
			<output>
				<port id="1" precision="FP32">
					<dim>1</dim>
					<dim>1</dim>
					<dim>1</dim>
					<dim>1</dim>
				</port>
			</output>
		</layer>
		<layer id="50" name="Constant_91103_compressed" type="Const" version="opset1">
			<data element_type="f16" shape="1, 1, 1, 1" offset="0" size="2" />
			<output>
				<port id="0" precision="FP16">
					<dim>1</dim>
					<dim>1</dim>
					<dim>1</dim>
					<dim>1</dim>
				</port>
			</output>
		</layer>
		<layer id="51" name="Constant_91103" type="Convert" version="opset1">
			<data destination_type="f32" />
			<rt_info>
				<attribute name="decompression" version="0" />
			</rt_info>
			<input>
				<port id="0" precision="FP16">
					<dim>1</dim>
					<dim>1</dim>
					<dim>1</dim>
					<dim>1</dim>
				</port>
			</input>
			<output>
				<port id="1" precision="FP32">
					<dim>1</dim>
					<dim>1</dim>
					<dim>1</dim>
					<dim>1</dim>
				</port>
			</output>
		</layer>
		<layer id="52" name="Constant_91104_compressed" type="Const" version="opset1">
			<data element_type="f16" shape="1, 1, 1, 1" offset="628450" size="2" />
			<output>
				<port id="0" precision="FP16">
					<dim>1</dim>
					<dim>1</dim>
					<dim>1</dim>
					<dim>1</dim>
				</port>
			</output>
		</layer>
		<layer id="53" name="Constant_91104" type="Convert" version="opset1">
			<data destination_type="f32" />
			<rt_info>
				<attribute name="decompression" version="0" />
			</rt_info>
			<input>
				<port id="0" precision="FP16">
					<dim>1</dim>
					<dim>1</dim>
					<dim>1</dim>
					<dim>1</dim>
				</port>
			</input>
			<output>
				<port id="1" precision="FP32">
					<dim>1</dim>
					<dim>1</dim>
					<dim>1</dim>
					<dim>1</dim>
				</port>
			</output>
		</layer>
		<layer id="54" name="/nncf_module/backbone/layer1/layer1.0/relu/CustomMaskRCNN/ResNet[backbone]/ResLayer[layer1]/Bottleneck[0]/ReLU[relu]/relu__0|OUTPUT/FakeQuantize" type="FakeQuantize" version="opset1">
			<data levels="256" auto_broadcast="numpy" />
			<input>
				<port id="0" precision="FP32">
					<dim>1</dim>
					<dim>64</dim>
					<dim>160</dim>
					<dim>160</dim>
				</port>
				<port id="1" precision="FP32">
					<dim>1</dim>
					<dim>1</dim>
					<dim>1</dim>
					<dim>1</dim>
				</port>
				<port id="2" precision="FP32">
					<dim>1</dim>
					<dim>1</dim>
					<dim>1</dim>
					<dim>1</dim>
				</port>
				<port id="3" precision="FP32">
					<dim>1</dim>
					<dim>1</dim>
					<dim>1</dim>
					<dim>1</dim>
				</port>
				<port id="4" precision="FP32">
					<dim>1</dim>
					<dim>1</dim>
					<dim>1</dim>
					<dim>1</dim>
				</port>
			</input>
			<output>
				<port id="5" precision="FP32" names="/nncf_module/backbone/layer1/layer1.0/relu/CustomMaskRCNN/ResNet[backbone]/ResLayer[layer1]/Bottleneck[0]/ReLU[relu]/relu__0|OUTPUT/FakeQuantize_output_0">
					<dim>1</dim>
					<dim>64</dim>
					<dim>160</dim>
					<dim>160</dim>
				</port>
			</output>
		</layer>
		<layer id="55" name="/nncf_module/backbone/layer1/layer1.0/conv2/pre_ops.0/op/Constant" type="Const" version="opset1">
			<data element_type="i8" shape="64, 64, 3, 3" offset="628452" size="36864" />
			<output>
				<port id="0" precision="I8">
					<dim>64</dim>
					<dim>64</dim>
					<dim>3</dim>
					<dim>3</dim>
				</port>
			</output>
		</layer>
		<layer id="56" name="Convert_95694" type="Convert" version="opset1">
			<data destination_type="f32" />
			<input>
				<port id="0" precision="I8">
					<dim>64</dim>
					<dim>64</dim>
					<dim>3</dim>
					<dim>3</dim>
				</port>
			</input>
			<output>
				<port id="1" precision="FP32">
					<dim>64</dim>
					<dim>64</dim>
					<dim>3</dim>
					<dim>3</dim>
				</port>
			</output>
		</layer>
		<layer id="57" name="Constant_95631_compressed" type="Const" version="opset1">
			<data element_type="f16" shape="64, 1, 1, 1" offset="665316" size="128" />
			<output>
				<port id="0" precision="FP16">
					<dim>64</dim>
					<dim>1</dim>
					<dim>1</dim>
					<dim>1</dim>
				</port>
			</output>
		</layer>
		<layer id="58" name="Constant_95631" type="Convert" version="opset1">
			<data destination_type="f32" />
			<rt_info>
				<attribute name="decompression" version="0" />
			</rt_info>
			<input>
				<port id="0" precision="FP16">
					<dim>64</dim>
					<dim>1</dim>
					<dim>1</dim>
					<dim>1</dim>
				</port>
			</input>
			<output>
				<port id="1" precision="FP32">
					<dim>64</dim>
					<dim>1</dim>
					<dim>1</dim>
					<dim>1</dim>
				</port>
			</output>
		</layer>
		<layer id="59" name="Multiply_87636" type="Multiply" version="opset1">
			<data auto_broadcast="numpy" />
			<input>
				<port id="0" precision="FP32">
					<dim>64</dim>
					<dim>64</dim>
					<dim>3</dim>
					<dim>3</dim>
				</port>
				<port id="1" precision="FP32">
					<dim>64</dim>
					<dim>1</dim>
					<dim>1</dim>
					<dim>1</dim>
				</port>
			</input>
			<output>
				<port id="2" precision="FP32">
					<dim>64</dim>
					<dim>64</dim>
					<dim>3</dim>
					<dim>3</dim>
				</port>
			</output>
		</layer>
		<layer id="60" name="Multiply_87254" type="Convolution" version="opset1">
			<data strides="1, 1" dilations="1, 1" pads_begin="1, 1" pads_end="1, 1" auto_pad="explicit" />
			<input>
				<port id="0" precision="FP32">
					<dim>1</dim>
					<dim>64</dim>
					<dim>160</dim>
					<dim>160</dim>
				</port>
				<port id="1" precision="FP32">
					<dim>64</dim>
					<dim>64</dim>
					<dim>3</dim>
					<dim>3</dim>
				</port>
			</input>
			<output>
				<port id="2" precision="FP32">
					<dim>1</dim>
					<dim>64</dim>
					<dim>160</dim>
					<dim>160</dim>
				</port>
			</output>
		</layer>
		<layer id="61" name="Constant_87259_compressed" type="Const" version="opset1">
			<data element_type="f16" shape="1, 64, 1, 1" offset="665444" size="128" />
			<output>
				<port id="0" precision="FP16">
					<dim>1</dim>
					<dim>64</dim>
					<dim>1</dim>
					<dim>1</dim>
				</port>
			</output>
		</layer>
		<layer id="62" name="Constant_87259" type="Convert" version="opset1">
			<data destination_type="f32" />
			<rt_info>
				<attribute name="decompression" version="0" />
			</rt_info>
			<input>
				<port id="0" precision="FP16">
					<dim>1</dim>
					<dim>64</dim>
					<dim>1</dim>
					<dim>1</dim>
				</port>
			</input>
			<output>
				<port id="1" precision="FP32">
					<dim>1</dim>
					<dim>64</dim>
					<dim>1</dim>
					<dim>1</dim>
				</port>
			</output>
		</layer>
		<layer id="63" name="/nncf_module/backbone/layer1/layer1.0/bn2/BatchNormalization" type="Add" version="opset1">
			<data auto_broadcast="numpy" />
			<input>
				<port id="0" precision="FP32">
					<dim>1</dim>
					<dim>64</dim>
					<dim>160</dim>
					<dim>160</dim>
				</port>
				<port id="1" precision="FP32">
					<dim>1</dim>
					<dim>64</dim>
					<dim>1</dim>
					<dim>1</dim>
				</port>
			</input>
			<output>
				<port id="2" precision="FP32" names="/nncf_module/backbone/layer1/layer1.0/bn2/BatchNormalization_output_0">
					<dim>1</dim>
					<dim>64</dim>
					<dim>160</dim>
					<dim>160</dim>
				</port>
			</output>
		</layer>
		<layer id="64" name="Constant_91105_compressed" type="Const" version="opset1">
			<data element_type="f16" shape="1, 1, 1, 1" offset="0" size="2" />
			<output>
				<port id="0" precision="FP16">
					<dim>1</dim>
					<dim>1</dim>
					<dim>1</dim>
					<dim>1</dim>
				</port>
			</output>
		</layer>
		<layer id="65" name="Constant_91105" type="Convert" version="opset1">
			<data destination_type="f32" />
			<rt_info>
				<attribute name="decompression" version="0" />
			</rt_info>
			<input>
				<port id="0" precision="FP16">
					<dim>1</dim>
					<dim>1</dim>
					<dim>1</dim>
					<dim>1</dim>
				</port>
			</input>
			<output>
				<port id="1" precision="FP32">
					<dim>1</dim>
					<dim>1</dim>
					<dim>1</dim>
					<dim>1</dim>
				</port>
			</output>
		</layer>
		<layer id="66" name="Constant_91106_compressed" type="Const" version="opset1">
			<data element_type="f16" shape="1, 1, 1, 1" offset="665572" size="2" />
			<output>
				<port id="0" precision="FP16">
					<dim>1</dim>
					<dim>1</dim>
					<dim>1</dim>
					<dim>1</dim>
				</port>
			</output>
		</layer>
		<layer id="67" name="Constant_91106" type="Convert" version="opset1">
			<data destination_type="f32" />
			<rt_info>
				<attribute name="decompression" version="0" />
			</rt_info>
			<input>
				<port id="0" precision="FP16">
					<dim>1</dim>
					<dim>1</dim>
					<dim>1</dim>
					<dim>1</dim>
				</port>
			</input>
			<output>
				<port id="1" precision="FP32">
					<dim>1</dim>
					<dim>1</dim>
					<dim>1</dim>
					<dim>1</dim>
				</port>
			</output>
		</layer>
		<layer id="68" name="Constant_91107_compressed" type="Const" version="opset1">
			<data element_type="f16" shape="1, 1, 1, 1" offset="0" size="2" />
			<output>
				<port id="0" precision="FP16">
					<dim>1</dim>
					<dim>1</dim>
					<dim>1</dim>
					<dim>1</dim>
				</port>
			</output>
		</layer>
		<layer id="69" name="Constant_91107" type="Convert" version="opset1">
			<data destination_type="f32" />
			<rt_info>
				<attribute name="decompression" version="0" />
			</rt_info>
			<input>
				<port id="0" precision="FP16">
					<dim>1</dim>
					<dim>1</dim>
					<dim>1</dim>
					<dim>1</dim>
				</port>
			</input>
			<output>
				<port id="1" precision="FP32">
					<dim>1</dim>
					<dim>1</dim>
					<dim>1</dim>
					<dim>1</dim>
				</port>
			</output>
		</layer>
		<layer id="70" name="Constant_91108_compressed" type="Const" version="opset1">
			<data element_type="f16" shape="1, 1, 1, 1" offset="665572" size="2" />
			<output>
				<port id="0" precision="FP16">
					<dim>1</dim>
					<dim>1</dim>
					<dim>1</dim>
					<dim>1</dim>
				</port>
			</output>
		</layer>
		<layer id="71" name="Constant_91108" type="Convert" version="opset1">
			<data destination_type="f32" />
			<rt_info>
				<attribute name="decompression" version="0" />
			</rt_info>
			<input>
				<port id="0" precision="FP16">
					<dim>1</dim>
					<dim>1</dim>
					<dim>1</dim>
					<dim>1</dim>
				</port>
			</input>
			<output>
				<port id="1" precision="FP32">
					<dim>1</dim>
					<dim>1</dim>
					<dim>1</dim>
					<dim>1</dim>
				</port>
			</output>
		</layer>
		<layer id="72" name="/nncf_module/backbone/layer1/layer1.0/relu/CustomMaskRCNN/ResNet[backbone]/ResLayer[layer1]/Bottleneck[0]/ReLU[relu]/relu__1|OUTPUT/FakeQuantize" type="FakeQuantize" version="opset1">
			<data levels="256" auto_broadcast="numpy" />
			<input>
				<port id="0" precision="FP32">
					<dim>1</dim>
					<dim>64</dim>
					<dim>160</dim>
					<dim>160</dim>
				</port>
				<port id="1" precision="FP32">
					<dim>1</dim>
					<dim>1</dim>
					<dim>1</dim>
					<dim>1</dim>
				</port>
				<port id="2" precision="FP32">
					<dim>1</dim>
					<dim>1</dim>
					<dim>1</dim>
					<dim>1</dim>
				</port>
				<port id="3" precision="FP32">
					<dim>1</dim>
					<dim>1</dim>
					<dim>1</dim>
					<dim>1</dim>
				</port>
				<port id="4" precision="FP32">
					<dim>1</dim>
					<dim>1</dim>
					<dim>1</dim>
					<dim>1</dim>
				</port>
			</input>
			<output>
				<port id="5" precision="FP32" names="/nncf_module/backbone/layer1/layer1.0/relu/CustomMaskRCNN/ResNet[backbone]/ResLayer[layer1]/Bottleneck[0]/ReLU[relu]/relu__1|OUTPUT/FakeQuantize_output_0">
					<dim>1</dim>
					<dim>64</dim>
					<dim>160</dim>
					<dim>160</dim>
				</port>
			</output>
		</layer>
		<layer id="73" name="/nncf_module/backbone/layer1/layer1.0/conv3/pre_ops.0/op/Constant" type="Const" version="opset1">
			<data element_type="i8" shape="256, 64, 1, 1" offset="665574" size="16384" />
			<output>
				<port id="0" precision="I8">
					<dim>256</dim>
					<dim>64</dim>
					<dim>1</dim>
					<dim>1</dim>
				</port>
			</output>
		</layer>
		<layer id="74" name="Convert_95815" type="Convert" version="opset1">
			<data destination_type="f32" />
			<input>
				<port id="0" precision="I8">
					<dim>256</dim>
					<dim>64</dim>
					<dim>1</dim>
					<dim>1</dim>
				</port>
			</input>
			<output>
				<port id="1" precision="FP32">
					<dim>256</dim>
					<dim>64</dim>
					<dim>1</dim>
					<dim>1</dim>
				</port>
			</output>
		</layer>
		<layer id="75" name="Constant_95752_compressed" type="Const" version="opset1">
			<data element_type="f16" shape="256, 1, 1, 1" offset="681958" size="512" />
			<output>
				<port id="0" precision="FP16">
					<dim>256</dim>
					<dim>1</dim>
					<dim>1</dim>
					<dim>1</dim>
				</port>
			</output>
		</layer>
		<layer id="76" name="Constant_95752" type="Convert" version="opset1">
			<data destination_type="f32" />
			<rt_info>
				<attribute name="decompression" version="0" />
			</rt_info>
			<input>
				<port id="0" precision="FP16">
					<dim>256</dim>
					<dim>1</dim>
					<dim>1</dim>
					<dim>1</dim>
				</port>
			</input>
			<output>
				<port id="1" precision="FP32">
					<dim>256</dim>
					<dim>1</dim>
					<dim>1</dim>
					<dim>1</dim>
				</port>
			</output>
		</layer>
		<layer id="77" name="Multiply_87645" type="Multiply" version="opset1">
			<data auto_broadcast="numpy" />
			<input>
				<port id="0" precision="FP32">
					<dim>256</dim>
					<dim>64</dim>
					<dim>1</dim>
					<dim>1</dim>
				</port>
				<port id="1" precision="FP32">
					<dim>256</dim>
					<dim>1</dim>
					<dim>1</dim>
					<dim>1</dim>
				</port>
			</input>
			<output>
				<port id="2" precision="FP32">
					<dim>256</dim>
					<dim>64</dim>
					<dim>1</dim>
					<dim>1</dim>
				</port>
			</output>
		</layer>
		<layer id="78" name="Multiply_87261" type="Convolution" version="opset1">
			<data strides="1, 1" dilations="1, 1" pads_begin="0, 0" pads_end="0, 0" auto_pad="explicit" />
			<input>
				<port id="0" precision="FP32">
					<dim>1</dim>
					<dim>64</dim>
					<dim>160</dim>
					<dim>160</dim>
				</port>
				<port id="1" precision="FP32">
					<dim>256</dim>
					<dim>64</dim>
					<dim>1</dim>
					<dim>1</dim>
				</port>
			</input>
			<output>
				<port id="2" precision="FP32">
					<dim>1</dim>
					<dim>256</dim>
					<dim>160</dim>
					<dim>160</dim>
				</port>
			</output>
		</layer>
		<layer id="79" name="Constant_87266_compressed" type="Const" version="opset1">
			<data element_type="f16" shape="1, 256, 1, 1" offset="682470" size="512" />
			<output>
				<port id="0" precision="FP16">
					<dim>1</dim>
					<dim>256</dim>
					<dim>1</dim>
					<dim>1</dim>
				</port>
			</output>
		</layer>
		<layer id="80" name="Constant_87266" type="Convert" version="opset1">
			<data destination_type="f32" />
			<rt_info>
				<attribute name="decompression" version="0" />
			</rt_info>
			<input>
				<port id="0" precision="FP16">
					<dim>1</dim>
					<dim>256</dim>
					<dim>1</dim>
					<dim>1</dim>
				</port>
			</input>
			<output>
				<port id="1" precision="FP32">
					<dim>1</dim>
					<dim>256</dim>
					<dim>1</dim>
					<dim>1</dim>
				</port>
			</output>
		</layer>
		<layer id="81" name="/nncf_module/backbone/layer1/layer1.0/bn3/BatchNormalization" type="Add" version="opset1">
			<data auto_broadcast="numpy" />
			<input>
				<port id="0" precision="FP32">
					<dim>1</dim>
					<dim>256</dim>
					<dim>160</dim>
					<dim>160</dim>
				</port>
				<port id="1" precision="FP32">
					<dim>1</dim>
					<dim>256</dim>
					<dim>1</dim>
					<dim>1</dim>
				</port>
			</input>
			<output>
				<port id="2" precision="FP32" names="/nncf_module/backbone/layer1/layer1.0/bn3/BatchNormalization_output_0">
					<dim>1</dim>
					<dim>256</dim>
					<dim>160</dim>
					<dim>160</dim>
				</port>
			</output>
		</layer>
		<layer id="82" name="Constant_91109_compressed" type="Const" version="opset1">
			<data element_type="f16" shape="1, 1, 1, 1" offset="682982" size="2" />
			<output>
				<port id="0" precision="FP16">
					<dim>1</dim>
					<dim>1</dim>
					<dim>1</dim>
					<dim>1</dim>
				</port>
			</output>
		</layer>
		<layer id="83" name="Constant_91109" type="Convert" version="opset1">
			<data destination_type="f32" />
			<rt_info>
				<attribute name="decompression" version="0" />
			</rt_info>
			<input>
				<port id="0" precision="FP16">
					<dim>1</dim>
					<dim>1</dim>
					<dim>1</dim>
					<dim>1</dim>
				</port>
			</input>
			<output>
				<port id="1" precision="FP32">
					<dim>1</dim>
					<dim>1</dim>
					<dim>1</dim>
					<dim>1</dim>
				</port>
			</output>
		</layer>
		<layer id="84" name="Constant_91110_compressed" type="Const" version="opset1">
			<data element_type="f16" shape="1, 1, 1, 1" offset="682984" size="2" />
			<output>
				<port id="0" precision="FP16">
					<dim>1</dim>
					<dim>1</dim>
					<dim>1</dim>
					<dim>1</dim>
				</port>
			</output>
		</layer>
		<layer id="85" name="Constant_91110" type="Convert" version="opset1">
			<data destination_type="f32" />
			<rt_info>
				<attribute name="decompression" version="0" />
			</rt_info>
			<input>
				<port id="0" precision="FP16">
					<dim>1</dim>
					<dim>1</dim>
					<dim>1</dim>
					<dim>1</dim>
				</port>
			</input>
			<output>
				<port id="1" precision="FP32">
					<dim>1</dim>
					<dim>1</dim>
					<dim>1</dim>
					<dim>1</dim>
				</port>
			</output>
		</layer>
		<layer id="86" name="Constant_91111_compressed" type="Const" version="opset1">
			<data element_type="f16" shape="1, 1, 1, 1" offset="682982" size="2" />
			<output>
				<port id="0" precision="FP16">
					<dim>1</dim>
					<dim>1</dim>
					<dim>1</dim>
					<dim>1</dim>
				</port>
			</output>
		</layer>
		<layer id="87" name="Constant_91111" type="Convert" version="opset1">
			<data destination_type="f32" />
			<rt_info>
				<attribute name="decompression" version="0" />
			</rt_info>
			<input>
				<port id="0" precision="FP16">
					<dim>1</dim>
					<dim>1</dim>
					<dim>1</dim>
					<dim>1</dim>
				</port>
			</input>
			<output>
				<port id="1" precision="FP32">
					<dim>1</dim>
					<dim>1</dim>
					<dim>1</dim>
					<dim>1</dim>
				</port>
			</output>
		</layer>
		<layer id="88" name="Constant_91112_compressed" type="Const" version="opset1">
			<data element_type="f16" shape="1, 1, 1, 1" offset="682984" size="2" />
			<output>
				<port id="0" precision="FP16">
					<dim>1</dim>
					<dim>1</dim>
					<dim>1</dim>
					<dim>1</dim>
				</port>
			</output>
		</layer>
		<layer id="89" name="Constant_91112" type="Convert" version="opset1">
			<data destination_type="f32" />
			<rt_info>
				<attribute name="decompression" version="0" />
			</rt_info>
			<input>
				<port id="0" precision="FP16">
					<dim>1</dim>
					<dim>1</dim>
					<dim>1</dim>
					<dim>1</dim>
				</port>
			</input>
			<output>
				<port id="1" precision="FP32">
					<dim>1</dim>
					<dim>1</dim>
					<dim>1</dim>
					<dim>1</dim>
				</port>
			</output>
		</layer>
		<layer id="90" name="/nncf_module/backbone/layer1/layer1.0/bn3/CustomMaskRCNN/ResNet[backbone]/ResLayer[layer1]/Bottleneck[0]/NNCFBatchNorm2d[bn3]/batch_norm_0|OUTPUT/FakeQuantize" type="FakeQuantize" version="opset1">
			<data levels="256" auto_broadcast="numpy" />
			<input>
				<port id="0" precision="FP32">
					<dim>1</dim>
					<dim>256</dim>
					<dim>160</dim>
					<dim>160</dim>
				</port>
				<port id="1" precision="FP32">
					<dim>1</dim>
					<dim>1</dim>
					<dim>1</dim>
					<dim>1</dim>
				</port>
				<port id="2" precision="FP32">
					<dim>1</dim>
					<dim>1</dim>
					<dim>1</dim>
					<dim>1</dim>
				</port>
				<port id="3" precision="FP32">
					<dim>1</dim>
					<dim>1</dim>
					<dim>1</dim>
					<dim>1</dim>
				</port>
				<port id="4" precision="FP32">
					<dim>1</dim>
					<dim>1</dim>
					<dim>1</dim>
					<dim>1</dim>
				</port>
			</input>
			<output>
				<port id="5" precision="FP32" names="/nncf_module/backbone/layer1/layer1.0/bn3/CustomMaskRCNN/ResNet[backbone]/ResLayer[layer1]/Bottleneck[0]/NNCFBatchNorm2d[bn3]/batch_norm_0|OUTPUT/FakeQuantize_output_0">
					<dim>1</dim>
					<dim>256</dim>
					<dim>160</dim>
					<dim>160</dim>
				</port>
			</output>
		</layer>
		<layer id="91" name="/nncf_module/backbone/layer1/layer1.0/downsample/downsample.0/pre_ops.0/op/Constant" type="Const" version="opset1">
			<data element_type="i8" shape="256, 64, 1, 1" offset="682986" size="16384" />
			<output>
				<port id="0" precision="I8">
					<dim>256</dim>
					<dim>64</dim>
					<dim>1</dim>
					<dim>1</dim>
				</port>
			</output>
		</layer>
		<layer id="92" name="Convert_95936" type="Convert" version="opset1">
			<data destination_type="f32" />
			<input>
				<port id="0" precision="I8">
					<dim>256</dim>
					<dim>64</dim>
					<dim>1</dim>
					<dim>1</dim>
				</port>
			</input>
			<output>
				<port id="1" precision="FP32">
					<dim>256</dim>
					<dim>64</dim>
					<dim>1</dim>
					<dim>1</dim>
				</port>
			</output>
		</layer>
		<layer id="93" name="Constant_95873_compressed" type="Const" version="opset1">
			<data element_type="f16" shape="256, 1, 1, 1" offset="699370" size="512" />
			<output>
				<port id="0" precision="FP16">
					<dim>256</dim>
					<dim>1</dim>
					<dim>1</dim>
					<dim>1</dim>
				</port>
			</output>
		</layer>
		<layer id="94" name="Constant_95873" type="Convert" version="opset1">
			<data destination_type="f32" />
			<rt_info>
				<attribute name="decompression" version="0" />
			</rt_info>
			<input>
				<port id="0" precision="FP16">
					<dim>256</dim>
					<dim>1</dim>
					<dim>1</dim>
					<dim>1</dim>
				</port>
			</input>
			<output>
				<port id="1" precision="FP32">
					<dim>256</dim>
					<dim>1</dim>
					<dim>1</dim>
					<dim>1</dim>
				</port>
			</output>
		</layer>
		<layer id="95" name="Multiply_87654" type="Multiply" version="opset1">
			<data auto_broadcast="numpy" />
			<input>
				<port id="0" precision="FP32">
					<dim>256</dim>
					<dim>64</dim>
					<dim>1</dim>
					<dim>1</dim>
				</port>
				<port id="1" precision="FP32">
					<dim>256</dim>
					<dim>1</dim>
					<dim>1</dim>
					<dim>1</dim>
				</port>
			</input>
			<output>
				<port id="2" precision="FP32">
					<dim>256</dim>
					<dim>64</dim>
					<dim>1</dim>
					<dim>1</dim>
				</port>
			</output>
		</layer>
		<layer id="96" name="Multiply_87268" type="Convolution" version="opset1">
			<data strides="1, 1" dilations="1, 1" pads_begin="0, 0" pads_end="0, 0" auto_pad="explicit" />
			<input>
				<port id="0" precision="FP32">
					<dim>1</dim>
					<dim>64</dim>
					<dim>160</dim>
					<dim>160</dim>
				</port>
				<port id="1" precision="FP32">
					<dim>256</dim>
					<dim>64</dim>
					<dim>1</dim>
					<dim>1</dim>
				</port>
			</input>
			<output>
				<port id="2" precision="FP32">
					<dim>1</dim>
					<dim>256</dim>
					<dim>160</dim>
					<dim>160</dim>
				</port>
			</output>
		</layer>
		<layer id="97" name="Constant_87273_compressed" type="Const" version="opset1">
			<data element_type="f16" shape="1, 256, 1, 1" offset="699882" size="512" />
			<output>
				<port id="0" precision="FP16">
					<dim>1</dim>
					<dim>256</dim>
					<dim>1</dim>
					<dim>1</dim>
				</port>
			</output>
		</layer>
		<layer id="98" name="Constant_87273" type="Convert" version="opset1">
			<data destination_type="f32" />
			<rt_info>
				<attribute name="decompression" version="0" />
			</rt_info>
			<input>
				<port id="0" precision="FP16">
					<dim>1</dim>
					<dim>256</dim>
					<dim>1</dim>
					<dim>1</dim>
				</port>
			</input>
			<output>
				<port id="1" precision="FP32">
					<dim>1</dim>
					<dim>256</dim>
					<dim>1</dim>
					<dim>1</dim>
				</port>
			</output>
		</layer>
		<layer id="99" name="/nncf_module/backbone/layer1/layer1.0/downsample/downsample.1/BatchNormalization" type="Add" version="opset1">
			<data auto_broadcast="numpy" />
			<input>
				<port id="0" precision="FP32">
					<dim>1</dim>
					<dim>256</dim>
					<dim>160</dim>
					<dim>160</dim>
				</port>
				<port id="1" precision="FP32">
					<dim>1</dim>
					<dim>256</dim>
					<dim>1</dim>
					<dim>1</dim>
				</port>
			</input>
			<output>
				<port id="2" precision="FP32" names="/nncf_module/backbone/layer1/layer1.0/downsample/downsample.1/BatchNormalization_output_0">
					<dim>1</dim>
					<dim>256</dim>
					<dim>160</dim>
					<dim>160</dim>
				</port>
			</output>
		</layer>
		<layer id="100" name="Constant_91113_compressed" type="Const" version="opset1">
			<data element_type="f16" shape="1, 1, 1, 1" offset="700394" size="2" />
			<output>
				<port id="0" precision="FP16">
					<dim>1</dim>
					<dim>1</dim>
					<dim>1</dim>
					<dim>1</dim>
				</port>
			</output>
		</layer>
		<layer id="101" name="Constant_91113" type="Convert" version="opset1">
			<data destination_type="f32" />
			<rt_info>
				<attribute name="decompression" version="0" />
			</rt_info>
			<input>
				<port id="0" precision="FP16">
					<dim>1</dim>
					<dim>1</dim>
					<dim>1</dim>
					<dim>1</dim>
				</port>
			</input>
			<output>
				<port id="1" precision="FP32">
					<dim>1</dim>
					<dim>1</dim>
					<dim>1</dim>
					<dim>1</dim>
				</port>
			</output>
		</layer>
		<layer id="102" name="Constant_91114_compressed" type="Const" version="opset1">
			<data element_type="f16" shape="1, 1, 1, 1" offset="700396" size="2" />
			<output>
				<port id="0" precision="FP16">
					<dim>1</dim>
					<dim>1</dim>
					<dim>1</dim>
					<dim>1</dim>
				</port>
			</output>
		</layer>
		<layer id="103" name="Constant_91114" type="Convert" version="opset1">
			<data destination_type="f32" />
			<rt_info>
				<attribute name="decompression" version="0" />
			</rt_info>
			<input>
				<port id="0" precision="FP16">
					<dim>1</dim>
					<dim>1</dim>
					<dim>1</dim>
					<dim>1</dim>
				</port>
			</input>
			<output>
				<port id="1" precision="FP32">
					<dim>1</dim>
					<dim>1</dim>
					<dim>1</dim>
					<dim>1</dim>
				</port>
			</output>
		</layer>
		<layer id="104" name="Constant_91115_compressed" type="Const" version="opset1">
			<data element_type="f16" shape="1, 1, 1, 1" offset="700394" size="2" />
			<output>
				<port id="0" precision="FP16">
					<dim>1</dim>
					<dim>1</dim>
					<dim>1</dim>
					<dim>1</dim>
				</port>
			</output>
		</layer>
		<layer id="105" name="Constant_91115" type="Convert" version="opset1">
			<data destination_type="f32" />
			<rt_info>
				<attribute name="decompression" version="0" />
			</rt_info>
			<input>
				<port id="0" precision="FP16">
					<dim>1</dim>
					<dim>1</dim>
					<dim>1</dim>
					<dim>1</dim>
				</port>
			</input>
			<output>
				<port id="1" precision="FP32">
					<dim>1</dim>
					<dim>1</dim>
					<dim>1</dim>
					<dim>1</dim>
				</port>
			</output>
		</layer>
		<layer id="106" name="Constant_91116_compressed" type="Const" version="opset1">
			<data element_type="f16" shape="1, 1, 1, 1" offset="700396" size="2" />
			<output>
				<port id="0" precision="FP16">
					<dim>1</dim>
					<dim>1</dim>
					<dim>1</dim>
					<dim>1</dim>
				</port>
			</output>
		</layer>
		<layer id="107" name="Constant_91116" type="Convert" version="opset1">
			<data destination_type="f32" />
			<rt_info>
				<attribute name="decompression" version="0" />
			</rt_info>
			<input>
				<port id="0" precision="FP16">
					<dim>1</dim>
					<dim>1</dim>
					<dim>1</dim>
					<dim>1</dim>
				</port>
			</input>
			<output>
				<port id="1" precision="FP32">
					<dim>1</dim>
					<dim>1</dim>
					<dim>1</dim>
					<dim>1</dim>
				</port>
			</output>
		</layer>
		<layer id="108" name="/nncf_module/backbone/layer1/layer1.0/downsample/downsample.1/CustomMaskRCNN/ResNet[backbone]/ResLayer[layer1]/Bottleneck[0]/Sequential[downsample]/NNCFBatchNorm2d[1]/batch_norm_0|OUTPUT/FakeQuantize" type="FakeQuantize" version="opset1">
			<data levels="256" auto_broadcast="numpy" />
			<input>
				<port id="0" precision="FP32">
					<dim>1</dim>
					<dim>256</dim>
					<dim>160</dim>
					<dim>160</dim>
				</port>
				<port id="1" precision="FP32">
					<dim>1</dim>
					<dim>1</dim>
					<dim>1</dim>
					<dim>1</dim>
				</port>
				<port id="2" precision="FP32">
					<dim>1</dim>
					<dim>1</dim>
					<dim>1</dim>
					<dim>1</dim>
				</port>
				<port id="3" precision="FP32">
					<dim>1</dim>
					<dim>1</dim>
					<dim>1</dim>
					<dim>1</dim>
				</port>
				<port id="4" precision="FP32">
					<dim>1</dim>
					<dim>1</dim>
					<dim>1</dim>
					<dim>1</dim>
				</port>
			</input>
			<output>
				<port id="5" precision="FP32" names="/nncf_module/backbone/layer1/layer1.0/downsample/downsample.1/CustomMaskRCNN/ResNet[backbone]/ResLayer[layer1]/Bottleneck[0]/Sequential[downsample]/NNCFBatchNorm2d[1]/batch_norm_0|OUTPUT/FakeQuantize_output_0">
					<dim>1</dim>
					<dim>256</dim>
					<dim>160</dim>
					<dim>160</dim>
				</port>
			</output>
		</layer>
		<layer id="109" name="/nncf_module/backbone/layer1/layer1.0/Add" type="Add" version="opset1">
			<data auto_broadcast="numpy" />
			<input>
				<port id="0" precision="FP32">
					<dim>1</dim>
					<dim>256</dim>
					<dim>160</dim>
					<dim>160</dim>
				</port>
				<port id="1" precision="FP32">
					<dim>1</dim>
					<dim>256</dim>
					<dim>160</dim>
					<dim>160</dim>
				</port>
			</input>
			<output>
				<port id="2" precision="FP32" names="/nncf_module/backbone/layer1/layer1.0/Add_output_0">
					<dim>1</dim>
					<dim>256</dim>
					<dim>160</dim>
					<dim>160</dim>
				</port>
			</output>
		</layer>
		<layer id="110" name="Constant_91117_compressed" type="Const" version="opset1">
			<data element_type="f16" shape="1, 1, 1, 1" offset="0" size="2" />
			<output>
				<port id="0" precision="FP16">
					<dim>1</dim>
					<dim>1</dim>
					<dim>1</dim>
					<dim>1</dim>
				</port>
			</output>
		</layer>
		<layer id="111" name="Constant_91117" type="Convert" version="opset1">
			<data destination_type="f32" />
			<rt_info>
				<attribute name="decompression" version="0" />
			</rt_info>
			<input>
				<port id="0" precision="FP16">
					<dim>1</dim>
					<dim>1</dim>
					<dim>1</dim>
					<dim>1</dim>
				</port>
			</input>
			<output>
				<port id="1" precision="FP32">
					<dim>1</dim>
					<dim>1</dim>
					<dim>1</dim>
					<dim>1</dim>
				</port>
			</output>
		</layer>
		<layer id="112" name="Constant_91118_compressed" type="Const" version="opset1">
			<data element_type="f16" shape="1, 1, 1, 1" offset="700398" size="2" />
			<output>
				<port id="0" precision="FP16">
					<dim>1</dim>
					<dim>1</dim>
					<dim>1</dim>
					<dim>1</dim>
				</port>
			</output>
		</layer>
		<layer id="113" name="Constant_91118" type="Convert" version="opset1">
			<data destination_type="f32" />
			<rt_info>
				<attribute name="decompression" version="0" />
			</rt_info>
			<input>
				<port id="0" precision="FP16">
					<dim>1</dim>
					<dim>1</dim>
					<dim>1</dim>
					<dim>1</dim>
				</port>
			</input>
			<output>
				<port id="1" precision="FP32">
					<dim>1</dim>
					<dim>1</dim>
					<dim>1</dim>
					<dim>1</dim>
				</port>
			</output>
		</layer>
		<layer id="114" name="Constant_91119_compressed" type="Const" version="opset1">
			<data element_type="f16" shape="1, 1, 1, 1" offset="0" size="2" />
			<output>
				<port id="0" precision="FP16">
					<dim>1</dim>
					<dim>1</dim>
					<dim>1</dim>
					<dim>1</dim>
				</port>
			</output>
		</layer>
		<layer id="115" name="Constant_91119" type="Convert" version="opset1">
			<data destination_type="f32" />
			<rt_info>
				<attribute name="decompression" version="0" />
			</rt_info>
			<input>
				<port id="0" precision="FP16">
					<dim>1</dim>
					<dim>1</dim>
					<dim>1</dim>
					<dim>1</dim>
				</port>
			</input>
			<output>
				<port id="1" precision="FP32">
					<dim>1</dim>
					<dim>1</dim>
					<dim>1</dim>
					<dim>1</dim>
				</port>
			</output>
		</layer>
		<layer id="116" name="Constant_91120_compressed" type="Const" version="opset1">
			<data element_type="f16" shape="1, 1, 1, 1" offset="700398" size="2" />
			<output>
				<port id="0" precision="FP16">
					<dim>1</dim>
					<dim>1</dim>
					<dim>1</dim>
					<dim>1</dim>
				</port>
			</output>
		</layer>
		<layer id="117" name="Constant_91120" type="Convert" version="opset1">
			<data destination_type="f32" />
			<rt_info>
				<attribute name="decompression" version="0" />
			</rt_info>
			<input>
				<port id="0" precision="FP16">
					<dim>1</dim>
					<dim>1</dim>
					<dim>1</dim>
					<dim>1</dim>
				</port>
			</input>
			<output>
				<port id="1" precision="FP32">
					<dim>1</dim>
					<dim>1</dim>
					<dim>1</dim>
					<dim>1</dim>
				</port>
			</output>
		</layer>
		<layer id="118" name="/nncf_module/backbone/layer1/layer1.0/relu/CustomMaskRCNN/ResNet[backbone]/ResLayer[layer1]/Bottleneck[0]/ReLU[relu]/relu__2|OUTPUT/FakeQuantize" type="FakeQuantize" version="opset1">
			<data levels="256" auto_broadcast="numpy" />
			<input>
				<port id="0" precision="FP32">
					<dim>1</dim>
					<dim>256</dim>
					<dim>160</dim>
					<dim>160</dim>
				</port>
				<port id="1" precision="FP32">
					<dim>1</dim>
					<dim>1</dim>
					<dim>1</dim>
					<dim>1</dim>
				</port>
				<port id="2" precision="FP32">
					<dim>1</dim>
					<dim>1</dim>
					<dim>1</dim>
					<dim>1</dim>
				</port>
				<port id="3" precision="FP32">
					<dim>1</dim>
					<dim>1</dim>
					<dim>1</dim>
					<dim>1</dim>
				</port>
				<port id="4" precision="FP32">
					<dim>1</dim>
					<dim>1</dim>
					<dim>1</dim>
					<dim>1</dim>
				</port>
			</input>
			<output>
				<port id="5" precision="FP32" names="/nncf_module/backbone/layer1/layer1.0/relu/CustomMaskRCNN/ResNet[backbone]/ResLayer[layer1]/Bottleneck[0]/ReLU[relu]/relu__2|OUTPUT/FakeQuantize_output_0">
					<dim>1</dim>
					<dim>256</dim>
					<dim>160</dim>
					<dim>160</dim>
				</port>
			</output>
		</layer>
		<layer id="119" name="/nncf_module/backbone/layer1/layer1.1/conv1/pre_ops.0/op/Constant" type="Const" version="opset1">
			<data element_type="i8" shape="64, 256, 1, 1" offset="700400" size="16384" />
			<output>
				<port id="0" precision="I8">
					<dim>64</dim>
					<dim>256</dim>
					<dim>1</dim>
					<dim>1</dim>
				</port>
			</output>
		</layer>
		<layer id="120" name="Convert_96057" type="Convert" version="opset1">
			<data destination_type="f32" />
			<input>
				<port id="0" precision="I8">
					<dim>64</dim>
					<dim>256</dim>
					<dim>1</dim>
					<dim>1</dim>
				</port>
			</input>
			<output>
				<port id="1" precision="FP32">
					<dim>64</dim>
					<dim>256</dim>
					<dim>1</dim>
					<dim>1</dim>
				</port>
			</output>
		</layer>
		<layer id="121" name="Constant_95994_compressed" type="Const" version="opset1">
			<data element_type="f16" shape="64, 1, 1, 1" offset="716784" size="128" />
			<output>
				<port id="0" precision="FP16">
					<dim>64</dim>
					<dim>1</dim>
					<dim>1</dim>
					<dim>1</dim>
				</port>
			</output>
		</layer>
		<layer id="122" name="Constant_95994" type="Convert" version="opset1">
			<data destination_type="f32" />
			<rt_info>
				<attribute name="decompression" version="0" />
			</rt_info>
			<input>
				<port id="0" precision="FP16">
					<dim>64</dim>
					<dim>1</dim>
					<dim>1</dim>
					<dim>1</dim>
				</port>
			</input>
			<output>
				<port id="1" precision="FP32">
					<dim>64</dim>
					<dim>1</dim>
					<dim>1</dim>
					<dim>1</dim>
				</port>
			</output>
		</layer>
		<layer id="123" name="Multiply_87663" type="Multiply" version="opset1">
			<data auto_broadcast="numpy" />
			<input>
				<port id="0" precision="FP32">
					<dim>64</dim>
					<dim>256</dim>
					<dim>1</dim>
					<dim>1</dim>
				</port>
				<port id="1" precision="FP32">
					<dim>64</dim>
					<dim>1</dim>
					<dim>1</dim>
					<dim>1</dim>
				</port>
			</input>
			<output>
				<port id="2" precision="FP32">
					<dim>64</dim>
					<dim>256</dim>
					<dim>1</dim>
					<dim>1</dim>
				</port>
			</output>
		</layer>
		<layer id="124" name="Multiply_87275" type="Convolution" version="opset1">
			<data strides="1, 1" dilations="1, 1" pads_begin="0, 0" pads_end="0, 0" auto_pad="explicit" />
			<input>
				<port id="0" precision="FP32">
					<dim>1</dim>
					<dim>256</dim>
					<dim>160</dim>
					<dim>160</dim>
				</port>
				<port id="1" precision="FP32">
					<dim>64</dim>
					<dim>256</dim>
					<dim>1</dim>
					<dim>1</dim>
				</port>
			</input>
			<output>
				<port id="2" precision="FP32">
					<dim>1</dim>
					<dim>64</dim>
					<dim>160</dim>
					<dim>160</dim>
				</port>
			</output>
		</layer>
		<layer id="125" name="Constant_87280_compressed" type="Const" version="opset1">
			<data element_type="f16" shape="1, 64, 1, 1" offset="716912" size="128" />
			<output>
				<port id="0" precision="FP16">
					<dim>1</dim>
					<dim>64</dim>
					<dim>1</dim>
					<dim>1</dim>
				</port>
			</output>
		</layer>
		<layer id="126" name="Constant_87280" type="Convert" version="opset1">
			<data destination_type="f32" />
			<rt_info>
				<attribute name="decompression" version="0" />
			</rt_info>
			<input>
				<port id="0" precision="FP16">
					<dim>1</dim>
					<dim>64</dim>
					<dim>1</dim>
					<dim>1</dim>
				</port>
			</input>
			<output>
				<port id="1" precision="FP32">
					<dim>1</dim>
					<dim>64</dim>
					<dim>1</dim>
					<dim>1</dim>
				</port>
			</output>
		</layer>
		<layer id="127" name="/nncf_module/backbone/layer1/layer1.1/bn1/BatchNormalization" type="Add" version="opset1">
			<data auto_broadcast="numpy" />
			<input>
				<port id="0" precision="FP32">
					<dim>1</dim>
					<dim>64</dim>
					<dim>160</dim>
					<dim>160</dim>
				</port>
				<port id="1" precision="FP32">
					<dim>1</dim>
					<dim>64</dim>
					<dim>1</dim>
					<dim>1</dim>
				</port>
			</input>
			<output>
				<port id="2" precision="FP32" names="/nncf_module/backbone/layer1/layer1.1/bn1/BatchNormalization_output_0">
					<dim>1</dim>
					<dim>64</dim>
					<dim>160</dim>
					<dim>160</dim>
				</port>
			</output>
		</layer>
		<layer id="128" name="Constant_91121_compressed" type="Const" version="opset1">
			<data element_type="f16" shape="1, 1, 1, 1" offset="0" size="2" />
			<output>
				<port id="0" precision="FP16">
					<dim>1</dim>
					<dim>1</dim>
					<dim>1</dim>
					<dim>1</dim>
				</port>
			</output>
		</layer>
		<layer id="129" name="Constant_91121" type="Convert" version="opset1">
			<data destination_type="f32" />
			<rt_info>
				<attribute name="decompression" version="0" />
			</rt_info>
			<input>
				<port id="0" precision="FP16">
					<dim>1</dim>
					<dim>1</dim>
					<dim>1</dim>
					<dim>1</dim>
				</port>
			</input>
			<output>
				<port id="1" precision="FP32">
					<dim>1</dim>
					<dim>1</dim>
					<dim>1</dim>
					<dim>1</dim>
				</port>
			</output>
		</layer>
		<layer id="130" name="Constant_91122_compressed" type="Const" version="opset1">
			<data element_type="f16" shape="1, 1, 1, 1" offset="717040" size="2" />
			<output>
				<port id="0" precision="FP16">
					<dim>1</dim>
					<dim>1</dim>
					<dim>1</dim>
					<dim>1</dim>
				</port>
			</output>
		</layer>
		<layer id="131" name="Constant_91122" type="Convert" version="opset1">
			<data destination_type="f32" />
			<rt_info>
				<attribute name="decompression" version="0" />
			</rt_info>
			<input>
				<port id="0" precision="FP16">
					<dim>1</dim>
					<dim>1</dim>
					<dim>1</dim>
					<dim>1</dim>
				</port>
			</input>
			<output>
				<port id="1" precision="FP32">
					<dim>1</dim>
					<dim>1</dim>
					<dim>1</dim>
					<dim>1</dim>
				</port>
			</output>
		</layer>
		<layer id="132" name="Constant_91123_compressed" type="Const" version="opset1">
			<data element_type="f16" shape="1, 1, 1, 1" offset="0" size="2" />
			<output>
				<port id="0" precision="FP16">
					<dim>1</dim>
					<dim>1</dim>
					<dim>1</dim>
					<dim>1</dim>
				</port>
			</output>
		</layer>
		<layer id="133" name="Constant_91123" type="Convert" version="opset1">
			<data destination_type="f32" />
			<rt_info>
				<attribute name="decompression" version="0" />
			</rt_info>
			<input>
				<port id="0" precision="FP16">
					<dim>1</dim>
					<dim>1</dim>
					<dim>1</dim>
					<dim>1</dim>
				</port>
			</input>
			<output>
				<port id="1" precision="FP32">
					<dim>1</dim>
					<dim>1</dim>
					<dim>1</dim>
					<dim>1</dim>
				</port>
			</output>
		</layer>
		<layer id="134" name="Constant_91124_compressed" type="Const" version="opset1">
			<data element_type="f16" shape="1, 1, 1, 1" offset="717040" size="2" />
			<output>
				<port id="0" precision="FP16">
					<dim>1</dim>
					<dim>1</dim>
					<dim>1</dim>
					<dim>1</dim>
				</port>
			</output>
		</layer>
		<layer id="135" name="Constant_91124" type="Convert" version="opset1">
			<data destination_type="f32" />
			<rt_info>
				<attribute name="decompression" version="0" />
			</rt_info>
			<input>
				<port id="0" precision="FP16">
					<dim>1</dim>
					<dim>1</dim>
					<dim>1</dim>
					<dim>1</dim>
				</port>
			</input>
			<output>
				<port id="1" precision="FP32">
					<dim>1</dim>
					<dim>1</dim>
					<dim>1</dim>
					<dim>1</dim>
				</port>
			</output>
		</layer>
		<layer id="136" name="/nncf_module/backbone/layer1/layer1.1/relu/CustomMaskRCNN/ResNet[backbone]/ResLayer[layer1]/Bottleneck[1]/ReLU[relu]/relu__0|OUTPUT/FakeQuantize" type="FakeQuantize" version="opset1">
			<data levels="256" auto_broadcast="numpy" />
			<input>
				<port id="0" precision="FP32">
					<dim>1</dim>
					<dim>64</dim>
					<dim>160</dim>
					<dim>160</dim>
				</port>
				<port id="1" precision="FP32">
					<dim>1</dim>
					<dim>1</dim>
					<dim>1</dim>
					<dim>1</dim>
				</port>
				<port id="2" precision="FP32">
					<dim>1</dim>
					<dim>1</dim>
					<dim>1</dim>
					<dim>1</dim>
				</port>
				<port id="3" precision="FP32">
					<dim>1</dim>
					<dim>1</dim>
					<dim>1</dim>
					<dim>1</dim>
				</port>
				<port id="4" precision="FP32">
					<dim>1</dim>
					<dim>1</dim>
					<dim>1</dim>
					<dim>1</dim>
				</port>
			</input>
			<output>
				<port id="5" precision="FP32" names="/nncf_module/backbone/layer1/layer1.1/relu/CustomMaskRCNN/ResNet[backbone]/ResLayer[layer1]/Bottleneck[1]/ReLU[relu]/relu__0|OUTPUT/FakeQuantize_output_0">
					<dim>1</dim>
					<dim>64</dim>
					<dim>160</dim>
					<dim>160</dim>
				</port>
			</output>
		</layer>
		<layer id="137" name="/nncf_module/backbone/layer1/layer1.1/conv2/pre_ops.0/op/Constant" type="Const" version="opset1">
			<data element_type="i8" shape="64, 64, 3, 3" offset="717042" size="36864" />
			<output>
				<port id="0" precision="I8">
					<dim>64</dim>
					<dim>64</dim>
					<dim>3</dim>
					<dim>3</dim>
				</port>
			</output>
		</layer>
		<layer id="138" name="Convert_96178" type="Convert" version="opset1">
			<data destination_type="f32" />
			<input>
				<port id="0" precision="I8">
					<dim>64</dim>
					<dim>64</dim>
					<dim>3</dim>
					<dim>3</dim>
				</port>
			</input>
			<output>
				<port id="1" precision="FP32">
					<dim>64</dim>
					<dim>64</dim>
					<dim>3</dim>
					<dim>3</dim>
				</port>
			</output>
		</layer>
		<layer id="139" name="Constant_96115_compressed" type="Const" version="opset1">
			<data element_type="f16" shape="64, 1, 1, 1" offset="753906" size="128" />
			<output>
				<port id="0" precision="FP16">
					<dim>64</dim>
					<dim>1</dim>
					<dim>1</dim>
					<dim>1</dim>
				</port>
			</output>
		</layer>
		<layer id="140" name="Constant_96115" type="Convert" version="opset1">
			<data destination_type="f32" />
			<rt_info>
				<attribute name="decompression" version="0" />
			</rt_info>
			<input>
				<port id="0" precision="FP16">
					<dim>64</dim>
					<dim>1</dim>
					<dim>1</dim>
					<dim>1</dim>
				</port>
			</input>
			<output>
				<port id="1" precision="FP32">
					<dim>64</dim>
					<dim>1</dim>
					<dim>1</dim>
					<dim>1</dim>
				</port>
			</output>
		</layer>
		<layer id="141" name="Multiply_87672" type="Multiply" version="opset1">
			<data auto_broadcast="numpy" />
			<input>
				<port id="0" precision="FP32">
					<dim>64</dim>
					<dim>64</dim>
					<dim>3</dim>
					<dim>3</dim>
				</port>
				<port id="1" precision="FP32">
					<dim>64</dim>
					<dim>1</dim>
					<dim>1</dim>
					<dim>1</dim>
				</port>
			</input>
			<output>
				<port id="2" precision="FP32">
					<dim>64</dim>
					<dim>64</dim>
					<dim>3</dim>
					<dim>3</dim>
				</port>
			</output>
		</layer>
		<layer id="142" name="Multiply_87282" type="Convolution" version="opset1">
			<data strides="1, 1" dilations="1, 1" pads_begin="1, 1" pads_end="1, 1" auto_pad="explicit" />
			<input>
				<port id="0" precision="FP32">
					<dim>1</dim>
					<dim>64</dim>
					<dim>160</dim>
					<dim>160</dim>
				</port>
				<port id="1" precision="FP32">
					<dim>64</dim>
					<dim>64</dim>
					<dim>3</dim>
					<dim>3</dim>
				</port>
			</input>
			<output>
				<port id="2" precision="FP32">
					<dim>1</dim>
					<dim>64</dim>
					<dim>160</dim>
					<dim>160</dim>
				</port>
			</output>
		</layer>
		<layer id="143" name="Constant_87287_compressed" type="Const" version="opset1">
			<data element_type="f16" shape="1, 64, 1, 1" offset="754034" size="128" />
			<output>
				<port id="0" precision="FP16">
					<dim>1</dim>
					<dim>64</dim>
					<dim>1</dim>
					<dim>1</dim>
				</port>
			</output>
		</layer>
		<layer id="144" name="Constant_87287" type="Convert" version="opset1">
			<data destination_type="f32" />
			<rt_info>
				<attribute name="decompression" version="0" />
			</rt_info>
			<input>
				<port id="0" precision="FP16">
					<dim>1</dim>
					<dim>64</dim>
					<dim>1</dim>
					<dim>1</dim>
				</port>
			</input>
			<output>
				<port id="1" precision="FP32">
					<dim>1</dim>
					<dim>64</dim>
					<dim>1</dim>
					<dim>1</dim>
				</port>
			</output>
		</layer>
		<layer id="145" name="/nncf_module/backbone/layer1/layer1.1/bn2/BatchNormalization" type="Add" version="opset1">
			<data auto_broadcast="numpy" />
			<input>
				<port id="0" precision="FP32">
					<dim>1</dim>
					<dim>64</dim>
					<dim>160</dim>
					<dim>160</dim>
				</port>
				<port id="1" precision="FP32">
					<dim>1</dim>
					<dim>64</dim>
					<dim>1</dim>
					<dim>1</dim>
				</port>
			</input>
			<output>
				<port id="2" precision="FP32" names="/nncf_module/backbone/layer1/layer1.1/bn2/BatchNormalization_output_0">
					<dim>1</dim>
					<dim>64</dim>
					<dim>160</dim>
					<dim>160</dim>
				</port>
			</output>
		</layer>
		<layer id="146" name="Constant_91125_compressed" type="Const" version="opset1">
			<data element_type="f16" shape="1, 1, 1, 1" offset="0" size="2" />
			<output>
				<port id="0" precision="FP16">
					<dim>1</dim>
					<dim>1</dim>
					<dim>1</dim>
					<dim>1</dim>
				</port>
			</output>
		</layer>
		<layer id="147" name="Constant_91125" type="Convert" version="opset1">
			<data destination_type="f32" />
			<rt_info>
				<attribute name="decompression" version="0" />
			</rt_info>
			<input>
				<port id="0" precision="FP16">
					<dim>1</dim>
					<dim>1</dim>
					<dim>1</dim>
					<dim>1</dim>
				</port>
			</input>
			<output>
				<port id="1" precision="FP32">
					<dim>1</dim>
					<dim>1</dim>
					<dim>1</dim>
					<dim>1</dim>
				</port>
			</output>
		</layer>
		<layer id="148" name="Constant_91126_compressed" type="Const" version="opset1">
			<data element_type="f16" shape="1, 1, 1, 1" offset="754162" size="2" />
			<output>
				<port id="0" precision="FP16">
					<dim>1</dim>
					<dim>1</dim>
					<dim>1</dim>
					<dim>1</dim>
				</port>
			</output>
		</layer>
		<layer id="149" name="Constant_91126" type="Convert" version="opset1">
			<data destination_type="f32" />
			<rt_info>
				<attribute name="decompression" version="0" />
			</rt_info>
			<input>
				<port id="0" precision="FP16">
					<dim>1</dim>
					<dim>1</dim>
					<dim>1</dim>
					<dim>1</dim>
				</port>
			</input>
			<output>
				<port id="1" precision="FP32">
					<dim>1</dim>
					<dim>1</dim>
					<dim>1</dim>
					<dim>1</dim>
				</port>
			</output>
		</layer>
		<layer id="150" name="Constant_91127_compressed" type="Const" version="opset1">
			<data element_type="f16" shape="1, 1, 1, 1" offset="0" size="2" />
			<output>
				<port id="0" precision="FP16">
					<dim>1</dim>
					<dim>1</dim>
					<dim>1</dim>
					<dim>1</dim>
				</port>
			</output>
		</layer>
		<layer id="151" name="Constant_91127" type="Convert" version="opset1">
			<data destination_type="f32" />
			<rt_info>
				<attribute name="decompression" version="0" />
			</rt_info>
			<input>
				<port id="0" precision="FP16">
					<dim>1</dim>
					<dim>1</dim>
					<dim>1</dim>
					<dim>1</dim>
				</port>
			</input>
			<output>
				<port id="1" precision="FP32">
					<dim>1</dim>
					<dim>1</dim>
					<dim>1</dim>
					<dim>1</dim>
				</port>
			</output>
		</layer>
		<layer id="152" name="Constant_91128_compressed" type="Const" version="opset1">
			<data element_type="f16" shape="1, 1, 1, 1" offset="754162" size="2" />
			<output>
				<port id="0" precision="FP16">
					<dim>1</dim>
					<dim>1</dim>
					<dim>1</dim>
					<dim>1</dim>
				</port>
			</output>
		</layer>
		<layer id="153" name="Constant_91128" type="Convert" version="opset1">
			<data destination_type="f32" />
			<rt_info>
				<attribute name="decompression" version="0" />
			</rt_info>
			<input>
				<port id="0" precision="FP16">
					<dim>1</dim>
					<dim>1</dim>
					<dim>1</dim>
					<dim>1</dim>
				</port>
			</input>
			<output>
				<port id="1" precision="FP32">
					<dim>1</dim>
					<dim>1</dim>
					<dim>1</dim>
					<dim>1</dim>
				</port>
			</output>
		</layer>
		<layer id="154" name="/nncf_module/backbone/layer1/layer1.1/relu/CustomMaskRCNN/ResNet[backbone]/ResLayer[layer1]/Bottleneck[1]/ReLU[relu]/relu__1|OUTPUT/FakeQuantize" type="FakeQuantize" version="opset1">
			<data levels="256" auto_broadcast="numpy" />
			<input>
				<port id="0" precision="FP32">
					<dim>1</dim>
					<dim>64</dim>
					<dim>160</dim>
					<dim>160</dim>
				</port>
				<port id="1" precision="FP32">
					<dim>1</dim>
					<dim>1</dim>
					<dim>1</dim>
					<dim>1</dim>
				</port>
				<port id="2" precision="FP32">
					<dim>1</dim>
					<dim>1</dim>
					<dim>1</dim>
					<dim>1</dim>
				</port>
				<port id="3" precision="FP32">
					<dim>1</dim>
					<dim>1</dim>
					<dim>1</dim>
					<dim>1</dim>
				</port>
				<port id="4" precision="FP32">
					<dim>1</dim>
					<dim>1</dim>
					<dim>1</dim>
					<dim>1</dim>
				</port>
			</input>
			<output>
				<port id="5" precision="FP32" names="/nncf_module/backbone/layer1/layer1.1/relu/CustomMaskRCNN/ResNet[backbone]/ResLayer[layer1]/Bottleneck[1]/ReLU[relu]/relu__1|OUTPUT/FakeQuantize_output_0">
					<dim>1</dim>
					<dim>64</dim>
					<dim>160</dim>
					<dim>160</dim>
				</port>
			</output>
		</layer>
		<layer id="155" name="/nncf_module/backbone/layer1/layer1.1/conv3/pre_ops.0/op/Constant" type="Const" version="opset1">
			<data element_type="i8" shape="256, 64, 1, 1" offset="754164" size="16384" />
			<output>
				<port id="0" precision="I8">
					<dim>256</dim>
					<dim>64</dim>
					<dim>1</dim>
					<dim>1</dim>
				</port>
			</output>
		</layer>
		<layer id="156" name="Convert_96299" type="Convert" version="opset1">
			<data destination_type="f32" />
			<input>
				<port id="0" precision="I8">
					<dim>256</dim>
					<dim>64</dim>
					<dim>1</dim>
					<dim>1</dim>
				</port>
			</input>
			<output>
				<port id="1" precision="FP32">
					<dim>256</dim>
					<dim>64</dim>
					<dim>1</dim>
					<dim>1</dim>
				</port>
			</output>
		</layer>
		<layer id="157" name="Constant_96236_compressed" type="Const" version="opset1">
			<data element_type="f16" shape="256, 1, 1, 1" offset="770548" size="512" />
			<output>
				<port id="0" precision="FP16">
					<dim>256</dim>
					<dim>1</dim>
					<dim>1</dim>
					<dim>1</dim>
				</port>
			</output>
		</layer>
		<layer id="158" name="Constant_96236" type="Convert" version="opset1">
			<data destination_type="f32" />
			<rt_info>
				<attribute name="decompression" version="0" />
			</rt_info>
			<input>
				<port id="0" precision="FP16">
					<dim>256</dim>
					<dim>1</dim>
					<dim>1</dim>
					<dim>1</dim>
				</port>
			</input>
			<output>
				<port id="1" precision="FP32">
					<dim>256</dim>
					<dim>1</dim>
					<dim>1</dim>
					<dim>1</dim>
				</port>
			</output>
		</layer>
		<layer id="159" name="Multiply_87681" type="Multiply" version="opset1">
			<data auto_broadcast="numpy" />
			<input>
				<port id="0" precision="FP32">
					<dim>256</dim>
					<dim>64</dim>
					<dim>1</dim>
					<dim>1</dim>
				</port>
				<port id="1" precision="FP32">
					<dim>256</dim>
					<dim>1</dim>
					<dim>1</dim>
					<dim>1</dim>
				</port>
			</input>
			<output>
				<port id="2" precision="FP32">
					<dim>256</dim>
					<dim>64</dim>
					<dim>1</dim>
					<dim>1</dim>
				</port>
			</output>
		</layer>
		<layer id="160" name="Multiply_87289" type="Convolution" version="opset1">
			<data strides="1, 1" dilations="1, 1" pads_begin="0, 0" pads_end="0, 0" auto_pad="explicit" />
			<input>
				<port id="0" precision="FP32">
					<dim>1</dim>
					<dim>64</dim>
					<dim>160</dim>
					<dim>160</dim>
				</port>
				<port id="1" precision="FP32">
					<dim>256</dim>
					<dim>64</dim>
					<dim>1</dim>
					<dim>1</dim>
				</port>
			</input>
			<output>
				<port id="2" precision="FP32">
					<dim>1</dim>
					<dim>256</dim>
					<dim>160</dim>
					<dim>160</dim>
				</port>
			</output>
		</layer>
		<layer id="161" name="Constant_87294_compressed" type="Const" version="opset1">
			<data element_type="f16" shape="1, 256, 1, 1" offset="771060" size="512" />
			<output>
				<port id="0" precision="FP16">
					<dim>1</dim>
					<dim>256</dim>
					<dim>1</dim>
					<dim>1</dim>
				</port>
			</output>
		</layer>
		<layer id="162" name="Constant_87294" type="Convert" version="opset1">
			<data destination_type="f32" />
			<rt_info>
				<attribute name="decompression" version="0" />
			</rt_info>
			<input>
				<port id="0" precision="FP16">
					<dim>1</dim>
					<dim>256</dim>
					<dim>1</dim>
					<dim>1</dim>
				</port>
			</input>
			<output>
				<port id="1" precision="FP32">
					<dim>1</dim>
					<dim>256</dim>
					<dim>1</dim>
					<dim>1</dim>
				</port>
			</output>
		</layer>
		<layer id="163" name="/nncf_module/backbone/layer1/layer1.1/bn3/BatchNormalization" type="Add" version="opset1">
			<data auto_broadcast="numpy" />
			<input>
				<port id="0" precision="FP32">
					<dim>1</dim>
					<dim>256</dim>
					<dim>160</dim>
					<dim>160</dim>
				</port>
				<port id="1" precision="FP32">
					<dim>1</dim>
					<dim>256</dim>
					<dim>1</dim>
					<dim>1</dim>
				</port>
			</input>
			<output>
				<port id="2" precision="FP32" names="/nncf_module/backbone/layer1/layer1.1/bn3/BatchNormalization_output_0">
					<dim>1</dim>
					<dim>256</dim>
					<dim>160</dim>
					<dim>160</dim>
				</port>
			</output>
		</layer>
		<layer id="164" name="Constant_91129_compressed" type="Const" version="opset1">
			<data element_type="f16" shape="1, 1, 1, 1" offset="771572" size="2" />
			<output>
				<port id="0" precision="FP16">
					<dim>1</dim>
					<dim>1</dim>
					<dim>1</dim>
					<dim>1</dim>
				</port>
			</output>
		</layer>
		<layer id="165" name="Constant_91129" type="Convert" version="opset1">
			<data destination_type="f32" />
			<rt_info>
				<attribute name="decompression" version="0" />
			</rt_info>
			<input>
				<port id="0" precision="FP16">
					<dim>1</dim>
					<dim>1</dim>
					<dim>1</dim>
					<dim>1</dim>
				</port>
			</input>
			<output>
				<port id="1" precision="FP32">
					<dim>1</dim>
					<dim>1</dim>
					<dim>1</dim>
					<dim>1</dim>
				</port>
			</output>
		</layer>
		<layer id="166" name="Constant_91130_compressed" type="Const" version="opset1">
			<data element_type="f16" shape="1, 1, 1, 1" offset="771574" size="2" />
			<output>
				<port id="0" precision="FP16">
					<dim>1</dim>
					<dim>1</dim>
					<dim>1</dim>
					<dim>1</dim>
				</port>
			</output>
		</layer>
		<layer id="167" name="Constant_91130" type="Convert" version="opset1">
			<data destination_type="f32" />
			<rt_info>
				<attribute name="decompression" version="0" />
			</rt_info>
			<input>
				<port id="0" precision="FP16">
					<dim>1</dim>
					<dim>1</dim>
					<dim>1</dim>
					<dim>1</dim>
				</port>
			</input>
			<output>
				<port id="1" precision="FP32">
					<dim>1</dim>
					<dim>1</dim>
					<dim>1</dim>
					<dim>1</dim>
				</port>
			</output>
		</layer>
		<layer id="168" name="Constant_91131_compressed" type="Const" version="opset1">
			<data element_type="f16" shape="1, 1, 1, 1" offset="771572" size="2" />
			<output>
				<port id="0" precision="FP16">
					<dim>1</dim>
					<dim>1</dim>
					<dim>1</dim>
					<dim>1</dim>
				</port>
			</output>
		</layer>
		<layer id="169" name="Constant_91131" type="Convert" version="opset1">
			<data destination_type="f32" />
			<rt_info>
				<attribute name="decompression" version="0" />
			</rt_info>
			<input>
				<port id="0" precision="FP16">
					<dim>1</dim>
					<dim>1</dim>
					<dim>1</dim>
					<dim>1</dim>
				</port>
			</input>
			<output>
				<port id="1" precision="FP32">
					<dim>1</dim>
					<dim>1</dim>
					<dim>1</dim>
					<dim>1</dim>
				</port>
			</output>
		</layer>
		<layer id="170" name="Constant_91132_compressed" type="Const" version="opset1">
			<data element_type="f16" shape="1, 1, 1, 1" offset="771574" size="2" />
			<output>
				<port id="0" precision="FP16">
					<dim>1</dim>
					<dim>1</dim>
					<dim>1</dim>
					<dim>1</dim>
				</port>
			</output>
		</layer>
		<layer id="171" name="Constant_91132" type="Convert" version="opset1">
			<data destination_type="f32" />
			<rt_info>
				<attribute name="decompression" version="0" />
			</rt_info>
			<input>
				<port id="0" precision="FP16">
					<dim>1</dim>
					<dim>1</dim>
					<dim>1</dim>
					<dim>1</dim>
				</port>
			</input>
			<output>
				<port id="1" precision="FP32">
					<dim>1</dim>
					<dim>1</dim>
					<dim>1</dim>
					<dim>1</dim>
				</port>
			</output>
		</layer>
		<layer id="172" name="/nncf_module/backbone/layer1/layer1.1/bn3/CustomMaskRCNN/ResNet[backbone]/ResLayer[layer1]/Bottleneck[1]/NNCFBatchNorm2d[bn3]/batch_norm_0|OUTPUT/FakeQuantize" type="FakeQuantize" version="opset1">
			<data levels="256" auto_broadcast="numpy" />
			<input>
				<port id="0" precision="FP32">
					<dim>1</dim>
					<dim>256</dim>
					<dim>160</dim>
					<dim>160</dim>
				</port>
				<port id="1" precision="FP32">
					<dim>1</dim>
					<dim>1</dim>
					<dim>1</dim>
					<dim>1</dim>
				</port>
				<port id="2" precision="FP32">
					<dim>1</dim>
					<dim>1</dim>
					<dim>1</dim>
					<dim>1</dim>
				</port>
				<port id="3" precision="FP32">
					<dim>1</dim>
					<dim>1</dim>
					<dim>1</dim>
					<dim>1</dim>
				</port>
				<port id="4" precision="FP32">
					<dim>1</dim>
					<dim>1</dim>
					<dim>1</dim>
					<dim>1</dim>
				</port>
			</input>
			<output>
				<port id="5" precision="FP32" names="/nncf_module/backbone/layer1/layer1.1/bn3/CustomMaskRCNN/ResNet[backbone]/ResLayer[layer1]/Bottleneck[1]/NNCFBatchNorm2d[bn3]/batch_norm_0|OUTPUT/FakeQuantize_output_0">
					<dim>1</dim>
					<dim>256</dim>
					<dim>160</dim>
					<dim>160</dim>
				</port>
			</output>
		</layer>
		<layer id="173" name="/nncf_module/backbone/layer1/layer1.1/Add" type="Add" version="opset1">
			<data auto_broadcast="numpy" />
			<input>
				<port id="0" precision="FP32">
					<dim>1</dim>
					<dim>256</dim>
					<dim>160</dim>
					<dim>160</dim>
				</port>
				<port id="1" precision="FP32">
					<dim>1</dim>
					<dim>256</dim>
					<dim>160</dim>
					<dim>160</dim>
				</port>
			</input>
			<output>
				<port id="2" precision="FP32" names="/nncf_module/backbone/layer1/layer1.1/Add_output_0">
					<dim>1</dim>
					<dim>256</dim>
					<dim>160</dim>
					<dim>160</dim>
				</port>
			</output>
		</layer>
		<layer id="174" name="Constant_91133_compressed" type="Const" version="opset1">
			<data element_type="f16" shape="1, 1, 1, 1" offset="0" size="2" />
			<output>
				<port id="0" precision="FP16">
					<dim>1</dim>
					<dim>1</dim>
					<dim>1</dim>
					<dim>1</dim>
				</port>
			</output>
		</layer>
		<layer id="175" name="Constant_91133" type="Convert" version="opset1">
			<data destination_type="f32" />
			<rt_info>
				<attribute name="decompression" version="0" />
			</rt_info>
			<input>
				<port id="0" precision="FP16">
					<dim>1</dim>
					<dim>1</dim>
					<dim>1</dim>
					<dim>1</dim>
				</port>
			</input>
			<output>
				<port id="1" precision="FP32">
					<dim>1</dim>
					<dim>1</dim>
					<dim>1</dim>
					<dim>1</dim>
				</port>
			</output>
		</layer>
		<layer id="176" name="Constant_91134_compressed" type="Const" version="opset1">
			<data element_type="f16" shape="1, 1, 1, 1" offset="771576" size="2" />
			<output>
				<port id="0" precision="FP16">
					<dim>1</dim>
					<dim>1</dim>
					<dim>1</dim>
					<dim>1</dim>
				</port>
			</output>
		</layer>
		<layer id="177" name="Constant_91134" type="Convert" version="opset1">
			<data destination_type="f32" />
			<rt_info>
				<attribute name="decompression" version="0" />
			</rt_info>
			<input>
				<port id="0" precision="FP16">
					<dim>1</dim>
					<dim>1</dim>
					<dim>1</dim>
					<dim>1</dim>
				</port>
			</input>
			<output>
				<port id="1" precision="FP32">
					<dim>1</dim>
					<dim>1</dim>
					<dim>1</dim>
					<dim>1</dim>
				</port>
			</output>
		</layer>
		<layer id="178" name="Constant_91135_compressed" type="Const" version="opset1">
			<data element_type="f16" shape="1, 1, 1, 1" offset="0" size="2" />
			<output>
				<port id="0" precision="FP16">
					<dim>1</dim>
					<dim>1</dim>
					<dim>1</dim>
					<dim>1</dim>
				</port>
			</output>
		</layer>
		<layer id="179" name="Constant_91135" type="Convert" version="opset1">
			<data destination_type="f32" />
			<rt_info>
				<attribute name="decompression" version="0" />
			</rt_info>
			<input>
				<port id="0" precision="FP16">
					<dim>1</dim>
					<dim>1</dim>
					<dim>1</dim>
					<dim>1</dim>
				</port>
			</input>
			<output>
				<port id="1" precision="FP32">
					<dim>1</dim>
					<dim>1</dim>
					<dim>1</dim>
					<dim>1</dim>
				</port>
			</output>
		</layer>
		<layer id="180" name="Constant_91136_compressed" type="Const" version="opset1">
			<data element_type="f16" shape="1, 1, 1, 1" offset="771576" size="2" />
			<output>
				<port id="0" precision="FP16">
					<dim>1</dim>
					<dim>1</dim>
					<dim>1</dim>
					<dim>1</dim>
				</port>
			</output>
		</layer>
		<layer id="181" name="Constant_91136" type="Convert" version="opset1">
			<data destination_type="f32" />
			<rt_info>
				<attribute name="decompression" version="0" />
			</rt_info>
			<input>
				<port id="0" precision="FP16">
					<dim>1</dim>
					<dim>1</dim>
					<dim>1</dim>
					<dim>1</dim>
				</port>
			</input>
			<output>
				<port id="1" precision="FP32">
					<dim>1</dim>
					<dim>1</dim>
					<dim>1</dim>
					<dim>1</dim>
				</port>
			</output>
		</layer>
		<layer id="182" name="/nncf_module/backbone/layer1/layer1.1/relu/CustomMaskRCNN/ResNet[backbone]/ResLayer[layer1]/Bottleneck[1]/ReLU[relu]/relu__2|OUTPUT/FakeQuantize" type="FakeQuantize" version="opset1">
			<data levels="256" auto_broadcast="numpy" />
			<input>
				<port id="0" precision="FP32">
					<dim>1</dim>
					<dim>256</dim>
					<dim>160</dim>
					<dim>160</dim>
				</port>
				<port id="1" precision="FP32">
					<dim>1</dim>
					<dim>1</dim>
					<dim>1</dim>
					<dim>1</dim>
				</port>
				<port id="2" precision="FP32">
					<dim>1</dim>
					<dim>1</dim>
					<dim>1</dim>
					<dim>1</dim>
				</port>
				<port id="3" precision="FP32">
					<dim>1</dim>
					<dim>1</dim>
					<dim>1</dim>
					<dim>1</dim>
				</port>
				<port id="4" precision="FP32">
					<dim>1</dim>
					<dim>1</dim>
					<dim>1</dim>
					<dim>1</dim>
				</port>
			</input>
			<output>
				<port id="5" precision="FP32" names="/nncf_module/backbone/layer1/layer1.1/relu/CustomMaskRCNN/ResNet[backbone]/ResLayer[layer1]/Bottleneck[1]/ReLU[relu]/relu__2|OUTPUT/FakeQuantize_output_0">
					<dim>1</dim>
					<dim>256</dim>
					<dim>160</dim>
					<dim>160</dim>
				</port>
			</output>
		</layer>
		<layer id="183" name="/nncf_module/backbone/layer1/layer1.2/conv1/pre_ops.0/op/Constant" type="Const" version="opset1">
			<data element_type="i8" shape="64, 256, 1, 1" offset="771578" size="16384" />
			<output>
				<port id="0" precision="I8">
					<dim>64</dim>
					<dim>256</dim>
					<dim>1</dim>
					<dim>1</dim>
				</port>
			</output>
		</layer>
		<layer id="184" name="Convert_96420" type="Convert" version="opset1">
			<data destination_type="f32" />
			<input>
				<port id="0" precision="I8">
					<dim>64</dim>
					<dim>256</dim>
					<dim>1</dim>
					<dim>1</dim>
				</port>
			</input>
			<output>
				<port id="1" precision="FP32">
					<dim>64</dim>
					<dim>256</dim>
					<dim>1</dim>
					<dim>1</dim>
				</port>
			</output>
		</layer>
		<layer id="185" name="Constant_96357_compressed" type="Const" version="opset1">
			<data element_type="f16" shape="64, 1, 1, 1" offset="787962" size="128" />
			<output>
				<port id="0" precision="FP16">
					<dim>64</dim>
					<dim>1</dim>
					<dim>1</dim>
					<dim>1</dim>
				</port>
			</output>
		</layer>
		<layer id="186" name="Constant_96357" type="Convert" version="opset1">
			<data destination_type="f32" />
			<rt_info>
				<attribute name="decompression" version="0" />
			</rt_info>
			<input>
				<port id="0" precision="FP16">
					<dim>64</dim>
					<dim>1</dim>
					<dim>1</dim>
					<dim>1</dim>
				</port>
			</input>
			<output>
				<port id="1" precision="FP32">
					<dim>64</dim>
					<dim>1</dim>
					<dim>1</dim>
					<dim>1</dim>
				</port>
			</output>
		</layer>
		<layer id="187" name="Multiply_87690" type="Multiply" version="opset1">
			<data auto_broadcast="numpy" />
			<input>
				<port id="0" precision="FP32">
					<dim>64</dim>
					<dim>256</dim>
					<dim>1</dim>
					<dim>1</dim>
				</port>
				<port id="1" precision="FP32">
					<dim>64</dim>
					<dim>1</dim>
					<dim>1</dim>
					<dim>1</dim>
				</port>
			</input>
			<output>
				<port id="2" precision="FP32">
					<dim>64</dim>
					<dim>256</dim>
					<dim>1</dim>
					<dim>1</dim>
				</port>
			</output>
		</layer>
		<layer id="188" name="Multiply_87296" type="Convolution" version="opset1">
			<data strides="1, 1" dilations="1, 1" pads_begin="0, 0" pads_end="0, 0" auto_pad="explicit" />
			<input>
				<port id="0" precision="FP32">
					<dim>1</dim>
					<dim>256</dim>
					<dim>160</dim>
					<dim>160</dim>
				</port>
				<port id="1" precision="FP32">
					<dim>64</dim>
					<dim>256</dim>
					<dim>1</dim>
					<dim>1</dim>
				</port>
			</input>
			<output>
				<port id="2" precision="FP32">
					<dim>1</dim>
					<dim>64</dim>
					<dim>160</dim>
					<dim>160</dim>
				</port>
			</output>
		</layer>
		<layer id="189" name="Constant_87301_compressed" type="Const" version="opset1">
			<data element_type="f16" shape="1, 64, 1, 1" offset="788090" size="128" />
			<output>
				<port id="0" precision="FP16">
					<dim>1</dim>
					<dim>64</dim>
					<dim>1</dim>
					<dim>1</dim>
				</port>
			</output>
		</layer>
		<layer id="190" name="Constant_87301" type="Convert" version="opset1">
			<data destination_type="f32" />
			<rt_info>
				<attribute name="decompression" version="0" />
			</rt_info>
			<input>
				<port id="0" precision="FP16">
					<dim>1</dim>
					<dim>64</dim>
					<dim>1</dim>
					<dim>1</dim>
				</port>
			</input>
			<output>
				<port id="1" precision="FP32">
					<dim>1</dim>
					<dim>64</dim>
					<dim>1</dim>
					<dim>1</dim>
				</port>
			</output>
		</layer>
		<layer id="191" name="/nncf_module/backbone/layer1/layer1.2/bn1/BatchNormalization" type="Add" version="opset1">
			<data auto_broadcast="numpy" />
			<input>
				<port id="0" precision="FP32">
					<dim>1</dim>
					<dim>64</dim>
					<dim>160</dim>
					<dim>160</dim>
				</port>
				<port id="1" precision="FP32">
					<dim>1</dim>
					<dim>64</dim>
					<dim>1</dim>
					<dim>1</dim>
				</port>
			</input>
			<output>
				<port id="2" precision="FP32" names="/nncf_module/backbone/layer1/layer1.2/bn1/BatchNormalization_output_0">
					<dim>1</dim>
					<dim>64</dim>
					<dim>160</dim>
					<dim>160</dim>
				</port>
			</output>
		</layer>
		<layer id="192" name="Constant_91137_compressed" type="Const" version="opset1">
			<data element_type="f16" shape="1, 1, 1, 1" offset="0" size="2" />
			<output>
				<port id="0" precision="FP16">
					<dim>1</dim>
					<dim>1</dim>
					<dim>1</dim>
					<dim>1</dim>
				</port>
			</output>
		</layer>
		<layer id="193" name="Constant_91137" type="Convert" version="opset1">
			<data destination_type="f32" />
			<rt_info>
				<attribute name="decompression" version="0" />
			</rt_info>
			<input>
				<port id="0" precision="FP16">
					<dim>1</dim>
					<dim>1</dim>
					<dim>1</dim>
					<dim>1</dim>
				</port>
			</input>
			<output>
				<port id="1" precision="FP32">
					<dim>1</dim>
					<dim>1</dim>
					<dim>1</dim>
					<dim>1</dim>
				</port>
			</output>
		</layer>
		<layer id="194" name="Constant_91138_compressed" type="Const" version="opset1">
			<data element_type="f16" shape="1, 1, 1, 1" offset="788218" size="2" />
			<output>
				<port id="0" precision="FP16">
					<dim>1</dim>
					<dim>1</dim>
					<dim>1</dim>
					<dim>1</dim>
				</port>
			</output>
		</layer>
		<layer id="195" name="Constant_91138" type="Convert" version="opset1">
			<data destination_type="f32" />
			<rt_info>
				<attribute name="decompression" version="0" />
			</rt_info>
			<input>
				<port id="0" precision="FP16">
					<dim>1</dim>
					<dim>1</dim>
					<dim>1</dim>
					<dim>1</dim>
				</port>
			</input>
			<output>
				<port id="1" precision="FP32">
					<dim>1</dim>
					<dim>1</dim>
					<dim>1</dim>
					<dim>1</dim>
				</port>
			</output>
		</layer>
		<layer id="196" name="Constant_91139_compressed" type="Const" version="opset1">
			<data element_type="f16" shape="1, 1, 1, 1" offset="0" size="2" />
			<output>
				<port id="0" precision="FP16">
					<dim>1</dim>
					<dim>1</dim>
					<dim>1</dim>
					<dim>1</dim>
				</port>
			</output>
		</layer>
		<layer id="197" name="Constant_91139" type="Convert" version="opset1">
			<data destination_type="f32" />
			<rt_info>
				<attribute name="decompression" version="0" />
			</rt_info>
			<input>
				<port id="0" precision="FP16">
					<dim>1</dim>
					<dim>1</dim>
					<dim>1</dim>
					<dim>1</dim>
				</port>
			</input>
			<output>
				<port id="1" precision="FP32">
					<dim>1</dim>
					<dim>1</dim>
					<dim>1</dim>
					<dim>1</dim>
				</port>
			</output>
		</layer>
		<layer id="198" name="Constant_91140_compressed" type="Const" version="opset1">
			<data element_type="f16" shape="1, 1, 1, 1" offset="788218" size="2" />
			<output>
				<port id="0" precision="FP16">
					<dim>1</dim>
					<dim>1</dim>
					<dim>1</dim>
					<dim>1</dim>
				</port>
			</output>
		</layer>
		<layer id="199" name="Constant_91140" type="Convert" version="opset1">
			<data destination_type="f32" />
			<rt_info>
				<attribute name="decompression" version="0" />
			</rt_info>
			<input>
				<port id="0" precision="FP16">
					<dim>1</dim>
					<dim>1</dim>
					<dim>1</dim>
					<dim>1</dim>
				</port>
			</input>
			<output>
				<port id="1" precision="FP32">
					<dim>1</dim>
					<dim>1</dim>
					<dim>1</dim>
					<dim>1</dim>
				</port>
			</output>
		</layer>
		<layer id="200" name="/nncf_module/backbone/layer1/layer1.2/relu/CustomMaskRCNN/ResNet[backbone]/ResLayer[layer1]/Bottleneck[2]/ReLU[relu]/relu__0|OUTPUT/FakeQuantize" type="FakeQuantize" version="opset1">
			<data levels="256" auto_broadcast="numpy" />
			<input>
				<port id="0" precision="FP32">
					<dim>1</dim>
					<dim>64</dim>
					<dim>160</dim>
					<dim>160</dim>
				</port>
				<port id="1" precision="FP32">
					<dim>1</dim>
					<dim>1</dim>
					<dim>1</dim>
					<dim>1</dim>
				</port>
				<port id="2" precision="FP32">
					<dim>1</dim>
					<dim>1</dim>
					<dim>1</dim>
					<dim>1</dim>
				</port>
				<port id="3" precision="FP32">
					<dim>1</dim>
					<dim>1</dim>
					<dim>1</dim>
					<dim>1</dim>
				</port>
				<port id="4" precision="FP32">
					<dim>1</dim>
					<dim>1</dim>
					<dim>1</dim>
					<dim>1</dim>
				</port>
			</input>
			<output>
				<port id="5" precision="FP32" names="/nncf_module/backbone/layer1/layer1.2/relu/CustomMaskRCNN/ResNet[backbone]/ResLayer[layer1]/Bottleneck[2]/ReLU[relu]/relu__0|OUTPUT/FakeQuantize_output_0">
					<dim>1</dim>
					<dim>64</dim>
					<dim>160</dim>
					<dim>160</dim>
				</port>
			</output>
		</layer>
		<layer id="201" name="/nncf_module/backbone/layer1/layer1.2/conv2/pre_ops.0/op/Constant" type="Const" version="opset1">
			<data element_type="i8" shape="64, 64, 3, 3" offset="788220" size="36864" />
			<output>
				<port id="0" precision="I8">
					<dim>64</dim>
					<dim>64</dim>
					<dim>3</dim>
					<dim>3</dim>
				</port>
			</output>
		</layer>
		<layer id="202" name="Convert_96541" type="Convert" version="opset1">
			<data destination_type="f32" />
			<input>
				<port id="0" precision="I8">
					<dim>64</dim>
					<dim>64</dim>
					<dim>3</dim>
					<dim>3</dim>
				</port>
			</input>
			<output>
				<port id="1" precision="FP32">
					<dim>64</dim>
					<dim>64</dim>
					<dim>3</dim>
					<dim>3</dim>
				</port>
			</output>
		</layer>
		<layer id="203" name="Constant_96478_compressed" type="Const" version="opset1">
			<data element_type="f16" shape="64, 1, 1, 1" offset="825084" size="128" />
			<output>
				<port id="0" precision="FP16">
					<dim>64</dim>
					<dim>1</dim>
					<dim>1</dim>
					<dim>1</dim>
				</port>
			</output>
		</layer>
		<layer id="204" name="Constant_96478" type="Convert" version="opset1">
			<data destination_type="f32" />
			<rt_info>
				<attribute name="decompression" version="0" />
			</rt_info>
			<input>
				<port id="0" precision="FP16">
					<dim>64</dim>
					<dim>1</dim>
					<dim>1</dim>
					<dim>1</dim>
				</port>
			</input>
			<output>
				<port id="1" precision="FP32">
					<dim>64</dim>
					<dim>1</dim>
					<dim>1</dim>
					<dim>1</dim>
				</port>
			</output>
		</layer>
		<layer id="205" name="Multiply_87699" type="Multiply" version="opset1">
			<data auto_broadcast="numpy" />
			<input>
				<port id="0" precision="FP32">
					<dim>64</dim>
					<dim>64</dim>
					<dim>3</dim>
					<dim>3</dim>
				</port>
				<port id="1" precision="FP32">
					<dim>64</dim>
					<dim>1</dim>
					<dim>1</dim>
					<dim>1</dim>
				</port>
			</input>
			<output>
				<port id="2" precision="FP32">
					<dim>64</dim>
					<dim>64</dim>
					<dim>3</dim>
					<dim>3</dim>
				</port>
			</output>
		</layer>
		<layer id="206" name="Multiply_87303" type="Convolution" version="opset1">
			<data strides="1, 1" dilations="1, 1" pads_begin="1, 1" pads_end="1, 1" auto_pad="explicit" />
			<input>
				<port id="0" precision="FP32">
					<dim>1</dim>
					<dim>64</dim>
					<dim>160</dim>
					<dim>160</dim>
				</port>
				<port id="1" precision="FP32">
					<dim>64</dim>
					<dim>64</dim>
					<dim>3</dim>
					<dim>3</dim>
				</port>
			</input>
			<output>
				<port id="2" precision="FP32">
					<dim>1</dim>
					<dim>64</dim>
					<dim>160</dim>
					<dim>160</dim>
				</port>
			</output>
		</layer>
		<layer id="207" name="Constant_87308_compressed" type="Const" version="opset1">
			<data element_type="f16" shape="1, 64, 1, 1" offset="825212" size="128" />
			<output>
				<port id="0" precision="FP16">
					<dim>1</dim>
					<dim>64</dim>
					<dim>1</dim>
					<dim>1</dim>
				</port>
			</output>
		</layer>
		<layer id="208" name="Constant_87308" type="Convert" version="opset1">
			<data destination_type="f32" />
			<rt_info>
				<attribute name="decompression" version="0" />
			</rt_info>
			<input>
				<port id="0" precision="FP16">
					<dim>1</dim>
					<dim>64</dim>
					<dim>1</dim>
					<dim>1</dim>
				</port>
			</input>
			<output>
				<port id="1" precision="FP32">
					<dim>1</dim>
					<dim>64</dim>
					<dim>1</dim>
					<dim>1</dim>
				</port>
			</output>
		</layer>
		<layer id="209" name="/nncf_module/backbone/layer1/layer1.2/bn2/BatchNormalization" type="Add" version="opset1">
			<data auto_broadcast="numpy" />
			<input>
				<port id="0" precision="FP32">
					<dim>1</dim>
					<dim>64</dim>
					<dim>160</dim>
					<dim>160</dim>
				</port>
				<port id="1" precision="FP32">
					<dim>1</dim>
					<dim>64</dim>
					<dim>1</dim>
					<dim>1</dim>
				</port>
			</input>
			<output>
				<port id="2" precision="FP32" names="/nncf_module/backbone/layer1/layer1.2/bn2/BatchNormalization_output_0">
					<dim>1</dim>
					<dim>64</dim>
					<dim>160</dim>
					<dim>160</dim>
				</port>
			</output>
		</layer>
		<layer id="210" name="Constant_91141_compressed" type="Const" version="opset1">
			<data element_type="f16" shape="1, 1, 1, 1" offset="0" size="2" />
			<output>
				<port id="0" precision="FP16">
					<dim>1</dim>
					<dim>1</dim>
					<dim>1</dim>
					<dim>1</dim>
				</port>
			</output>
		</layer>
		<layer id="211" name="Constant_91141" type="Convert" version="opset1">
			<data destination_type="f32" />
			<rt_info>
				<attribute name="decompression" version="0" />
			</rt_info>
			<input>
				<port id="0" precision="FP16">
					<dim>1</dim>
					<dim>1</dim>
					<dim>1</dim>
					<dim>1</dim>
				</port>
			</input>
			<output>
				<port id="1" precision="FP32">
					<dim>1</dim>
					<dim>1</dim>
					<dim>1</dim>
					<dim>1</dim>
				</port>
			</output>
		</layer>
		<layer id="212" name="Constant_91142_compressed" type="Const" version="opset1">
			<data element_type="f16" shape="1, 1, 1, 1" offset="825340" size="2" />
			<output>
				<port id="0" precision="FP16">
					<dim>1</dim>
					<dim>1</dim>
					<dim>1</dim>
					<dim>1</dim>
				</port>
			</output>
		</layer>
		<layer id="213" name="Constant_91142" type="Convert" version="opset1">
			<data destination_type="f32" />
			<rt_info>
				<attribute name="decompression" version="0" />
			</rt_info>
			<input>
				<port id="0" precision="FP16">
					<dim>1</dim>
					<dim>1</dim>
					<dim>1</dim>
					<dim>1</dim>
				</port>
			</input>
			<output>
				<port id="1" precision="FP32">
					<dim>1</dim>
					<dim>1</dim>
					<dim>1</dim>
					<dim>1</dim>
				</port>
			</output>
		</layer>
		<layer id="214" name="Constant_91143_compressed" type="Const" version="opset1">
			<data element_type="f16" shape="1, 1, 1, 1" offset="0" size="2" />
			<output>
				<port id="0" precision="FP16">
					<dim>1</dim>
					<dim>1</dim>
					<dim>1</dim>
					<dim>1</dim>
				</port>
			</output>
		</layer>
		<layer id="215" name="Constant_91143" type="Convert" version="opset1">
			<data destination_type="f32" />
			<rt_info>
				<attribute name="decompression" version="0" />
			</rt_info>
			<input>
				<port id="0" precision="FP16">
					<dim>1</dim>
					<dim>1</dim>
					<dim>1</dim>
					<dim>1</dim>
				</port>
			</input>
			<output>
				<port id="1" precision="FP32">
					<dim>1</dim>
					<dim>1</dim>
					<dim>1</dim>
					<dim>1</dim>
				</port>
			</output>
		</layer>
		<layer id="216" name="Constant_91144_compressed" type="Const" version="opset1">
			<data element_type="f16" shape="1, 1, 1, 1" offset="825340" size="2" />
			<output>
				<port id="0" precision="FP16">
					<dim>1</dim>
					<dim>1</dim>
					<dim>1</dim>
					<dim>1</dim>
				</port>
			</output>
		</layer>
		<layer id="217" name="Constant_91144" type="Convert" version="opset1">
			<data destination_type="f32" />
			<rt_info>
				<attribute name="decompression" version="0" />
			</rt_info>
			<input>
				<port id="0" precision="FP16">
					<dim>1</dim>
					<dim>1</dim>
					<dim>1</dim>
					<dim>1</dim>
				</port>
			</input>
			<output>
				<port id="1" precision="FP32">
					<dim>1</dim>
					<dim>1</dim>
					<dim>1</dim>
					<dim>1</dim>
				</port>
			</output>
		</layer>
		<layer id="218" name="/nncf_module/backbone/layer1/layer1.2/relu/CustomMaskRCNN/ResNet[backbone]/ResLayer[layer1]/Bottleneck[2]/ReLU[relu]/relu__1|OUTPUT/FakeQuantize" type="FakeQuantize" version="opset1">
			<data levels="256" auto_broadcast="numpy" />
			<input>
				<port id="0" precision="FP32">
					<dim>1</dim>
					<dim>64</dim>
					<dim>160</dim>
					<dim>160</dim>
				</port>
				<port id="1" precision="FP32">
					<dim>1</dim>
					<dim>1</dim>
					<dim>1</dim>
					<dim>1</dim>
				</port>
				<port id="2" precision="FP32">
					<dim>1</dim>
					<dim>1</dim>
					<dim>1</dim>
					<dim>1</dim>
				</port>
				<port id="3" precision="FP32">
					<dim>1</dim>
					<dim>1</dim>
					<dim>1</dim>
					<dim>1</dim>
				</port>
				<port id="4" precision="FP32">
					<dim>1</dim>
					<dim>1</dim>
					<dim>1</dim>
					<dim>1</dim>
				</port>
			</input>
			<output>
				<port id="5" precision="FP32" names="/nncf_module/backbone/layer1/layer1.2/relu/CustomMaskRCNN/ResNet[backbone]/ResLayer[layer1]/Bottleneck[2]/ReLU[relu]/relu__1|OUTPUT/FakeQuantize_output_0">
					<dim>1</dim>
					<dim>64</dim>
					<dim>160</dim>
					<dim>160</dim>
				</port>
			</output>
		</layer>
		<layer id="219" name="/nncf_module/backbone/layer1/layer1.2/conv3/pre_ops.0/op/Constant" type="Const" version="opset1">
			<data element_type="i8" shape="256, 64, 1, 1" offset="825342" size="16384" />
			<output>
				<port id="0" precision="I8">
					<dim>256</dim>
					<dim>64</dim>
					<dim>1</dim>
					<dim>1</dim>
				</port>
			</output>
		</layer>
		<layer id="220" name="Convert_96662" type="Convert" version="opset1">
			<data destination_type="f32" />
			<input>
				<port id="0" precision="I8">
					<dim>256</dim>
					<dim>64</dim>
					<dim>1</dim>
					<dim>1</dim>
				</port>
			</input>
			<output>
				<port id="1" precision="FP32">
					<dim>256</dim>
					<dim>64</dim>
					<dim>1</dim>
					<dim>1</dim>
				</port>
			</output>
		</layer>
		<layer id="221" name="Constant_96599_compressed" type="Const" version="opset1">
			<data element_type="f16" shape="256, 1, 1, 1" offset="841726" size="512" />
			<output>
				<port id="0" precision="FP16">
					<dim>256</dim>
					<dim>1</dim>
					<dim>1</dim>
					<dim>1</dim>
				</port>
			</output>
		</layer>
		<layer id="222" name="Constant_96599" type="Convert" version="opset1">
			<data destination_type="f32" />
			<rt_info>
				<attribute name="decompression" version="0" />
			</rt_info>
			<input>
				<port id="0" precision="FP16">
					<dim>256</dim>
					<dim>1</dim>
					<dim>1</dim>
					<dim>1</dim>
				</port>
			</input>
			<output>
				<port id="1" precision="FP32">
					<dim>256</dim>
					<dim>1</dim>
					<dim>1</dim>
					<dim>1</dim>
				</port>
			</output>
		</layer>
		<layer id="223" name="Multiply_87708" type="Multiply" version="opset1">
			<data auto_broadcast="numpy" />
			<input>
				<port id="0" precision="FP32">
					<dim>256</dim>
					<dim>64</dim>
					<dim>1</dim>
					<dim>1</dim>
				</port>
				<port id="1" precision="FP32">
					<dim>256</dim>
					<dim>1</dim>
					<dim>1</dim>
					<dim>1</dim>
				</port>
			</input>
			<output>
				<port id="2" precision="FP32">
					<dim>256</dim>
					<dim>64</dim>
					<dim>1</dim>
					<dim>1</dim>
				</port>
			</output>
		</layer>
		<layer id="224" name="Multiply_87310" type="Convolution" version="opset1">
			<data strides="1, 1" dilations="1, 1" pads_begin="0, 0" pads_end="0, 0" auto_pad="explicit" />
			<input>
				<port id="0" precision="FP32">
					<dim>1</dim>
					<dim>64</dim>
					<dim>160</dim>
					<dim>160</dim>
				</port>
				<port id="1" precision="FP32">
					<dim>256</dim>
					<dim>64</dim>
					<dim>1</dim>
					<dim>1</dim>
				</port>
			</input>
			<output>
				<port id="2" precision="FP32">
					<dim>1</dim>
					<dim>256</dim>
					<dim>160</dim>
					<dim>160</dim>
				</port>
			</output>
		</layer>
		<layer id="225" name="Constant_87315_compressed" type="Const" version="opset1">
			<data element_type="f16" shape="1, 256, 1, 1" offset="842238" size="512" />
			<output>
				<port id="0" precision="FP16">
					<dim>1</dim>
					<dim>256</dim>
					<dim>1</dim>
					<dim>1</dim>
				</port>
			</output>
		</layer>
		<layer id="226" name="Constant_87315" type="Convert" version="opset1">
			<data destination_type="f32" />
			<rt_info>
				<attribute name="decompression" version="0" />
			</rt_info>
			<input>
				<port id="0" precision="FP16">
					<dim>1</dim>
					<dim>256</dim>
					<dim>1</dim>
					<dim>1</dim>
				</port>
			</input>
			<output>
				<port id="1" precision="FP32">
					<dim>1</dim>
					<dim>256</dim>
					<dim>1</dim>
					<dim>1</dim>
				</port>
			</output>
		</layer>
		<layer id="227" name="/nncf_module/backbone/layer1/layer1.2/bn3/BatchNormalization" type="Add" version="opset1">
			<data auto_broadcast="numpy" />
			<input>
				<port id="0" precision="FP32">
					<dim>1</dim>
					<dim>256</dim>
					<dim>160</dim>
					<dim>160</dim>
				</port>
				<port id="1" precision="FP32">
					<dim>1</dim>
					<dim>256</dim>
					<dim>1</dim>
					<dim>1</dim>
				</port>
			</input>
			<output>
				<port id="2" precision="FP32" names="/nncf_module/backbone/layer1/layer1.2/bn3/BatchNormalization_output_0">
					<dim>1</dim>
					<dim>256</dim>
					<dim>160</dim>
					<dim>160</dim>
				</port>
			</output>
		</layer>
		<layer id="228" name="Constant_91145_compressed" type="Const" version="opset1">
			<data element_type="f16" shape="1, 1, 1, 1" offset="842750" size="2" />
			<output>
				<port id="0" precision="FP16">
					<dim>1</dim>
					<dim>1</dim>
					<dim>1</dim>
					<dim>1</dim>
				</port>
			</output>
		</layer>
		<layer id="229" name="Constant_91145" type="Convert" version="opset1">
			<data destination_type="f32" />
			<rt_info>
				<attribute name="decompression" version="0" />
			</rt_info>
			<input>
				<port id="0" precision="FP16">
					<dim>1</dim>
					<dim>1</dim>
					<dim>1</dim>
					<dim>1</dim>
				</port>
			</input>
			<output>
				<port id="1" precision="FP32">
					<dim>1</dim>
					<dim>1</dim>
					<dim>1</dim>
					<dim>1</dim>
				</port>
			</output>
		</layer>
		<layer id="230" name="Constant_91146_compressed" type="Const" version="opset1">
			<data element_type="f16" shape="1, 1, 1, 1" offset="842752" size="2" />
			<output>
				<port id="0" precision="FP16">
					<dim>1</dim>
					<dim>1</dim>
					<dim>1</dim>
					<dim>1</dim>
				</port>
			</output>
		</layer>
		<layer id="231" name="Constant_91146" type="Convert" version="opset1">
			<data destination_type="f32" />
			<rt_info>
				<attribute name="decompression" version="0" />
			</rt_info>
			<input>
				<port id="0" precision="FP16">
					<dim>1</dim>
					<dim>1</dim>
					<dim>1</dim>
					<dim>1</dim>
				</port>
			</input>
			<output>
				<port id="1" precision="FP32">
					<dim>1</dim>
					<dim>1</dim>
					<dim>1</dim>
					<dim>1</dim>
				</port>
			</output>
		</layer>
		<layer id="232" name="Constant_91147_compressed" type="Const" version="opset1">
			<data element_type="f16" shape="1, 1, 1, 1" offset="842750" size="2" />
			<output>
				<port id="0" precision="FP16">
					<dim>1</dim>
					<dim>1</dim>
					<dim>1</dim>
					<dim>1</dim>
				</port>
			</output>
		</layer>
		<layer id="233" name="Constant_91147" type="Convert" version="opset1">
			<data destination_type="f32" />
			<rt_info>
				<attribute name="decompression" version="0" />
			</rt_info>
			<input>
				<port id="0" precision="FP16">
					<dim>1</dim>
					<dim>1</dim>
					<dim>1</dim>
					<dim>1</dim>
				</port>
			</input>
			<output>
				<port id="1" precision="FP32">
					<dim>1</dim>
					<dim>1</dim>
					<dim>1</dim>
					<dim>1</dim>
				</port>
			</output>
		</layer>
		<layer id="234" name="Constant_91148_compressed" type="Const" version="opset1">
			<data element_type="f16" shape="1, 1, 1, 1" offset="842752" size="2" />
			<output>
				<port id="0" precision="FP16">
					<dim>1</dim>
					<dim>1</dim>
					<dim>1</dim>
					<dim>1</dim>
				</port>
			</output>
		</layer>
		<layer id="235" name="Constant_91148" type="Convert" version="opset1">
			<data destination_type="f32" />
			<rt_info>
				<attribute name="decompression" version="0" />
			</rt_info>
			<input>
				<port id="0" precision="FP16">
					<dim>1</dim>
					<dim>1</dim>
					<dim>1</dim>
					<dim>1</dim>
				</port>
			</input>
			<output>
				<port id="1" precision="FP32">
					<dim>1</dim>
					<dim>1</dim>
					<dim>1</dim>
					<dim>1</dim>
				</port>
			</output>
		</layer>
		<layer id="236" name="/nncf_module/backbone/layer1/layer1.2/bn3/CustomMaskRCNN/ResNet[backbone]/ResLayer[layer1]/Bottleneck[2]/NNCFBatchNorm2d[bn3]/batch_norm_0|OUTPUT/FakeQuantize" type="FakeQuantize" version="opset1">
			<data levels="256" auto_broadcast="numpy" />
			<input>
				<port id="0" precision="FP32">
					<dim>1</dim>
					<dim>256</dim>
					<dim>160</dim>
					<dim>160</dim>
				</port>
				<port id="1" precision="FP32">
					<dim>1</dim>
					<dim>1</dim>
					<dim>1</dim>
					<dim>1</dim>
				</port>
				<port id="2" precision="FP32">
					<dim>1</dim>
					<dim>1</dim>
					<dim>1</dim>
					<dim>1</dim>
				</port>
				<port id="3" precision="FP32">
					<dim>1</dim>
					<dim>1</dim>
					<dim>1</dim>
					<dim>1</dim>
				</port>
				<port id="4" precision="FP32">
					<dim>1</dim>
					<dim>1</dim>
					<dim>1</dim>
					<dim>1</dim>
				</port>
			</input>
			<output>
				<port id="5" precision="FP32" names="/nncf_module/backbone/layer1/layer1.2/bn3/CustomMaskRCNN/ResNet[backbone]/ResLayer[layer1]/Bottleneck[2]/NNCFBatchNorm2d[bn3]/batch_norm_0|OUTPUT/FakeQuantize_output_0">
					<dim>1</dim>
					<dim>256</dim>
					<dim>160</dim>
					<dim>160</dim>
				</port>
			</output>
		</layer>
		<layer id="237" name="/nncf_module/backbone/layer1/layer1.2/Add" type="Add" version="opset1">
			<data auto_broadcast="numpy" />
			<input>
				<port id="0" precision="FP32">
					<dim>1</dim>
					<dim>256</dim>
					<dim>160</dim>
					<dim>160</dim>
				</port>
				<port id="1" precision="FP32">
					<dim>1</dim>
					<dim>256</dim>
					<dim>160</dim>
					<dim>160</dim>
				</port>
			</input>
			<output>
				<port id="2" precision="FP32" names="/nncf_module/backbone/layer1/layer1.2/Add_output_0">
					<dim>1</dim>
					<dim>256</dim>
					<dim>160</dim>
					<dim>160</dim>
				</port>
			</output>
		</layer>
		<layer id="238" name="Constant_91149_compressed" type="Const" version="opset1">
			<data element_type="f16" shape="1, 1, 1, 1" offset="0" size="2" />
			<output>
				<port id="0" precision="FP16">
					<dim>1</dim>
					<dim>1</dim>
					<dim>1</dim>
					<dim>1</dim>
				</port>
			</output>
		</layer>
		<layer id="239" name="Constant_91149" type="Convert" version="opset1">
			<data destination_type="f32" />
			<rt_info>
				<attribute name="decompression" version="0" />
			</rt_info>
			<input>
				<port id="0" precision="FP16">
					<dim>1</dim>
					<dim>1</dim>
					<dim>1</dim>
					<dim>1</dim>
				</port>
			</input>
			<output>
				<port id="1" precision="FP32">
					<dim>1</dim>
					<dim>1</dim>
					<dim>1</dim>
					<dim>1</dim>
				</port>
			</output>
		</layer>
		<layer id="240" name="Constant_91150_compressed" type="Const" version="opset1">
			<data element_type="f16" shape="1, 1, 1, 1" offset="842754" size="2" />
			<output>
				<port id="0" precision="FP16">
					<dim>1</dim>
					<dim>1</dim>
					<dim>1</dim>
					<dim>1</dim>
				</port>
			</output>
		</layer>
		<layer id="241" name="Constant_91150" type="Convert" version="opset1">
			<data destination_type="f32" />
			<rt_info>
				<attribute name="decompression" version="0" />
			</rt_info>
			<input>
				<port id="0" precision="FP16">
					<dim>1</dim>
					<dim>1</dim>
					<dim>1</dim>
					<dim>1</dim>
				</port>
			</input>
			<output>
				<port id="1" precision="FP32">
					<dim>1</dim>
					<dim>1</dim>
					<dim>1</dim>
					<dim>1</dim>
				</port>
			</output>
		</layer>
		<layer id="242" name="Constant_91151_compressed" type="Const" version="opset1">
			<data element_type="f16" shape="1, 1, 1, 1" offset="0" size="2" />
			<output>
				<port id="0" precision="FP16">
					<dim>1</dim>
					<dim>1</dim>
					<dim>1</dim>
					<dim>1</dim>
				</port>
			</output>
		</layer>
		<layer id="243" name="Constant_91151" type="Convert" version="opset1">
			<data destination_type="f32" />
			<rt_info>
				<attribute name="decompression" version="0" />
			</rt_info>
			<input>
				<port id="0" precision="FP16">
					<dim>1</dim>
					<dim>1</dim>
					<dim>1</dim>
					<dim>1</dim>
				</port>
			</input>
			<output>
				<port id="1" precision="FP32">
					<dim>1</dim>
					<dim>1</dim>
					<dim>1</dim>
					<dim>1</dim>
				</port>
			</output>
		</layer>
		<layer id="244" name="Constant_91152_compressed" type="Const" version="opset1">
			<data element_type="f16" shape="1, 1, 1, 1" offset="842754" size="2" />
			<output>
				<port id="0" precision="FP16">
					<dim>1</dim>
					<dim>1</dim>
					<dim>1</dim>
					<dim>1</dim>
				</port>
			</output>
		</layer>
		<layer id="245" name="Constant_91152" type="Convert" version="opset1">
			<data destination_type="f32" />
			<rt_info>
				<attribute name="decompression" version="0" />
			</rt_info>
			<input>
				<port id="0" precision="FP16">
					<dim>1</dim>
					<dim>1</dim>
					<dim>1</dim>
					<dim>1</dim>
				</port>
			</input>
			<output>
				<port id="1" precision="FP32">
					<dim>1</dim>
					<dim>1</dim>
					<dim>1</dim>
					<dim>1</dim>
				</port>
			</output>
		</layer>
		<layer id="246" name="/nncf_module/backbone/layer1/layer1.2/relu/CustomMaskRCNN/ResNet[backbone]/ResLayer[layer1]/Bottleneck[2]/ReLU[relu]/relu__2|OUTPUT/FakeQuantize" type="FakeQuantize" version="opset1">
			<data levels="256" auto_broadcast="numpy" />
			<input>
				<port id="0" precision="FP32">
					<dim>1</dim>
					<dim>256</dim>
					<dim>160</dim>
					<dim>160</dim>
				</port>
				<port id="1" precision="FP32">
					<dim>1</dim>
					<dim>1</dim>
					<dim>1</dim>
					<dim>1</dim>
				</port>
				<port id="2" precision="FP32">
					<dim>1</dim>
					<dim>1</dim>
					<dim>1</dim>
					<dim>1</dim>
				</port>
				<port id="3" precision="FP32">
					<dim>1</dim>
					<dim>1</dim>
					<dim>1</dim>
					<dim>1</dim>
				</port>
				<port id="4" precision="FP32">
					<dim>1</dim>
					<dim>1</dim>
					<dim>1</dim>
					<dim>1</dim>
				</port>
			</input>
			<output>
				<port id="5" precision="FP32" names="/nncf_module/backbone/layer1/layer1.2/relu/CustomMaskRCNN/ResNet[backbone]/ResLayer[layer1]/Bottleneck[2]/ReLU[relu]/relu__2|OUTPUT/FakeQuantize_output_0">
					<dim>1</dim>
					<dim>256</dim>
					<dim>160</dim>
					<dim>160</dim>
				</port>
			</output>
		</layer>
		<layer id="247" name="/nncf_module/neck/lateral_convs.0/conv/pre_ops.0/op/Constant" type="Const" version="opset1">
			<data element_type="i8" shape="256, 256, 1, 1" offset="842756" size="65536" />
			<output>
				<port id="0" precision="I8">
					<dim>256</dim>
					<dim>256</dim>
					<dim>1</dim>
					<dim>1</dim>
				</port>
			</output>
		</layer>
		<layer id="248" name="Convert_96783" type="Convert" version="opset1">
			<data destination_type="f32" />
			<input>
				<port id="0" precision="I8">
					<dim>256</dim>
					<dim>256</dim>
					<dim>1</dim>
					<dim>1</dim>
				</port>
			</input>
			<output>
				<port id="1" precision="FP32">
					<dim>256</dim>
					<dim>256</dim>
					<dim>1</dim>
					<dim>1</dim>
				</port>
			</output>
		</layer>
		<layer id="249" name="Constant_96720_compressed" type="Const" version="opset1">
			<data element_type="f16" shape="256, 1, 1, 1" offset="908292" size="512" />
			<output>
				<port id="0" precision="FP16">
					<dim>256</dim>
					<dim>1</dim>
					<dim>1</dim>
					<dim>1</dim>
				</port>
			</output>
		</layer>
		<layer id="250" name="Constant_96720" type="Convert" version="opset1">
			<data destination_type="f32" />
			<rt_info>
				<attribute name="decompression" version="0" />
			</rt_info>
			<input>
				<port id="0" precision="FP16">
					<dim>256</dim>
					<dim>1</dim>
					<dim>1</dim>
					<dim>1</dim>
				</port>
			</input>
			<output>
				<port id="1" precision="FP32">
					<dim>256</dim>
					<dim>1</dim>
					<dim>1</dim>
					<dim>1</dim>
				</port>
			</output>
		</layer>
		<layer id="251" name="/nncf_module/neck/lateral_convs.0/conv/pre_ops.0/op/FakeQuantize" type="Multiply" version="opset1">
			<data auto_broadcast="numpy" />
			<input>
				<port id="0" precision="FP32">
					<dim>256</dim>
					<dim>256</dim>
					<dim>1</dim>
					<dim>1</dim>
				</port>
				<port id="1" precision="FP32">
					<dim>256</dim>
					<dim>1</dim>
					<dim>1</dim>
					<dim>1</dim>
				</port>
			</input>
			<output>
				<port id="2" precision="FP32" names="/nncf_module/neck/lateral_convs.0/conv/pre_ops.0/op/FakeQuantize_output_0">
					<dim>256</dim>
					<dim>256</dim>
					<dim>1</dim>
					<dim>1</dim>
				</port>
			</output>
		</layer>
		<layer id="252" name="/nncf_module/neck/lateral_convs.0/conv/Conv/WithoutBiases" type="Convolution" version="opset1">
			<data strides="1, 1" dilations="1, 1" pads_begin="0, 0" pads_end="0, 0" auto_pad="explicit" />
			<input>
				<port id="0" precision="FP32">
					<dim>1</dim>
					<dim>256</dim>
					<dim>160</dim>
					<dim>160</dim>
				</port>
				<port id="1" precision="FP32">
					<dim>256</dim>
					<dim>256</dim>
					<dim>1</dim>
					<dim>1</dim>
				</port>
			</input>
			<output>
				<port id="2" precision="FP32">
					<dim>1</dim>
					<dim>256</dim>
					<dim>160</dim>
					<dim>160</dim>
				</port>
			</output>
		</layer>
		<layer id="253" name="Reshape_857_compressed" type="Const" version="opset1">
			<data element_type="f16" shape="1, 256, 1, 1" offset="908804" size="512" />
			<output>
				<port id="0" precision="FP16">
					<dim>1</dim>
					<dim>256</dim>
					<dim>1</dim>
					<dim>1</dim>
				</port>
			</output>
		</layer>
		<layer id="254" name="Reshape_857" type="Convert" version="opset1">
			<data destination_type="f32" />
			<rt_info>
				<attribute name="decompression" version="0" />
			</rt_info>
			<input>
				<port id="0" precision="FP16">
					<dim>1</dim>
					<dim>256</dim>
					<dim>1</dim>
					<dim>1</dim>
				</port>
			</input>
			<output>
				<port id="1" precision="FP32">
					<dim>1</dim>
					<dim>256</dim>
					<dim>1</dim>
					<dim>1</dim>
				</port>
			</output>
		</layer>
		<layer id="255" name="/nncf_module/neck/lateral_convs.0/conv/Conv" type="Add" version="opset1">
			<data auto_broadcast="numpy" />
			<input>
				<port id="0" precision="FP32">
					<dim>1</dim>
					<dim>256</dim>
					<dim>160</dim>
					<dim>160</dim>
				</port>
				<port id="1" precision="FP32">
					<dim>1</dim>
					<dim>256</dim>
					<dim>1</dim>
					<dim>1</dim>
				</port>
			</input>
			<output>
				<port id="2" precision="FP32" names="/nncf_module/neck/lateral_convs.0/conv/Conv_output_0">
					<dim>1</dim>
					<dim>256</dim>
					<dim>160</dim>
					<dim>160</dim>
				</port>
			</output>
		</layer>
		<layer id="256" name="Constant_91153_compressed" type="Const" version="opset1">
			<data element_type="f16" shape="1, 1, 1, 1" offset="909316" size="2" />
			<output>
				<port id="0" precision="FP16">
					<dim>1</dim>
					<dim>1</dim>
					<dim>1</dim>
					<dim>1</dim>
				</port>
			</output>
		</layer>
		<layer id="257" name="Constant_91153" type="Convert" version="opset1">
			<data destination_type="f32" />
			<rt_info>
				<attribute name="decompression" version="0" />
			</rt_info>
			<input>
				<port id="0" precision="FP16">
					<dim>1</dim>
					<dim>1</dim>
					<dim>1</dim>
					<dim>1</dim>
				</port>
			</input>
			<output>
				<port id="1" precision="FP32">
					<dim>1</dim>
					<dim>1</dim>
					<dim>1</dim>
					<dim>1</dim>
				</port>
			</output>
		</layer>
		<layer id="258" name="Constant_91154_compressed" type="Const" version="opset1">
			<data element_type="f16" shape="1, 1, 1, 1" offset="909318" size="2" />
			<output>
				<port id="0" precision="FP16">
					<dim>1</dim>
					<dim>1</dim>
					<dim>1</dim>
					<dim>1</dim>
				</port>
			</output>
		</layer>
		<layer id="259" name="Constant_91154" type="Convert" version="opset1">
			<data destination_type="f32" />
			<rt_info>
				<attribute name="decompression" version="0" />
			</rt_info>
			<input>
				<port id="0" precision="FP16">
					<dim>1</dim>
					<dim>1</dim>
					<dim>1</dim>
					<dim>1</dim>
				</port>
			</input>
			<output>
				<port id="1" precision="FP32">
					<dim>1</dim>
					<dim>1</dim>
					<dim>1</dim>
					<dim>1</dim>
				</port>
			</output>
		</layer>
		<layer id="260" name="Constant_91155_compressed" type="Const" version="opset1">
			<data element_type="f16" shape="1, 1, 1, 1" offset="909316" size="2" />
			<output>
				<port id="0" precision="FP16">
					<dim>1</dim>
					<dim>1</dim>
					<dim>1</dim>
					<dim>1</dim>
				</port>
			</output>
		</layer>
		<layer id="261" name="Constant_91155" type="Convert" version="opset1">
			<data destination_type="f32" />
			<rt_info>
				<attribute name="decompression" version="0" />
			</rt_info>
			<input>
				<port id="0" precision="FP16">
					<dim>1</dim>
					<dim>1</dim>
					<dim>1</dim>
					<dim>1</dim>
				</port>
			</input>
			<output>
				<port id="1" precision="FP32">
					<dim>1</dim>
					<dim>1</dim>
					<dim>1</dim>
					<dim>1</dim>
				</port>
			</output>
		</layer>
		<layer id="262" name="Constant_91156_compressed" type="Const" version="opset1">
			<data element_type="f16" shape="1, 1, 1, 1" offset="909318" size="2" />
			<output>
				<port id="0" precision="FP16">
					<dim>1</dim>
					<dim>1</dim>
					<dim>1</dim>
					<dim>1</dim>
				</port>
			</output>
		</layer>
		<layer id="263" name="Constant_91156" type="Convert" version="opset1">
			<data destination_type="f32" />
			<rt_info>
				<attribute name="decompression" version="0" />
			</rt_info>
			<input>
				<port id="0" precision="FP16">
					<dim>1</dim>
					<dim>1</dim>
					<dim>1</dim>
					<dim>1</dim>
				</port>
			</input>
			<output>
				<port id="1" precision="FP32">
					<dim>1</dim>
					<dim>1</dim>
					<dim>1</dim>
					<dim>1</dim>
				</port>
			</output>
		</layer>
		<layer id="264" name="/nncf_module/neck/lateral_convs.0/conv/CustomMaskRCNN/FPN[neck]/ModuleList[lateral_convs]/ConvModule[0]/NNCFConv2d[conv]/conv2d_0|OUTPUT/FakeQuantize" type="FakeQuantize" version="opset1">
			<data levels="256" auto_broadcast="numpy" />
			<input>
				<port id="0" precision="FP32">
					<dim>1</dim>
					<dim>256</dim>
					<dim>160</dim>
					<dim>160</dim>
				</port>
				<port id="1" precision="FP32">
					<dim>1</dim>
					<dim>1</dim>
					<dim>1</dim>
					<dim>1</dim>
				</port>
				<port id="2" precision="FP32">
					<dim>1</dim>
					<dim>1</dim>
					<dim>1</dim>
					<dim>1</dim>
				</port>
				<port id="3" precision="FP32">
					<dim>1</dim>
					<dim>1</dim>
					<dim>1</dim>
					<dim>1</dim>
				</port>
				<port id="4" precision="FP32">
					<dim>1</dim>
					<dim>1</dim>
					<dim>1</dim>
					<dim>1</dim>
				</port>
			</input>
			<output>
				<port id="5" precision="FP32" names="/nncf_module/neck/lateral_convs.0/conv/CustomMaskRCNN/FPN[neck]/ModuleList[lateral_convs]/ConvModule[0]/NNCFConv2d[conv]/conv2d_0|OUTPUT/FakeQuantize_output_0">
					<dim>1</dim>
					<dim>256</dim>
					<dim>160</dim>
					<dim>160</dim>
				</port>
			</output>
		</layer>
		<layer id="265" name="/nncf_module/backbone/layer2/layer2.0/conv1/pre_ops.0/op/Constant" type="Const" version="opset1">
			<data element_type="i8" shape="128, 256, 1, 1" offset="909320" size="32768" />
			<output>
				<port id="0" precision="I8">
					<dim>128</dim>
					<dim>256</dim>
					<dim>1</dim>
					<dim>1</dim>
				</port>
			</output>
		</layer>
		<layer id="266" name="Convert_96904" type="Convert" version="opset1">
			<data destination_type="f32" />
			<input>
				<port id="0" precision="I8">
					<dim>128</dim>
					<dim>256</dim>
					<dim>1</dim>
					<dim>1</dim>
				</port>
			</input>
			<output>
				<port id="1" precision="FP32">
					<dim>128</dim>
					<dim>256</dim>
					<dim>1</dim>
					<dim>1</dim>
				</port>
			</output>
		</layer>
		<layer id="267" name="Constant_96841_compressed" type="Const" version="opset1">
			<data element_type="f16" shape="128, 1, 1, 1" offset="942088" size="256" />
			<output>
				<port id="0" precision="FP16">
					<dim>128</dim>
					<dim>1</dim>
					<dim>1</dim>
					<dim>1</dim>
				</port>
			</output>
		</layer>
		<layer id="268" name="Constant_96841" type="Convert" version="opset1">
			<data destination_type="f32" />
			<rt_info>
				<attribute name="decompression" version="0" />
			</rt_info>
			<input>
				<port id="0" precision="FP16">
					<dim>128</dim>
					<dim>1</dim>
					<dim>1</dim>
					<dim>1</dim>
				</port>
			</input>
			<output>
				<port id="1" precision="FP32">
					<dim>128</dim>
					<dim>1</dim>
					<dim>1</dim>
					<dim>1</dim>
				</port>
			</output>
		</layer>
		<layer id="269" name="Multiply_87717" type="Multiply" version="opset1">
			<data auto_broadcast="numpy" />
			<input>
				<port id="0" precision="FP32">
					<dim>128</dim>
					<dim>256</dim>
					<dim>1</dim>
					<dim>1</dim>
				</port>
				<port id="1" precision="FP32">
					<dim>128</dim>
					<dim>1</dim>
					<dim>1</dim>
					<dim>1</dim>
				</port>
			</input>
			<output>
				<port id="2" precision="FP32">
					<dim>128</dim>
					<dim>256</dim>
					<dim>1</dim>
					<dim>1</dim>
				</port>
			</output>
		</layer>
		<layer id="270" name="Multiply_87317" type="Convolution" version="opset1">
			<data strides="1, 1" dilations="1, 1" pads_begin="0, 0" pads_end="0, 0" auto_pad="explicit" />
			<input>
				<port id="0" precision="FP32">
					<dim>1</dim>
					<dim>256</dim>
					<dim>160</dim>
					<dim>160</dim>
				</port>
				<port id="1" precision="FP32">
					<dim>128</dim>
					<dim>256</dim>
					<dim>1</dim>
					<dim>1</dim>
				</port>
			</input>
			<output>
				<port id="2" precision="FP32">
					<dim>1</dim>
					<dim>128</dim>
					<dim>160</dim>
					<dim>160</dim>
				</port>
			</output>
		</layer>
		<layer id="271" name="Constant_87322_compressed" type="Const" version="opset1">
			<data element_type="f16" shape="1, 128, 1, 1" offset="942344" size="256" />
			<output>
				<port id="0" precision="FP16">
					<dim>1</dim>
					<dim>128</dim>
					<dim>1</dim>
					<dim>1</dim>
				</port>
			</output>
		</layer>
		<layer id="272" name="Constant_87322" type="Convert" version="opset1">
			<data destination_type="f32" />
			<rt_info>
				<attribute name="decompression" version="0" />
			</rt_info>
			<input>
				<port id="0" precision="FP16">
					<dim>1</dim>
					<dim>128</dim>
					<dim>1</dim>
					<dim>1</dim>
				</port>
			</input>
			<output>
				<port id="1" precision="FP32">
					<dim>1</dim>
					<dim>128</dim>
					<dim>1</dim>
					<dim>1</dim>
				</port>
			</output>
		</layer>
		<layer id="273" name="/nncf_module/backbone/layer2/layer2.0/bn1/BatchNormalization" type="Add" version="opset1">
			<data auto_broadcast="numpy" />
			<input>
				<port id="0" precision="FP32">
					<dim>1</dim>
					<dim>128</dim>
					<dim>160</dim>
					<dim>160</dim>
				</port>
				<port id="1" precision="FP32">
					<dim>1</dim>
					<dim>128</dim>
					<dim>1</dim>
					<dim>1</dim>
				</port>
			</input>
			<output>
				<port id="2" precision="FP32" names="/nncf_module/backbone/layer2/layer2.0/bn1/BatchNormalization_output_0">
					<dim>1</dim>
					<dim>128</dim>
					<dim>160</dim>
					<dim>160</dim>
				</port>
			</output>
		</layer>
		<layer id="274" name="Constant_91157_compressed" type="Const" version="opset1">
			<data element_type="f16" shape="1, 1, 1, 1" offset="0" size="2" />
			<output>
				<port id="0" precision="FP16">
					<dim>1</dim>
					<dim>1</dim>
					<dim>1</dim>
					<dim>1</dim>
				</port>
			</output>
		</layer>
		<layer id="275" name="Constant_91157" type="Convert" version="opset1">
			<data destination_type="f32" />
			<rt_info>
				<attribute name="decompression" version="0" />
			</rt_info>
			<input>
				<port id="0" precision="FP16">
					<dim>1</dim>
					<dim>1</dim>
					<dim>1</dim>
					<dim>1</dim>
				</port>
			</input>
			<output>
				<port id="1" precision="FP32">
					<dim>1</dim>
					<dim>1</dim>
					<dim>1</dim>
					<dim>1</dim>
				</port>
			</output>
		</layer>
		<layer id="276" name="Constant_91158_compressed" type="Const" version="opset1">
			<data element_type="f16" shape="1, 1, 1, 1" offset="942600" size="2" />
			<output>
				<port id="0" precision="FP16">
					<dim>1</dim>
					<dim>1</dim>
					<dim>1</dim>
					<dim>1</dim>
				</port>
			</output>
		</layer>
		<layer id="277" name="Constant_91158" type="Convert" version="opset1">
			<data destination_type="f32" />
			<rt_info>
				<attribute name="decompression" version="0" />
			</rt_info>
			<input>
				<port id="0" precision="FP16">
					<dim>1</dim>
					<dim>1</dim>
					<dim>1</dim>
					<dim>1</dim>
				</port>
			</input>
			<output>
				<port id="1" precision="FP32">
					<dim>1</dim>
					<dim>1</dim>
					<dim>1</dim>
					<dim>1</dim>
				</port>
			</output>
		</layer>
		<layer id="278" name="Constant_91159_compressed" type="Const" version="opset1">
			<data element_type="f16" shape="1, 1, 1, 1" offset="0" size="2" />
			<output>
				<port id="0" precision="FP16">
					<dim>1</dim>
					<dim>1</dim>
					<dim>1</dim>
					<dim>1</dim>
				</port>
			</output>
		</layer>
		<layer id="279" name="Constant_91159" type="Convert" version="opset1">
			<data destination_type="f32" />
			<rt_info>
				<attribute name="decompression" version="0" />
			</rt_info>
			<input>
				<port id="0" precision="FP16">
					<dim>1</dim>
					<dim>1</dim>
					<dim>1</dim>
					<dim>1</dim>
				</port>
			</input>
			<output>
				<port id="1" precision="FP32">
					<dim>1</dim>
					<dim>1</dim>
					<dim>1</dim>
					<dim>1</dim>
				</port>
			</output>
		</layer>
		<layer id="280" name="Constant_91160_compressed" type="Const" version="opset1">
			<data element_type="f16" shape="1, 1, 1, 1" offset="942600" size="2" />
			<output>
				<port id="0" precision="FP16">
					<dim>1</dim>
					<dim>1</dim>
					<dim>1</dim>
					<dim>1</dim>
				</port>
			</output>
		</layer>
		<layer id="281" name="Constant_91160" type="Convert" version="opset1">
			<data destination_type="f32" />
			<rt_info>
				<attribute name="decompression" version="0" />
			</rt_info>
			<input>
				<port id="0" precision="FP16">
					<dim>1</dim>
					<dim>1</dim>
					<dim>1</dim>
					<dim>1</dim>
				</port>
			</input>
			<output>
				<port id="1" precision="FP32">
					<dim>1</dim>
					<dim>1</dim>
					<dim>1</dim>
					<dim>1</dim>
				</port>
			</output>
		</layer>
		<layer id="282" name="/nncf_module/backbone/layer2/layer2.0/relu/CustomMaskRCNN/ResNet[backbone]/ResLayer[layer2]/Bottleneck[0]/ReLU[relu]/relu__0|OUTPUT/FakeQuantize" type="FakeQuantize" version="opset1">
			<data levels="256" auto_broadcast="numpy" />
			<input>
				<port id="0" precision="FP32">
					<dim>1</dim>
					<dim>128</dim>
					<dim>160</dim>
					<dim>160</dim>
				</port>
				<port id="1" precision="FP32">
					<dim>1</dim>
					<dim>1</dim>
					<dim>1</dim>
					<dim>1</dim>
				</port>
				<port id="2" precision="FP32">
					<dim>1</dim>
					<dim>1</dim>
					<dim>1</dim>
					<dim>1</dim>
				</port>
				<port id="3" precision="FP32">
					<dim>1</dim>
					<dim>1</dim>
					<dim>1</dim>
					<dim>1</dim>
				</port>
				<port id="4" precision="FP32">
					<dim>1</dim>
					<dim>1</dim>
					<dim>1</dim>
					<dim>1</dim>
				</port>
			</input>
			<output>
				<port id="5" precision="FP32" names="/nncf_module/backbone/layer2/layer2.0/relu/CustomMaskRCNN/ResNet[backbone]/ResLayer[layer2]/Bottleneck[0]/ReLU[relu]/relu__0|OUTPUT/FakeQuantize_output_0">
					<dim>1</dim>
					<dim>128</dim>
					<dim>160</dim>
					<dim>160</dim>
				</port>
			</output>
		</layer>
		<layer id="283" name="/nncf_module/backbone/layer2/layer2.0/conv2/pre_ops.0/op/Constant" type="Const" version="opset1">
			<data element_type="i8" shape="128, 128, 3, 3" offset="942602" size="147456" />
			<output>
				<port id="0" precision="I8">
					<dim>128</dim>
					<dim>128</dim>
					<dim>3</dim>
					<dim>3</dim>
				</port>
			</output>
		</layer>
		<layer id="284" name="Convert_97025" type="Convert" version="opset1">
			<data destination_type="f32" />
			<input>
				<port id="0" precision="I8">
					<dim>128</dim>
					<dim>128</dim>
					<dim>3</dim>
					<dim>3</dim>
				</port>
			</input>
			<output>
				<port id="1" precision="FP32">
					<dim>128</dim>
					<dim>128</dim>
					<dim>3</dim>
					<dim>3</dim>
				</port>
			</output>
		</layer>
		<layer id="285" name="Constant_96962_compressed" type="Const" version="opset1">
			<data element_type="f16" shape="128, 1, 1, 1" offset="1090058" size="256" />
			<output>
				<port id="0" precision="FP16">
					<dim>128</dim>
					<dim>1</dim>
					<dim>1</dim>
					<dim>1</dim>
				</port>
			</output>
		</layer>
		<layer id="286" name="Constant_96962" type="Convert" version="opset1">
			<data destination_type="f32" />
			<rt_info>
				<attribute name="decompression" version="0" />
			</rt_info>
			<input>
				<port id="0" precision="FP16">
					<dim>128</dim>
					<dim>1</dim>
					<dim>1</dim>
					<dim>1</dim>
				</port>
			</input>
			<output>
				<port id="1" precision="FP32">
					<dim>128</dim>
					<dim>1</dim>
					<dim>1</dim>
					<dim>1</dim>
				</port>
			</output>
		</layer>
		<layer id="287" name="Multiply_87726" type="Multiply" version="opset1">
			<data auto_broadcast="numpy" />
			<input>
				<port id="0" precision="FP32">
					<dim>128</dim>
					<dim>128</dim>
					<dim>3</dim>
					<dim>3</dim>
				</port>
				<port id="1" precision="FP32">
					<dim>128</dim>
					<dim>1</dim>
					<dim>1</dim>
					<dim>1</dim>
				</port>
			</input>
			<output>
				<port id="2" precision="FP32">
					<dim>128</dim>
					<dim>128</dim>
					<dim>3</dim>
					<dim>3</dim>
				</port>
			</output>
		</layer>
		<layer id="288" name="Multiply_87324" type="Convolution" version="opset1">
			<data strides="2, 2" dilations="1, 1" pads_begin="1, 1" pads_end="1, 1" auto_pad="explicit" />
			<input>
				<port id="0" precision="FP32">
					<dim>1</dim>
					<dim>128</dim>
					<dim>160</dim>
					<dim>160</dim>
				</port>
				<port id="1" precision="FP32">
					<dim>128</dim>
					<dim>128</dim>
					<dim>3</dim>
					<dim>3</dim>
				</port>
			</input>
			<output>
				<port id="2" precision="FP32">
					<dim>1</dim>
					<dim>128</dim>
					<dim>80</dim>
					<dim>80</dim>
				</port>
			</output>
		</layer>
		<layer id="289" name="Constant_87329_compressed" type="Const" version="opset1">
			<data element_type="f16" shape="1, 128, 1, 1" offset="1090314" size="256" />
			<output>
				<port id="0" precision="FP16">
					<dim>1</dim>
					<dim>128</dim>
					<dim>1</dim>
					<dim>1</dim>
				</port>
			</output>
		</layer>
		<layer id="290" name="Constant_87329" type="Convert" version="opset1">
			<data destination_type="f32" />
			<rt_info>
				<attribute name="decompression" version="0" />
			</rt_info>
			<input>
				<port id="0" precision="FP16">
					<dim>1</dim>
					<dim>128</dim>
					<dim>1</dim>
					<dim>1</dim>
				</port>
			</input>
			<output>
				<port id="1" precision="FP32">
					<dim>1</dim>
					<dim>128</dim>
					<dim>1</dim>
					<dim>1</dim>
				</port>
			</output>
		</layer>
		<layer id="291" name="/nncf_module/backbone/layer2/layer2.0/bn2/BatchNormalization" type="Add" version="opset1">
			<data auto_broadcast="numpy" />
			<input>
				<port id="0" precision="FP32">
					<dim>1</dim>
					<dim>128</dim>
					<dim>80</dim>
					<dim>80</dim>
				</port>
				<port id="1" precision="FP32">
					<dim>1</dim>
					<dim>128</dim>
					<dim>1</dim>
					<dim>1</dim>
				</port>
			</input>
			<output>
				<port id="2" precision="FP32" names="/nncf_module/backbone/layer2/layer2.0/bn2/BatchNormalization_output_0">
					<dim>1</dim>
					<dim>128</dim>
					<dim>80</dim>
					<dim>80</dim>
				</port>
			</output>
		</layer>
		<layer id="292" name="Constant_91161_compressed" type="Const" version="opset1">
			<data element_type="f16" shape="1, 1, 1, 1" offset="0" size="2" />
			<output>
				<port id="0" precision="FP16">
					<dim>1</dim>
					<dim>1</dim>
					<dim>1</dim>
					<dim>1</dim>
				</port>
			</output>
		</layer>
		<layer id="293" name="Constant_91161" type="Convert" version="opset1">
			<data destination_type="f32" />
			<rt_info>
				<attribute name="decompression" version="0" />
			</rt_info>
			<input>
				<port id="0" precision="FP16">
					<dim>1</dim>
					<dim>1</dim>
					<dim>1</dim>
					<dim>1</dim>
				</port>
			</input>
			<output>
				<port id="1" precision="FP32">
					<dim>1</dim>
					<dim>1</dim>
					<dim>1</dim>
					<dim>1</dim>
				</port>
			</output>
		</layer>
		<layer id="294" name="Constant_91162_compressed" type="Const" version="opset1">
			<data element_type="f16" shape="1, 1, 1, 1" offset="1090570" size="2" />
			<output>
				<port id="0" precision="FP16">
					<dim>1</dim>
					<dim>1</dim>
					<dim>1</dim>
					<dim>1</dim>
				</port>
			</output>
		</layer>
		<layer id="295" name="Constant_91162" type="Convert" version="opset1">
			<data destination_type="f32" />
			<rt_info>
				<attribute name="decompression" version="0" />
			</rt_info>
			<input>
				<port id="0" precision="FP16">
					<dim>1</dim>
					<dim>1</dim>
					<dim>1</dim>
					<dim>1</dim>
				</port>
			</input>
			<output>
				<port id="1" precision="FP32">
					<dim>1</dim>
					<dim>1</dim>
					<dim>1</dim>
					<dim>1</dim>
				</port>
			</output>
		</layer>
		<layer id="296" name="Constant_91163_compressed" type="Const" version="opset1">
			<data element_type="f16" shape="1, 1, 1, 1" offset="0" size="2" />
			<output>
				<port id="0" precision="FP16">
					<dim>1</dim>
					<dim>1</dim>
					<dim>1</dim>
					<dim>1</dim>
				</port>
			</output>
		</layer>
		<layer id="297" name="Constant_91163" type="Convert" version="opset1">
			<data destination_type="f32" />
			<rt_info>
				<attribute name="decompression" version="0" />
			</rt_info>
			<input>
				<port id="0" precision="FP16">
					<dim>1</dim>
					<dim>1</dim>
					<dim>1</dim>
					<dim>1</dim>
				</port>
			</input>
			<output>
				<port id="1" precision="FP32">
					<dim>1</dim>
					<dim>1</dim>
					<dim>1</dim>
					<dim>1</dim>
				</port>
			</output>
		</layer>
		<layer id="298" name="Constant_91164_compressed" type="Const" version="opset1">
			<data element_type="f16" shape="1, 1, 1, 1" offset="1090570" size="2" />
			<output>
				<port id="0" precision="FP16">
					<dim>1</dim>
					<dim>1</dim>
					<dim>1</dim>
					<dim>1</dim>
				</port>
			</output>
		</layer>
		<layer id="299" name="Constant_91164" type="Convert" version="opset1">
			<data destination_type="f32" />
			<rt_info>
				<attribute name="decompression" version="0" />
			</rt_info>
			<input>
				<port id="0" precision="FP16">
					<dim>1</dim>
					<dim>1</dim>
					<dim>1</dim>
					<dim>1</dim>
				</port>
			</input>
			<output>
				<port id="1" precision="FP32">
					<dim>1</dim>
					<dim>1</dim>
					<dim>1</dim>
					<dim>1</dim>
				</port>
			</output>
		</layer>
		<layer id="300" name="/nncf_module/backbone/layer2/layer2.0/relu/CustomMaskRCNN/ResNet[backbone]/ResLayer[layer2]/Bottleneck[0]/ReLU[relu]/relu__1|OUTPUT/FakeQuantize" type="FakeQuantize" version="opset1">
			<data levels="256" auto_broadcast="numpy" />
			<input>
				<port id="0" precision="FP32">
					<dim>1</dim>
					<dim>128</dim>
					<dim>80</dim>
					<dim>80</dim>
				</port>
				<port id="1" precision="FP32">
					<dim>1</dim>
					<dim>1</dim>
					<dim>1</dim>
					<dim>1</dim>
				</port>
				<port id="2" precision="FP32">
					<dim>1</dim>
					<dim>1</dim>
					<dim>1</dim>
					<dim>1</dim>
				</port>
				<port id="3" precision="FP32">
					<dim>1</dim>
					<dim>1</dim>
					<dim>1</dim>
					<dim>1</dim>
				</port>
				<port id="4" precision="FP32">
					<dim>1</dim>
					<dim>1</dim>
					<dim>1</dim>
					<dim>1</dim>
				</port>
			</input>
			<output>
				<port id="5" precision="FP32" names="/nncf_module/backbone/layer2/layer2.0/relu/CustomMaskRCNN/ResNet[backbone]/ResLayer[layer2]/Bottleneck[0]/ReLU[relu]/relu__1|OUTPUT/FakeQuantize_output_0">
					<dim>1</dim>
					<dim>128</dim>
					<dim>80</dim>
					<dim>80</dim>
				</port>
			</output>
		</layer>
		<layer id="301" name="/nncf_module/backbone/layer2/layer2.0/conv3/pre_ops.0/op/Constant" type="Const" version="opset1">
			<data element_type="i8" shape="512, 128, 1, 1" offset="1090572" size="65536" />
			<output>
				<port id="0" precision="I8">
					<dim>512</dim>
					<dim>128</dim>
					<dim>1</dim>
					<dim>1</dim>
				</port>
			</output>
		</layer>
		<layer id="302" name="Convert_97146" type="Convert" version="opset1">
			<data destination_type="f32" />
			<input>
				<port id="0" precision="I8">
					<dim>512</dim>
					<dim>128</dim>
					<dim>1</dim>
					<dim>1</dim>
				</port>
			</input>
			<output>
				<port id="1" precision="FP32">
					<dim>512</dim>
					<dim>128</dim>
					<dim>1</dim>
					<dim>1</dim>
				</port>
			</output>
		</layer>
		<layer id="303" name="Constant_97083_compressed" type="Const" version="opset1">
			<data element_type="f16" shape="512, 1, 1, 1" offset="1156108" size="1024" />
			<output>
				<port id="0" precision="FP16">
					<dim>512</dim>
					<dim>1</dim>
					<dim>1</dim>
					<dim>1</dim>
				</port>
			</output>
		</layer>
		<layer id="304" name="Constant_97083" type="Convert" version="opset1">
			<data destination_type="f32" />
			<rt_info>
				<attribute name="decompression" version="0" />
			</rt_info>
			<input>
				<port id="0" precision="FP16">
					<dim>512</dim>
					<dim>1</dim>
					<dim>1</dim>
					<dim>1</dim>
				</port>
			</input>
			<output>
				<port id="1" precision="FP32">
					<dim>512</dim>
					<dim>1</dim>
					<dim>1</dim>
					<dim>1</dim>
				</port>
			</output>
		</layer>
		<layer id="305" name="Multiply_87735" type="Multiply" version="opset1">
			<data auto_broadcast="numpy" />
			<input>
				<port id="0" precision="FP32">
					<dim>512</dim>
					<dim>128</dim>
					<dim>1</dim>
					<dim>1</dim>
				</port>
				<port id="1" precision="FP32">
					<dim>512</dim>
					<dim>1</dim>
					<dim>1</dim>
					<dim>1</dim>
				</port>
			</input>
			<output>
				<port id="2" precision="FP32">
					<dim>512</dim>
					<dim>128</dim>
					<dim>1</dim>
					<dim>1</dim>
				</port>
			</output>
		</layer>
		<layer id="306" name="Multiply_87331" type="Convolution" version="opset1">
			<data strides="1, 1" dilations="1, 1" pads_begin="0, 0" pads_end="0, 0" auto_pad="explicit" />
			<input>
				<port id="0" precision="FP32">
					<dim>1</dim>
					<dim>128</dim>
					<dim>80</dim>
					<dim>80</dim>
				</port>
				<port id="1" precision="FP32">
					<dim>512</dim>
					<dim>128</dim>
					<dim>1</dim>
					<dim>1</dim>
				</port>
			</input>
			<output>
				<port id="2" precision="FP32">
					<dim>1</dim>
					<dim>512</dim>
					<dim>80</dim>
					<dim>80</dim>
				</port>
			</output>
		</layer>
		<layer id="307" name="Constant_87336_compressed" type="Const" version="opset1">
			<data element_type="f16" shape="1, 512, 1, 1" offset="1157132" size="1024" />
			<output>
				<port id="0" precision="FP16">
					<dim>1</dim>
					<dim>512</dim>
					<dim>1</dim>
					<dim>1</dim>
				</port>
			</output>
		</layer>
		<layer id="308" name="Constant_87336" type="Convert" version="opset1">
			<data destination_type="f32" />
			<rt_info>
				<attribute name="decompression" version="0" />
			</rt_info>
			<input>
				<port id="0" precision="FP16">
					<dim>1</dim>
					<dim>512</dim>
					<dim>1</dim>
					<dim>1</dim>
				</port>
			</input>
			<output>
				<port id="1" precision="FP32">
					<dim>1</dim>
					<dim>512</dim>
					<dim>1</dim>
					<dim>1</dim>
				</port>
			</output>
		</layer>
		<layer id="309" name="/nncf_module/backbone/layer2/layer2.0/bn3/BatchNormalization" type="Add" version="opset1">
			<data auto_broadcast="numpy" />
			<input>
				<port id="0" precision="FP32">
					<dim>1</dim>
					<dim>512</dim>
					<dim>80</dim>
					<dim>80</dim>
				</port>
				<port id="1" precision="FP32">
					<dim>1</dim>
					<dim>512</dim>
					<dim>1</dim>
					<dim>1</dim>
				</port>
			</input>
			<output>
				<port id="2" precision="FP32" names="/nncf_module/backbone/layer2/layer2.0/bn3/BatchNormalization_output_0">
					<dim>1</dim>
					<dim>512</dim>
					<dim>80</dim>
					<dim>80</dim>
				</port>
			</output>
		</layer>
		<layer id="310" name="Constant_91165_compressed" type="Const" version="opset1">
			<data element_type="f16" shape="1, 1, 1, 1" offset="1158156" size="2" />
			<output>
				<port id="0" precision="FP16">
					<dim>1</dim>
					<dim>1</dim>
					<dim>1</dim>
					<dim>1</dim>
				</port>
			</output>
		</layer>
		<layer id="311" name="Constant_91165" type="Convert" version="opset1">
			<data destination_type="f32" />
			<rt_info>
				<attribute name="decompression" version="0" />
			</rt_info>
			<input>
				<port id="0" precision="FP16">
					<dim>1</dim>
					<dim>1</dim>
					<dim>1</dim>
					<dim>1</dim>
				</port>
			</input>
			<output>
				<port id="1" precision="FP32">
					<dim>1</dim>
					<dim>1</dim>
					<dim>1</dim>
					<dim>1</dim>
				</port>
			</output>
		</layer>
		<layer id="312" name="Constant_91166_compressed" type="Const" version="opset1">
			<data element_type="f16" shape="1, 1, 1, 1" offset="1158158" size="2" />
			<output>
				<port id="0" precision="FP16">
					<dim>1</dim>
					<dim>1</dim>
					<dim>1</dim>
					<dim>1</dim>
				</port>
			</output>
		</layer>
		<layer id="313" name="Constant_91166" type="Convert" version="opset1">
			<data destination_type="f32" />
			<rt_info>
				<attribute name="decompression" version="0" />
			</rt_info>
			<input>
				<port id="0" precision="FP16">
					<dim>1</dim>
					<dim>1</dim>
					<dim>1</dim>
					<dim>1</dim>
				</port>
			</input>
			<output>
				<port id="1" precision="FP32">
					<dim>1</dim>
					<dim>1</dim>
					<dim>1</dim>
					<dim>1</dim>
				</port>
			</output>
		</layer>
		<layer id="314" name="Constant_91167_compressed" type="Const" version="opset1">
			<data element_type="f16" shape="1, 1, 1, 1" offset="1158156" size="2" />
			<output>
				<port id="0" precision="FP16">
					<dim>1</dim>
					<dim>1</dim>
					<dim>1</dim>
					<dim>1</dim>
				</port>
			</output>
		</layer>
		<layer id="315" name="Constant_91167" type="Convert" version="opset1">
			<data destination_type="f32" />
			<rt_info>
				<attribute name="decompression" version="0" />
			</rt_info>
			<input>
				<port id="0" precision="FP16">
					<dim>1</dim>
					<dim>1</dim>
					<dim>1</dim>
					<dim>1</dim>
				</port>
			</input>
			<output>
				<port id="1" precision="FP32">
					<dim>1</dim>
					<dim>1</dim>
					<dim>1</dim>
					<dim>1</dim>
				</port>
			</output>
		</layer>
		<layer id="316" name="Constant_91168_compressed" type="Const" version="opset1">
			<data element_type="f16" shape="1, 1, 1, 1" offset="1158158" size="2" />
			<output>
				<port id="0" precision="FP16">
					<dim>1</dim>
…
		<edge from-layer="2181" from-port="5" to-layer="2201" to-port="0" />
		<edge from-layer="2181" from-port="5" to-layer="2184" to-port="0" />
		<edge from-layer="2182" from-port="0" to-layer="2184" to-port="1" />
		<edge from-layer="2182" from-port="0" to-layer="2532" to-port="1" />
		<edge from-layer="2183" from-port="0" to-layer="2184" to-port="2" />
		<edge from-layer="2184" from-port="3" to-layer="2185" to-port="0" />
		<edge from-layer="2184" from-port="3" to-layer="2207" to-port="0" />
		<edge from-layer="2185" from-port="1" to-layer="2187" to-port="1" />
		<edge from-layer="2186" from-port="0" to-layer="2187" to-port="2" />
		<edge from-layer="2187" from-port="3" to-layer="2223" to-port="0" />
		<edge from-layer="2188" from-port="0" to-layer="2189" to-port="1" />
		<edge from-layer="2189" from-port="2" to-layer="2199" to-port="0" />
		<edge from-layer="2189" from-port="2" to-layer="2190" to-port="0" />
		<edge from-layer="2190" from-port="1" to-layer="2194" to-port="0" />
		<edge from-layer="2191" from-port="0" to-layer="2194" to-port="1" />
		<edge from-layer="2192" from-port="0" to-layer="2194" to-port="2" />
		<edge from-layer="2193" from-port="0" to-layer="2194" to-port="3" />
		<edge from-layer="2194" from-port="4" to-layer="2196" to-port="0" />
		<edge from-layer="2195" from-port="0" to-layer="2196" to-port="1" />
		<edge from-layer="2196" from-port="2" to-layer="2198" to-port="0" />
		<edge from-layer="2197" from-port="0" to-layer="2198" to-port="1" />
		<edge from-layer="2198" from-port="2" to-layer="2199" to-port="1" />
		<edge from-layer="2199" from-port="2" to-layer="2209" to-port="0" />
		<edge from-layer="2200" from-port="0" to-layer="2201" to-port="2" />
		<edge from-layer="2201" from-port="3" to-layer="2206" to-port="0" />
		<edge from-layer="2202" from-port="1" to-layer="2205" to-port="0" />
		<edge from-layer="2202" from-port="1" to-layer="2213" to-port="0" />
		<edge from-layer="2203" from-port="0" to-layer="2205" to-port="1" />
		<edge from-layer="2204" from-port="0" to-layer="2205" to-port="2" />
		<edge from-layer="2205" from-port="3" to-layer="2206" to-port="1" />
		<edge from-layer="2206" from-port="2" to-layer="2207" to-port="1" />
		<edge from-layer="2207" from-port="2" to-layer="2218" to-port="0" />
		<edge from-layer="2207" from-port="2" to-layer="2209" to-port="1" />
		<edge from-layer="2208" from-port="0" to-layer="2209" to-port="2" />
		<edge from-layer="2209" from-port="3" to-layer="2215" to-port="0" />
		<edge from-layer="2210" from-port="0" to-layer="2214" to-port="0" />
		<edge from-layer="2211" from-port="0" to-layer="2213" to-port="1" />
		<edge from-layer="2212" from-port="0" to-layer="2213" to-port="2" />
		<edge from-layer="2213" from-port="3" to-layer="2219" to-port="0" />
		<edge from-layer="2213" from-port="3" to-layer="2214" to-port="1" />
		<edge from-layer="2214" from-port="2" to-layer="2215" to-port="1" />
		<edge from-layer="2215" from-port="2" to-layer="2217" to-port="0" />
		<edge from-layer="2216" from-port="0" to-layer="2217" to-port="1" />
		<edge from-layer="2217" from-port="2" to-layer="2220" to-port="0" />
		<edge from-layer="2218" from-port="1" to-layer="2219" to-port="1" />
		<edge from-layer="2219" from-port="2" to-layer="2220" to-port="1" />
		<edge from-layer="2220" from-port="2" to-layer="2222" to-port="0" />
		<edge from-layer="2221" from-port="0" to-layer="2222" to-port="1" />
		<edge from-layer="2222" from-port="2" to-layer="2223" to-port="1" />
		<edge from-layer="2223" from-port="2" to-layer="2226" to-port="0" />
		<edge from-layer="2224" from-port="0" to-layer="2225" to-port="0" />
		<edge from-layer="2225" from-port="1" to-layer="2226" to-port="1" />
		<edge from-layer="2226" from-port="2" to-layer="2229" to-port="0" />
		<edge from-layer="2226" from-port="2" to-layer="2245" to-port="0" />
		<edge from-layer="2227" from-port="0" to-layer="2229" to-port="1" />
		<edge from-layer="2227" from-port="0" to-layer="2574" to-port="1" />
		<edge from-layer="2228" from-port="0" to-layer="2229" to-port="2" />
		<edge from-layer="2229" from-port="3" to-layer="2231" to-port="0" />
		<edge from-layer="2229" from-port="3" to-layer="2241" to-port="0" />
		<edge from-layer="2230" from-port="0" to-layer="2235" to-port="0" />
		<edge from-layer="2231" from-port="1" to-layer="2234" to-port="0" />
		<edge from-layer="2232" from-port="0" to-layer="2234" to-port="1" />
		<edge from-layer="2233" from-port="0" to-layer="2234" to-port="2" />
		<edge from-layer="2234" from-port="3" to-layer="2236" to-port="2" />
		<edge from-layer="2234" from-port="3" to-layer="2235" to-port="1" />
		<edge from-layer="2235" from-port="2" to-layer="2236" to-port="0" />
		<edge from-layer="2236" from-port="3" to-layer="2238" to-port="0" />
		<edge from-layer="2237" from-port="0" to-layer="2238" to-port="1" />
		<edge from-layer="2238" from-port="2" to-layer="2240" to-port="0" />
		<edge from-layer="2239" from-port="0" to-layer="2240" to-port="1" />
		<edge from-layer="2240" from-port="2" to-layer="2241" to-port="1" />
		<edge from-layer="2241" from-port="3" to-layer="2243" to-port="0" />
		<edge from-layer="2242" from-port="0" to-layer="2243" to-port="1" />
		<edge from-layer="2243" from-port="2" to-layer="2245" to-port="1" />
		<edge from-layer="2244" from-port="0" to-layer="2245" to-port="2" />
		<edge from-layer="2245" from-port="3" to-layer="2246" to-port="0" />
		<edge from-layer="2245" from-port="3" to-layer="2270" to-port="0" />
		<edge from-layer="2246" from-port="1" to-layer="2257" to-port="0" />
		<edge from-layer="2246" from-port="1" to-layer="2249" to-port="0" />
		<edge from-layer="2247" from-port="0" to-layer="2249" to-port="1" />
		<edge from-layer="2248" from-port="0" to-layer="2249" to-port="2" />
		<edge from-layer="2249" from-port="3" to-layer="2251" to-port="1" />
		<edge from-layer="2250" from-port="0" to-layer="2251" to-port="2" />
		<edge from-layer="2251" from-port="3" to-layer="2252" to-port="0" />
		<edge from-layer="2252" from-port="1" to-layer="2254" to-port="0" />
		<edge from-layer="2253" from-port="0" to-layer="2254" to-port="1" />
		<edge from-layer="2254" from-port="2" to-layer="2266" to-port="0" />
		<edge from-layer="2255" from-port="0" to-layer="2257" to-port="1" />
		<edge from-layer="2256" from-port="0" to-layer="2257" to-port="2" />
		<edge from-layer="2257" from-port="3" to-layer="2259" to-port="0" />
		<edge from-layer="2258" from-port="0" to-layer="2259" to-port="1" />
		<edge from-layer="2259" from-port="2" to-layer="2261" to-port="0" />
		<edge from-layer="2260" from-port="0" to-layer="2261" to-port="1" />
		<edge from-layer="2261" from-port="2" to-layer="2263" to-port="0" />
		<edge from-layer="2261" from-port="2" to-layer="2265" to-port="2" />
		<edge from-layer="2262" from-port="0" to-layer="2263" to-port="1" />
		<edge from-layer="2263" from-port="2" to-layer="2265" to-port="0" />
		<edge from-layer="2264" from-port="0" to-layer="2265" to-port="1" />
		<edge from-layer="2265" from-port="3" to-layer="2266" to-port="1" />
		<edge from-layer="2266" from-port="2" to-layer="2271" to-port="0" />
		<edge from-layer="2267" from-port="0" to-layer="2270" to-port="1" />
		<edge from-layer="2268" from-port="0" to-layer="2270" to-port="2" />
		<edge from-layer="2269" from-port="0" to-layer="2270" to-port="3" />
		<edge from-layer="2270" from-port="4" to-layer="2271" to-port="1" />
		<edge from-layer="2271" from-port="2" to-layer="2274" to-port="0" />
		<edge from-layer="2271" from-port="2" to-layer="2273" to-port="0" />
		<edge from-layer="2272" from-port="0" to-layer="2273" to-port="1" />
		<edge from-layer="2273" from-port="2" to-layer="2312" to-port="0" />
		<edge from-layer="2273" from-port="2" to-layer="2279" to-port="0" />
		<edge from-layer="2273" from-port="2" to-layer="2289" to-port="0" />
		<edge from-layer="2274" from-port="1" to-layer="2448" to-port="0" />
		<edge from-layer="2274" from-port="1" to-layer="2367" to-port="0" />
		<edge from-layer="2274" from-port="1" to-layer="2277" to-port="0" />
		<edge from-layer="2275" from-port="0" to-layer="2277" to-port="1" />
		<edge from-layer="2276" from-port="0" to-layer="2448" to-port="2" />
		<edge from-layer="2276" from-port="0" to-layer="2367" to-port="2" />
		<edge from-layer="2276" from-port="0" to-layer="2277" to-port="2" />
		<edge from-layer="2277" from-port="3" to-layer="2288" to-port="0" />
		<edge from-layer="2278" from-port="0" to-layer="2288" to-port="1" />
		<edge from-layer="2279" from-port="1" to-layer="2283" to-port="0" />
		<edge from-layer="2280" from-port="0" to-layer="2283" to-port="1" />
		<edge from-layer="2281" from-port="0" to-layer="2283" to-port="2" />
		<edge from-layer="2282" from-port="0" to-layer="2283" to-port="3" />
		<edge from-layer="2283" from-port="4" to-layer="2285" to-port="0" />
		<edge from-layer="2284" from-port="0" to-layer="2285" to-port="1" />
		<edge from-layer="2285" from-port="2" to-layer="2287" to-port="0" />
		<edge from-layer="2286" from-port="0" to-layer="2287" to-port="1" />
		<edge from-layer="2287" from-port="2" to-layer="2288" to-port="2" />
		<edge from-layer="2288" from-port="3" to-layer="2289" to-port="1" />
		<edge from-layer="2289" from-port="2" to-layer="2293" to-port="0" />
		<edge from-layer="2290" from-port="0" to-layer="2293" to-port="1" />
		<edge from-layer="2291" from-port="0" to-layer="2293" to-port="2" />
		<edge from-layer="2292" from-port="0" to-layer="2293" to-port="3" />
		<edge from-layer="2293" from-port="4" to-layer="2295" to-port="0" />
		<edge from-layer="2294" from-port="0" to-layer="2295" to-port="1" />
		<edge from-layer="2295" from-port="2" to-layer="2303" to-port="0" />
		<edge from-layer="2295" from-port="2" to-layer="2299" to-port="0" />
		<edge from-layer="2296" from-port="0" to-layer="2299" to-port="1" />
		<edge from-layer="2297" from-port="0" to-layer="2299" to-port="2" />
		<edge from-layer="2298" from-port="0" to-layer="2299" to-port="3" />
		<edge from-layer="2299" from-port="4" to-layer="2304" to-port="0" />
		<edge from-layer="2299" from-port="4" to-layer="2308" to-port="1" />
		<edge from-layer="2300" from-port="0" to-layer="2303" to-port="1" />
		<edge from-layer="2301" from-port="0" to-layer="2303" to-port="2" />
		<edge from-layer="2302" from-port="0" to-layer="2303" to-port="3" />
		<edge from-layer="2303" from-port="4" to-layer="2304" to-port="1" />
		<edge from-layer="2303" from-port="4" to-layer="2308" to-port="0" />
		<edge from-layer="2304" from-port="2" to-layer="2307" to-port="0" />
		<edge from-layer="2305" from-port="0" to-layer="2306" to-port="0" />
		<edge from-layer="2306" from-port="1" to-layer="2307" to-port="1" />
		<edge from-layer="2307" from-port="2" to-layer="2390" to-port="0" />
		<edge from-layer="2308" from-port="2" to-layer="2389" to-port="0" />
		<edge from-layer="2308" from-port="2" to-layer="2397" to-port="0" />
		<edge from-layer="2309" from-port="0" to-layer="2312" to-port="1" />
		<edge from-layer="2310" from-port="0" to-layer="2312" to-port="2" />
		<edge from-layer="2311" from-port="0" to-layer="2312" to-port="3" />
		<edge from-layer="2312" from-port="4" to-layer="2313" to-port="0" />
		<edge from-layer="2313" from-port="5" to-layer="2325" to-port="0" />
		<edge from-layer="2314" from-port="0" to-layer="2324" to-port="0" />
		<edge from-layer="2315" from-port="0" to-layer="2316" to-port="0" />
		<edge from-layer="2316" from-port="1" to-layer="2319" to-port="0" />
		<edge from-layer="2317" from-port="0" to-layer="2318" to-port="0" />
		<edge from-layer="2318" from-port="1" to-layer="2319" to-port="1" />
		<edge from-layer="2319" from-port="2" to-layer="2326" to-port="1" />
		<edge from-layer="2319" from-port="2" to-layer="2320" to-port="0" />
		<edge from-layer="2320" from-port="1" to-layer="2323" to-port="0" />
		<edge from-layer="2321" from-port="0" to-layer="2323" to-port="1" />
		<edge from-layer="2322" from-port="0" to-layer="2323" to-port="2" />
		<edge from-layer="2323" from-port="3" to-layer="2324" to-port="1" />
		<edge from-layer="2324" from-port="2" to-layer="2325" to-port="1" />
		<edge from-layer="2325" from-port="2" to-layer="2326" to-port="0" />
		<edge from-layer="2326" from-port="2" to-layer="2329" to-port="0" />
		<edge from-layer="2327" from-port="0" to-layer="2328" to-port="0" />
		<edge from-layer="2328" from-port="1" to-layer="2329" to-port="1" />
		<edge from-layer="2329" from-port="2" to-layer="2338" to-port="0" />
		<edge from-layer="2330" from-port="0" to-layer="2331" to-port="0" />
		<edge from-layer="2331" from-port="1" to-layer="2338" to-port="1" />
		<edge from-layer="2332" from-port="0" to-layer="2333" to-port="0" />
		<edge from-layer="2333" from-port="1" to-layer="2338" to-port="2" />
		<edge from-layer="2334" from-port="0" to-layer="2335" to-port="0" />
		<edge from-layer="2335" from-port="1" to-layer="2338" to-port="3" />
		<edge from-layer="2336" from-port="0" to-layer="2337" to-port="0" />
		<edge from-layer="2337" from-port="1" to-layer="2338" to-port="4" />
		<edge from-layer="2338" from-port="5" to-layer="2344" to-port="0" />
		<edge from-layer="2339" from-port="0" to-layer="2340" to-port="0" />
		<edge from-layer="2340" from-port="1" to-layer="2343" to-port="0" />
		<edge from-layer="2341" from-port="0" to-layer="2342" to-port="0" />
		<edge from-layer="2342" from-port="1" to-layer="2343" to-port="1" />
		<edge from-layer="2343" from-port="2" to-layer="2344" to-port="1" />
		<edge from-layer="2344" from-port="2" to-layer="2347" to-port="0" />
		<edge from-layer="2345" from-port="0" to-layer="2346" to-port="0" />
		<edge from-layer="2346" from-port="1" to-layer="2347" to-port="1" />
		<edge from-layer="2347" from-port="2" to-layer="2356" to-port="0" />
		<edge from-layer="2348" from-port="0" to-layer="2349" to-port="0" />
		<edge from-layer="2349" from-port="1" to-layer="2356" to-port="1" />
		<edge from-layer="2350" from-port="0" to-layer="2351" to-port="0" />
		<edge from-layer="2351" from-port="1" to-layer="2356" to-port="2" />
		<edge from-layer="2352" from-port="0" to-layer="2353" to-port="0" />
		<edge from-layer="2353" from-port="1" to-layer="2356" to-port="3" />
		<edge from-layer="2354" from-port="0" to-layer="2355" to-port="0" />
		<edge from-layer="2355" from-port="1" to-layer="2356" to-port="4" />
		<edge from-layer="2356" from-port="5" to-layer="2443" to-port="0" />
		<edge from-layer="2356" from-port="5" to-layer="2362" to-port="0" />
		<edge from-layer="2357" from-port="0" to-layer="2358" to-port="0" />
		<edge from-layer="2358" from-port="1" to-layer="2361" to-port="0" />
		<edge from-layer="2359" from-port="0" to-layer="2360" to-port="0" />
		<edge from-layer="2360" from-port="1" to-layer="2361" to-port="1" />
		<edge from-layer="2361" from-port="2" to-layer="2362" to-port="1" />
		<edge from-layer="2362" from-port="2" to-layer="2365" to-port="0" />
		<edge from-layer="2363" from-port="0" to-layer="2364" to-port="0" />
		<edge from-layer="2364" from-port="1" to-layer="2365" to-port="1" />
		<edge from-layer="2365" from-port="2" to-layer="2379" to-port="0" />
		<edge from-layer="2365" from-port="2" to-layer="2369" to-port="0" />
		<edge from-layer="2366" from-port="0" to-layer="2367" to-port="1" />
		<edge from-layer="2367" from-port="3" to-layer="2378" to-port="0" />
		<edge from-layer="2368" from-port="0" to-layer="2378" to-port="1" />
		<edge from-layer="2369" from-port="1" to-layer="2373" to-port="0" />
		<edge from-layer="2370" from-port="0" to-layer="2373" to-port="1" />
		<edge from-layer="2371" from-port="0" to-layer="2373" to-port="2" />
		<edge from-layer="2372" from-port="0" to-layer="2373" to-port="3" />
		<edge from-layer="2373" from-port="4" to-layer="2375" to-port="0" />
		<edge from-layer="2374" from-port="0" to-layer="2375" to-port="1" />
		<edge from-layer="2375" from-port="2" to-layer="2377" to-port="0" />
		<edge from-layer="2376" from-port="0" to-layer="2377" to-port="1" />
		<edge from-layer="2377" from-port="2" to-layer="2378" to-port="2" />
		<edge from-layer="2378" from-port="3" to-layer="2379" to-port="1" />
		<edge from-layer="2379" from-port="2" to-layer="2424" to-port="0" />
		<edge from-layer="2379" from-port="2" to-layer="2381" to-port="0" />
		<edge from-layer="2380" from-port="0" to-layer="2381" to-port="1" />
		<edge from-layer="2381" from-port="2" to-layer="2384" to-port="0" />
		<edge from-layer="2382" from-port="0" to-layer="2383" to-port="0" />
		<edge from-layer="2383" from-port="1" to-layer="2384" to-port="1" />
		<edge from-layer="2384" from-port="2" to-layer="2394" to-port="0" />
		<edge from-layer="2384" from-port="2" to-layer="2388" to-port="0" />
		<edge from-layer="2385" from-port="0" to-layer="2388" to-port="1" />
		<edge from-layer="2386" from-port="0" to-layer="2388" to-port="2" />
		<edge from-layer="2387" from-port="0" to-layer="2388" to-port="3" />
		<edge from-layer="2388" from-port="4" to-layer="2389" to-port="1" />
		<edge from-layer="2389" from-port="2" to-layer="2390" to-port="1" />
		<edge from-layer="2390" from-port="2" to-layer="2401" to-port="0" />
		<edge from-layer="2390" from-port="2" to-layer="2412" to-port="0" />
		<edge from-layer="2391" from-port="0" to-layer="2394" to-port="1" />
		<edge from-layer="2392" from-port="0" to-layer="2394" to-port="2" />
		<edge from-layer="2393" from-port="0" to-layer="2394" to-port="3" />
		<edge from-layer="2394" from-port="4" to-layer="2395" to-port="0" />
		<edge from-layer="2395" from-port="1" to-layer="2396" to-port="0" />
		<edge from-layer="2396" from-port="1" to-layer="2397" to-port="1" />
		<edge from-layer="2397" from-port="2" to-layer="2400" to-port="0" />
		<edge from-layer="2398" from-port="0" to-layer="2399" to-port="0" />
		<edge from-layer="2399" from-port="1" to-layer="2400" to-port="1" />
		<edge from-layer="2400" from-port="2" to-layer="2412" to-port="1" />
		<edge from-layer="2400" from-port="2" to-layer="2401" to-port="1" />
		<edge from-layer="2401" from-port="2" to-layer="2408" to-port="0" />
		<edge from-layer="2401" from-port="2" to-layer="2403" to-port="0" />
		<edge from-layer="2402" from-port="0" to-layer="2403" to-port="2" />
		<edge from-layer="2403" from-port="3" to-layer="2404" to-port="0" />
		<edge from-layer="2404" from-port="1" to-layer="2406" to-port="0" />
		<edge from-layer="2405" from-port="0" to-layer="2406" to-port="1" />
		<edge from-layer="2406" from-port="2" to-layer="2423" to-port="0" />
		<edge from-layer="2407" from-port="0" to-layer="2408" to-port="2" />
		<edge from-layer="2408" from-port="3" to-layer="2409" to-port="0" />
		<edge from-layer="2409" from-port="1" to-layer="2411" to-port="0" />
		<edge from-layer="2410" from-port="0" to-layer="2411" to-port="1" />
		<edge from-layer="2411" from-port="2" to-layer="2423" to-port="1" />
		<edge from-layer="2412" from-port="2" to-layer="2414" to-port="0" />
		<edge from-layer="2412" from-port="2" to-layer="2419" to-port="0" />
		<edge from-layer="2413" from-port="0" to-layer="2414" to-port="2" />
		<edge from-layer="2414" from-port="3" to-layer="2415" to-port="0" />
		<edge from-layer="2415" from-port="1" to-layer="2417" to-port="0" />
		<edge from-layer="2416" from-port="0" to-layer="2417" to-port="1" />
		<edge from-layer="2417" from-port="2" to-layer="2423" to-port="2" />
		<edge from-layer="2418" from-port="0" to-layer="2419" to-port="2" />
		<edge from-layer="2419" from-port="3" to-layer="2420" to-port="0" />
		<edge from-layer="2420" from-port="1" to-layer="2422" to-port="0" />
		<edge from-layer="2421" from-port="0" to-layer="2422" to-port="1" />
		<edge from-layer="2422" from-port="2" to-layer="2423" to-port="3" />
		<edge from-layer="2423" from-port="4" to-layer="2425" to-port="0" />
		<edge from-layer="2424" from-port="1" to-layer="2425" to-port="1" />
		<edge from-layer="2425" from-port="2" to-layer="2427" to-port="0" />
		<edge from-layer="2426" from-port="0" to-layer="2427" to-port="1" />
		<edge from-layer="2427" from-port="2" to-layer="2428" to-port="0" />
		<edge from-layer="2427" from-port="2" to-layer="2437" to-port="0" />
		<edge from-layer="2428" from-port="1" to-layer="2474" to-port="0" />
		<edge from-layer="2428" from-port="1" to-layer="2481" to-port="0" />
		<edge from-layer="2428" from-port="1" to-layer="2489" to-port="0" />
		<edge from-layer="2428" from-port="1" to-layer="2432" to-port="0" />
		<edge from-layer="2429" from-port="0" to-layer="2432" to-port="1" />
		<edge from-layer="2430" from-port="0" to-layer="2432" to-port="2" />
		<edge from-layer="2431" from-port="0" to-layer="2432" to-port="3" />
		<edge from-layer="2432" from-port="4" to-layer="2434" to-port="0" />
		<edge from-layer="2433" from-port="0" to-layer="2434" to-port="1" />
		<edge from-layer="2434" from-port="2" to-layer="2436" to-port="0" />
		<edge from-layer="2435" from-port="0" to-layer="2436" to-port="1" />
		<edge from-layer="2436" from-port="2" to-layer="2437" to-port="1" />
		<edge from-layer="2437" from-port="2" to-layer="2485" to-port="0" />
		<edge from-layer="2438" from-port="0" to-layer="2439" to-port="0" />
		<edge from-layer="2439" from-port="1" to-layer="2442" to-port="0" />
		<edge from-layer="2440" from-port="0" to-layer="2441" to-port="0" />
		<edge from-layer="2441" from-port="1" to-layer="2442" to-port="1" />
		<edge from-layer="2442" from-port="2" to-layer="2443" to-port="1" />
		<edge from-layer="2443" from-port="2" to-layer="2446" to-port="0" />
		<edge from-layer="2444" from-port="0" to-layer="2445" to-port="0" />
		<edge from-layer="2445" from-port="1" to-layer="2446" to-port="1" />
		<edge from-layer="2446" from-port="2" to-layer="2460" to-port="0" />
		<edge from-layer="2446" from-port="2" to-layer="2450" to-port="0" />
		<edge from-layer="2447" from-port="0" to-layer="2448" to-port="1" />
		<edge from-layer="2448" from-port="3" to-layer="2459" to-port="0" />
		<edge from-layer="2449" from-port="0" to-layer="2459" to-port="1" />
		<edge from-layer="2450" from-port="1" to-layer="2454" to-port="0" />
		<edge from-layer="2451" from-port="0" to-layer="2454" to-port="1" />
		<edge from-layer="2452" from-port="0" to-layer="2454" to-port="2" />
		<edge from-layer="2453" from-port="0" to-layer="2454" to-port="3" />
		<edge from-layer="2454" from-port="4" to-layer="2456" to-port="0" />
		<edge from-layer="2455" from-port="0" to-layer="2456" to-port="1" />
		<edge from-layer="2456" from-port="2" to-layer="2458" to-port="0" />
		<edge from-layer="2457" from-port="0" to-layer="2458" to-port="1" />
		<edge from-layer="2458" from-port="2" to-layer="2459" to-port="2" />
		<edge from-layer="2459" from-port="3" to-layer="2460" to-port="1" />
		<edge from-layer="2460" from-port="2" to-layer="2461" to-port="0" />
		<edge from-layer="2461" from-port="1" to-layer="2495" to-port="0" />
		<edge from-layer="2461" from-port="1" to-layer="2465" to-port="0" />
		<edge from-layer="2462" from-port="0" to-layer="2465" to-port="1" />
		<edge from-layer="2463" from-port="0" to-layer="2465" to-port="2" />
		<edge from-layer="2464" from-port="0" to-layer="2465" to-port="3" />
		<edge from-layer="2465" from-port="4" to-layer="2504" to-port="0" />
		<edge from-layer="2465" from-port="4" to-layer="2522" to-port="0" />
		<edge from-layer="2465" from-port="4" to-layer="2467" to-port="0" />
		<edge from-layer="2466" from-port="0" to-layer="2467" to-port="1" />
		<edge from-layer="2467" from-port="2" to-layer="2469" to-port="0" />
		<edge from-layer="2468" from-port="0" to-layer="2469" to-port="1" />
		<edge from-layer="2469" from-port="3" to-layer="2470" to-port="0" />
		<edge from-layer="2470" from-port="1" to-layer="2483" to-port="0" />
		<edge from-layer="2471" from-port="0" to-layer="2476" to-port="0" />
		<edge from-layer="2472" from-port="0" to-layer="2474" to-port="1" />
		<edge from-layer="2473" from-port="0" to-layer="2474" to-port="2" />
		<edge from-layer="2474" from-port="3" to-layer="2476" to-port="1" />
		<edge from-layer="2475" from-port="0" to-layer="2476" to-port="2" />
		<edge from-layer="2476" from-port="3" to-layer="2478" to-port="0" />
		<edge from-layer="2477" from-port="0" to-layer="2478" to-port="1" />
		<edge from-layer="2478" from-port="2" to-layer="2482" to-port="0" />
		<edge from-layer="2479" from-port="0" to-layer="2481" to-port="1" />
		<edge from-layer="2480" from-port="0" to-layer="2481" to-port="2" />
		<edge from-layer="2481" from-port="3" to-layer="2482" to-port="1" />
		<edge from-layer="2482" from-port="2" to-layer="2483" to-port="1" />
		<edge from-layer="2483" from-port="2" to-layer="2485" to-port="1" />
		<edge from-layer="2483" from-port="2" to-layer="2492" to-port="0" />
		<edge from-layer="2484" from-port="0" to-layer="2485" to-port="2" />
		<edge from-layer="2485" from-port="3" to-layer="2491" to-port="0" />
		<edge from-layer="2486" from-port="0" to-layer="2490" to-port="0" />
		<edge from-layer="2487" from-port="0" to-layer="2489" to-port="1" />
		<edge from-layer="2488" from-port="0" to-layer="2489" to-port="2" />
		<edge from-layer="2489" from-port="3" to-layer="2490" to-port="1" />
		<edge from-layer="2489" from-port="3" to-layer="2493" to-port="1" />
		<edge from-layer="2490" from-port="2" to-layer="2491" to-port="1" />
		<edge from-layer="2491" from-port="2" to-layer="2494" to-port="0" />
		<edge from-layer="2492" from-port="1" to-layer="2493" to-port="0" />
		<edge from-layer="2493" from-port="2" to-layer="2494" to-port="1" />
		<edge from-layer="2494" from-port="2" to-layer="2502" to-port="0" />
		<edge from-layer="2495" from-port="1" to-layer="2498" to-port="0" />
		<edge from-layer="2496" from-port="0" to-layer="2498" to-port="1" />
		<edge from-layer="2497" from-port="0" to-layer="2498" to-port="2" />
		<edge from-layer="2498" from-port="3" to-layer="2501" to-port="0" />
		<edge from-layer="2499" from-port="0" to-layer="2501" to-port="1" />
		<edge from-layer="2500" from-port="0" to-layer="2501" to-port="2" />
		<edge from-layer="2501" from-port="3" to-layer="2502" to-port="1" />
		<edge from-layer="2502" from-port="2" to-layer="2520" to-port="0" />
		<edge from-layer="2503" from-port="0" to-layer="2504" to-port="1" />
		<edge from-layer="2504" from-port="2" to-layer="2506" to-port="0" />
		<edge from-layer="2505" from-port="0" to-layer="2506" to-port="1" />
		<edge from-layer="2506" from-port="2" to-layer="2508" to-port="0" />
		<edge from-layer="2506" from-port="2" to-layer="2518" to-port="0" />
		<edge from-layer="2507" from-port="0" to-layer="2512" to-port="0" />
		<edge from-layer="2508" from-port="1" to-layer="2511" to-port="0" />
		<edge from-layer="2509" from-port="0" to-layer="2511" to-port="1" />
		<edge from-layer="2510" from-port="0" to-layer="2511" to-port="2" />
		<edge from-layer="2511" from-port="3" to-layer="2513" to-port="2" />
		<edge from-layer="2511" from-port="3" to-layer="2512" to-port="1" />
		<edge from-layer="2512" from-port="2" to-layer="2513" to-port="0" />
		<edge from-layer="2513" from-port="3" to-layer="2515" to-port="0" />
		<edge from-layer="2514" from-port="0" to-layer="2515" to-port="1" />
		<edge from-layer="2515" from-port="2" to-layer="2517" to-port="0" />
		<edge from-layer="2516" from-port="0" to-layer="2517" to-port="1" />
		<edge from-layer="2517" from-port="2" to-layer="2518" to-port="1" />
		<edge from-layer="2518" from-port="3" to-layer="2520" to-port="1" />
		<edge from-layer="2518" from-port="3" to-layer="2522" to-port="1" />
		<edge from-layer="2519" from-port="0" to-layer="2520" to-port="2" />
		<edge from-layer="2520" from-port="3" to-layer="2530" to-port="0" />
		<edge from-layer="2520" from-port="3" to-layer="2535" to-port="0" />
		<edge from-layer="2521" from-port="0" to-layer="2522" to-port="2" />
		<edge from-layer="2522" from-port="3" to-layer="2545" to-port="0" />
		<edge from-layer="2522" from-port="3" to-layer="2536" to-port="0" />
		<edge from-layer="2522" from-port="3" to-layer="2524" to-port="0" />
		<edge from-layer="2523" from-port="0" to-layer="2524" to-port="1" />
		<edge from-layer="2524" from-port="2" to-layer="2548" to-port="0" />
		<edge from-layer="2524" from-port="2" to-layer="2530" to-port="1" />
		<edge from-layer="2525" from-port="0" to-layer="2530" to-port="2" />
		<edge from-layer="2526" from-port="0" to-layer="2527" to-port="0" />
		<edge from-layer="2527" from-port="1" to-layer="2530" to-port="3" />
		<edge from-layer="2528" from-port="0" to-layer="2529" to-port="0" />
		<edge from-layer="2529" from-port="1" to-layer="2530" to-port="4" />
		<edge from-layer="2530" from-port="5" to-layer="2532" to-port="0" />
		<edge from-layer="2530" from-port="5" to-layer="2547" to-port="0" />
		<edge from-layer="2531" from-port="0" to-layer="2532" to-port="2" />
		<edge from-layer="2532" from-port="3" to-layer="2533" to-port="0" />
		<edge from-layer="2532" from-port="3" to-layer="2553" to-port="0" />
		<edge from-layer="2533" from-port="1" to-layer="2535" to-port="1" />
		<edge from-layer="2534" from-port="0" to-layer="2535" to-port="2" />
		<edge from-layer="2535" from-port="3" to-layer="2569" to-port="0" />
		<edge from-layer="2536" from-port="1" to-layer="2540" to-port="0" />
		<edge from-layer="2537" from-port="0" to-layer="2540" to-port="1" />
		<edge from-layer="2538" from-port="0" to-layer="2540" to-port="2" />
		<edge from-layer="2539" from-port="0" to-layer="2540" to-port="3" />
		<edge from-layer="2540" from-port="4" to-layer="2542" to-port="0" />
		<edge from-layer="2541" from-port="0" to-layer="2542" to-port="1" />
		<edge from-layer="2542" from-port="2" to-layer="2544" to-port="0" />
		<edge from-layer="2543" from-port="0" to-layer="2544" to-port="1" />
		<edge from-layer="2544" from-port="2" to-layer="2545" to-port="1" />
		<edge from-layer="2545" from-port="2" to-layer="2555" to-port="0" />
		<edge from-layer="2546" from-port="0" to-layer="2547" to-port="2" />
		<edge from-layer="2547" from-port="3" to-layer="2745" to-port="0" />
		<edge from-layer="2547" from-port="3" to-layer="2552" to-port="0" />
		<edge from-layer="2548" from-port="1" to-layer="2559" to-port="0" />
		<edge from-layer="2548" from-port="1" to-layer="2551" to-port="0" />
		<edge from-layer="2549" from-port="0" to-layer="2551" to-port="1" />
		<edge from-layer="2550" from-port="0" to-layer="2551" to-port="2" />
		<edge from-layer="2551" from-port="3" to-layer="2552" to-port="1" />
		<edge from-layer="2552" from-port="2" to-layer="2553" to-port="1" />
		<edge from-layer="2553" from-port="2" to-layer="2555" to-port="1" />
		<edge from-layer="2553" from-port="2" to-layer="2564" to-port="0" />
		<edge from-layer="2554" from-port="0" to-layer="2555" to-port="2" />
		<edge from-layer="2555" from-port="3" to-layer="2561" to-port="0" />
		<edge from-layer="2556" from-port="0" to-layer="2560" to-port="0" />
		<edge from-layer="2557" from-port="0" to-layer="2559" to-port="1" />
		<edge from-layer="2558" from-port="0" to-layer="2559" to-port="2" />
		<edge from-layer="2559" from-port="3" to-layer="2560" to-port="1" />
		<edge from-layer="2559" from-port="3" to-layer="2565" to-port="0" />
		<edge from-layer="2560" from-port="2" to-layer="2561" to-port="1" />
		<edge from-layer="2561" from-port="2" to-layer="2563" to-port="0" />
		<edge from-layer="2562" from-port="0" to-layer="2563" to-port="1" />
		<edge from-layer="2563" from-port="2" to-layer="2566" to-port="0" />
		<edge from-layer="2564" from-port="1" to-layer="2565" to-port="1" />
		<edge from-layer="2565" from-port="2" to-layer="2566" to-port="1" />
		<edge from-layer="2566" from-port="2" to-layer="2568" to-port="0" />
		<edge from-layer="2567" from-port="0" to-layer="2568" to-port="1" />
		<edge from-layer="2568" from-port="2" to-layer="2569" to-port="1" />
		<edge from-layer="2569" from-port="2" to-layer="2572" to-port="0" />
		<edge from-layer="2570" from-port="0" to-layer="2571" to-port="0" />
		<edge from-layer="2571" from-port="1" to-layer="2572" to-port="1" />
		<edge from-layer="2572" from-port="2" to-layer="2591" to-port="0" />
		<edge from-layer="2572" from-port="2" to-layer="2574" to-port="0" />
		<edge from-layer="2573" from-port="0" to-layer="2574" to-port="2" />
		<edge from-layer="2574" from-port="3" to-layer="2587" to-port="0" />
		<edge from-layer="2574" from-port="3" to-layer="2576" to-port="0" />
		<edge from-layer="2575" from-port="0" to-layer="2580" to-port="0" />
		<edge from-layer="2576" from-port="1" to-layer="2579" to-port="0" />
		<edge from-layer="2577" from-port="0" to-layer="2579" to-port="1" />
		<edge from-layer="2578" from-port="0" to-layer="2579" to-port="2" />
		<edge from-layer="2579" from-port="3" to-layer="2582" to-port="2" />
		<edge from-layer="2579" from-port="3" to-layer="2580" to-port="1" />
		<edge from-layer="2580" from-port="2" to-layer="2582" to-port="0" />
		<edge from-layer="2581" from-port="0" to-layer="2582" to-port="1" />
		<edge from-layer="2582" from-port="3" to-layer="2584" to-port="0" />
		<edge from-layer="2583" from-port="0" to-layer="2584" to-port="1" />
		<edge from-layer="2584" from-port="2" to-layer="2586" to-port="0" />
		<edge from-layer="2585" from-port="0" to-layer="2586" to-port="1" />
		<edge from-layer="2586" from-port="2" to-layer="2587" to-port="1" />
		<edge from-layer="2587" from-port="3" to-layer="2589" to-port="0" />
		<edge from-layer="2588" from-port="0" to-layer="2589" to-port="1" />
		<edge from-layer="2589" from-port="2" to-layer="2749" to-port="1" />
		<edge from-layer="2589" from-port="2" to-layer="2591" to-port="1" />
		<edge from-layer="2590" from-port="0" to-layer="2591" to-port="2" />
		<edge from-layer="2591" from-port="3" to-layer="2604" to-port="0" />
		<edge from-layer="2591" from-port="3" to-layer="2594" to-port="0" />
		<edge from-layer="2592" from-port="0" to-layer="2593" to-port="0" />
		<edge from-layer="2593" from-port="1" to-layer="2603" to-port="0" />
		<edge from-layer="2594" from-port="1" to-layer="2597" to-port="0" />
		<edge from-layer="2594" from-port="1" to-layer="2601" to-port="0" />
		<edge from-layer="2595" from-port="0" to-layer="2597" to-port="1" />
		<edge from-layer="2596" from-port="0" to-layer="2597" to-port="2" />
		<edge from-layer="2597" from-port="3" to-layer="2602" to-port="0" />
		<edge from-layer="2598" from-port="0" to-layer="2602" to-port="1" />
		<edge from-layer="2599" from-port="0" to-layer="2601" to-port="1" />
		<edge from-layer="2600" from-port="0" to-layer="2601" to-port="2" />
		<edge from-layer="2601" from-port="3" to-layer="2602" to-port="2" />
		<edge from-layer="2602" from-port="3" to-layer="2603" to-port="1" />
		<edge from-layer="2603" from-port="2" to-layer="2604" to-port="1" />
		<edge from-layer="2604" from-port="2" to-layer="2788" to-port="0" />
		<edge from-layer="2604" from-port="2" to-layer="2800" to-port="0" />
		<edge from-layer="2604" from-port="2" to-layer="2608" to-port="0" />
		<edge from-layer="2605" from-port="0" to-layer="2608" to-port="1" />
		<edge from-layer="2606" from-port="0" to-layer="2608" to-port="2" />
		<edge from-layer="2607" from-port="0" to-layer="2608" to-port="3" />
		<edge from-layer="2608" from-port="4" to-layer="2609" to-port="0" />
		<edge from-layer="2608" from-port="4" to-layer="2626" to-port="1" />
		<edge from-layer="2609" from-port="1" to-layer="2619" to-port="0" />
		<edge from-layer="2609" from-port="1" to-layer="2794" to-port="0" />
		<edge from-layer="2609" from-port="1" to-layer="2612" to-port="0" />
		<edge from-layer="2610" from-port="0" to-layer="2612" to-port="1" />
		<edge from-layer="2611" from-port="0" to-layer="2612" to-port="2" />
		<edge from-layer="2612" from-port="3" to-layer="2613" to-port="1" />
		<edge from-layer="2613" from-port="2" to-layer="2615" to-port="0" />
		<edge from-layer="2614" from-port="0" to-layer="2615" to-port="1" />
		<edge from-layer="2615" from-port="2" to-layer="2625" to-port="0" />
		<edge from-layer="2616" from-port="0" to-layer="2621" to-port="0" />
		<edge from-layer="2617" from-port="0" to-layer="2619" to-port="1" />
		<edge from-layer="2618" from-port="0" to-layer="2619" to-port="2" />
		<edge from-layer="2619" from-port="3" to-layer="2621" to-port="1" />
		<edge from-layer="2620" from-port="0" to-layer="2621" to-port="2" />
		<edge from-layer="2621" from-port="3" to-layer="2622" to-port="0" />
		<edge from-layer="2622" from-port="1" to-layer="2624" to-port="0" />
		<edge from-layer="2623" from-port="0" to-layer="2624" to-port="1" />
		<edge from-layer="2624" from-port="2" to-layer="2625" to-port="1" />
		<edge from-layer="2625" from-port="2" to-layer="2626" to-port="0" />
		<edge from-layer="2626" from-port="2" to-layer="2628" to-port="0" />
		<edge from-layer="2627" from-port="0" to-layer="2628" to-port="1" />
		<edge from-layer="2628" from-port="2" to-layer="2632" to-port="0" />
		<edge from-layer="2629" from-port="0" to-layer="2632" to-port="1" />
		<edge from-layer="2630" from-port="0" to-layer="2632" to-port="2" />
		<edge from-layer="2631" from-port="0" to-layer="2632" to-port="3" />
		<edge from-layer="2632" from-port="4" to-layer="2633" to-port="0" />
		<edge from-layer="2633" from-port="5" to-layer="2639" to-port="0" />
		<edge from-layer="2634" from-port="0" to-layer="2635" to-port="0" />
		<edge from-layer="2635" from-port="1" to-layer="2638" to-port="0" />
		<edge from-layer="2636" from-port="0" to-layer="2637" to-port="0" />
		<edge from-layer="2637" from-port="1" to-layer="2638" to-port="1" />
		<edge from-layer="2638" from-port="2" to-layer="2639" to-port="1" />
		<edge from-layer="2639" from-port="2" to-layer="2642" to-port="0" />
		<edge from-layer="2640" from-port="0" to-layer="2641" to-port="0" />
		<edge from-layer="2641" from-port="1" to-layer="2642" to-port="1" />
		<edge from-layer="2642" from-port="2" to-layer="2651" to-port="0" />
		<edge from-layer="2643" from-port="0" to-layer="2644" to-port="0" />
		<edge from-layer="2644" from-port="1" to-layer="2651" to-port="1" />
		<edge from-layer="2645" from-port="0" to-layer="2646" to-port="0" />
		<edge from-layer="2646" from-port="1" to-layer="2651" to-port="2" />
		<edge from-layer="2647" from-port="0" to-layer="2648" to-port="0" />
		<edge from-layer="2648" from-port="1" to-layer="2651" to-port="3" />
		<edge from-layer="2649" from-port="0" to-layer="2650" to-port="0" />
		<edge from-layer="2650" from-port="1" to-layer="2651" to-port="4" />
		<edge from-layer="2651" from-port="5" to-layer="2657" to-port="0" />
		<edge from-layer="2652" from-port="0" to-layer="2653" to-port="0" />
		<edge from-layer="2653" from-port="1" to-layer="2656" to-port="0" />
		<edge from-layer="2654" from-port="0" to-layer="2655" to-port="0" />
		<edge from-layer="2655" from-port="1" to-layer="2656" to-port="1" />
		<edge from-layer="2656" from-port="2" to-layer="2657" to-port="1" />
		<edge from-layer="2657" from-port="2" to-layer="2660" to-port="0" />
		<edge from-layer="2658" from-port="0" to-layer="2659" to-port="0" />
		<edge from-layer="2659" from-port="1" to-layer="2660" to-port="1" />
		<edge from-layer="2660" from-port="2" to-layer="2669" to-port="0" />
		<edge from-layer="2661" from-port="0" to-layer="2662" to-port="0" />
		<edge from-layer="2662" from-port="1" to-layer="2669" to-port="1" />
		<edge from-layer="2663" from-port="0" to-layer="2664" to-port="0" />
		<edge from-layer="2664" from-port="1" to-layer="2669" to-port="2" />
		<edge from-layer="2665" from-port="0" to-layer="2666" to-port="0" />
		<edge from-layer="2666" from-port="1" to-layer="2669" to-port="3" />
		<edge from-layer="2667" from-port="0" to-layer="2668" to-port="0" />
		<edge from-layer="2668" from-port="1" to-layer="2669" to-port="4" />
		<edge from-layer="2669" from-port="5" to-layer="2675" to-port="0" />
		<edge from-layer="2670" from-port="0" to-layer="2671" to-port="0" />
		<edge from-layer="2671" from-port="1" to-layer="2674" to-port="0" />
		<edge from-layer="2672" from-port="0" to-layer="2673" to-port="0" />
		<edge from-layer="2673" from-port="1" to-layer="2674" to-port="1" />
		<edge from-layer="2674" from-port="2" to-layer="2675" to-port="1" />
		<edge from-layer="2675" from-port="2" to-layer="2678" to-port="0" />
		<edge from-layer="2676" from-port="0" to-layer="2677" to-port="0" />
		<edge from-layer="2677" from-port="1" to-layer="2678" to-port="1" />
		<edge from-layer="2678" from-port="2" to-layer="2687" to-port="0" />
		<edge from-layer="2679" from-port="0" to-layer="2680" to-port="0" />
		<edge from-layer="2680" from-port="1" to-layer="2687" to-port="1" />
		<edge from-layer="2681" from-port="0" to-layer="2682" to-port="0" />
		<edge from-layer="2682" from-port="1" to-layer="2687" to-port="2" />
		<edge from-layer="2683" from-port="0" to-layer="2684" to-port="0" />
		<edge from-layer="2684" from-port="1" to-layer="2687" to-port="3" />
		<edge from-layer="2685" from-port="0" to-layer="2686" to-port="0" />
		<edge from-layer="2686" from-port="1" to-layer="2687" to-port="4" />
		<edge from-layer="2687" from-port="5" to-layer="2693" to-port="0" />
		<edge from-layer="2688" from-port="0" to-layer="2689" to-port="0" />
		<edge from-layer="2689" from-port="1" to-layer="2692" to-port="0" />
		<edge from-layer="2690" from-port="0" to-layer="2691" to-port="0" />
		<edge from-layer="2691" from-port="1" to-layer="2692" to-port="1" />
		<edge from-layer="2692" from-port="2" to-layer="2693" to-port="1" />
		<edge from-layer="2693" from-port="2" to-layer="2696" to-port="0" />
		<edge from-layer="2694" from-port="0" to-layer="2695" to-port="0" />
		<edge from-layer="2695" from-port="1" to-layer="2696" to-port="1" />
		<edge from-layer="2696" from-port="2" to-layer="2705" to-port="0" />
		<edge from-layer="2697" from-port="0" to-layer="2698" to-port="0" />
		<edge from-layer="2698" from-port="1" to-layer="2705" to-port="1" />
		<edge from-layer="2699" from-port="0" to-layer="2700" to-port="0" />
		<edge from-layer="2700" from-port="1" to-layer="2705" to-port="2" />
		<edge from-layer="2701" from-port="0" to-layer="2702" to-port="0" />
		<edge from-layer="2702" from-port="1" to-layer="2705" to-port="3" />
		<edge from-layer="2703" from-port="0" to-layer="2704" to-port="0" />
		<edge from-layer="2704" from-port="1" to-layer="2705" to-port="4" />
		<edge from-layer="2705" from-port="5" to-layer="2711" to-port="0" />
		<edge from-layer="2706" from-port="0" to-layer="2707" to-port="0" />
		<edge from-layer="2707" from-port="1" to-layer="2710" to-port="0" />
		<edge from-layer="2708" from-port="0" to-layer="2709" to-port="0" />
		<edge from-layer="2709" from-port="1" to-layer="2710" to-port="1" />
		<edge from-layer="2710" from-port="2" to-layer="2711" to-port="1" />
		<edge from-layer="2711" from-port="2" to-layer="2714" to-port="0" />
		<edge from-layer="2712" from-port="0" to-layer="2713" to-port="0" />
		<edge from-layer="2713" from-port="1" to-layer="2714" to-port="1" />
		<edge from-layer="2714" from-port="2" to-layer="2723" to-port="0" />
		<edge from-layer="2715" from-port="0" to-layer="2716" to-port="0" />
		<edge from-layer="2716" from-port="1" to-layer="2723" to-port="1" />
		<edge from-layer="2717" from-port="0" to-layer="2718" to-port="0" />
		<edge from-layer="2718" from-port="1" to-layer="2723" to-port="2" />
		<edge from-layer="2719" from-port="0" to-layer="2720" to-port="0" />
		<edge from-layer="2720" from-port="1" to-layer="2723" to-port="3" />
		<edge from-layer="2721" from-port="0" to-layer="2722" to-port="0" />
		<edge from-layer="2722" from-port="1" to-layer="2723" to-port="4" />
		<edge from-layer="2723" from-port="5" to-layer="2729" to-port="0" />
		<edge from-layer="2724" from-port="0" to-layer="2725" to-port="0" />
		<edge from-layer="2725" from-port="1" to-layer="2728" to-port="0" />
		<edge from-layer="2726" from-port="0" to-layer="2727" to-port="0" />
		<edge from-layer="2727" from-port="1" to-layer="2728" to-port="1" />
		<edge from-layer="2728" from-port="2" to-layer="2729" to-port="1" />
		<edge from-layer="2729" from-port="2" to-layer="2732" to-port="0" />
		<edge from-layer="2730" from-port="0" to-layer="2731" to-port="0" />
		<edge from-layer="2731" from-port="1" to-layer="2732" to-port="1" />
		<edge from-layer="2732" from-port="2" to-layer="2733" to-port="0" />
		<edge from-layer="2733" from-port="1" to-layer="2743" to-port="0" />
		<edge from-layer="2733" from-port="1" to-layer="2734" to-port="0" />
		<edge from-layer="2734" from-port="1" to-layer="2738" to-port="0" />
		<edge from-layer="2734" from-port="1" to-layer="2783" to-port="0" />
		<edge from-layer="2734" from-port="1" to-layer="2777" to-port="0" />
		<edge from-layer="2734" from-port="1" to-layer="2769" to-port="0" />
		<edge from-layer="2734" from-port="1" to-layer="2764" to-port="0" />
		<edge from-layer="2735" from-port="0" to-layer="2738" to-port="1" />
		<edge from-layer="2736" from-port="0" to-layer="2738" to-port="2" />
		<edge from-layer="2737" from-port="0" to-layer="2738" to-port="3" />
		<edge from-layer="2738" from-port="4" to-layer="2740" to-port="0" />
		<edge from-layer="2739" from-port="0" to-layer="2740" to-port="1" />
		<edge from-layer="2740" from-port="2" to-layer="2742" to-port="0" />
		<edge from-layer="2741" from-port="0" to-layer="2742" to-port="1" />
		<edge from-layer="2742" from-port="2" to-layer="2743" to-port="1" />
		<edge from-layer="2743" from-port="2" to-layer="2773" to-port="0" />
		<edge from-layer="2744" from-port="0" to-layer="2745" to-port="1" />
		<edge from-layer="2745" from-port="2" to-layer="2747" to-port="0" />
		<edge from-layer="2746" from-port="0" to-layer="2747" to-port="1" />
		<edge from-layer="2747" from-port="2" to-layer="2749" to-port="0" />
		<edge from-layer="2748" from-port="0" to-layer="2749" to-port="2" />
		<edge from-layer="2749" from-port="3" to-layer="2758" to-port="0" />
		<edge from-layer="2749" from-port="3" to-layer="2751" to-port="0" />
		<edge from-layer="2750" from-port="0" to-layer="2757" to-port="0" />
		<edge from-layer="2751" from-port="1" to-layer="2754" to-port="0" />
		<edge from-layer="2752" from-port="0" to-layer="2754" to-port="1" />
		<edge from-layer="2753" from-port="0" to-layer="2754" to-port="2" />
		<edge from-layer="2754" from-port="3" to-layer="2756" to-port="0" />
		<edge from-layer="2755" from-port="0" to-layer="2756" to-port="1" />
		<edge from-layer="2756" from-port="2" to-layer="2757" to-port="1" />
		<edge from-layer="2757" from-port="2" to-layer="2758" to-port="1" />
		<edge from-layer="2758" from-port="2" to-layer="2799" to-port="0" />
		<edge from-layer="2758" from-port="2" to-layer="2760" to-port="0" />
		<edge from-layer="2759" from-port="0" to-layer="2760" to-port="1" />
		<edge from-layer="2760" from-port="2" to-layer="2771" to-port="0" />
		<edge from-layer="2761" from-port="0" to-layer="2766" to-port="0" />
		<edge from-layer="2762" from-port="0" to-layer="2764" to-port="1" />
		<edge from-layer="2763" from-port="0" to-layer="2764" to-port="2" />
		<edge from-layer="2764" from-port="3" to-layer="2766" to-port="1" />
		<edge from-layer="2765" from-port="0" to-layer="2766" to-port="2" />
		<edge from-layer="2766" from-port="3" to-layer="2770" to-port="0" />
		<edge from-layer="2767" from-port="0" to-layer="2769" to-port="1" />
		<edge from-layer="2768" from-port="0" to-layer="2769" to-port="2" />
		<edge from-layer="2769" from-port="3" to-layer="2770" to-port="1" />
		<edge from-layer="2770" from-port="2" to-layer="2771" to-port="1" />
		<edge from-layer="2771" from-port="2" to-layer="2780" to-port="0" />
		<edge from-layer="2771" from-port="2" to-layer="2773" to-port="1" />
		<edge from-layer="2772" from-port="0" to-layer="2773" to-port="2" />
		<edge from-layer="2773" from-port="3" to-layer="2779" to-port="0" />
		<edge from-layer="2774" from-port="0" to-layer="2778" to-port="0" />
		<edge from-layer="2775" from-port="0" to-layer="2777" to-port="1" />
		<edge from-layer="2776" from-port="0" to-layer="2777" to-port="2" />
		<edge from-layer="2777" from-port="3" to-layer="2778" to-port="1" />
		<edge from-layer="2778" from-port="2" to-layer="2779" to-port="1" />
		<edge from-layer="2779" from-port="2" to-layer="2785" to-port="0" />
		<edge from-layer="2780" from-port="1" to-layer="2784" to-port="0" />
		<edge from-layer="2781" from-port="0" to-layer="2783" to-port="1" />
		<edge from-layer="2782" from-port="0" to-layer="2783" to-port="2" />
		<edge from-layer="2783" from-port="3" to-layer="2784" to-port="1" />
		<edge from-layer="2784" from-port="2" to-layer="2785" to-port="1" />
		<edge from-layer="2785" from-port="2" to-layer="2787" to-port="0" />
		<edge from-layer="2786" from-port="0" to-layer="2787" to-port="1" />
		<edge from-layer="2787" from-port="2" to-layer="2797" to-port="0" />
		<edge from-layer="2788" from-port="1" to-layer="2791" to-port="0" />
		<edge from-layer="2789" from-port="0" to-layer="2791" to-port="1" />
		<edge from-layer="2790" from-port="0" to-layer="2791" to-port="2" />
		<edge from-layer="2791" from-port="3" to-layer="2796" to-port="0" />
		<edge from-layer="2792" from-port="0" to-layer="2794" to-port="1" />
		<edge from-layer="2793" from-port="0" to-layer="2794" to-port="2" />
		<edge from-layer="2794" from-port="3" to-layer="2796" to-port="1" />
		<edge from-layer="2795" from-port="0" to-layer="2796" to-port="2" />
		<edge from-layer="2796" from-port="3" to-layer="2797" to-port="1" />
		<edge from-layer="2797" from-port="2" to-layer="2798" to-port="0" />
	</edges>
	<rt_info>
		<MO_version value="2022.3.0-9038-b84161848ea-releases/2022/3" />
		<Runtime_version value="2022.3.0-9038-b84161848ea-releases/2022/3" />
		<conversion_parameters>
			<compress_to_fp16 value="True" />
			<framework value="onnx" />
			<input value="image" />
			<input_model value="DIR/model_ready.onnx" />
			<input_shape value="[1, 3, 640, 640]" />
			<mean_values value="[123.675, 116.28, 103.53]" />
			<model_name value="model" />
			<output value="boxes,labels,masks" />
			<output_dir value="DIR" />
			<scale_values value="[58.395, 57.12, 57.375]" />
		</conversion_parameters>
		<legacy_frontend value="False" />
		<model_info>
			<confidence_threshold value="0.9" />
			<iou_threshold value="0.5" />
			<labels value="pallets" />
			<model_type value="MaskRCNN" />
		</model_info>
	</rt_info>
</net>
